gail/gail_output/30_expert/Pendulum-v1/value.ckpt (torch, 23314 bytes, 7 tensors)

net.0.weight f4 [50, 3]
000000 10 30 7f 3e 18 48 a8 be 22 29 8f be 3d 6b 61 bf
       0.24920678 -0.32867503 -0.2796107 -0.8805426
000010 1d a9 be be 74 0f 8b bd d3 69 00 3e d5 7a 2f be
       -0.37238398 -0.06790057 0.12540369 -0.171367
000020 b6 38 05 bf 22 c8 be 3e e5 7f 12 bf cc 3b 5b bf
       -0.5203966 0.37262064 -0.572264 -0.8563812
000030 37 af 20 3f f4 a7 6f bf 1a ad f7 be f6 b6 f4 be
       0.62767357 -0.9361565 -0.48374254 -0.47795838
000040 45 28 0a 3f 65 ba 2d 3f 14 99 42 bf 4b 0c 97 3c
       0.53967696 0.6786254 -0.7601483 0.018438479
000050 3a d4 0f bf 81 d3 75 be 4a 9b ba be fb e6 0a bf
       -0.5618321 -0.24006464 -0.364466 -0.542587
000060 09 ee b8 be ef e2 f6 3e 49 80 51 3e b1 f0 ac be
       -0.36119106 0.48220012 0.20459093 -0.33777383
000070 c9 4d 07 3f f6 d7 4c 3c d0 05 37 bf b5 a3 b6 be
       0.52853066 0.012502661 -0.71493244 -0.35671774
000080 18 56 db be 17 e1 8b be e9 47 1e 3f fb 4f 0f bf
       -0.42839122 -0.27320167 0.61828476 -0.55981416
000090 ba d4 2f 3e 83 17 a1 be e0 6a 97 3e 43 98 b6 3b
       0.17170992 -0.3146325 0.29573727 0.00557235
0000a0 0a d9 34 3f 90 04 33 3e 78 74 2f bf 3d 10 11 3f
       0.70643675 0.17482209 -0.6853709 0.566654
0000b0 b8 19 39 3f ad 68 80 3f 1f 72 a0 bf ba 88 98 be
       0.7230487 1.0031945 -1.2534827 -0.29791814
0000c0 58 1b 16 bf 00 c4 f7 3e 65 27 94 3e 8b 87 9b 3d
       -0.58635473 0.48391724 0.28936306 0.07594212
0000d0 44 3c 31 3f cc 46 39 3e 3e e3 b5 be 48 be 68 bb
       0.69232583 0.18093413 -0.35524935 -0.0035513807
0000e0 87 c1 61 3e 2c 0f 79 bf 95 cf df 3e b4 02 e5 3e
       0.22046481 -0.97288775 0.4371306 0.44728625
0000f0 26 e5 2b 3f 2a 8f 0c bf 44 36 97 3d eb dd 1e 3f
       0.6714653 -0.5490595 0.07383397 0.6205737
000100 c6 67 82 3d 54 d3 16 3d 22 f8 49 be 09 9a 18 bd
       0.063674495 0.036822632 -0.19723561 -0.037256274
000110 3f 09 8a bd 62 da 0d 3e 12 5a 88 bf 82 fa 8c 3f
       -0.06740045 0.13852838 -1.0652487 1.1013949
000120 ca 33 d5 3d 2c 4d 10 bf 01 14 09 be 24 31 75 be
       0.104102686 -0.56367755 -0.13386537 -0.23944527
000130 ee b0 1a 3f 1d 25 c0 3e a2 15 43 3d 2a 88 46 bf
       0.60426223 0.37528315 0.047628053 -0.7755152
000140 07 19 0a 3f 0d 73 f3 3e 5e 83 e8 3e fc 40 1f 3f
       0.5394444 0.47548714 0.45412725 0.62208533
000150 ed 3b 2b 3f 75 0b 11 c0 67 c4 d8 3f 33 b7 9b 3c
       0.66888314 -2.2663243 1.6934937 0.019008255
000160 94 b9 89 be 84 b8 ca 3e 8e d2 e4 be e4 af 3f 3e
       -0.26899397 0.395939 -0.4469189 0.1871944
000170 ac 44 94 3f 3f 52 cc bd 43 12 c4 3e 9a 93 1e 3f
       1.1583457 -0.09976625 0.38295183 0.6194397
000180 a4 fa 0d 3f d7 97 58 bb bd 1e 16 bf 97 ae 74 be
       0.5546057 -0.0033049488 -0.5864065 -0.23894726
000190 c7 cc f1 3d 51 63 d0 3e 36 c7 13 3f 8c 80 b4 3f
       0.11806636 0.40700772 0.57725847 1.4101729
0001a0 d6 78 b7 bf ed 33 8b 3e 63 5e e9 be 3f 35 7e 3e
       -1.4333751 0.27188054 -0.45579824 0.24825
0001b0 8c bb f5 be e7 84 08 bf 0a 87 99 3d 98 30 06 3f
       -0.4799465 -0.5332779 0.0749646 0.524179
0001c0 cf 05 52 bf b7 f8 bb be ab 59 1f bd 52 cf 85 be
       -0.82040113 -0.36713192 -0.038903873 -0.26134735
0001d0 ee b8 2d 3e f3 8f ef be 98 45 bb bd 72 e6 8e 3e
       0.16965076 -0.46789512 -0.09144133 0.2791019
0001e0 5e 2c 27 3e 40 f9 4a be 7d fc c2 3c 67 4f 79 3f
       0.16325518 -0.19821644 0.023802036 0.97386783
0001f0 3f 31 e8 3f 82 c4 5d bf ea a7 0a bf 6a 66 0c bf
       1.8140029 -0.8662797 -0.54162467 -0.5484377
000200 5f 9f 9e be 43 99 87 3f 77 be 69 bf 0f 1c d8 be
       -0.30980965 1.0593647 -0.9130625 -0.42208907
000210 2d 6e 0c 3f dc 8e d7 3e 07 b3 96 3e 0a 4e 71 3e
       0.54855615 0.4210118 0.29433462 0.23564926
000220 51 60 e4 3e 01 79 8b be 7e 3d 55 bf 8f bd f0 be
       0.44604734 -0.27240756 -0.83296955 -0.47019622
000230 6c 57 b2 be 36 b0 0e 3f ac c3 2b bf c4 7b 39 3f
       -0.34832323 0.55737627 -0.67095447 0.72454476
000240 05 18 99 be 06 1f b4 bd 8e fc e9 3e 06 15 93 be
       -0.29901138 -0.0879498 0.45700496 -0.28726977
000250 3e ab 09 3f e2 bf bc 3e
       0.5377692 0.36865145

net.0.bias f4 [50]
000000 44 dc f3 bd 1e 2a 2b 3f a1 60 51 bd c4 46 8b be
       -0.11907247 0.6686114 -0.051117543 -0.27202427
000010 a3 4c 09 bf f4 12 4f bf 36 3f b1 3e 4b 95 cf 3e
       -0.53632563 -0.80888295 0.3461854 0.4054359
000020 3a 83 d7 be c8 0f 1e 3f 49 9e 5e 3d 64 59 f0 bc
       -0.42092305 0.6174283 0.05435017 -0.0293395
000030 68 cb 8f 3d 07 be 99 3e e9 73 8d be ab a3 1e bf
       0.070212185 0.30027792 -0.27627495 -0.6196849
000040 0c 40 10 3e 2e 1a d9 bd 96 2f 03 3f 0e 7e 57 3f
       0.14086932 -0.106006965 0.51244485 0.8417672
000050 0d 42 17 bf af 07 b5 3d 97 de 39 3f 5b 7d cf 3e
       -0.5908516 0.08839356 0.7260527 0.40525326
000060 87 2d 06 3f d4 72 a8 3d 74 e2 a5 3e 7f b1 10 bf
       0.5241322 0.08225027 0.32399333 -0.5652084
000070 76 3e 87 bd d4 d3 05 3f 76 5d f5 3e e2 1c af bd
       -0.0660371 0.5227635 0.47922868 -0.08550431
000080 cf 04 c3 3e 65 18 bc be 63 63 10 be 30 8f 1e be
       0.38089606 -0.36737362 -0.14100413 -0.15484309
000090 b9 3c 37 3d 13 5b a2 be 6a 66 09 3f dd 5c 92 3c
       0.044735644 -0.3171011 0.53671896 0.017866546
0000a0 3f 13 29 bf 97 80 1a bf 43 4e 8b be bb 7b 00 bf
       -0.6604499 -0.6035246 -0.27208146 -0.501888
0000b0 58 4a 2c 3e fc 4c 61 3e 08 e8 09 bf d7 2c 1a be
       0.16825235 0.22002023 -0.53869677 -0.15056168
0000c0 2f 66 41 3e 92 a4 09 3f
       0.18886636 0.5376674

net.2.weight f4 [50, 50]
000000 51 8a 25 bd f5 e8 25 3e 83 1b c3 3d 6c dd 9d 3e
       -0.040415112 0.16202147 0.09526732 0.30832994
000010 f9 5c 8e 3e de 9a b9 bd f5 b9 aa 3c b2 bf d0 3c
       0.27805308 -0.09062742 0.020840624 0.025482032
000020 8a 91 16 be 2a 32 a7 be f9 e2 17 3e 21 f8 1a bd
       -0.14703956 -0.3265546 0.14832677 -0.03783429
000030 b3 48 40 3e 5c 98 98 be c8 b8 47 be 6e 4f fd 3e
       0.18777733 -0.2980374 -0.19504082 0.49474663
000040 bc 43 68 be 8e 76 98 be d4 22 e0 bb bd 76 40 be
       -0.22682089 -0.2977795 -0.0068400893 -0.18795295
000050 c0 5b a3 3e 61 1d 3c bd c9 9c 42 bd 6e e6 33 3e
       0.31905937 -0.045926455 -0.047512803 0.1756837
000060 b8 5b 04 3e 53 a0 46 be 6f 75 ff 3d de 77 56 be
       0.12925613 -0.19397096 0.124735706 -0.20944163
000070 67 9f b7 3e dd 3e eb 3d 67 e2 2e be 3c b6 b8 bc
       0.35863802 0.114865996 -0.17078553 -0.022547834
000080 22 06 fe 3d 43 41 23 3c 09 43 3d 3e 9f 66 6e 3d
       0.124035135 0.00996429 0.18482603 0.058203336
000090 69 56 0d 3e 62 db 94 3e ce 95 03 3e a5 9d 0e be
       0.13802494 0.29073626 0.12850115 -0.13927324
0000a0 db 74 0e 3e 0e dc 29 bd 02 2d 5f 3d e3 29 80 3d
       0.13911764 -0.041469626 0.054486282 0.06257989
0000b0 47 32 3a 3d 11 2b b8 bd 06 97 39 3e b5 b1 68 3e
       0.045458104 -0.08992589 0.18124017 0.2272404
0000c0 40 d9 cc 3c a5 d4 84 be c7 1a 19 be 93 08 22 be
       0.025005937 -0.25943485 -0.14951621 -0.15823583
0000d0 b1 e8 1a be 66 4f ef bc af 87 e9 bc 62 40 a5 3d
       -0.15127827 -0.029212665 -0.028507082 0.08068921
0000e0 4b 67 43 3c 40 b1 22 be 36 b3 23 3d 88 0c 67 bb
       0.011926482 -0.15887928 0.03996583 -0.0035255272
0000f0 72 80 8f bc 58 1b 00 be f2 d4 f4 ba aa 47 41 bd
       -0.017517302 -0.12510431 -0.0018679185 -0.047187485
000100 c4 2c ea 3d 4b 63 29 3e 90 62 89 3d 18 b6 21 3e
       0.114343196 0.16541784 0.067082524 0.1579212
000110 39 b7 15 be 00 23 5c bd 88 04 34 3e dc 80 04 bc
       -0.14620675 -0.053744316 0.17579854 -0.008087363
000120 1b a0 02 be 4d 11 49 3e b5 8f 33 be 29 2b 1c bd
       -0.12756388 0.19635506 -0.17535289 -0.0381271
000130 2c 06 bd bd 56 e9 15 bd 2e ae 6f 3e 43 3a 5a 3d
       -0.09229693 -0.03659948 0.23406288 0.05327822
000140 38 53 14 be fa 13 89 bd a9 e0 0c be a1 47 a9 bd
       -0.1448487 -0.06693263 -0.13757576 -0.08265615
000150 3b c4 41 3e a3 a3 e3 bd 9f 14 27 3d d1 cb f6 bd
       0.18922512 -0.111151956 0.04079115 -0.12050594
000160 63 14 9e bd 44 da 81 bd c9 34 3a 3e bf 32 df 3d
       -0.07718732 -0.06340459 0.18184198 0.10898351
000170 21 a3 3a bd 93 64 23 be 0f 8e e0 bc 25 1a 81 bd
       -0.045565728 -0.15956335 -0.027411489 -0.06303815
000180 de d9 cc 3d 0e 1d 44 3e ce 3c 03 bd ce ce d9 bd
       0.10002492 0.19151708 -0.03204041 -0.10635148
000190 b0 72 12 3d 11 12 aa bd a1 f4 70 3d 09 ad 75 bc
       0.035753906 -0.08304227 0.058827046 -0.014994868
0001a0 7d 66 3d 3e 9e cc 7f bc 2a 94 05 be 7a cd c7 bc
       0.18496127 -0.015612749 -0.13044801 -0.024389971
0001b0 33 2b 25 3d d9 3a 15 be a3 78 28 bd b8 e8 16 be
       0.0403244 -0.1457323 -0.041130673 -0.14737213
0001c0 7d 88 08 bd 0a dd c7 bd 95 7c e4 bc fb 29 98 3e
       -0.03333329 -0.09758957 -0.027891437 0.2971953
0001d0 13 7c 69 bd 56 9b e9 bd c2 12 8c 3d 0d d4 d8 bd
       -0.057003092 -0.11406581 0.06839515 -0.105873205
0001e0 74 98 69 3e 70 f3 96 3d bb 67 44 bd e3 66 a0 3d
       0.22812063 0.07370651 -0.047950488 0.07832124
0001f0 0a c8 e2 3d 4c ab c6 3d 0a 82 3a 3e 29 23 28 bd
       0.11073311 0.09700641 0.18213668 -0.041049156
000200 eb 4a f9 3e e0 1a 2a 3e b3 01 f4 3d 68 d9 e0 3d
       0.4868997 0.16611814 0.119143866 0.10978967
000210 46 3a c1 3c 76 08 50 3b b8 be 9b bd 1a 28 37 3e
       0.023587357 0.0031743324 -0.07604736 0.17886391
000220 e9 e4 bd bc 21 8a 70 3e 21 66 e8 3c f2 1c b8 3c
       -0.023180442 0.23490192 0.028369011 0.02247474
000230 e2 72 55 bd 5b 68 77 3d f6 50 b7 bd 13 86 8b 3d
       -0.052111514 0.060402256 -0.08950989 0.06812682
000240 50 82 16 3e fe a0 29 be 22 9b 96 3b 54 72 08 3e
       0.14698148 -0.1656532 0.00459613 0.13324863
000250 d2 f2 32 3e b5 29 06 bd 3c a6 ed 3b b9 b1 0e be
       0.17475441 -0.03275462 0.0072524827 -0.13934983
000260 b6 ed 1b 3c 21 af 08 be 76 90 2e 3d 3e af 45 bd
       0.009517124 -0.13348056 0.042618237 -0.048262827
000270 ef db 9b bc c6 ef 99 3d c3 ee 3c 3e 44 b9 8b bc
       -0.019025771 0.07516436 0.18450455 -0.017056115
000280 87 17 d5 bc 7f 3f 24 be 82 88 08 3e cf a2 c4 bd
       -0.026012195 -0.16039847 0.13333324 -0.09601366
000290 3c cc 9a ba 80 f4 7e 3e 1e 2a 35 bd 41 91 84 bd
       -0.0011810134 0.24897957 -0.04422962 -0.064730175
0002a0 72 9e 41 3c 69 9f 6c bd be 7f 21 3e 59 f7 d7 bb
       0.011817561 -0.057769213 0.15771386 -0.0065907654
0002b0 4f 3c c2 bd 7d 16 cd 3c 2a 2a e7 3c b4 c0 1d 3e
       -0.09484159 0.025035137 0.028218348 0.15405542
0002c0 b2 a7 98 3c 96 35 f2 bc 57 16 be 3d a7 b8 55 bd
       0.01863465 -0.029566567 0.09281605 -0.05217805
0002d0 bb be 23 3d a5 e0 ce 3d ea 07 23 be 61 44 03 bd
       0.039976817 0.10101441 -0.15920988 -0.032047633
0002e0 2b 01 8c 3d 05 30 9c 3c 2e 85 99 bd 13 5e 16 3e
       0.0683616 0.019065866 -0.07496105 0.14684324
0002f0 53 44 76 bd 04 e1 27 3e 7f c1 dd 3d 0d 31 53 3e
       -0.060123753 0.1639443 0.10827922 0.2062418
000300 50 1b 2c 3e 73 a3 d7 bd 6e 12 53 3d 24 19 88 3d
       0.16807294 -0.10529222 0.051531248 0.0664542
000310 23 be 83 ba 0d 7e f3 3c e4 b7 ba 3d de ac 45 3d
       -0.0010051172 0.029723192 0.091171056 0.048260562
000320 09 66 b1 3d ae 87 f8 3a ce 63 f2 3d fe 69 72 3c
       0.0866204 0.0018961334 0.118354425 0.014795778
000330 cf a5 3a 3e 00 2b 8f 3d e1 72 3b bd 92 ac b2 3c
       0.18227313 0.069906235 -0.045763854 0.021810804
000340 36 80 de 3d 8c f4 bb 3d 82 00 41 be 36 d3 41 be
       0.10864298 0.09177503 -0.1884785 -0.18928227
000350 85 2b 17 3e 14 bb 31 bd e9 dc f7 bd 35 31 d2 3d
       0.14762695 -0.043391302 -0.12102682 0.10263292
000360 f5 d8 68 bd 73 dc 2f 3d 93 57 f4 bd e3 33 65 be
       -0.05684753 0.042934846 -0.11930766 -0.22383074
000370 7a c5 f5 3d 39 fe d1 3d 37 88 7c 3d b5 43 c4 3c
       0.12000556 0.10253567 0.061653342 0.023958066
000380 1d 36 dd bb 65 38 bb bd c0 74 1b 3e 6e d9 03 bd
       -0.0067508356 -0.09141616 0.15181255 -0.03218978
000390 b9 d7 75 3e 76 b2 04 bd dc 5a 8a bd 41 93 ac bd
       0.24008073 -0.032396756 -0.06755611 -0.08426524
0003a0 74 c9 ef bd 8d ce 97 bc b8 18 e0 bd 28 6a 04 3e
       -0.11708346 -0.018531108 -0.10942215 0.1293112
0003b0 e0 1e e1 3a 63 50 31 3e cc 4e eb 3d a0 2e 61 bd
       0.0017175339 0.17315821 0.11489639 -0.054976106
0003c0 21 80 f2 3d dc 3b be 3c 20 0a c4 bb 64 d0 20 3d
       0.11840845 0.023221903 -0.0059826523 0.039261237
0003d0 d7 d9 5b 3d 89 03 26 be 37 b2 28 be b8 b5 34 3e
       0.053674545 -0.16212286 -0.16474234 0.17647445
0003e0 dd 43 00 be ff dc 86 3d d4 7c c9 bd 93 5c 58 be
       -0.12525888 0.065851204 -0.09838262 -0.21129064
0003f0 90 e7 fb bd c5 11 61 3d ff 57 a2 bb e9 5d 86 3e
       -0.123000264 0.054948587 -0.0049543376 0.26243523

net.2.bias f4 [50]
000000 d3 e9 01 be f4 aa c5 bd 47 c6 c4 3c 3f 91 1b bc
       -0.12686853 -0.09651747 0.024020327 -0.009495079
000010 e3 68 ad 3d 27 79 aa be 1e ef 65 3d 9b 33 44 be
       0.08467271 -0.33295557 0.056136243 -0.19160311
000020 95 3b 02 be 11 be 32 be 57 84 07 3c ec fd c5 3d
       -0.12718041 -0.17455317 0.008271298 0.096675724
000030 00 ac 84 3d 64 c3 be bd 1a 24 db 3e c7 7f e9 3d
       0.06478119 -0.093146116 0.4280098 0.11401325
000040 6f e7 6a be e8 01 df bd 3e e3 00 3e d5 bd aa 3e
       -0.22939847 -0.108890355 0.12586686 0.33347955
000050 e2 60 ee 3d 9f ae 9a be 07 c2 9a 3d ae cf c5 3e
       0.11639573 -0.3021135 0.07556539 0.3863501
000060 5e 51 a1 3e 4f 44 6c 3e a6 77 8c be 8d f6 a2 bd
       0.3150739 0.23072933 -0.27435035 -0.07957182
000070 c4 bc 88 3e 96 40 4d 3e 77 27 ac bd 1d d9 19 3e
       0.26706517 0.20044169 -0.08405965 0.15024228
000080 cc 1e 09 be 65 1b 31 be e7 fc 82 be 2f e8 4f 3e
       -0.13390654 -0.17295606 -0.25583574 0.20303415
000090 1a d6 0a 3d 97 49 be 3d 80 70 14 be 51 39 73 be
       0.03389559 0.0929138 -0.1449604 -0.23752333
0000a0 2a 9c d4 3d 2a f2 f9 3d 40 db 23 3e fc 04 d8 3c
       0.103813484 0.12204392 0.16001606 0.026369564
0000b0 12 ec e8 3d 98 5f e7 bd 91 10 13 be 81 b1 12 3e
       0.11373152 -0.1129753 -0.14361788 0.14325525
0000c0 4e 4a fd be ec 7f 81 be
       -0.49470752 -0.2529291

net.4.weight f4 [50, 50]
000000 51 95 cf bc df 9a 7c bd 3c f3 12 be fa 3d fb bd
       -0.025339754 -0.061671134 -0.14350599 -0.122676805
000010 98 79 68 3d 92 6f 15 3d 7e ce ba bc c9 17 f6 bd
       0.056756586 0.036483355 -0.022803541 -0.120162554
000020 98 a0 d2 3a b9 62 7c bd 94 6d 44 be f7 3b e5 bd
       0.0016069589 -0.061617587 -0.19182426 -0.11193078
000030 56 bf 8a 3c c5 11 81 bd db 21 83 3e 60 65 f3 3d
       0.01693694 -0.063022174 0.25611767 0.1188457
000040 77 14 41 be 0a 36 f5 bd 64 dc 23 3e 3c df 69 3e
       -0.18855463 -0.11973198 0.16002041 0.22839063
000050 0e 27 ff bd aa 14 bd bd e0 df 8e 3d 24 32 50 3d
       -0.12458621 -0.09232457 0.069762945 0.050829068
000060 b0 74 19 3e 26 da c9 3d 09 75 c7 3c 28 85 84 3c
       0.14985919 0.09856062 0.024347799 0.016176775
000070 df 79 08 3e d6 33 ae 3d 3b 96 a8 3d a6 7b 04 be
       0.1332774 0.08505981 0.08231779 -0.12937793
000080 66 c1 dc 3d 2a a6 83 be b4 43 7e bc c2 f2 1c 3d
       0.10779075 -0.2571271 -0.015519071 0.03831745
000090 2b 6a cb bc 62 de 4e 3e 4f cd c6 bc b1 ae e3 bd
       -0.024830898 0.2020202 -0.02426782 -0.11117304
0000a0 05 ed a8 3d c7 fe b7 3c 95 6c f7 bd bc 07 24 3d
       0.08248333 0.022460354 -0.12081257 0.04004644
0000b0 41 15 f8 3d cc 24 1c bc 4d fd 5f bd fb dc 20 3e
       0.12113429 -0.009530257 -0.054684926 0.15709297
0000c0 1b 62 c3 be 02 73 44 be 70 35 c8 bd ed fa d6 bd
       -0.38160786 -0.19184497 -0.097758174 -0.10497079
0000d0 61 f4 06 bc ad bc 0e bd ac 55 55 3e 84 b0 63 be
       -0.008236975 -0.034847904 0.20833462 -0.22235304
0000e0 1a 21 bd 3d 5b dc de bc 5e cb 37 bc 92 55 31 be
       0.09234829 -0.027204683 -0.01121792 -0.17317799
0000f0 c1 e9 86 3c c8 71 eb 3d dd 14 a3 3d 23 f3 bc bd
       0.016468884 0.114963114 0.07962964 -0.09226062
000100 c1 22 63 3e 2d ed b9 3d 1a 3b 3d be 28 b6 16 be
       0.22181226 0.09078441 -0.18479577 -0.14717925
000110 63 43 63 3d d1 da 33 3e 26 c7 f8 bd 4d 38 09 be
       0.055484187 0.1756394 -0.121473595 -0.13400383
000120 ee 53 b0 3d d1 dc e2 3d 84 1a b6 3d 69 63 af 3d
       0.08609758 0.11077274 0.08891776 0.08563883
000130 75 2f cf bd 74 ce 99 3c b1 c5 18 3e 06 d7 72 3d
       -0.101164736 0.018775202 0.14919163 0.059287094
000140 a5 fe db bc 71 67 83 bc 56 03 ee bd 8a f8 23 3c
       -0.026854822 -0.016040536 -0.1162173 0.010007987
000150 da a1 82 bd 08 93 8b 3d ad 49 91 3c c6 e7 c0 3d
       -0.06378527 0.06815153 0.017735327 0.09419207
000160 1f a6 55 be 5c 0d 39 be c3 40 f6 3d f6 1c ae bd
       -0.20864151 -0.18071502 0.12024071 -0.085016176
000170 58 8a a1 b9 96 ac e0 bc 68 ca 32 3d 62 0d 6a bd
       -0.00030811387 -0.027426045 0.04365006 -0.05714167
000180 65 37 0e bd 7b 5e d9 3d 5d 76 35 be 19 41 7d bd
       -0.034720797 0.10613724 -0.17720933 -0.06182966
000190 2c 3c 19 bf af 65 63 bb fc 2f 9b be 6c d5 22 bd
       -0.5985744 -0.003469806 -0.30310047 -0.039754316
0001a0 71 ae 78 be ae 6d 9e be 15 1d 89 be 4c e6 64 bf
       -0.24285294 -0.30943054 -0.2678 -0.89413905
0001b0 9f eb db be ff e1 84 be 9b 4a f2 3c b4 66 4d be
       -0.42953202 -0.2595367 0.02957659 -0.2005871
0001c0 90 c0 83 3e 23 a7 04 bd 0f 6e 04 3f 35 9b b3 3e
       0.2573285 -0.032385956 0.51730436 0.3507935
0001d0 d5 36 8a be 5c f8 bc be 43 a9 43 3e b6 f7 48 3e
       -0.2699496 -0.36908233 0.19107537 0.19625744
0001e0 fa ac 96 3c 97 65 57 be 05 e9 ff 3b 31 72 be 3e
       0.018393029 -0.21034847 0.0078097605 0.37196496
0001f0 b9 f5 76 3e 46 bb 66 3e 4f 47 0e 3e 3e b3 5c 3d
       0.24117173 0.22532377 0.1389439 0.053881876
000200 4f 90 0e bd 55 e0 85 3e 10 05 f4 bd 87 2c 14 3e
       -0.034805592 0.26147714 -0.11915028 0.14470111
000210 af ae d4 bd 1b 41 b3 be c9 cb 41 bf 10 60 e6 3e
       -0.10384881 -0.3501061 -0.75701576 0.44995165
000220 d1 f0 71 be ad 20 d6 3e 54 38 8e 3c 5e 66 d7 bd
       -0.2362702 0.41821805 0.017360844 -0.10517572
000230 2b a4 16 3e 88 77 15 be 72 d7 bd 3d a4 49 85 bc
       0.14711063 -0.14596379 0.092696086 -0.016270466
000240 ba 64 1c be c1 2e 84 bd 6d ee d2 bd ee 45 d5 3d
       -0.15272799 -0.0645423 -0.10299382 0.10413729
000250 b8 79 8d bc e2 9d 4c be 7b 58 7b 3e c6 49 41 3d
       -0.017269954 -0.19982103 0.24545471 0.047189496
000260 59 21 95 3e 74 00 54 3d 49 d1 a5 bc 3a 1e 98 3e
       0.29127005 0.051758245 -0.020241397 0.2971056
000270 64 e9 44 3e d0 f8 29 3f 48 bd 25 3e 58 66 71 3d
       0.19229656 0.6639528 0.16185486 0.058935493
000280 53 85 b3 3d 7a 48 13 3e f4 88 bc bd 19 4d b3 bd
       0.08765664 0.14383116 -0.09205809 -0.087549396
000290 57 69 b1 be 89 80 45 be f0 f3 a2 3e 11 57 56 3e
       -0.3465068 -0.19287314 0.31826735 0.2093165
0002a0 05 68 06 be 13 d7 28 be 27 7e 64 bd 71 b0 40 3c
       -0.13125618 -0.16488294 -0.05578437 0.011760817
0002b0 75 90 22 3e ee 73 52 be e0 9a 57 be 08 74 9f bd
       0.15875418 -0.20552036 -0.21055174 -0.07785803
0002c0 c5 4d f1 bd d0 27 dd 3c d8 21 41 3d 66 43 f0 bd
       -0.117824115 0.026996523 0.047151417 -0.11731605
0002d0 d5 d2 37 3e 23 7d a5 bd 57 fe 24 3e 96 4d ae 3d
       0.1795152 -0.080805086 0.16112648 0.08510892
0002e0 e7 52 d3 3e 7e 70 95 be d3 51 65 3e c8 c6 a5 be
       0.41274187 -0.29187387 0.22394495 -0.3237822
0002f0 cb 05 59 bc 27 76 8e 3d e3 16 3e be 66 9b 0a 3d
       -0.01324601 0.069561295 -0.18563418 0.033839606
000300 33 b2 ce bd e8 99 57 3e b3 87 f8 3c 61 f2 3a bd
       -0.100925826 0.21054804 0.030338144 -0.045641307
000310 f7 43 f5 bc a2 d7 92 3d c9 1b 00 3e 2d 2e a1 3d
       -0.029939635 0.07170035 0.12510599 0.078701355
000320 af e3 01 3d 12 ec 04 3d 77 95 a3 bb 95 5c 6d 3d
       0.031711277 0.032451697 -0.004992183 0.05794962
000330 b3 f2 7f 3d 94 ee ce bd 64 8f c6 bd 2a cf 0e be
       0.062487315 -0.10104099 -0.09695318 -0.13946214
000340 8a 8d de 3c 94 60 b7 bc cf b0 06 bd 12 08 2f 3c
       0.0271671 -0.02238492 -0.03288346 0.010683076
000350 4a a2 91 bc 25 45 4c bd 76 0d 1d 3e 42 79 39 3e
       -0.01777758 -0.04987063 0.15337166 0.18112662
000360 66 9a db bd 63 3e 86 3c b6 6c 2b 3e 67 1e 70 3e
       -0.107228085 0.01638717 0.16740689 0.23449098
000370 5c 20 e6 bd d7 24 2c be fa 72 4b 3d f0 24 86 3e
       -0.11236641 -0.16810928 0.049670197 0.26200056
000380 03 4d 4c 3e 95 b4 d4 3d 78 e7 20 be 0a bf 97 bc
       0.19951253 0.10386006 -0.15713298 -0.018523712
000390 08 83 40 3e 7c c9 49 3e cd 10 04 be 32 4b f9 bd
       0.18799984 0.19705766 -0.12897034 -0.121725455
0003a0 2f 77 df 3d 0a 8f 28 be b0 69 9b be 42 50 71 3e
       0.10911404 -0.16460815 -0.3035407 0.23565772
0003b0 0a ca 03 bd 16 ce 5a 3e fe e3 0a be 8e c5 8b bd
       -0.0321751 0.21367678 -0.13563535 -0.0682479
0003c0 4c 19 da 3a 7f 01 ea 3d b1 46 d7 bd 1d 67 f4 3b
       0.0016639619 0.114260666 -0.1051153 0.007458581
0003d0 45 44 ae 3d 76 0c 8e 3d a1 25 76 bd 0d 44 f3 3b
       0.08509115 0.069359705 -0.06009448 0.007423884
0003e0 d9 45 cc bd 3c 5f 1d be 3d 83 53 be a6 72 cd 3c
       -0.0997426 -0.1536836 -0.20655532 0.025079083
0003f0 52 c3 4e bd c7 7e 56 3d b0 e1 0d 3e 86 cf 52 be
       -0.05047924 0.052366998 0.13855624 -0.20586976

net.4.bias f4 [50]
000000 d0 22 f7 3d 81 5c 01 3e 9d bd 67 3e 91 61 47 be
       0.12067187 0.12632944 0.22630925 -0.19470812
000010 c4 d4 34 3e 3c 0a 81 3e 2b 75 36 be c5 8a 49 3e
       0.17659289 0.2520312 -0.17818134 0.19681843
000020 c6 58 ff bd 11 b5 10 be 5a e4 0a 3e 5a 8a 80 be
       -0.12468104 -0.14131571 0.13563672 -0.25105554
000030 e0 40 86 3a 69 e3 91 3e c4 e0 0d be f6 ff 3f be
       0.0010242723 0.28493813 -0.13855273 -0.18749985
000040 69 49 26 be 80 0f 2a be ed e9 89 be bf 09 e0 3d
       -0.16238941 -0.16607475 -0.26936284 0.10939359
000050 b0 90 93 be b5 60 fd 3d cd 1b 42 3e 85 34 81 bc
       -0.28821325 0.12371961 0.18955918 -0.015772114
000060 03 44 9c 3d 5e f6 70 be b6 57 c9 bd 65 eb 8c 3d
       0.0763016 -0.23531482 -0.09831183 0.068808354
000070 a9 4a 04 be 5f 08 8e 3e b6 53 22 be 8b 4d b9 3d
       -0.12919106 0.27740762 -0.15852246 0.09047993
000080 2b a6 90 be 64 b5 65 be d0 7e c6 3d 98 75 01 3e
       -0.28251776 -0.22432476 0.09692156 0.12642515
000090 2f aa 46 3e bd 47 80 bd e1 cc 04 be 23 ad 03 bc
       0.19400857 -0.06263683 -0.1296878 -0.0080368845
0000a0 58 cf 24 3e d7 cb 5c be 82 47 f8 bd 1c 27 19 3e
       0.1609472 -0.21562134 -0.12123014 0.14956325
0000b0 e2 77 6c 3e da e6 8b be 99 c1 8c 3e fe 3c 4d 3e
       0.23092607 -0.27324563 0.27491453 0.20042798
0000c0 42 12 89 be cd 2a f5 bd
       -0.26771742 -0.11971054

net.6.weight f4 [1, 50]
000000 21 82 bf 3f ac bb 83 3f 9b a8 10 40 36 ee ce bf
       1.4961587 1.0291648 2.2602909 -1.6166446
000010 cc 98 a1 3f 91 fb aa 3f 97 d3 ee bf 8f 28 e5 3f
       1.2624755 1.3358022 -1.8658322 1.7903003
000020 6b ea 99 bf ec 26 ab bf bf 2f ce 3f 3c bb b9 bf
       -1.2024664 -1.3371253 1.6108321 -1.4510264
000030 e6 08 87 bf 4e 32 c3 3f c3 7f ba bf 7b d1 93 bf
       -1.054959 1.5249727 -1.457024 -1.1548303
000040 61 60 97 bf e0 c2 a2 bf 9c e4 96 bf 76 22 c5 3f
       -1.1826288 -1.2715721 -1.1788516 1.5401142
000050 e3 eb 8b bf 1b 1a 4f 3f fe e4 82 3f 47 0e f3 be
       -1.0931362 0.8089921 1.0226133 -0.4747183
000060 cc 75 ce 3f f1 a0 c1 bf 63 77 95 bf 0f 5a bb 3f
       1.6129699 -1.512724 -1.1677059 1.4636859
000070 e0 f4 c1 bf 3a 9b ae 3f 95 50 70 bf 45 2a e1 3f
       -1.5152855 1.3641121 -0.9387296 1.7591025
000080 99 a7 25 bf ec 99 ef bf 0e 98 84 3f a6 98 85 3f
       -0.6470886 -1.8718848 1.0358903 1.043721
000090 08 6b 54 3f c0 c7 ad bf ff 9e 94 bf ec 32 5f bf
       0.82975817 -1.3576584 -1.1611022 -0.87187076
0000a0 04 bc 87 3f 64 c1 b2 bf 21 5b 85 bf 2a 75 5c 3f
       1.0604253 -1.3965268 -1.0418435 0.8611628
0000b0 fe 68 bb 3f 56 76 a2 bf a4 7e 98 3f de 57 8b 3f
       1.4641416 -1.2692363 1.1913648 1.088619
0000c0 55 1b a1 bf b5 f6 94 bf
       -1.2586466 -1.1637789
