pretrain_ckpt/gail/200_expert/BipedalWalker-v3/value.ckpt (torch, 27109 bytes, 7 tensors)

net.0.weight f4 [50, 24]
000000 d0 4b 0c bf 25 a5 8b bd 9b bb 92 3e 6a 02 7e 3d
       -0.5480318 -0.06818608 0.28658757 0.06201402
000010 f5 c7 a3 be 23 14 ff bb ba 6c 9d be 6f a3 00 3d
       -0.31988493 -0.007784383 -0.30747014 0.031405862
000020 1c 71 58 3d f4 58 db bd c5 4b 24 3e c5 6e 55 be
       0.052842245 -0.10710326 0.16044529 -0.20843036
000030 d9 e3 17 3d 3a 37 06 be b6 57 63 bd a2 45 8c bc
       0.037082527 -0.13107005 -0.05550357 -0.017123047
000040 ea 12 3c 3e bf dd 30 bd a5 58 09 3e 70 a8 20 3e
       0.1836659 -0.043180224 0.13412721 0.15689254
000050 ad 3b c4 3c 97 7c 83 3e 31 6a a3 be b6 73 8b 3d
       0.023954237 0.25680992 -0.31916955 0.068091795
000060 06 6a d6 3e 99 8c b3 3d 3f b8 5a 3e c8 17 80 3c
       0.41877764 0.08767051 0.21359347 0.01563634
000070 7b 07 be 3d 05 43 66 3e 66 d4 08 3e 31 28 8c 3c
       0.092787705 0.22486503 0.13362274 0.017109009
000080 0b ee ee bd 4b aa f3 3d 67 35 34 be 8c 77 24 3e
       -0.11666497 0.11897715 -0.17598496 0.16061229
000090 7c b5 74 be 31 45 84 3c 9d 09 55 be 93 dd 06 bd
       -0.23897356 0.016146274 -0.20804448 -0.032926153
0000a0 b3 70 3b be 44 31 95 3d 46 19 04 3e 2f ae 19 bc
       -0.1830471 0.07284787 0.12900266 -0.0093799075
0000b0 da ac 8a bd d2 34 b6 3d 7a a2 43 be 82 af d0 bd
       -0.0677125 0.088967934 -0.19104949 -0.101897255
0000c0 f1 ab 97 bd c0 ea a2 bd e7 d2 57 be df d6 18 bd
       -0.07405842 -0.07954931 -0.21076547 -0.037314292
0000d0 77 d6 d7 bd 85 ad 25 3e a8 b8 34 3e a5 2d de bd
       -0.10538953 0.16179474 0.17648566 -0.1084855
0000e0 cf 78 09 3c 17 24 7f 3d e6 58 05 3e b0 98 3f be
       0.008390619 0.062290277 0.13022193 -0.1871059
0000f0 90 76 47 be 0d ca 1f bc 59 64 f9 bc 71 6e d1 bd
       -0.19478822 -0.0097527625 -0.030443357 -0.10226143
000100 2f a0 18 3e 5f 38 05 bd 48 14 ac 3d d7 db 44 3d
       0.14904855 -0.032524463 0.08402306 0.048061218
000110 ef bd 56 3d bf 2b 88 bb d2 58 ce 3d 7e 48 a4 3d
       0.05242723 -0.0041556056 0.10075535 0.08021639
000120 e6 2f 21 3f 76 70 42 bd 19 47 97 3d a7 f0 29 3e
       0.6296371 -0.047470532 0.07386608 0.16595708
000130 39 3f 45 3e 5a 4c 9b 3d b6 38 15 3e 4e f3 17 be
       0.19262399 0.07582922 0.14572415 -0.14838907
000140 4f 83 ec 3d df 07 1d be 15 dd 17 bd d0 9e ee 3d
       0.115484826 -0.15335034 -0.037076075 0.11651385
000150 6a 1f bb bd e4 2f 50 bd eb 30 eb bc e5 86 2d 3e
       -0.09136851 -0.050826922 -0.02870985 0.1694599
000160 a9 e0 0e 3d aa 74 83 bc a8 15 a3 bd 91 92 90 3b
       0.03488222 -0.01604684 -0.07963115 0.0044120033
000170 37 62 ce bc ed 8f 7a bc 5f 79 54 3c 85 3f 11 3e
       -0.025193317 -0.015293104 0.01296839 0.14184387
000180 49 4b ec be 10 e9 6e 3d ba 22 cf 3d 3a 75 01 3e
       -0.46151188 0.058327734 0.101140454 0.12642375
000190 0f 91 e8 bc ae 64 60 bd 6e 85 66 bd 64 16 34 3e
       -0.028389482 -0.054783516 -0.056279592 0.17586666
0001a0 5d 8e 68 3e df 1f 3c be 03 fc 66 bd f2 4d 24 be
       0.22710557 -0.18371533 -0.05639268 -0.16045359
0001b0 bf d6 a3 3a 63 67 d0 bc f0 af 15 be f0 b8 e3 3b
       0.0012499912 -0.025439924 -0.14617896 0.0069495365
0001c0 42 f6 d7 bd f3 67 e7 bd 86 aa 37 3e 8e ae 5f 3e
       -0.10545017 -0.112991236 0.17936143 0.21843931
0001d0 f5 e1 05 3d af fe 4c 3e c0 f0 a2 3d b8 3e d6 3d
       0.032686193 0.20019029 0.07956076 0.104611814
0001e0 a5 ff 0f 3e a4 7e eb bd 0c 55 74 be 68 31 de bd
       0.14062364 -0.11498764 -0.23860568 -0.10849267
0001f0 94 2c 2a 3e 5a b0 ff bd 7b 98 04 3e cc 84 51 3e
       0.16618568 -0.12484808 0.12948792 0.20460814
000200 2e a0 f9 bd c8 0a 38 bd 20 4d e8 bd 01 74 b1 bd
       -0.12188755 -0.044932157 -0.113428354 -0.08664704
000210 e8 21 c3 bc 38 53 a8 bd 83 42 3c 3e 7a 73 5c 3e
       -0.023819879 -0.08218998 0.18384747 0.21528426
000220 9b 6e d2 bd 68 04 c8 3c c6 14 8c bd 95 5a e4 3b
       -0.102750026 0.024416164 -0.068399 0.006968806
000230 4f 1b 86 be c8 d3 2f be 30 95 c4 3c f2 a6 c3 bd
       -0.2619271 -0.17170632 0.02399692 -0.09553327
000240 ee cf 35 3e f8 39 b8 3e 04 66 91 3d 16 36 8c be
       0.177551 0.35981727 0.07099536 -0.27385014
000250 52 bb f6 3d 45 9a 03 3e 1b 9a 87 be f8 86 33 3e
       0.12047447 0.12851818 -0.2648476 0.17531955
000260 de c2 e1 3d c6 fd 2f be 25 b2 35 bd 37 8a 23 3e
       0.11023496 -0.1718665 -0.044359345 0.15970694
000270 ae e9 5b 3d 1b 8a 3d bd 74 f0 11 3d 16 24 26 be
       0.05368965 -0.046274286 0.035629705 -0.16224703
000280 28 08 63 3e 4d 80 94 3d a4 03 9b 3e b6 80 1a 3a
       0.2217108 0.07251034 0.30276215 0.0005893813
000290 00 c7 b9 3e ef a3 e6 3e 19 c0 fe be fa 65 c8 bd
       0.36284637 0.45046946 -0.49755934 -0.097850755
0002a0 a1 58 c0 be 40 7e 80 be d4 3f 10 bd 44 fc 3c 3d
       -0.37567618 -0.2509632 -0.03521712 0.046139017
0002b0 09 d6 ed 3e 8e d6 01 3b 04 5e ae 3e 1c b4 9d 3e
       0.46452358 0.0019811722 0.34056103 0.30801475
0002c0 dc c2 ba 3d f9 1d c6 3d a4 0f 86 bd 22 8e df be
       0.09119198 0.096736856 -0.06545952 -0.43663126
0002d0 44 1c 0c bc 90 f1 b1 3b 56 de 88 3e 76 93 af bd
       -0.008551661 0.005430408 0.2673213 -0.08573048
0002e0 d2 a9 31 bd bf 22 45 bd 9f 61 07 3e 75 4c 0f be
       -0.043374844 -0.04812884 0.13220833 -0.1399401
0002f0 f2 df 91 be 13 28 96 be b9 2b 19 3f 75 44 31 3d
       -0.2849117 -0.2932745 0.5983234 0.043278176
000300 bb 7a 35 bf 40 51 bf bd fb f3 2a 3e 5c 4d e3 bd
       -0.70890397 -0.09341669 0.16694634 -0.110987395
000310 39 e8 e8 bd ac bc ed 3a a2 6e 3f be cc 13 61 3c
       -0.11372418 0.0018137894 -0.18694547 0.01373763
000320 00 43 66 be 66 15 ba bd bb ea 4a be 7c fd 25 3c
       -0.22486496 -0.09086113 -0.19816105 0.010131236
000330 86 fb 04 3e 75 ed ea 3d c1 16 c8 bc d8 6a 17 be
       0.12986574 0.114710726 -0.024424912 -0.14786851
000340 89 57 8e 3d ee 6c 46 be b3 9d 20 3e c8 05 21 be
       0.0695029 -0.19377491 0.15685157 -0.15724862
000350 94 5e 59 be 33 91 e4 3c 00 79 2b 3e aa 6f 1d 3e
       -0.21227485 0.027901268 0.16745377 0.15374628
000360 f6 ad 88 3c 68 0c fc 3d 91 7f 19 be e9 0b df bd
       0.016684514 0.12307054 -0.14990069 -0.108909436
000370 da dd 5a 3e 09 ae 49 be 0e a9 21 3e 2b 19 3a 3e
       0.21373692 -0.19695295 0.15787145 0.18173663
000380 c9 3f ca 3d 38 0b 99 3b d2 54 0e be 75 01 21 3d
       0.09875447 0.004670527 -0.13899544 0.03930803
000390 8b f6 10 3e 7c ad 6d bd 1c 10 3f 3d c9 96 33 be
       0.14156549 -0.058026776 0.046646222 -0.17537989
0003a0 ae 4c a2 bd c0 6f 08 3e b2 cd 80 bc 53 10 66 3c
       -0.07924782 0.13323879 -0.015723083 0.014041978
0003b0 66 43 5f be be e6 eb bd 17 59 b0 3d 3a e0 86 bd
       -0.21803054 -0.1151862 0.086107425 -0.065857366
0003c0 76 52 af be a9 b9 11 3e 13 4c 3e bd 8f 03 b7 bd
       -0.342426 0.1423098 -0.04645927 -0.089362256
0003d0 b6 46 4a 3d 0f 3e 08 3e 2e be 08 3d 4a 17 10 3d
       0.04938384 0.13304923 0.033384494 0.03517846
0003e0 09 d7 f2 3d 0c 2a 9a bd 14 ba 42 be 8d f6 f6 bd
       0.11857421 -0.07527551 -0.19016296 -0.120587446
0003f0 f5 55 80 bc ff 12 07 3e 5f 19 08 be 68 83 67 3d
       -0.015665988 0.1319084 -0.13290928 0.056521803

net.0.bias f4 [50]
000000 cf cd 98 bc dc 52 70 be 76 5e b3 bd a5 74 1e 3c
       -0.018652825 -0.23469108 -0.08758251 0.009671365
000010 11 cb 0c 3e 99 31 58 3d 0a aa 80 be 5c 64 b3 3e
       0.13749339 0.052781675 -0.2512973 0.35037506
000020 84 5f 20 be 9b 7e 84 bd 35 c4 df 3d 15 ba 8c bd
       -0.15661436 -0.064694606 0.109260954 -0.0687143
000030 e3 e5 ac 3d 15 87 1d 3e 84 80 b3 bc c3 b2 9a 3c
       0.08442285 0.15383561 -0.021911867 0.018884068
000040 d1 87 e3 3d 35 b8 18 be 4f ee e3 3d cb 6d 11 be
       0.11109889 -0.1491402 0.11129438 -0.14202039
000050 e4 e8 62 3d e1 8c 24 be 22 ce 15 3e 2e 4d 27 3d
       0.055397883 -0.16069366 0.14629415 0.04084509
000060 d5 aa 93 3d 90 4e 59 bb 24 a5 61 bc aa 02 96 bd
       0.07210318 -0.00331584 -0.013772283 -0.07324727
000070 41 47 70 bd 42 c7 08 3e 6e 94 05 3d b9 c5 77 be
       -0.058661703 0.13357261 0.032612257 -0.24196519
000080 77 ad f7 bd 16 8e a3 3d f5 70 dc 3d 4a bf c7 3d
       -0.12093633 0.07986085 0.10763732 0.09753282
000090 c7 1a 44 3e 62 db 30 3e dd 0b 83 3c d2 f2 18 3e
       0.1915084 0.17271188 0.015996868 0.14936379
0000a0 dd 0c 85 bd fe af 8e 3d ef 1a 6d bd 22 b4 b6 3d
       -0.06496594 0.069671616 -0.057887014 0.08921076
0000b0 40 51 a9 3d 53 f0 ae 3d e3 8d 24 3e a9 9a 6b 3e
       0.0826745 0.08541932 0.1606975 0.23008217
0000c0 17 8b 93 bd c0 aa 1b 3e
       -0.07204264 0.15201855

net.2.weight f4 [50, 50]
000000 fe 75 12 3d 58 93 fe 3d 5f 06 5d 3d c5 60 1e 3e
       0.035757057 0.12430447 0.053961154 0.15466602
000010 b1 bf d7 bc 35 04 99 bb a3 58 2c bd 4f b3 59 be
       -0.026336523 -0.004669691 -0.042076718 -0.21259807
000020 9f 3a d1 3c 7d 6f 78 3d 85 32 26 bd 65 1c 39 3d
       0.025540648 0.0606532 -0.040575523 0.045193095
000030 f4 c9 ec bd 3a 56 87 bd 44 cd 63 3d fc 91 2e 3c
       -0.11561957 -0.06608243 0.05561568 0.010654923
000040 9c 17 65 bc 6a 2a a9 3c 52 14 92 3d 78 69 2f 3d
       -0.01398268 0.020650107 0.07132782 0.042825192
000050 39 f6 5e 3e 6b 28 1e 3d 3a ff 27 bd 99 f7 43 be
       0.21773614 0.038612764 -0.041014887 -0.1913742
000060 62 2b 05 be 7a f9 5a 3d 14 1a 3b be e3 96 b5 3d
       -0.1300483 0.053460576 -0.18271667 0.0886667
000070 ce fc 9c bd 39 98 55 3a 45 c1 2d bc 14 79 5d bd
       -0.07665406 0.0008147988 -0.010605161 -0.054070547
000080 61 71 80 3c 4a a8 e1 3d 93 f2 86 3d 8e 8c fd 3d
       0.015679063 0.11018427 0.06589236 0.12380324
000090 16 75 01 be 2f 15 37 bd 23 6c 34 3d 25 50 cc 3d
       -0.12642321 -0.044697937 0.04404844 0.09976224
0000a0 b6 00 b5 bd 1b b7 10 3e 72 13 07 be 0a 04 38 bc
       -0.08838026 0.14132349 -0.13191012 -0.011231432
0000b0 30 f6 bd bd 60 dc 02 3e 86 1e 32 3e de 44 0b 3e
       -0.09275472 0.12779379 0.17394456 0.1360049
0000c0 a8 db ba 3c 65 c9 8e 3e 00 b4 7b be 7c 6f aa 3d
       0.022809818 0.27888027 -0.24580383 0.08322045
0000d0 82 b3 a2 3d 06 e7 9d 3d 6c 6e 05 be 4d 43 32 bc
       0.07944395 0.0771008 -0.13030404 -0.010880304
0000e0 e1 09 19 be 61 40 12 bc 48 2f 86 bd fd 0d 37 3e
       -0.14945175 -0.008926482 -0.06551987 0.1787643
0000f0 5f 37 81 3c 92 04 27 3d b4 d6 04 be a7 cd 24 be
       0.015773473 0.040775843 -0.12972528 -0.16094075
000100 b2 f6 6c 3e e9 62 68 3d 42 05 08 be 2f c9 69 3d
       0.23140982 0.056734953 -0.13283256 0.05707663
000110 b6 e4 13 3e 8c 0d 82 bd 96 de 79 bd 03 37 4f bd
       0.14442715 -0.0635024 -0.06100329 -0.050589573
000120 ce f7 4f 3b 8e 1a 09 3d b6 bf df 3e f7 63 56 3e
       0.0031733396 0.03347259 0.4370095 0.20936571
000130 68 06 89 3d 2b b6 d1 bd de 4e 13 bc 7d c7 bd bd
       0.06690675 -0.10239824 -0.008990971 -0.09266565
000140 15 1e b6 3d ce 5a 3b be ba 21 54 3e 75 66 37 bd
       0.088924564 -0.18296358 0.2071599 -0.044775445
000150 dd 59 01 bd ad b6 3e bd 7b 1c db bd 52 12 38 3d
       -0.03157984 -0.046560932 -0.106987916 0.044939347
000160 cf 52 8d 3d ce 1b dc 3a 72 5d 9a 3e c1 8f 2b 3e
       0.0690056 0.0016792954 0.30149418 0.16754057
000170 a3 bd 1f 3e d1 7b 02 be df c0 af bd af cf 02 3e
       0.15599684 -0.12742545 -0.08581709 0.12774538
000180 01 40 ad bd 49 3b 25 3d 7f 48 0a 3e e4 83 d4 3d
       -0.084594734 0.04033974 0.13504218 0.10376719
000190 6c 5e c3 bd 96 49 5d 3d 6c 49 00 be da 38 eb 3c
       -0.09539494 0.054025255 -0.12528008 0.028713632
0001a0 73 fe d9 3d 8c 4c 25 3c 76 15 20 3e 0c 41 1a bd
       0.106442355 0.010089051 0.15633187 -0.03765969
0001b0 71 fb 23 bd 23 46 49 bd 6f f4 fe bd 6b 23 15 be
       -0.040034715 -0.049139153 -0.12448966 -0.14564292
0001c0 b5 ab 88 3d 9c 07 cf bd 9c c7 ec 3d 9b 50 4d bd
       0.066733755 -0.10108873 0.1156151 -0.0501257
0001d0 d6 36 24 3e 0a cc 60 bd d7 b0 00 be a1 01 07 bc
       0.16036543 -0.054882087 -0.12567459 -0.008240134
0001e0 ab 80 20 3d e4 6f 57 bd 5b 9a ed bd bf 76 42 3d
       0.039185207 -0.05259694 -0.116017066 0.047476526
0001f0 52 ac 32 be 9d f6 00 3d 30 59 78 3c 6d 68 84 bd
       -0.17448547 0.03148519 0.015157983 -0.0646523
000200 66 82 ad bd a5 9e 2c bc f6 08 3c be 7d dd 20 3e
       -0.08472137 -0.010535871 -0.18362793 0.15709491
000210 e3 4a 68 3d 05 43 89 3d 1a 41 bf bd 49 4f 4a 3e
       0.056712043 0.06702236 -0.09338589 0.19756807
000220 8b 1a 47 bd 65 a7 f7 3d 8d 2f 38 3d 48 e8 27 3e
       -0.048609298 0.12092475 0.044967223 0.16397202
000230 ab 04 ec 3c d0 8a cb 3d 98 de 2c be 30 d8 9b 3d
       0.02881082 0.09938586 -0.16881788 0.07609594
000240 23 c6 9d 3d ee a8 4c 3c f6 4d be 3b 61 dd 03 3e
       0.07703807 0.012491448 0.0058076335 0.12877418
000250 e3 2a 9d 3d f4 83 6c 3e f6 a3 16 be e6 fd ba bd
       0.076741956 0.23097211 -0.14710984 -0.091304585
000260 29 43 b3 bd ea 54 4b 3d d0 65 26 be 42 ac 3a 3e
       -0.08753044 0.049641527 -0.16249776 0.18229774
000270 42 9b 39 be 08 3c d2 3c 65 33 43 bd 50 8f 90 3d
       -0.18125632 0.02566339 -0.047656436 0.07058585
000280 ed b2 24 be 41 b9 4e bc c9 45 b8 3d 71 6d dc bc
       -0.1608388 -0.01261741 0.089976855 -0.026907654
000290 02 58 70 3e 8f c6 be 3c 63 28 be 3d b9 e1 d2 3d
       0.23471072 0.02328804 0.09285047 0.102969594
0002a0 61 d8 db bd 1b 33 23 bd a7 37 3b bd 50 19 2c 3e
       -0.107346304 -0.03984366 -0.04570737 0.16806531
0002b0 88 e6 3c bc d4 01 15 bd 4e 3a c1 3e 17 fa e9 3b
       -0.011529572 -0.036378697 0.37739795 0.0071404087
0002c0 7d ab f2 bd 03 4a 3e be a1 e6 47 bc 33 3d c8 3c
       -0.11849115 -0.1858292 -0.012200982 0.024443245
0002d0 5e af ad 3c e3 ba 4f bc 27 d0 c5 3d b7 ae 3f be
       0.021201786 -0.012678835 0.096588425 -0.18718992
0002e0 8c 15 0b be 2d f3 de bd 42 eb 1a 3d 33 2a 19 be
       -0.13582438 -0.10886226 0.037822016 -0.14957504
0002f0 ff de 6e bd 80 fc bf bd 68 55 c5 3d 3d f7 d4 3d
       -0.058318134 -0.093743324 0.096354306 0.103987195
000300 87 84 c9 bd 46 21 8c 3d f9 36 19 be 64 0a 87 bd
       -0.09839731 0.06842284 -0.14962377 -0.06593779
000310 3a 8d b8 3d 0a 77 e0 bd 30 ac a1 3d 41 75 c8 3d
       0.09011312 -0.10960205 0.0789417 0.097879894
000320 91 b1 9f 3e 7a 7e 11 3e 6d e8 96 3c 77 3a 26 be
       0.3119016 0.14208403 0.018421376 -0.1623324
000330 70 9b 4c 3c 7f 4a 45 be ae ea 87 3e bc 43 62 be
       0.012488231 -0.19266699 0.26546234 -0.22096151
000340 a8 bb dc 3d 56 5b ab bd 73 57 74 bd 9d 45 39 be
       0.1077798 -0.0836703 -0.05965371 -0.18092962
000350 07 93 a2 3c 15 c1 3a bd a2 73 c2 be ab b8 94 be
       0.019845499 -0.045594294 -0.37978846 -0.2904714
000360 12 09 09 3e 63 78 c9 bd 83 e5 7d bd 43 95 f6 bb
       0.13382366 -0.09837415 -0.061986458 -0.0075251176
000370 f2 90 71 3e 0c 70 14 3e 1a d1 d7 bd 19 c3 69 3d
       0.23590448 0.14495867 -0.1053793 0.057070825
000380 e8 bf c5 be 52 72 b4 bd fe d8 11 be 3e 83 8f 3e
       -0.38622975 -0.08810867 -0.14242932 0.28029817
000390 fb 6d 1c 3e 62 39 97 3d 07 ea 2f bd 05 08 30 3e
       0.15276329 0.07383992 -0.042947795 0.17190559
0003a0 40 3a 7c be 38 dc 42 3e a9 44 91 bd a1 6f 88 3d
       -0.24631596 0.1902932 -0.07093174 0.066619165
0003b0 f5 da 5c 3c 8d 49 ae 3b 1f a4 2f bc f5 7c 8a 3d
       0.013479938 0.0053188265 -0.010720282 0.06762115
0003c0 2f d2 a3 be 1b 50 14 3d e0 bc ba bd d6 88 3e 3e
       -0.31996295 0.036209207 -0.09118056 0.18606886
0003d0 ba 0e 73 3e 54 6b 3b 3d 63 4f eb bd e6 88 23 bd
       0.23736086 0.045756653 -0.11489751 -0.03992548
0003e0 98 f7 36 be 3c 5d 87 bd fd 6d 15 3e 6d a8 c0 bd
       -0.17867887 -0.0660958 0.14592738 -0.09407125
0003f0 4f c9 00 3e 76 b3 d3 bd ab a7 e1 3d 30 d0 bd 3d
       0.12576793 -0.10336964 0.11018308 0.09268224

net.2.bias f4 [50]
000000 3f 55 b6 bd 83 7e 37 3d 97 11 d5 3d bb e1 ec bd
       -0.08902978 0.044798385 0.104037456 -0.11566492
000010 e1 c3 fb 3a 21 78 07 3e 3c 0e 09 3e 5b 12 a1 bd
       0.0019208157 0.1322942 0.13384336 -0.07864829
000020 78 c5 f3 3d 43 83 20 bd 15 ac f2 3d 19 8e 35 3d
       0.119028986 -0.03918768 0.11849228 0.044324968
000030 b2 bc 17 be cc 3c 3a 3e 52 a7 9b 3c 3d b8 bd 3b
       -0.14818075 0.18187255 0.019000683 0.005789785
000040 e4 82 da 3d 0e 04 80 3c ab 0e 0d be 07 6e 1a bd
       0.10669497 0.015626933 -0.13775127 -0.037702587
000050 81 13 2b 3e 37 6c 90 bd 16 b8 db bc d9 87 08 be
       0.16706659 -0.0705189 -0.026821177 -0.13333072
000060 3b 6f c2 3b 4e bd a0 bc 9b 34 7c 3c 7e 90 bb bd
       0.00593367 -0.019621518 0.0153934015 -0.09158419
000070 96 9d b8 3c de f4 56 3d e0 41 da 3d e3 db 2f 3d
       0.02253608 0.052479617 0.10657096 0.04293431
000080 27 48 a2 bd b7 14 8f 3c f2 9f a7 3b ba 70 15 bd
       -0.07923918 0.017465932 0.0051155025 -0.036484458
000090 85 52 24 3c 48 8f d5 bd 67 45 24 3d 9e a6 29 3d
       0.01002944 -0.10427719 0.04010525 0.041418664
0000a0 56 50 e2 bc 64 71 02 be fb b0 e9 bc 4b 96 d0 3d
       -0.027626198 -0.12738568 -0.028526774 0.10184916
0000b0 c2 34 b4 3c 83 c1 15 bc 8c a8 9f bd 44 40 dc 3d
       0.021997813 -0.009140375 -0.0779582 0.10754445
0000c0 ab a2 59 bc 26 12 16 be
       -0.013283412 -0.1465536

net.4.weight f4 [50, 50]
000000 df f8 a2 3d 88 cb cb bc ca 76 0b 3e 6f cc 45 be
       0.07957625 -0.024877325 0.13619533 -0.19316266
000010 61 b4 03 3e d0 71 6c 3c 80 dc 12 be 37 f4 de bd
       0.12861778 0.014431432 -0.14341927 -0.10886424
000020 ab 9e 21 3e e5 c6 32 3d 0b f3 d3 bc 5e 54 c5 3d
       0.15783183 0.04364671 -0.025872728 0.096352324
000030 b7 2a b4 3d 1f 21 c9 3d 31 3e 43 3d bc 45 24 bd
       0.0879721 0.098207705 0.047666732 -0.040105566
000040 84 de da 3d e8 d8 14 3e da 6a 84 bc 3d bf a0 bd
       0.10686973 0.14535868 -0.016164232 -0.07848976
000050 d2 35 39 3d fe cb f6 bd 80 85 c8 bd 18 d3 50 bc
       0.045217343 -0.12050627 -0.09791088 -0.012745641
000060 6f 3c 45 be 0c 64 85 bd ef eb 29 be c3 f8 01 bc
       -0.19261335 -0.06513223 -0.16593908 -0.007932845
000070 e6 9d 9e 3c d0 0f 9e bd 5d 4c a9 3d c1 26 01 be
       0.019362401 -0.0771786 0.08266518 -0.1261244
000080 7a e3 2e 3d e8 1b 0e 3e 60 1d 3f be 03 a1 ca 3d
       0.042697407 0.13877833 -0.1866355 0.09893992
000090 f2 25 0c 3d 7a c1 0e 3e b4 57 5f be ec 60 6d bc
       0.034215875 0.13940993 -0.218108 -0.01448844
0000a0 42 d6 db bd 88 3b 34 3d 2c 4d 2a 3e d0 01 4a 3e
       -0.10734226 0.044002086 0.16631001 0.19727254
0000b0 85 c6 d4 3c 87 3d 17 bd 35 72 9a 3d 2f b0 e3 3c
       0.025973568 -0.03692391 0.075413145 0.027793972
0000c0 37 bc 01 3d 08 1f 8b 3a 78 38 95 bc be 49 27 bd
       0.031673636 0.0010614106 -0.018215403 -0.04084181
0000d0 ba 86 40 be 09 70 41 bd c2 f8 45 be 08 3f e8 bc
       -0.18801394 -0.047225986 -0.19333175 -0.028350368
0000e0 44 98 cb 3d de 89 bb bd b9 d8 a7 bd 53 ce 0c be
       0.09941152 -0.091571555 -0.081956334 -0.13750581
0000f0 bf f2 53 3d 1a a3 61 3d 89 2e 14 3e 6f 7d d8 3d
       0.051745173 0.055087186 0.14470877 0.105707996
000100 57 ee 10 be 5f cc 88 bc f8 5f 39 bd 8a 8b a2 bd
       -0.1415342 -0.016699014 -0.04525754 -0.07936771
000110 66 53 da bd 2c 40 e5 bd 1e 86 54 3d 01 6e ec 3d
       -0.10660438 -0.111938804 0.051885717 0.11544419
000120 d1 83 10 3e 6b b6 fe bd ba 1a 3e 3e 5d eb 01 be
       0.14112784 -0.12437137 0.18564883 -0.1268744
000130 d4 c9 1f bd 44 d7 e3 3e b2 26 cb 3c d0 71 37 bd
       -0.039010838 0.44500172 0.024798725 -0.044786274
000140 13 fd ed 3e 0a 58 47 3d 16 66 01 be 6f 75 02 be
       0.46482143 0.048667945 -0.12636599 -0.1274011
000150 2d 11 48 3e 4e 89 05 bd 7d e4 34 3e 34 99 c1 3d
       0.19537802 -0.032601647 0.17665286 0.09453049
000160 b9 9e 87 3c c9 84 65 bd 2c 6d b8 3d 19 82 34 3e
       0.016555177 -0.056034837 0.09005198 0.17627753
000170 50 95 80 be 8e 15 32 3e 19 e6 83 3d 28 97 1a be
       -0.25113916 0.17391035 0.06440372 -0.15096724
000180 3c 32 d3 3c 01 8a 9c bc 2e 79 76 3c b9 ee 30 3d
       0.02578079 -0.019108774 0.01504354 0.043196414
000190 0c 3d b5 3c 25 36 8e 3d 5c 41 1d be 29 d7 0e 3e
       0.022123836 0.06943921 -0.15356964 0.13949265
0001a0 9c cb 8c be 69 f4 a8 bd a1 44 f7 bb 14 4c 47 3e
       -0.27499092 -0.082497425 -0.007546023 0.19462615
0001b0 39 77 ef bd 73 89 37 3d d8 11 5a bd 1a 71 9c bd
       -0.11692662 0.044808816 -0.053239673 -0.0763876
0001c0 85 a7 92 bc 04 ff 49 bd 4c 83 00 bd 27 92 93 3d
       -0.017902145 -0.049315467 -0.031375214 0.07205611
0001d0 e1 63 a1 3d 72 b2 17 3d d3 9c de bc f1 aa af bd
       0.078803785 0.037035413 -0.027174389 -0.08577526
0001e0 68 73 0d be b3 c9 2b 3d ab 94 63 3e 52 4a a0 bd
       -0.13813555 0.041940402 0.22224681 -0.078266755
0001f0 1d a0 09 3e 90 c7 5a be 2a f4 93 3d ac 70 d1 bc
       0.13439985 -0.2136519 0.07224305 -0.025566421
000200 6c 75 c0 bd 0a 1c 2d 3e 5b 86 97 bb b9 43 83 bd
       -0.093973964 0.16905227 -0.0046241707 -0.064094014
000210 ce df c2 bd f2 c8 56 be f4 63 e7 bc e7 f1 85 bd
       -0.095153436 -0.20975092 -0.028245904 -0.0654028
000220 73 05 cd bb f5 b3 22 be f3 26 82 3e c6 88 b5 bd
       -0.006256753 -0.1588896 0.2542034 -0.08863978
000230 e7 cd 26 3e b7 6e 97 bd 31 5a b7 bd bc f3 af bd
       0.16289483 -0.07394164 -0.089527495 -0.085914105
000240 a9 cb 04 be c2 aa 26 be 46 a0 83 3d 88 22 eb bd
       -0.12968315 -0.16276076 0.06427054 -0.11481196
000250 fc bc a0 3d 9d 8a 1b bd 88 2f a6 3d 13 0a 0e be
       0.07848546 -0.03797399 0.081145346 -0.1387103
000260 d1 65 0d 3d 8c 2f 3a be 7c 03 9c 3e bc 71 49 3e
       0.034520928 -0.181822 0.30471408 0.19672292
000270 88 26 c7 3b 03 0b f7 bd bd 30 1a bd 1a c0 64 3d
       0.0060775913 -0.12062647 -0.037644137 0.055847265
000280 b1 97 04 3e e1 e9 95 3d 0c 0d 25 bd c3 a2 31 bd
       0.1294849 0.073199995 -0.040295646 -0.043368112
000290 22 29 69 3d 6d 88 a3 3d 23 b1 91 3d 96 19 35 3e
       0.056923993 0.079850055 0.07113864 0.17685542
0002a0 67 71 16 3e 13 c8 5d 3d a6 f0 b2 3d 6a 43 37 3d
       0.14691697 0.054145884 0.08737306 0.044742025
0002b0 3c 3a 76 be 63 21 84 3b e3 6b 12 be eb 46 39 bd
       -0.24045652 0.0040323003 -0.14298968 -0.04523365
0002c0 b4 cc 01 be ef 2a a2 3d 4e 53 5d 3e c0 3f 9b 3c
       -0.12675744 0.07918345 0.2161381 0.018951297
0002d0 59 7b 44 be df 94 03 be 0f a0 6c 3e 9b a3 cf ba
       -0.19187678 -0.12849759 0.23107933 -0.0015841605
0002e0 80 21 2d bc e8 db e6 3d a4 b0 e6 3c 84 22 75 3e
       -0.010567069 0.112724125 0.0281604 0.23938948
0002f0 af 5c 41 be 52 0b 25 3c e8 6b 45 3d 9d c6 08 be
       -0.18883012 0.0100735 0.04819861 -0.13357015
000300 31 17 e8 bc f9 1f 9b 3d 68 a2 30 bd c4 e1 93 3b
       -0.028331371 0.07574458 -0.043123633 0.0045129973
000310 cd 6a 02 3d 1e 34 f9 3d ca de cb bd bc 6a 7f 3d
       0.031840134 0.12168144 -0.09954603 0.06235765
000320 e3 71 a8 bc 90 c7 3b be bf 09 80 3d 40 7f df bc
       -0.020562118 -0.18337846 0.06251859 -0.027282357
000330 f5 de 50 3e 80 17 8f bd 2d af 9d 3d 71 2a f3 bd
       0.20397551 -0.06986904 0.07699428 -0.118733294
000340 87 a7 f9 3c 9c 4b 2e 3c c3 a0 0c be d8 3d 0a 3e
       0.030475391 0.010638144 -0.137332 0.13500154
000350 66 76 34 be d2 66 9f bc d9 31 ab bd 05 89 2f be
       -0.1762329 -0.019458208 -0.08359117 -0.17142113
000360 8c fc 1d 3e e2 30 0e bd a2 47 35 3e 90 64 b2 bd
       0.1542837 -0.034714587 0.17703107 -0.08710587
000370 a8 b2 42 3e bb 2a 32 be 28 f2 8a bd 59 8b 86 bd
       0.19013464 -0.17399113 -0.06784469 -0.06569547
000380 80 2e 3e bd f6 0d 0c bc 3c b4 c8 3c a2 5d 89 bd
       -0.046431065 -0.00854825 0.024500005 -0.06707312
000390 15 de 5d 3e cd df ca bd e5 31 0b be 39 86 c6 3c
       0.21666749 -0.09905968 -0.13593252 0.024233924
0003a0 19 cc eb 3c c4 ea 0c 3e 5c 3c 8c bd 6a 44 cd 3d
       0.028783845 0.13761431 -0.0684745 0.100228146
0003b0 2b ea 80 3d b6 10 69 bc a7 60 3f be 26 09 e2 bd
       0.06294664 -0.014225176 -0.18689214 -0.11036901
0003c0 2d ea e5 3b 38 c2 fd bc 62 29 be 3c 69 1d 37 3e
       0.0070164413 -0.0309764 0.023213092 0.17882313
0003d0 21 be ff 3d 82 2f fc 3d fa aa a1 bb f3 4b ae 3d
       0.12487436 0.12313749 -0.004933712 0.0851058
0003e0 3a 59 f5 bc 90 17 21 be c3 44 b1 bc ed 6f 71 be
       -0.029949773 -0.15731645 -0.021639233 -0.23577853
0003f0 aa b1 85 bc 29 38 97 bd 4e f4 82 3e 40 14 93 bd
       -0.016320068 -0.073837586 0.25577015 -0.07181597

net.4.bias f4 [50]
000000 1e 2b 93 3d 82 f4 5e 3c 91 87 91 3c 9f b8 58 3e
       0.07185958 0.0136081 0.017764838 0.21164177
000010 71 68 27 3e 32 4e 6b bd 68 4d 20 3e 48 8e 39 bd
       0.16348435 -0.05744762 0.15654528 -0.045301706
000020 61 e1 5f 3d eb e7 ed bd f9 f7 7d 3e fd a9 d4 3d
       0.054658297 -0.116165005 0.24801625 0.10383985
000030 18 d6 50 bd da 78 ab bc d4 0d b8 bc f5 85 4c be
       -0.050985426 -0.02093165 -0.022467531 -0.19972976
000040 6c e9 8e 3b 7c 0e 8a 3c cd 1b 23 3d 81 0f be bd
       0.004361322 0.01685261 0.039821435 -0.09280301
000050 8e 55 73 3d 89 79 0f be f2 5e c1 3c 98 66 b9 bd
       0.059407763 -0.14011206 0.023604844 -0.09052771
000060 b7 c0 9c 3c 30 58 a2 bd 54 1c 08 3e 4a a6 97 3d
       0.019134862 -0.07926977 0.13292056 0.07404764
000070 17 11 6f 3d c5 b3 30 bd c0 e8 0a 3c b9 63 6a bd
       0.058365908 -0.04314019 0.0084783435 -0.05722401
000080 66 0c 5d 3d 00 cb cf 3d cb e2 8e 3d 50 be 3d be
       0.053966902 0.10146141 0.06976851 -0.1852963
000090 ee 54 0a 3e 4f 6f 7d bc 98 b2 15 be d9 e7 58 3e
       0.1350896 -0.015468433 -0.1461891 0.21182193
0000a0 e9 7c 87 bc 90 a8 f5 3d 05 ae 0d 3e 51 6a 38 3e
       -0.016539054 0.11995041 0.13835914 0.18009306
0000b0 bc ed 09 3e f1 c3 fe bd 65 ee 55 3e 2a 11 94 3d
       0.13469595 -0.124397166 0.20891722 0.07229836
0000c0 60 16 ec 3c 64 7d 72 be
       0.028819263 -0.23680645

net.6.weight f4 [1, 50]
000000 64 14 62 3f c3 ad e3 bf 8f 8b 8d bf d0 62 bd 3f
       0.88312364 -1.7787403 -1.1058215 1.479578
000010 ae 3a 87 3f 41 49 ce 3f bf 77 ac 3f 77 83 a7 3f
       1.0564783 1.6116105 1.3474044 1.3086995
000020 49 71 b7 bf 20 d2 bf bf 3e f9 b2 3f f0 aa d6 bf
       -1.4331447 -1.4986 1.3982313 -1.6770916
000030 19 7f b9 3f 4f 48 d5 3f 95 92 93 3f 2c d3 d3 bf
       1.4491912 1.6662692 1.1529108 -1.654882
000040 39 00 cd 3f c3 b8 dd 3f 89 51 e1 bf 8a cc ac bf
       1.6015693 1.732201 -1.7603008 -1.349992
000050 21 d3 b9 3f f4 d2 e0 bf aa fc d5 3f d4 98 dc 3f
       1.4517556 -1.7564378 1.6717732 1.723414
000060 59 a4 be bf eb 84 d3 3f 5e 7a ba 3f 98 a5 b9 3f
       -1.4893905 1.6524938 1.4568594 1.450366
000070 20 1b fb 3f 76 67 d2 bf c4 ef 8a 3f 93 34 b4 3f
       1.9617653 -1.6437824 1.0854421 1.4078544
000080 d9 ce 45 3f 37 01 96 3f 2b 1b f1 bf ef a8 af bf
       0.7726875 1.1719121 -1.8836416 -1.372343
000090 72 7d c6 3f 25 b0 e8 bf 11 3f 85 bf ca 5c cc 3f
       1.5507033 -1.8178755 -1.0409871 1.5965817
0000a0 d2 62 c3 3f fa e1 b6 3f 28 4b a7 3f 10 7c d1 3f
       1.5264533 1.4287713 1.3069811 1.6365986
0000b0 db 60 48 3e a6 d3 b4 bf e1 56 c7 3f b5 e3 b8 3f
       0.19568197 -1.412709 1.5573388 1.4444491
0000c0 dc e7 98 3f 5f d9 a5 bf
       1.1945758 -1.2956961
