gail/100_expert/BipedalWalker-v3/value.ckpt (torch, 27109 bytes, 7 tensors)

net.0.weight f4 [50, 24]
-0.022682508 0.3140636 0.36269835 -0.15868479 0.64521176 -0.23155291 0.05397427 -0.100036174
-0.038604453 -0.4678377 0.054655153 0.058016967 0.014597491 -0.1781647 0.009235484 0.0023455108
-0.07631739 -0.019231306 0.26143405 0.34295315 0.113053165 0.29514435 -0.054850835 -0.20902301
-0.39971828 0.04816801 0.20026916 0.008546034 0.14878476 -0.11910039 -0.011382798 0.121226296
0.032807793 -0.10074186 0.08927407 0.026322527 -0.15113346 -0.07122157 -0.030568153 -0.10651334
0.18930139 0.11448827 0.21870139 -0.0632788 -0.018940963 0.13259691 -0.04846273 0.02274313
-0.20379312 -0.029109586 0.28568703 0.059740726 0.22628628 0.08833589 0.041295055 -0.09622185
-0.0926387 -0.06248604 -0.21450993 0.16304868 -0.06688365 -0.05201887 0.049832065 -0.09306794
0.21194571 0.2546461 0.11996812 0.2206935 0.10469533 -0.019942183 0.055367924 -0.17279972
-0.31271878 0.0417826 -0.12477207 -0.08449254 0.28978372 0.030010806 -0.037308548 -0.12069796
0.09612012 -0.057306863 0.10938743 -0.029034557 -0.033767764 -0.08665717 0.20798239 -0.12713413
0.15229262 0.11495098 0.16362834 0.112433046 0.16513236 -0.02356339 -0.16295114 -0.2983882
0.0015502023 -0.06211777 -0.39563397 -0.083609104 0.20879787 0.11289611 0.011023772 0.3372503
-0.06869572 0.25164524 0.14549343 0.22675171 0.13296816 -0.040425967 -0.009782551 0.03972276
-0.04583219 -0.31985912 -0.0019705822 -0.3685099 -0.33442378 -0.2008749 -0.084302485 0.009396316
0.27028307 0.00840405 -0.21294723 0.22495382 -0.042636447 0.06369649 -0.2938323 0.026333326
-0.04483828 0.023581348 0.17304005 0.020935426 -0.15756848 0.14171691 -0.11454514 -0.028603876
-0.18304901 -0.14236899 0.099180765 0.18221933 0.17863697 -0.16312315 -0.08944267 0.032276753
0.16677064 -0.18803425 -0.12921482 0.026015373 0.019608915 -0.03419396 0.114045314 0.17268556
-0.085561246 0.009457655 -0.06053555 0.0603199 -0.10787513 -0.16100731 -0.09165843 -0.20783947
-0.13449885 0.0501934 0.055912122 -0.049981203 -0.09056004 0.12030087 -0.17469178 -0.1386199
0.061145056 -0.062269755 -0.2480499 -0.16506273 0.16934747 0.06270433 0.044874854 -0.016533317
0.13308339 -0.20571737 0.18907462 0.101128 -0.14216134 0.12748627 0.12044891 0.09740406
-0.13752243 -0.08967753 0.11469072 0.11649262 0.118535236 -0.0011969705 -0.070075445 0.014169128
0.23647648 -0.09357909 0.14089595 0.17794561 -0.12456093 -0.13574363 -0.0054561067 -0.13515238
0.19623516 0.22742864 0.16084702 0.13636269 0.08005333 0.10582579 -0.07755048 -0.0035920201
-0.012623941 -0.05142731 0.01941037 0.24520372 -0.008450906 0.24489747 -0.14416291 -0.15357444
-0.31063396 0.037627805 0.18240742 -0.31016034 0.018205497 -0.0032552509 0.050201833 0.114821
-0.119074695 -0.15303467 0.09385757 0.091214925 -0.0061720577 0.051908195 0.12975486 0.2565355
0.18601131 0.1395315 0.20027715 0.17887801 0.1515164 0.12132431 -0.24340662 -0.2722875
-0.126455 0.08067021 0.17807317 0.077669136 0.1410715 -0.018011121 0.22261235 0.016116485
0.21068145 -0.05330149 -0.12744224 0.11325866 -0.07476202 -0.14267936 0.034374237 0.17109814
00000000: abd0 b9bc f2cc a03e 99b3 b93e 447e 22be
00000010: 992c 253f 351c 6dbe 2014 5d3d c4df ccbd
00000020: b41f 1ebd 6c88 efbe 15de 5f3d 33a3 6d3d
00000030: 512a 6f3c cf70 36be 6d50 173c 24b7 193b
00000040: 4b4c 9cbd f98a 9dbc afda 853e 8e97 af3e
00000050: 6b88 e73d 291d 973e 45ab 60bd 210a 56be
00000060: e0a7 ccbe d24b 453d 5c13 4d3e aa04 0c3c
00000070: 085b 183e e8ea f3bd ea7e 3abc 7e45 f83d
00000080: 7761 063d c051 cebd 53d5 b63d 57a2 d73c
00000090: bbc2 1abe 9ddc 91bd 106a fabc aa23 dabd
000000a0: 39d8 413e d378 ea3d 42f3 5f3e 5198 81bd
000000b0: 142a 9bbc 7cc7 073e db80 46bd cd4f ba3c
000000c0: 25af 50be 3a77 eebc 9245 923e b1b2 743d
000000d0: 97b7 673e 72e9 b43d 0125 293d f60f c5bd
000000e0: 5cb9 bdbd 5df1 7fbd 7ea8 5bbe 3cf6 263e
000000f0: 4cfa 88bd bd11 55bd b51c 4c3d 679a bebd
00000100: 4c08 593e f960 823e d8b1 f53d 7afd 613e
00000110: 816a d63d ca5d a3bc 7ac9 623d 69f2 30be
00000120: ad1c a0be 3b24 2b3d 8088 ffbd 6d0a adbd
00000130: 885e 943e 39d9 f53c d9d0 18bd 7e30 f7bd
00000140: a0da c43d 9aba 6abd 8406 e03d e1d9 edbc
00000150: 1150 0abd 5079 b1bd 56f9 543e 732f 02be
00000160: 99f2 1b3e 6b6b eb3d 308e 273e 4c43 e63d
00000170: 7518 293e 0308 c1bc aadc 26be 57c6 98be
00000180: 2830 cb3a 346f 7ebd 8990 cabe 403b abbd
00000190: 1ccf 553e 1336 e73d 0d9d 343c 12ac ac3e
000001a0: 57b0 8cbd a5d7 803e 3bfc 143e 9a31 683e
000001b0: ce28 083e b395 25bd fe46 20bc 55b4 223d
000001c0: 89ba 3bbd 93c4 a3be e224 01bb 54ad bcbe
000001d0: 9839 abbe 26b2 4dbe c8a6 acbd 01f3 193c
000001e0: 8b62 8a3e 24b1 093c d70e 5abe 4b5a 663e
000001f0: 8ea3 2ebd 4e73 823d 3071 96be fdb8 d73c
00000200: 58a8 37bd ac2d c13c 6931 313e c580 ab3c
00000210: a259 21be 3d1e 113e a496 eabd ad52 eabc
00000220: 3371 3bbe 2dc9 11be 491f cb3d b497 3a3e
00000230: 9cec 363e c109 27be b82d b7bd a134 043d
00000240: ecc5 2a3e 0d8c 40be e450 04be 311e d53c
00000250: e0a2 a03c f70e 0cbd 9790 e93d 7cd4 303e
00000260: bc3a afbd 48f4 1a3c 20f4 77bd 0012 773d
00000270: a3ed dcbd 1adf 24be 6ab7 bbbd dfd3 54be
00000280: 11ba 09be 9897 4d3d 1c04 653d 17b9 4cbd
00000290: 8b77 b9bd 4d60 f63d 67e2 32be 60f2 0dbe
000002a0: 3d73 7a3d 920e 7fbd cb00 7ebe 3406 29be
000002b0: 6c69 2d3e 216b 803d b2ce 373d e170 87bc
000002c0: 0347 083e 93a7 52be c79c 413e 321c cf3d
000002d0: be92 11be c38b 023e ebad f63d c87b c73d
000002e0: aed2 0cbe daa8 b7bd f8e2 ea3d af93 ee3d
000002f0: 9ac2 f23d aae3 9cba b783 8fbd a125 683c
00000300: e426 723e 65a6 bfbd 0747 103e 6037 363e
00000310: cd19 ffbd 6100 0bbe 24c9 b2bb 6365 0abe
00000320: dff1 483e 0ee3 683e 15b5 243e a9a2 0b3e
00000330: 00f3 a33d 31bb d83d c9d2 9ebd 1968 6bbb
00000340: a5d4 4ebc 71a5 52bd 7f02 9f3c af16 7b3e
00000350: ab75 0abc 67c6 7a3e 719f 13be 9e42 1dbe
00000360: 6a0b 9fbe 9d1f 1a3d 03c9 3a3e 56cd 9ebe
00000370: b223 953c 0c56 55bb 70a0 4d3d 4627 eb3d
00000380: 6fdd f3bd 1fb5 1cbe 6638 c03d e4ce ba3d
00000390: f93e cabb b09d 543d 75de 043e 9f58 833e
000003a0: c079 3e3e 58e1 0e3e 7415 4d3e cc2b 373e
000003b0: 1d27 1b3e e178 f83d 963f 79be 4469 8bbe
000003c0: 6b7d 01be 6c36 a53d d058 363e ff10 9f3d
000003d0: 0c75 103e 0f8c 93bc 7ef4 633e b806 843c
000003e0: e1bc 573e aa52 5abd 3880 02be 28f4 e73d
000003f0: d41c 99bd 8a1a 12be 00cc 0c3d 5a34 2f3e

net.0.bias f4 [50]
-0.43121698 0.011735104 0.045543693 0.02353932 -0.03586408 -0.049544215 0.15669516 -0.10676059
-0.116980426 0.06366685 -0.22675204 0.000118776064 0.13763583 -0.17149542 -0.118675746 0.08786603
0.015464315 -0.23721533 -0.1029205 0.18808867 0.071173735 0.10252901 0.08359774 0.04275511
0.41298306 -0.28846186 0.011948731 -0.03251135 -0.10903313 0.024206683 -0.030607304 0.0028925268
-0.17558357 -0.15724614 -0.12877646 0.27715597 -0.053662837 -0.056650065 -0.1443696 -0.06505327
-0.022893412 0.17116563 -0.316104 0.30133137 -0.12626134 -0.33926728 0.1020792 -0.09724785
-0.15035386 -0.09434365
00000000: 79c8 dcbe 9844 403c 068c 3a3d 88d5 c03c
00000010: 37e6 12bd e0ee 4abd b274 203e 4ca5 dabd
00000020: 6f93 efbd c463 823d b031 68be 6a17 f938
00000030: 68f0 0c3e 7f9c 2fbe 450c f3bd 1bf3 b33d
00000040: 0a5e 7d3c 93e8 72be fcc7 d2bd 519a 403e
00000050: 89c3 913d bbfa d13d 4b35 ab3d fb1f 2f3d
00000060: 8472 d33e 46b1 93be 9cc4 433c 9f2a 05bd
00000070: c34c dfbd 184d c63c 2bbc fabc 8c90 3d3b
00000080: 2ecc 33be 2205 21be fadd 03be 63e7 8d3e
00000090: 90cd 5bbd e609 68bd a0d5 13be a63a 85bd
000000a0: f78a bbbc 0b46 2f3e 62d8 a1be 1b48 9a3e
000000b0: a74a 01be 71b4 adbe e60e d13d e129 c7bd
000000c0: 5df6 19be 3e37 c1bd

net.2.weight f4 [50, 50]
-0.118642636 -0.104112305 0.09066808 -0.13528909 0.12775329 0.10390513 0.06566237 -0.13079211
0.092182145 0.045579765 0.0606803 -0.015200967 0.116147205 0.11787438 -0.014135215 0.15925962
0.04944255 0.055954397 0.14274403 -0.062797844 -0.13713613 -0.014487066 0.006626564 -0.1218205
0.2248756 0.011111795 -0.036040742 -0.17497467 -0.009928473 0.046842523 0.02407632 -0.039143983
0.15648426 0.0713921 -0.09524893 -0.09885558 -0.04355288 0.14850481 0.00091150677 -0.37246308
-0.116973445 -0.008729806 0.045321047 -0.14585365 0.19271146 -0.18127277 -0.046286087 0.06938717
-0.026985673 0.12980142 0.013487788 -0.119437106 0.073328525 0.009996829 -0.08046758 -0.068557926
-0.06769713 0.12179401 0.10529637 0.02065343 0.09928325 0.005467059 0.040380336 0.093945995
0.14783561 -0.104501165 -0.044353943 0.017789435 -0.056643326 0.06389919 -0.046457626 -0.21570067
-0.093479104 -0.10461133 -0.18293014 -0.06253564 0.021712754 0.12787358 -0.017540857 0.11383478
0.06662534 0.08900238 0.054761797 0.14247255 -0.046674572 -0.031316966 -0.09640776 -0.12224955
0.09469038 0.33992463 0.073885046 -0.12121037 0.14344855 0.062495727 -0.13587312 0.027396314
0.020338114 -0.027410414 -0.093250275 -0.035202757 0.13508585 0.08970672 0.060182624 -0.05215724
-0.045389194 0.08347969 0.08696753 0.011606025 0.06670761 0.041625332 0.13645262 0.038703497
-0.006882218 0.018840382 0.09758441 0.051628716 0.06487645 -0.02742351 -0.048331723 0.035739426
0.12629762 0.07421369 0.07221588 -0.06388484 0.072190374 0.020451078 -0.027318593 -0.09352172
-0.042970497 0.17625189 -0.08617191 0.0675394 -0.032331027 0.102069095 0.06492329 0.12067615
-0.07651519 -0.02639619 0.15067467 -0.03475611 0.016341455 0.029093845 0.10612322 0.03603828
-0.14734071 0.096717015 0.052684266 0.008956557 -0.15367645 -0.033292733 0.0060872547 0.09389444
0.03412974 0.020407125 -0.0957586 0.04110382 0.121270485 -0.11699473 0.035449628 0.09759809
-0.019080829 -0.03933999 0.0954712 -0.09276069 0.029602075 -0.08444408 -0.02075377 -0.12514278
0.10296562 -0.13633409 0.11215055 0.05630938 -0.10127423 -0.066499904 -0.0402247 -0.061586596
-0.056360036 0.013990587 -0.0015272616 0.064181596 0.048082843 0.06511378 0.03765447 -0.029714536
-0.11247913 -0.05267034 -0.09936938 -0.065510854 0.10811226 -0.153645 0.07805194 0.12087165
0.07150457 -0.025189895 -0.055261176 0.0114548085 0.09169179 0.066067666 0.1441547 0.07289224
0.1703548 0.095818594 0.10901691 0.061678927 -0.054714717 -0.1607457 0.074195474 -0.040872432
-0.08050285 -0.008776931 0.010288842 -0.078869574 0.051939618 -0.036141366 0.08196358 -0.03158064
-0.07618061 0.16638304 0.10006921 -0.031662233 -0.099266194 -0.055203885 0.071340844 -0.034595564
0.018415656 -0.06676559 -0.024772868 0.07059158 -0.10865251 0.22718564 -0.1384565 -0.0030843802
-0.010617569 -0.019559694 -0.07837258 -0.024463864 0.06868944 0.025959464 0.064620726 0.191895
0.008514113 -0.04954284 0.12801182 0.046597544 -0.14182143 0.11441145 0.015441273 -0.008517991
0.066575654 0.06488673 0.027097642 -0.08487655 -0.100609705 -0.086115114 -0.013018186 0.08346434
00000000: e9fa f2bd d538 d5bd 30b0 b93d 3989 0abe
00000010: c2d1 023e 36cc d43d fe79 863d 5eee 05be
00000020: fec9 bc3d d9b1 3a3d e88b 783d 7a0d 79bc
00000030: 96de ed3d 1f68 f13d 6497 67bc f414 233e
00000040: 4584 4a3d 7030 653d 7e2b 123e 289c 80bd
00000050: 6a6d 0cbe 295b 6dbc a623 d93b 077d f9bd
00000060: ca45 663e 3f0e 363c 759f 13bd 8f2c 33be
00000070: 09ab 22bc f2dd 3f3d b43b c53c 7155 20bd
00000080: 693d 203e 0536 923d df11 c3bd cb74 cabd
00000090: 8164 32bd a511 183e 2ff2 6e3a 7bb3 bebe
000000a0: c68f efbd 7607 0fbc 90a2 393d a95a 15be
000000b0: 2756 453e 929f 39be 7b96 3dbd dc1a 8e3d
000000c0: 0f11 ddbc aaea 043e e2fb 5c3c 719b f4bd
000000d0: 442d 963d bdc9 233c 30cc a4bd 1968 8cbd
000000e0: cba4 8abd 236f f93d a0a5 d73d 6231 a93c
000000f0: 0455 cb3d 0425 b33b da65 253d c266 c03d
00000100: 3862 173e b504 d6bd 7bac 35bd 26bb 913c
00000110: d502 68bd 94dd 823d 5a4a 3ebd a3e0 5cbe
00000120: f971 bfbd 773e d6bd 0a52 3bbe b012 80bd
00000130: f2de b13c 4bf1 023e d8b1 8fbc 3622 e93d
00000140: de72 883d e146 b63d e84d 603d 53e4 113e
00000150: d62d 3fbd 3846 00bd 6f71 c5bd f95d fabd
00000160: 08ed c13d 9a0a ae3e 0b51 973d 243d f8bd
00000170: 2de4 123e 85fb 7f3d 5322 0bbe 3c6e e03c
00000180: 1e9c a63c ce8b e0bc 00fa bebd c430 10bd
00000190: f253 0a3e 28b8 b73d 0e82 763d d5a2 55bd
000001a0: 05ea 39bd 66f7 aa3d 081c b23d 3227 3e3c
000001b0: 009e 883d 537f 2a3d 3cba 0b3e 8f87 1e3d
000001c0: 3b84 e1bb 2557 9a3c 56da c73d a278 533d
000001d0: f2dd 843d 45a7 e0bc 7cf7 45bd 8163 123d
000001e0: 2a54 013e 59fd 973d ebe5 933d 0ed6 82bd
000001f0: 8cd8 933d 0589 a73c 3ecb dfbc 5188 bfbd
00000200: d501 30bd 607b 343e e67a b0bd 1952 8a3d
00000210: 8a6d 04bd 9a09 d13d 80f6 843d 0f25 f73d
00000220: ffb3 9cbd d33c d8bc 764a 1a3e 6c5c 0ebd
00000230: 84de 853c 3756 ee3c 2157 d93d e09c 133d
00000240: 7ce0 16be 9213 c63d 75cb 573d 86be 123c
00000250: 5c5d 1dbe f65d 08bd 9877 c73b ba4b c03d
00000260: a0cb 0b3d d82c a73c 161d c4bd 7b5c 283d
00000270: a95c f83d ef9a efbd a133 113d 82e1 c73d
00000280: 664f 9cbc f822 21bd 6886 c33d 51f9 bdbd
00000290: 0d80 f23c 05f1 acbd cf03 aabc 6e25 00be
000002a0: a4df d23d 2a9b 0bbe 30af e53d aaa4 663d
000002b0: dd68 cfbd 1a31 88bd a8c2 24bd 3a42 7cbd
000002c0: c8d9 66bd c638 653c 652e c8ba a471 833d
000002d0: 84f2 443d 605a 853d 933b 1a3d e66b f3bc
000002e0: 755b e6bd dbbc 57bd 2c82 cbbd 8e2a 86bd
000002f0: f669 dd3d 1d55 1dbe b2d9 9f3d 8e8b f73d
00000300: fd70 923d 0a5b cebc 8b59 62bd f3ac 3b3c
00000310: e8c8 bb3d 7c4e 873d 4a9d 133e 8748 953d
00000320: 7d71 2e3e 8a3c c43d 4244 df3d 0ba3 7c3d
00000330: 8a1c 60bd 859a 24be ccf3 973d da69 27bd
00000340: aede a4bd 1ecd 0fbc 8892 283c 5f86 a1bd
00000350: a3be 543d f808 14bd 85dc a73d b35a 01bd
00000360: 9404 9cbd 5160 2a3e 16f1 cc3d 42b0 01bd
00000370: 134c cbbd 781d 62bd 261b 923d 14b4 0dbd
00000380: 6edc 963c 66bc 88bd 78f0 cabc 5192 903d
00000390: 3585 debd 5aa3 683e 8ac7 0dbe 5023 4abb
000003a0: 50f5 2dbc a73b a0bc ce81 a0bd 7168 c8bc
000003b0: 0dad 8c3d f1a8 d43c df57 843d 1f80 443e
000003c0: c77e 0b3c 6fed 4abd 8815 033e 11dd 3e3d
000003d0: a339 11be 8d50 ea3d 65fd 7c3c 0b8f 0bbc
000003e0: d158 883d 55e3 843d e0fb dd3c c2d3 adbd
000003f0: 760c cebd 1f5d b0bd 3b4a 55bc 5aef aa3d

net.2.bias f4 [50]
0.015207252 0.14882214 -0.040490646 -0.043367416 0.09926539 -0.20339616 -0.1441438 0.013028521
0.047430374 -0.16411743 0.18222632 0.042084355 -0.12786612 -0.06623124 -0.07172735 -0.06864183
-0.0064505255 0.114866875 -0.040051572 -0.018862333 0.033082712 -0.06161945 -0.012313173 -0.038668573
-0.016893603 -0.034437258 0.025921984 0.12211321 -0.12768784 -0.1527774 -0.102774166 -0.15678528
0.1648938 0.15476938 0.18280555 -0.10806138 -0.20641045 -0.014170296 -0.024007903 0.09088611
-0.035572935 0.17794973 -0.12783326 0.019403955 -0.013520378 -0.058550496 0.056345657 0.07431645
-0.056856122 -0.11297093
00000000: d727 793c d564 183e 85d9 25bd 08a2 31bd
00000010: a74b cb3d 1547 50be 6f9a 13be 9475 553c
00000020: 5a46 423d 660e 28be 8999 3a3e a560 2c3d
00000030: 56ef 02be 3fa4 87bd cae5 92bd 1694 8cbd
00000040: ee5e d3bb 533f eb3d 1e0d 24bd 2e85 9abc
00000050: bd81 073d ad64 7cbd 31bd 49bc f062 1ebd
00000060: 7464 8abc 150e 0dbd 575a d43c 7e16 fa3d
00000070: 9ac0 02be ae71 1cbe 437b d2bd 528c 20be
00000080: ecd9 283e dd7b 1e3e 6131 3b3e 494f ddbd
00000090: 435d 53be 872a 68bc 39ac c4bc 7f22 ba3d
000000a0: edb4 11bd 7438 363e b9e6 02be 0bf5 9e3c
000000b0: 9384 5dbc a5d2 6fbd b4ca 663d 3933 983d
000000c0: f7e1 68bd 4e5d e7bd

net.4.weight f4 [50, 50]
0.06847031 -0.024701986 0.057627127 -0.107777365 0.13455763 -0.011009471 0.02118202 -0.071439445
-0.09490464 -0.18703815 -0.039720528 0.048324283 -0.114488654 -0.1957179 -0.20341928 0.060829025
-0.13870373 -0.19819295 -0.09289005 0.08314109 -0.016986435 -0.06590098 0.004163913 0.21931419
-0.011991655 0.00705748 0.021691356 0.104715675 0.06920231 -0.2034684 0.14463119 0.22432002
0.19944748 0.097952634 0.14913607 0.13027495 0.094149865 0.0939165 0.0834702 -0.25226745
-0.035540164 0.06935392 0.11420717 0.013775117 0.012109133 0.074011356 -0.016586678 0.19015417
0.056501713 -0.031555593 0.04632823 -0.20827498 -0.079464674 -0.08761451 -0.15531772 0.17718066
-0.08751955 -0.12641633 0.0873322 0.20111047 -0.13888295 -0.02797129 0.13900596 0.22692463
0.07025181 -0.016567077 0.20774963 0.030055992 0.059729204 0.04753529 -0.035256267 -0.053849354
-0.05375858 -0.07978872 0.059273865 0.15943494 0.19049472 0.05469825 0.0068976725 0.0037515152
-0.023199366 -0.13937359 -0.05829059 0.07278162 0.025062645 -0.073625706 -0.066041656 -0.14485328
-0.046335433 0.23234972 0.13968153 -0.14313518 0.13658862 -0.060288582 -0.1344208 0.01694325
0.14246668 -0.07669519 -0.1447693 0.13320017 -0.16693504 0.08121571 0.13553166 -0.0030120164
0.0033698229 0.04952039 -0.08818464 0.06687554 -0.24667299 -0.052450422 -0.09580877 0.16428453
-0.12897313 0.063310824 -0.01183551 -0.20046836 -0.07722226 -0.09292645 -0.06938669 0.059523072
-0.060374383 0.13444796 -0.07218971 0.25030616 -0.040310748 -0.0790244 -0.09923842 -0.08244081
-0.13964812 -0.15284711 0.18384191 0.14216445 0.055466045 -0.06503692 0.043050036 0.12668218
0.210559 -0.08130919 0.057045247 -0.026953936 -0.19304037 0.0017858547 -0.02134941 -0.09906176
0.16275227 0.1408599 -0.102833256 -0.061036155 0.12376604 -0.17934024 0.012741759 -0.043068815
0.086133085 0.08570863 0.052476197 0.1476926 0.16548477 -0.06751968 0.0055461302 0.030707737
-0.08260473 0.052206367 -0.0030163464 0.12153572 0.118411005 -0.07709189 0.10198919 0.15913846
-0.029337762 -0.08531239 -0.08636107 -0.029940909 0.11359377 -0.104898095 0.092068166 0.041040145
0.22037627 -0.16481167 -0.042754695 0.14399476 -0.07370147 -0.091259606 -0.19059515 -0.055729583
-0.17510769 0.013200268 0.03302535 0.049174055 0.017909463 0.23330843 0.09828312 -0.16268016
0.15532152 -0.0694218 -0.16515471 -0.21856418 -0.032304257 -0.17378248 0.065152794 0.18691444
0.1528931 -0.055902835 -0.14956701 0.1003431 -0.19916023 0.067018166 -0.080059074 -0.10183311
0.1907243 0.15329595 0.08281316 -0.024151683 -0.054228872 0.092398845 0.13559993 -0.005822295
0.09494594 0.23834738 -0.044203673 -0.019686384 0.053523798 -0.12190005 0.012803515 -0.09979412
0.20942989 0.15403523 0.12454433 0.029662538 0.022950683 0.012569101 -0.09772317 -0.04980832
0.019150581 0.09163896 0.03260285 -0.18121897 -0.20234922 -0.07750939 -0.11011237 0.12853536
0.21862376 0.0747759 -0.059897915 -0.19074515 -0.121617086 -0.07013864 0.12346693 -0.08311668
-0.14471824 -0.032122508 -0.19685158 0.04949313 0.11854233 0.055658776 0.032864593 0.099724755
00000000: 293a 8c3d d25b cabc 6c0a 6c3d 61ba dcbd
00000010: 7ac9 093e 1161 34bc ea85 ad3c d84e 92bd
00000020: 5d5d c2bd ee86 3fbe feb1 22bd afef 453d
00000030: 0779 eabd 466a 48be 254d 50be db27 793d
00000040: 5a08 0ebe 18f3 4abe 233d bebd e045 aa3d
00000050: 2327 8bbc 18f7 86bd 6f71 883b e693 603e
00000060: a678 44bc 6f42 e73b 12b2 b13c 2c75 d63d
00000070: f1b9 8d3d 055a 50be 331a 143e 26b4 653e
00000080: f63b 4c3e 649b c83d 20b7 183e cc66 053e
00000090: a5d1 c03d 4b57 c03d 6df2 aa3d 3329 81be
000000a0: 9092 11bd 6e09 8e3d 73e5 e93d 07b1 613c
000000b0: 6365 463c 4493 973d c9e0 87bc c6b7 423e
000000c0: 576e 673d 7040 01bd acc2 3d3d 0946 55be
000000d0: 60be a2bd 3c6f b3bd 9c0b 1fbe d96e 353e
000000e0: 733d b3bd 4873 01be 39db b23d e7ef 4d3e
000000f0: 5537 0ebe 0c24 e5bc 9457 0e3e ee5e 683e
00000100: 2ee0 8f3d aeb7 87bc 52bc 543e fc37 f63c
00000110: 9ca6 743d 5db4 423d e068 10bd 2491 5cbd
00000120: f531 5cbd 4568 a3bd 27c9 723d ea42 233e
00000130: 0c11 433e 460b 603d df05 e23b fbdb 753b
00000140: 990c bebc f3b7 0ebe 1dc2 6ebd 880e 953d
00000150: 2d50 cd3c 13c9 96bd d940 87bd 6b54 14be
00000160: 39ca 3dbd 16ed 6d3e ad08 0f3e 0792 12be
00000170: e3dd 0b3e 29f1 76bd 9ba5 09be 92cc 8a3c
00000180: c9e2 113e 5e12 9dbd 673e 14be a065 083e
00000190: 05f1 2abe 6c54 a63d d0c8 0a3e 4065 45bb
000001a0: 3fd8 5c3b e4d5 4a3d 269a b4bd 0bf6 883d
000001b0: d897 7cbe 41d6 56bd 6337 c4bd 343a 283e
000001c0: 8811 04be 1ba9 813d bae9 41bc 9447 4dbe
000001d0: b426 9ebd 3950 bebd 9c1a 8ebd 77ce 733d
000001e0: 214b 77bd baac 093e 33d8 93bd 2128 803e
000001f0: e21c 25bd 8bd7 a1bd 833d cbbd bad6 a8bd
00000200: ebff 0ebe f483 1cbe 0e41 3c3e 8f93 113e
00000210: 5d30 633d 1432 85bd 3c55 303d f9b8 013e
00000220: c79c 573e 6f85 a6bd 47a8 693d 80ce dcbc
00000230: 60ac 45be 5713 ea3a f5e4 aebc e4e0 cabd
00000240: 88a8 263e 943d 103e 3e9a d2bd 0c01 7abd
00000250: 0d79 fd3d f8a4 37be d0c2 503c ed68 30bd
00000260: 8b66 b03d 0288 af3d 48f1 563d bb3c 173e
00000270: d774 293e c247 8abd 50bc b53b cb8e fb3c
00000280: ab2c a9bd 58d6 553d e5ad 45bb b8e7 f83d
00000290: 7881 f23d 5ae2 9dbd b5df d03d 31f5 223e
000002a0: bf55 f0bc 43b8 aebd 13de b0bd a346 f5bc
000002b0: daa3 e83d d0d4 d6bd 3c8e bc3d b619 283d
000002c0: 51aa 613e 64c4 28be 8c1f 2fbd 5d73 133e
000002d0: ccf0 96bd 51e6 babd 602b 43be b444 64bd
000002e0: 6e4f 33be f045 583c 9745 073d bc6a 493d
000002f0: deb6 923c 68e8 6e3e a948 c93d a195 26be
00000300: 9b0c 1f3e 042d 8ebd 511e 29be 4acf 5fbe
00000310: 7851 04bd 09f4 31be d46e 853d 8066 3f3e
00000320: 0290 1c3e 5ffa 64bd 1828 19be af80 cd3d
00000330: a9f0 4bbe d240 893d 03f6 a3bd e18d d0bd
00000340: 3b4d 433e 9df9 1c3e f299 a93d c0d9 c5bc
00000350: 181f 5ebd 9b3b bd3d b5da 0a3e f3c8 bebb
00000360: 0473 c23d 5611 743e e90e 35bd 5745 a1bc
00000370: c53b 5b3d bca6 f9bd d6c5 513c dc60 ccbd
00000380: ca74 563e 69bb 1d3e 1911 ff3d dafe f23c
00000390: 1203 bc3c a1ee 4d3c 1623 c8bd cf03 4cbd
000003a0: aee1 9c3c 35ad bb3d 918a 053d 7791 39be
000003b0: a234 4fbe 3ebd 9ebd 9882 e1bd c69e 033e
000003c0: e8de 5f3e 1b24 993d 8457 75bd b252 43be
000003d0: 6112 f9bd d9a4 8fbd 3bdc fc3d 1439 aabd
000003e0: 0531 14be e492 03bd 7693 49be 4fb9 4a3d
000003f0: 52c6 f23d 75fa 633d 069d 063d 7e3c cc3d

net.4.bias f4 [50]
0.24947323 -0.20060527 0.119722575 -0.22606914 -0.16414356 0.013927862 -0.0014589282 -0.0385553
0.025307294 -0.1611167 -0.01740886 0.08083643 0.23434094 0.061011527 -0.15466262 -0.08434543
0.10881774 -0.012599488 0.089372 0.12456005 -0.20182136 0.22816603 0.025943229 -0.12446909
0.19324657 0.04370371 -0.21325417 -0.120592624 -0.12535207 -0.01046369 0.23462082 0.021572618
0.23621371 0.029248292 -0.031489156 -0.08017971 -0.17387253 -0.052489247 0.034247518 -0.21116875
-0.25323027 -0.042371936 0.07627568 -0.1121484 0.24843183 -0.18235333 -0.15524548 -0.27810356
-0.06773601 0.19877623
00000000: e975 7f3e 786b 4dbe 1c31 f53d ab7e 67be
00000010: 4015 28be b031 643c 8239 bfba 2aec 1dbd
00000020: 3e51 cf3c c7fb 24be 079d 8ebc 928d a53d
00000030: 12f7 6f3e 39e7 793d e15f 1ebe 4cbd acbd
00000040: d6db de3d 156e 4ebc ab08 b73d 5719 ff3d
00000050: 42aa 4ebe 5ba4 693e e586 d43c a6e9 febd
00000060: 6ee2 453e a902 333d 4d5f 5abe 44f9 f6bd
00000070: 4b5c 00be e66f 2bbc 7140 703e 0fb9 b03c
00000080: 02e2 713e 1d9a ef3c c6fa 00bd 4335 a4bd
00000090: a40b 32be f7fe 56bd 2047 0c3d 9f3c 58be
000000a0: 66a7 81be 328e 2dbd 6c36 9c3d 0fae e5bd
000000b0: ea64 7e3e d5ba 3abe acf8 1ebe 9763 8ebe
000000c0: 2db9 8abd ff8b 4b3e

net.6.weight f4 [1, 50]
1.6592503 -1.516576 1.53972 -1.3301935 -1.5116664 1.9995929 -1.6027491 1.7477044
0.97556 -1.8727837 1.7510082 1.311792 0.7010896 1.6191308 -1.5228045 -1.5017505
1.475763 -1.9272774 1.6296555 1.4519091 -1.640286 1.3659728 1.6991608 1.9517319
1.9377476 1.4202224 -1.718297 -1.1251559 -1.6165924 -1.7052609 1.6213139 -0.72862697
1.2354409 0.6808276 1.3303146 -1.5318004 -1.6939545 -1.5089755 1.7357124 -1.2491672
-1.2927314 -1.2768804 1.1336311 -1.2581674 1.4416142 -1.4294564 -1.842412 -1.2735931
-1.2661984 1.7475444
00000000: 5062 d43f 2a1f c2bf 8c15 c53f c843 aabf
00000010: 497e c1bf a9f2 ff3f e226 cdbf c7b4 df3f
00000020: 4dbe 793f 60b7 efbf 0921 e03f cde8 a73f
00000030: 9c7a 333f ae3f cf3f 42eb c2bf 5c39 c0bf
00000040: cde5 bc3f 07b1 f6bf 8d98 d03f 28d8 b93f
00000050: e4f4 d1bf 32d8 ae3f 1a7e d93f 5ad2 f93f
00000060: 1d08 f83f d9c9 b53f 28f1 dbbf 1c05 90bf
00000070: 80ec cebf fd45 dabf 3787 cf3f 4c87 3abf
00000080: ed22 9e3f b84a 2e3f c047 aa3f 0912 c4bf
00000090: 80d3 d8bf 1c26 c1bf d32b de3f b6e4 9fbf
000000a0: 3978 a5bf d170 a3bf d31a 913f a10b a1bf
000000b0: d086 b83f 6df8 b6bf 28d4 ebbf 1905 a3bf
000000c0: ca12 a2bf 89af df3f
