pretrain_ckpt/bc/Pendulum/bc_Pendulum-v1_25data_10000epochs/model.pth (torch, 24738 bytes, 7 tensors)

net.0.weight f4 [50, 3]
2.3936756 1.0585475 0.073204145 -0.06380861 0.2503505 -0.53345877 0.96949726 -0.095797144
0.0009359609 -0.37553015 -0.29845524 -0.091716714 0.8063276 -0.13115203 0.25427088 -0.41988516
-0.3817984 0.2443756 -0.54294854 0.35791466 1.2799397 -0.7417226 -0.20606719 0.012786309
0.09921584 0.5346874 0.18760899 -0.3797338 -0.4729914 0.5733383 0.06635887 -0.18060246
0.16336247 -0.33300257 -0.20296957 0.63544476 -0.5361171 0.30713987 0.17334373 0.0004369053
0.4421935 0.20941363 0.03969048 -0.11417842 -0.14983784 -0.049331 -0.19023645 0.43662414
0.35116184 0.3290446 0.3471192 -0.16225591 -0.37848324 0.48636103 -0.22358505 -0.098958075
-1.3608856 0.2893294 0.073357224 -0.097193226 0.6965463 -0.60497457 -0.06703027 -0.72014654
0.061595906 0.11707118 0.8441956 0.6512185 0.34186864 -0.17276554 -0.7414003 0.26595396
-0.5192124 -0.77836335 0.009841182 -0.98338073 0.13610657 -0.3884631 0.23325019 0.16759919
-0.26594123 -0.16765735 0.014080687 0.23242122 0.33948722 0.33520597 -0.46635178 1.5424851
0.59309995 0.031708837 -0.12441539 -0.47022918 0.5678637 0.22213025 -0.081896536 -1.7886908
0.60598576 -0.26236105 -0.19118613 -1.2026447 -0.36234444 -0.86022586 0.44233495 -0.35417357
0.5269808 0.083222404 0.41344473 -0.36802638 -0.9316901 0.34734678 1.7248034 0.29794505
0.2605632 -0.5586479 0.43922964 -0.5242952 -0.06543405 0.68409795 -0.24597749 -0.04107375
-0.63059074 0.35060894 0.009092864 -0.4992345 -0.69903386 -0.020764915 -0.5268388 -0.446278
0.34585565 -0.051633473 0.13822417 -0.17537117 0.47646603 -0.53111213 -0.2608182 -0.24583435
0.757111 -0.051827144 0.0019712937 0.47408614 -0.55858856 0.7699199 -0.25625983 -0.016612388
0.47872657 -0.6928861 -0.20363729 -0.2549493 0.694281 0.07695067
00000000: fb31 1940 7c7e 873f 0eec 953d 17ae 82bd
00000010: f12d 803e c190 08bf f930 783f 4b31 c4bd
00000020: 465b 753a 7d45 c0be 20cf 98be f9d5 bbbd
00000030: 7c6b 4e3f b84c 06be cb2f 823e 30fb d6be
00000040: 147b c3be 993d 7a3e adfe 0abf 9740 b73e
00000050: 10d5 a33f 88e1 3dbf 4703 53be ab7d 513c
00000060: ad31 cb3d 46e1 083f 921c 403e 786c c2be
00000070: ee2b f2be 4dc6 123f 29e7 873d daef 38be
00000080: 7e48 273e 507f aabe 41d7 4fbe 82ac 223f
00000090: f83e 09bf 7041 9d3e 0581 313e 7010 e539
000000a0: 3067 e23e 8770 563e 7c92 223d 60d6 e9bd
000000b0: 176f 19be 4d0f 4abd 58cd 42be 338d df3e
000000c0: 7ccb b33e 8978 a83e 9cb9 b13e 6a26 26be
000000d0: 8ec8 c1be 5004 f93e 7bf3 64be 88aa cabd
000000e0: 8031 aebf fc22 943e 503c 963d 3e0d c7bd
000000f0: dc50 323f 9ddf 1abf 2b47 89bd 865b 38bf
00000100: fd4b 7c3d 04c3 ef3d 341d 583f 41b6 263f
00000110: 6809 af3e 73e9 30be 69cc 3dbf 1e2b 883e
00000120: 1beb 04bf d242 47bf e93c 213c d7be 7bbf
00000130: 855f 0b3e a3e4 c6be 23d9 6e3e 1f9f 2b3e
00000140: 7329 88be 5eae 2bbe afb2 663c d4ff 6d3e
00000150: 45d1 ad3e 1ea0 ab3e a9c5 eebe 2770 c53f
00000160: 66d5 173f 20e1 013d 7fcd febd e1c1 f0be
00000170: 845f 113f 1d76 633e 5fb9 a7bd d2f3 e4bf
00000180: e221 1b3f 3054 86be 4cc6 43be 43f0 99bf
00000190: 3685 b9be c337 5cbf ba79 e23e 3d56 b5be
000001a0: 37e8 063f 8270 aa3d 07af d33e f46d bcbe
000001b0: 3e83 6ebf 70d7 b13e 5cc6 dc3f 418c 983e
000001c0: 8a68 853e 8c03 0fbf b5e2 e03e 3638 06bf
000001d0: 4a02 86bd 0b21 2f3f 86e1 7bbe f33c 28bd
000001e0: 656e 21bf 0483 b33e 3cfa 143c aa9b ffbe
000001f0: e2f3 32bf 2f1b aabc e8de 06bf 8d7e e4be
00000200: fe13 b13e 9f7d 53bd a38a 0d3e 8094 33be
00000210: 5bf3 f33e f7f6 07bf f789 85be 00bc 7bbe
00000220: 07d2 413f b348 54bd d230 013b 6bbb f23e
00000230: a9ff 0ebf 7819 453f 7d34 83be b416 88bc
00000240: a61b f53e fc60 31bf 4b86 50be b788 82be
00000250: 66bc 313f 5098 9d3d

net.0.bias f4 [50]
0.0660869 -0.5816266 -0.12809047 -0.39262694 0.26753935 0.49532083 -0.4617849 0.07225548
0.008043715 0.5514622 -0.007334424 -0.37269172 0.38748294 0.33117524 -0.4283467 -0.11329122
-0.40915185 0.15564822 -0.105373055 -0.016787523 0.21391292 0.36574423 0.6845393 0.33318704
0.08280204 -0.56621796 -0.5370189 -0.2900718 0.5434044 0.09048606 0.45896003 -0.0078730155
-0.56276095 -0.7380831 0.24312572 0.44798186 -0.88230765 0.052357644 0.23133259 0.45220053
-0.47573882 -0.09109852 0.5921939 -0.5734699 -0.7466367 -0.45469105 0.27701223 0.17375498
-0.45869008 0.19363968
00000000: 9258 873d 7be5 14bf 262a 03be 6606 c9be
00000010: ebfa 883e b19a fd3e 126f ecbe aefa 933d
00000020: c9c9 033c a02c 0d3f 9c55 f0bb 73d1 bebe
00000030: 2a64 c63e cd8f a93e 4250 dbbe 3a05 e8bd
00000040: 5a7c d1be 3f62 1f3e d4cd d7bd fd85 89bc
00000050: fd0b 5b3e d442 bb3e f83d 2f3f 7e97 aa3e
00000060: 1e94 a93d a9f3 10bf 127a 09bf 4a84 94be
00000070: 8d1c 0b3f c150 b93d cffc ea3e d2fd 00bc
00000080: 1a11 10bf 04f3 3cbf f3f5 783e e15d e53e
00000090: eade 61bf f874 563d 73e2 6c3e d486 e73e
000000a0: 0a94 f3be dc91 babd 059a 173f ecce 12bf
000000b0: 9523 3fbf 44cd e8be 8cd4 8d3e d3ec 313e
000000c0: 6dd9 eabe 7b49 463e

net.2.weight f4 [50, 50]
-0.02068974 -0.05227882 -0.038615633 0.07146204 0.018585892 -0.04505964 0.14572056 0.0020123033
-0.10373162 0.086131714 0.1491717 0.17919983 -0.0049651554 0.056428205 -0.13901198 0.06534416
0.026193304 0.016518913 0.05772849 0.117556065 0.12053586 -0.19630527 -0.27358696 -0.018955588
-0.034080457 -0.06735967 0.12862107 0.15677436 -0.12968929 -0.13059905 0.13979699 0.06693307
0.262183 -0.014279999 -0.085054055 -0.038341384 0.012521497 0.009361366 0.21157216 0.09166217
-0.15591672 0.01658107 0.13590631 -0.053369068 0.33332273 -0.029590664 -0.17919223 -0.0042473213
0.09750998 -0.058272645 -0.12141597 0.14179611 0.059950374 -0.027139205 -0.031766437 0.11710866
-0.14005041 0.114248596 -0.021310907 0.068759695 0.088758156 0.053970765 0.15867202 -0.054105364
-0.11465873 -0.13608286 0.041472185 -0.026539087 -0.14109913 0.02146077 -0.19713838 -0.046032432
0.15864825 -0.11617467 -0.06653342 -0.029397521 -0.16633767 -0.007821466 0.14566514 0.02468517
-0.049984198 -0.06156981 -0.15014088 -0.18982975 -0.016402598 0.14213887 -0.10891535 0.040300332
-0.088932216 -0.09567775 0.13102157 0.023914482 -0.07073794 0.104958415 -0.12998998 0.04485929
0.12188661 0.00039532705 -0.22967012 -0.0004707362 -0.053347196 -0.14208274 0.12930022 -0.083991
0.07969794 0.09638796 -0.1732803 -0.0008402135 -0.04905471 -0.016850134 -0.06347108 -0.020324117
0.17495629 -0.026055614 -0.17868409 -0.045408256 0.1743905 -0.063505866 -0.1809713 0.027793262
-0.2770237 0.035280813 0.017996624 -0.09227934 -0.13873497 0.05890464 0.08716972 -0.06762674
-0.020890748 0.06665282 0.082593456 -0.046231896 -0.14788574 -0.035505503 -0.039501376 0.031484175
-0.121622816 0.108178645 0.009118064 -0.02025748 0.10461935 -0.1371041 -0.08926742 -0.1676857
-0.17789032 0.24249035 0.09124699 -0.15759993 -0.25001335 0.29181457 -0.11444166 -0.046778876
-0.15573008 -0.060108744 -0.14839743 -0.13210061 0.06901513 0.095711924 0.10254657 -0.1545178
-0.13321236 -0.16108432 0.017908175 0.07214298 0.12575708 -0.09589636 -0.018310297 -0.13128358
0.09418005 0.08415729 0.026098564 0.0050127986 0.0856607 0.1147753 0.0040254216 0.033516295
0.06847207 0.02250157 -0.024901213 0.02999123 0.092634484 0.032504346 -0.14770378 0.08879122
0.013938522 -0.0038531113 -0.047970913 -0.0021938113 -0.19812055 -0.07263888 -0.0813367 -0.021311646
0.079598166 0.12128347 -0.22038104 0.18856151 -0.038535565 -0.021816792 -0.10744449 -0.020394498
-0.0026122206 -0.019997966 0.21035075 -0.12344299 0.13267875 -0.16049327 0.14858386 -0.118569724
0.03323082 0.13083473 0.12254438 0.09252197 -0.23409219 -0.05845478 0.07533451 0.1664976
-0.045493886 0.117483914 -0.025807658 0.097404405 0.16858694 -0.33845967 -0.17602405 -0.08538516
-0.048229568 0.030191295 -0.031397775 0.09046265 -0.10222997 0.06790322 -0.024155444 -0.014029667
0.1741582 0.06386512 -0.030819194 -0.1213899 0.07429304 0.06463382 0.24717692 0.24773951
-0.18071331 -0.15042815 -0.03998926 -0.07877242 0.38228375 0.08593374 -0.123515315 0.30363965
0.17833027 0.016175006 0.10775175 0.08274311 0.08151581 -0.037493557 -0.027078675 -0.07129097
00000000: 887d a9bc 5122 56bd 6d2b 1ebd b15a 923d
00000010: 7141 983c 7590 38bd c537 153e d9e0 033b
00000020: 3e71 d4bd d365 b03d 77c0 183e 2980 373e
00000030: beb2 a2bb 4321 673d 2859 0ebe 29d3 853d
00000040: 5793 d63c ac52 873c b674 6c3d 3cc1 f03d
00000050: 81db f63d 4004 49be 9713 8cbe c048 9bbc
00000060: f397 0bbd def3 89bd 3eb5 033e 7589 203e
00000070: 45cd 04be c2bb 05be f126 0f3e 3514 893d
00000080: da3c 863e a8f6 69bc d230 aebd db0b 1dbd
00000090: f726 4d3c 6a60 193c 5fa6 583e 60b9 bb3d
000000a0: a2a8 1fbe 06d5 873c 062b 0b3e 8699 5abd
000000b0: 47a9 aa3e 1f68 f2bc 2b7e 37be 1d2d 8bbb
000000c0: 50b3 c73d 4caf 6ebd f0a8 f8bd 0033 113e
000000d0: 868e 753d 0a53 debc 861d 02bd aad6 ef3d
000000e0: 6069 0fbe 2bfb e93d 3694 aebc e2d1 8c3d
000000f0: d6c6 b53d 7310 5d3d eb7a 223e 969d 5dbd
00000100: 32d2 eabd 4e59 0bbe bdde 293d 8068 d9bc
00000110: 4a7c 10be 7fce af3c a5de 49be 818c 3cbd
00000120: b074 223e fcec edbd ac42 88bd 12d3 f0bc
00000130: 6c54 2abe 9b25 00bc 3e29 153e 8e38 ca3c
00000140: 3bbc 4cbd a030 7cbd 88be 19be bb62 42be
00000150: be5e 86bc da8c 113e 030f dfbd f611 253d
00000160: 1822 b6bd b2f2 c3bd 852a 063e 4ee8 c33c
00000170: 0edf 90bd 70f4 d63d 181c 05be 60be 373d
00000180: b09f f93d e643 cf39 a52e 6bbe 25cd f6b9
00000190: 9782 5abd 237e 11be 4767 043e 7903 acbd
000001a0: ac38 a33d 0d67 c53d 6470 31be c641 5cba
000001b0: 97ed 48bd 4b09 8abc 20fd 81bd c37e a6bc
000001c0: be27 333e 9572 d5bc f6f8 36be 02fe 39bd
000001d0: 6c93 323e 5d0f 82bd 8a50 39be b2ae e33c
000001e0: 0dd6 8dbe 9d82 103d a86d 933c f3fc bcbd
000001f0: 8a10 0ebe fe45 713d 0a86 b23d e37f 8abd
00000200: 1323 abbc 4681 883d c226 a93d a85d 3dbd
00000210: 5c6f 17be 386e 11bd 32cc 21bd 8df5 003d
00000220: 6215 f9bd c48c dd3d ef63 153c 04f3 a5bc
00000230: ab42 d63d 0465 0cbe d6d1 b6bd cdb5 2bbe
00000240: e128 36be 644f 783e b4df ba3d e061 21be
00000250: c001 80be b868 953e 6460 eabd 359b 3fbd
00000260: b577 1fbe 9634 76bd 7ff5 17be 6245 07be
00000270: ce57 8d3d 9d04 c43d f003 d23d ea39 1ebe
00000280: d268 08be 4af3 24be 2ab4 923c b3bf 933d
00000290: 77c6 003e 5065 c4bd 7aff 95bc 346f 06be
000002a0: 78e1 c03d a85a ac3d a8cc d53c 6742 a43b
000002b0: e16e af3d 500f eb3d afe7 833b 6248 093d
000002c0: 163b 8c3d 3655 b83c a1fd cbbc 2bb0 f53c
000002d0: 26b7 bd3d 4723 053d a93f 17be 2cd8 b53d
000002e0: 665e 643c 7b84 7cbb 267d 44bd 0cc6 0fbb
000002f0: 1de0 4abe b1c3 94bd db93 a6bd c395 aebc
00000300: 5d04 a33d 7863 f83d 91ab 61be 4516 413e
00000310: 78d7 1dbd 21b9 b2bc db0b dcbd 5d12 a7bc
00000320: ca31 2bbb c6d2 a3bc 3066 573e aecf fcbd
00000330: f0dc 073e 5958 24be 5e26 183e afd4 f2bd
00000340: 0a1d 083d 8af9 053e 8cf8 fa3d 297c bd3d
00000350: ddb5 6fbe 486e 6fbd fb48 9a3d 597e 2a3e
00000360: cc57 3abd 689b f03d 956a d3bc f67b c73d
00000370: 0ea2 2c3e 964a adbe a63f 34be 6ade aebd
00000380: 5e8c 45bd bc53 f73c f49a 00bd 7b44 b93d
00000390: f25d d1bd d810 8b3d a3e1 c5bc b0dc 65bc
000003a0: 8756 323e b7cb 823d 8978 fcbc 459b f8bd
000003b0: f326 983d bc5e 843d f21b 7d3e 6daf 7d3e
000003c0: e90c 39be d609 1abe c7cb 23bd 6f53 a1bd
000003d0: b2ba c33e 07fe af3d 99f5 fcbd a876 9b3e
000003e0: 369c 363e 7281 843c f3ac dc3d 3875 a93d
000003f0: c3f1 a63d d892 19bd 19d4 ddbc 0001 92bd

net.2.bias f4 [50]
0.03153585 -0.10402939 -0.17546798 -0.13553305 0.05702307 -0.1093026 0.030556912 0.06789992
-0.0757107 0.11125821 0.106405504 -0.10922753 0.042804576 0.10445157 -0.21522978 0.11062291
-0.24602455 0.009842069 -0.030378686 0.05565484 0.11185272 0.028856441 -0.11777842 -0.05942807
0.09794775 0.076698706 0.09951226 -0.0916519 0.11649067 0.104802474 -0.07894563 0.06477894
0.14655356 0.057095196 0.008937589 -0.042968452 0.13481456 -0.041670218 0.10368024 -0.07415965
-0.009677949 -0.035413325 -0.015243577 0.003295021 -0.1159094 0.26727152 -0.040577333 -0.018217385
-0.08703411 0.006584799
00000000: bc2b 013d 5c0d d5bd e1ad 33be 2dc9 0abe
00000010: 0691 693d 0bda dfbd 7d52 fa3c 1d0f 8b3d
00000020: 360e 9bbd 58db e33d 21eb d93d afb2 dfbd
00000030: da53 2f3d b4ea d53d 3265 5cbe 448e e23d
00000040: dced 7bbe a140 213c b9dc f8bc 54f6 633d
00000050: 0a13 e53d 5864 ec3c d035 f1bd d96a 73bd
00000060: d498 c83d 3614 9d3d 15cd cb3d feb3 bbbd
00000070: a992 ee3d aea2 d63d 3fae a1bd d2aa 843d
00000080: 2312 163e a7dc 693d f76e 123c b0ff 2fbd
00000090: d40c 0a3e 64ae 2abd 4e56 d43d 04e1 97bd
000000a0: 4390 1ebc 900d 11bd 32c0 79bc 47f1 573b
000000b0: e861 edbd d0d7 883e 6b34 26bd a03c 95bc
000000c0: f13e b2bd 4cc5 d73b

net.4.weight f4 [50, 50]
0.007137956 0.027936306 0.074010104 0.09996443 -0.05078063 0.023435019 0.09303283 -0.08462586
0.16675548 0.15821789 0.31293795 -0.11750029 -0.06683716 0.0837818 -0.052271396 0.0030329248
0.073207095 0.06031332 -0.025025915 0.07364211 0.016367022 0.06644166 -0.13643588 -0.022802375
0.120013386 -0.04172646 0.056489833 -0.2119275 0.043112844 0.039189298 0.10067051 -0.056013633
-0.0713459 0.008119118 0.094221994 -0.0047693113 0.14061902 -0.15423913 0.04355311 -0.029027654
-0.25056106 0.112024665 0.2599755 -0.011720249 -0.015493197 -0.116453186 -0.19512114 -0.096591674
-0.19000673 0.05566832 -0.23225373 0.22568575 -0.015861 -0.09283842 -0.1900392 0.024725532
-0.030818056 -0.21825857 0.28571546 -0.25945044 -0.2487465 0.16719067 0.053492095 0.055000827
-0.04143427 0.06852589 0.21168792 -0.049907833 -0.08687302 -0.17344438 0.13840362 -0.20384425
0.1383086 0.019382153 -0.11025677 0.27251577 -0.08270657 0.26786616 -0.24731477 -0.094459295
-0.12883984 0.21024463 -0.15360197 0.08218282 -0.15371661 0.16362591 -0.012359812 0.2890661
-0.004052111 0.5300063 -0.029355671 -0.04779577 0.05789497 0.17247723 0.21632491 0.7361441
0.16031513 -0.10971409 0.41209045 -0.040980488 -0.059518397 0.14758973 0.13399233 0.09229402
-0.3474486 -0.19195183 -0.08294307 0.0052088127 0.21764322 -0.53763306 -0.21276939 0.2323065
-0.06421437 -0.074601166 0.1889627 0.05578915 0.3840554 0.017417032 -0.2781812 -0.3207519
0.17983845 -0.187178 0.030377308 -0.14024162 0.06040311 0.29749545 -0.08478086 0.08031479
-0.44956464 -0.01624127 -0.02965644 0.1712023 -0.12386015 0.11679394 -0.093361594 0.23745035
-0.10187434 0.63185585 -0.024820944 0.5164238 0.054174934 -0.039395075 -0.100693874 0.061776344
0.13188177 0.502409 -0.08895507 -0.20320347 0.48341852 0.028256882 0.102875054 -0.012010125
0.0079615675 0.0057553 0.113769114 0.02821929 0.12843838 -0.06515783 -0.029755509 0.12516034
0.29494917 0.06869071 -0.13267855 0.1383683 -0.036573056 -0.04477655 -0.06639837 -0.062466107
0.023886746 -0.16335845 -0.054307844 -0.051606186 -0.09073701 -0.10631006 0.03870641 -0.43031597
0.15536056 0.021625543 -0.10566058 -0.119875334 0.121362574 -0.07068425 0.21250176 0.11253426
0.15903027 0.03776149 -0.15189235 -0.48535767 -0.08461063 0.109473646 -0.20337792 0.03361868
0.17558305 -0.22917065 -0.27650055 -0.2962236 -0.06902766 0.041743033 -0.23903115 -0.12370107
-0.19025093 0.024205295 0.06519845 0.10047493 -0.038846508 0.00583262 -0.10345757 -0.13038068
0.16941446 0.029459916 -0.22906925 0.13372491 0.13323666 -0.08444991 -0.03178932 0.1083472
0.02687962 -0.09959324 -0.085652396 -0.04299113 0.047020476 0.053638875 0.14105181 0.10359495
-0.13341205 0.016270924 -0.09317464 0.015640005 0.036883548 0.12984233 0.049911745 0.23638593
-0.016367137 0.13693748 -0.11376183 0.13032752 0.14713292 0.29802755 -0.06385435 0.10358467
0.0420749 -0.06037146 -0.083572574 -0.0014250157 0.06396907 0.39656997 0.05181664 -0.062724225
0.08978739 -0.081848554 -0.10063979 -0.035243966 -0.0931667 0.035005834 -0.25164703 -0.08511418
00000000: 84e5 e93b aeda e43c 9c92 973d 27ba cc3d
00000010: 5aff 4fbd ccfa bf3c ff87 be3d 5350 adbd
00000020: f3c1 2a3e df03 223e 6739 a03e fea3 f0bd
00000030: ece1 88bd cb95 ab3d 881a 56bd 09c4 463b
00000040: 9aed 953d 1a0b 773d 2603 cdbc add1 963d
00000050: 2214 863c 9112 883d d9b5 0bbe 0ccc babc
00000060: 94c9 f53d 5de9 2abd e261 673d 8603 59be
00000070: 1897 303d f584 203d 572c ce3d 8d6e 65bd
00000080: cd1d 92bd 0d06 053c 76f7 c03d e247 9cbb
00000090: 6ffe 0f3e ddf0 1dbe bf64 323d 67cb edbc
000000a0: 8a49 80be 306d e53d 821b 853e 4a06 40bc
000000b0: 2ed7 7dbc 027f eebd d6cd 47be dbd1 c5bd
000000c0: 2091 42be 7704 643d ecd3 6dbe 2a1a 673e
000000d0: eeee 81bc 1222 bebd a399 42be 338d ca3c
000000e0: 2676 fcbc 2d7f 5fbe 4c49 923e b0d6 84be
000000f0: 67b7 7ebe 0834 2b3e 871a 5b3d 8c48 613d
00000100: fbb6 29bd 4d57 8c3d b8c4 583e 286c 4cbd
00000110: 7bea b1bd 679b 31be aeb9 0d3e 8cbc 50be
00000120: c5a0 0d3e 52c7 9e3c 4dce e1bd 3087 8b3e
00000130: 1062 a9bd c125 893e 1540 7dbe e073 c1bd
00000140: 97ee 03be 5e4a 573e d649 1dbe 774f a83d
00000150: e367 1dbe 8d8d 273e cf80 4abc 7900 943e
00000160: 92c7 84bb 7eae 073f 4e7b f0bc 7fc5 43bd
00000170: 4723 6d3d df9d 303e 4784 5d3e f173 3c3f
00000180: a629 243e c8b1 e0bd 85fd d23e 28db 27bd
00000190: 90c9 73bd c321 173e 4935 093e a604 bd3d
000001a0: c8e4 b1be 058f 44be 0ede a9bd b0ae aa3b
000001b0: dddd 5e3e 52a2 09bf 38e0 59be c1e1 6d3e
000001c0: d382 83bd 7fc8 98bd 707f 413e 2a83 643d
000001d0: e9a2 c43e 2aae 8e3c c46d 8ebe 9839 a4be
000001e0: 9227 383e 97ab 3fbe d5d9 f83c 809b 0fbe
000001f0: 4069 773d 5351 983e 96a1 adbd 157c a43d
00000200: 562d e6be 690c 85bc 10f2 f2bc a84f 2f3e
00000210: 64aa fdbd a931 ef3d 5d34 bfbd 2f26 733e
00000220: 7ea3 d0bd 4ec1 213f 4b55 cbbc 5a34 043f
00000230: 89e6 5d3d bb5c 21bd 9738 cebd 3109 7d3d
00000240: 040c 073e e09d 003f 132e b6bd 9214 50be
00000250: a282 f73e fa7a e73c 28b0 d23d 1ec6 44bc
00000260: 3c71 023c f596 bc3b c8ff e83d 242c e73c
00000270: 5a85 033e 7871 85bd d3c1 f3bc 082a 003e
00000280: 9403 973e b7ad 8c3d e3dc 07be 6bb0 0d3e
00000290: a1cd 15bd 9e67 37bd defb 87bd 76dc 7fbd
000002a0: 23ae c33c 7047 27be e771 5ebd 0261 53bd
000002b0: 53d4 b9bd 17b9 d9bd 9d8a 1e3d 6052 dcbe
000002c0: d716 1f3e 0d28 b13c 9364 d8bd 3381 f5bd
000002d0: f18c f83d e7c2 90bd 109a 593e 5d78 e63d
000002e0: d5d8 223e cbab 1a3d ab89 1bbe cd80 f8be
000002f0: 5748 adbd b833 e03d 4d42 50be beb3 093d
00000300: 0bcc 333e b6ab 6abe 7b91 8dbe 9faa 97be
00000310: 605e 8dbd befa 2a3d 95c4 74be fd56 fdbd
00000320: 24d1 42be 2f4a c63c c486 853d cdc5 cd3d
00000330: 841d 1fbd 901f bf3b 90e1 d3bd 8382 05be
00000340: fc7a 2d3e ec55 f13c 2191 6abe 2fef 083e
00000350: 316f 083e 13f4 acbd 8535 02bd 23e5 dd3d
00000360: a632 dc3c 8af7 cbbd 866a afbd 7817 30bd
00000370: 8b98 403d 70b4 5b3d e36f 103e 9729 d43d
00000380: 2b9d 08be 9a4a 853c 58d2 bebd 781f 803c
00000390: 3413 173d 63f5 043e 4270 4c3d 270f 723e
000003a0: 6014 86bc 5739 0c3e f6fb e8bd 9474 053e
000003b0: 03aa 163e 1197 983e 12c6 82bd 3324 d43d
000003c0: bb56 2c3d 1048 77bd 1928 abbd 98c7 baba
000003d0: 3702 833d 380b cb3e af3d 543d 8f75 80bd
000003e0: 73e2 b73d 37a0 a7bd 3c1c cebd fa5b 10bd
000003f0: 2fce bebd 4762 0f3d e1d7 80be 5850 aebd

net.4.bias f4 [50]
0.15314472 0.040346466 -0.017659511 -0.064700596 0.036976874 -0.06100475 -0.066337936 0.018292917
0.19062424 0.08122052 0.05868935 -0.17448834 -0.0091264825 -0.008502288 0.07631356 0.115992114
-0.025584364 -0.14337716 0.031706195 -0.015169891 -0.14753827 0.04575118 0.06467747 -0.0425766
-0.05166602 -0.024684716 0.0007739075 -0.14789075 -0.027083965 -0.046163585 0.0017351846 0.23994689
0.021263136 0.038851757 -0.09261513 0.29887253 -0.09099117 0.16035306 -0.1094172 -0.11609525
-0.059856776 -0.13932456 0.061745964 0.051994614 0.07657556 0.010806938 0.071839705 -0.040466197
0.11456317 -0.12136769
00000000: f8d1 1c3e 5642 253d aeaa 90bc bf81 84bd
00000010: 1075 173d 1ee0 79bd 2fdc 87bd 07db 953c
00000020: 0033 433e f256 a63d 3e64 703d 12ad 32be
00000030: 3e87 15bc 2e4d 0bbc 494a 9c3d 468d ed3d
00000040: 4d96 d1bc 76d1 12be 5bde 013d 228b 78bc
00000050: 4614 17be 9765 3b3d 9f75 843d cd64 2ebd
00000060: c09f 53bd 9a37 cabc 0ee0 4a3a ac70 17be
00000070: 31df ddbc 0716 3dbd 226f e33a a3b4 753e
00000080: 0730 ae3c 0523 1f3d 00ad bdbd d205 993e
00000090: 9459 babd 9833 243e 2016 e0bd 59c3 edbd
000000a0: 612c 75bd 19ab 0ebe 56e9 7c3d 4ef8 543d
000000b0: a6d3 9c3d 950f 313c b220 933d e2bf 25bd
000000c0: 18a0 ea3d a08f f8bd

net.6.weight f4 [1, 50]
0.16204105 -0.12808785 -0.59854764 0.40521094 -0.20315872 -0.30203965 0.22742938 -0.6848433
-0.34868577 0.25542814 -0.24577244 -0.19286822 -1.2923614 0.23248659 0.29262722 -0.22516793
0.19345681 -0.21589635 0.22400546 -0.204942 -0.15563585 -0.20232517 0.2301417 -0.19320141
-0.21914887 -0.13376082 0.41593206 -0.18550181 -0.31859335 -0.29134527 0.17767848 1.1117158
-0.19563097 -0.19426514 -0.1691857 0.41420943 0.4541633 -0.2701682 -0.22250226 -0.21185295
-0.1792716 -0.34522662 -0.26329744 -0.5099105 -0.20918222 0.18161036 0.118418686 0.17946878
0.24365182 -0.3161896
00000000: 17ee 253e 7629 03be 6b3a 19bf cf77 cf3e
00000010: d708 50be f1a4 9abe 3fe3 683e e451 2fbf
00000020: f186 b2be 7ac7 823e c5ab 7bbe 3f7f 45be
00000030: 196c a5bf f710 6e3e 3cd3 953e 6c92 66be
00000040: 8b19 463e ef13 5dbe b061 653e 51dc 51be
00000050: 015f 1fbe 542e 4fbe 44aa 6b3e 97d6 45be
00000060: 9068 60be 99f8 08be 0cf5 d43e 30f4 3dbe
00000070: ab1e a3be 352b 95be 59f1 353e b44c 8e3f
00000080: 7c53 48be 71ed 46be 043f 2dbe 4213 d43e
00000090: 1888 e83e 7c53 8abe a2d7 63be fbef 58be
000000a0: f992 37be 8bc1 b0be ecce 86be 7f89 02bf
000000b0: dd33 56be 11f8 393e 7f85 f23d aac6 373e
000000c0: dd7f 793e 9ae3 a1be
