pretrain_PPO/PPO-result/non-mask/model.pt (torch, 57273 bytes, 16 tensors)

log_std f4 [4]
000000 8d b4 25 40 02 f2 14 40 e3 dd f6 3f 30 b2 07 40
       2.589145 2.327271 1.9286464 2.1202507

net.0.weight f4 [50, 24]
000000 30 17 b2 be cc 65 a9 bd 41 96 d7 3e 3c f6 97 3c
       -0.34783316 -0.08271369 0.42106822 0.01855003
000010 c7 5d 61 3e 2c 03 3a be ed 83 77 3e 70 93 11 be
       0.2200843 -0.18165272 0.2417142 -0.14216399
000020 64 28 2a be 5e 65 d2 bc 2c e1 33 3e 8c d8 50 3d
       -0.1661697 -0.025683101 0.17566365 0.050987765
000030 a7 0d b5 3d 97 e8 19 be 34 36 0a be 0b a5 a8 bd
       0.088404946 -0.15030132 -0.1349724 -0.082346044
000040 88 c0 a6 bc d6 e2 03 be 7c 8b 14 3e 4e c6 0d 3d
       -0.020355478 -0.128795 0.14506334 0.034612946
000050 72 1c 06 3e 6b a2 11 be cc 30 06 be 29 60 30 bd
       0.13096789 -0.14222114 -0.13104552 -0.043060455
000060 7d f9 d7 3d 50 ce dc 3d 90 cb 7a 3e fd 0d 3e bf
       0.10545633 0.107815385 0.24491715 -0.74240094
000070 08 6d bb 3d 86 73 b8 bd 3f 4c a0 3e 42 04 f4 bd
       0.091516554 -0.09006409 0.3130817 -0.119148746
000080 8e 2c 46 be 58 ff fd be 42 58 cc bd 47 21 c5 be
       -0.19352934 -0.49608874 -0.09977771 -0.3850195
000090 99 cc bf 3d 59 ea 2d be 14 3c 48 bd 0f f9 3c 3e
       0.09365196 -0.16983928 -0.04888542 0.18454383
0000a0 7e 8b 7c 3d 46 42 bb 3d 6a 8e 7e bd 8f dc 59 be
       0.061656468 0.091435 -0.062147535 -0.21275543
0000b0 78 8b 62 be 21 ce bf bc 8f 48 5a bd ac 18 91 bd
       -0.22123516 -0.02341372 -0.053291854 -0.07084784
0000c0 a2 10 46 bd ed cc fd 3d ac 0a 13 3e d8 97 2a bf
       -0.048355706 0.12392602 0.1435954 -0.66637945
0000d0 52 6d 47 3e 6e 9f 8a be f3 30 ee 3e 11 02 d7 3d
       0.19475296 -0.2707476 0.4652172 0.10498441
0000e0 09 ec eb bc 87 61 3c be 17 e3 a0 bc 7a fe 8c be
       -0.028799074 -0.18396579 -0.019639535 -0.275379
0000f0 48 ce 23 3e 56 3b 32 3e c7 81 33 3e 60 bd 0b be
       0.15996659 0.17405447 0.17529975 -0.1364646
000100 af 97 4d be 9e ca e8 bc 2d e3 18 be a1 93 cd 3d
       -0.20077394 -0.028416928 -0.1493041 0.100379236
000110 a8 c0 80 be cc f4 28 be fe 7a a5 bd 3c 3f b9 bd
       -0.25146985 -0.16499633 -0.080800995 -0.09045264
000120 cc 2e b1 3e e1 37 3e 3f ce 97 79 be 27 a9 0c bf
       0.34606016 0.74304014 -0.24374315 -0.54945606
000130 fa ca b2 3d c6 7a 3b be 1a b9 cc 3d b0 a4 13 3e
       0.08730121 -0.18308553 0.09996243 0.14418292
000140 b0 15 34 be 83 ce 23 3e 99 07 48 be fc 11 87 be
       -0.17586398 0.15996747 -0.19534148 -0.26380908
000150 db 32 e9 bd bd 60 99 3c ab 44 65 3d 17 f8 3e bd
       -0.11386653 0.018722886 0.05597369 -0.046623316
000160 0b 03 05 3e fc 75 37 be 89 42 b1 3d cb b4 2f be
       0.12989442 -0.17916101 0.08655269 -0.17158811
000170 9a 35 3f be 60 fa 58 3d 5d 7a 2c 3e 45 7e 33 be
       -0.18672791 0.05297315 0.16843553 -0.17528637
000180 cb 19 c6 3e 92 6f 43 3d 5e 3d ce be 98 48 05 3f
       0.38691553 0.047713824 -0.40281194 0.52063894
000190 6d eb 43 bd a8 2f eb 3d 41 03 80 be 08 75 fa 3d
       -0.04783194 0.11483699 -0.25002483 0.12229353
0001a0 58 d8 f7 bd b2 86 e5 3e fb f3 c0 3c 8c a5 97 3e
       -0.12101811 0.44829327 0.023553839 0.2961849
0001b0 fc 36 0b 3e 2a 90 37 3d 69 f8 97 bc 4e 27 72 3b
       0.13595194 0.04481522 -0.018551068 0.0036949697
0001c0 13 57 c0 bd f9 e7 4e bc 98 53 ab bd 95 cc 5d 3e
       -0.09391608 -0.012628549 -0.083655536 0.21660073
0001d0 e1 29 87 3e bc d0 91 3e 79 28 33 3d cf 61 ef 3d
       0.2639914 0.28479564 0.04373977 0.116885774
0001e0 8c f7 d4 bd 30 f3 70 bf c1 09 fb 3d ed cc a3 3f
       -0.10398778 -0.94121075 0.1225772 1.2796913
0001f0 f8 9f 52 bc 14 a6 fc bc 9f 74 14 3e 02 16 a2 bd
       -0.012855522 -0.030840911 0.14497612 -0.07914354
000200 8a 21 08 bd 6f 59 85 3e 8c 30 17 3e e3 ee 95 3d
       -0.03323511 0.26044795 0.14764613 0.07320955
000210 6e 76 e4 3c b3 c4 14 3e 16 f3 bb bc 73 49 b5 3d
       0.027888503 0.1452816 -0.02294306 0.088519
000220 12 fe f5 bc 7b 20 2c 3e 5f f5 6c bd 3d 6c 99 3c
       -0.030028377 0.16809265 -0.05785119 0.01872837
000230 71 18 c4 3d 89 99 4c bd 48 9e 42 be 61 39 a0 bd
       0.09574974 -0.04995111 -0.19005692 -0.07823444
000240 3e b2 c7 3e 15 2e 0f 3f ca 82 e7 be a6 59 94 bd
       0.39003175 0.5592969 -0.45216972 -0.072436616
000250 de 68 28 be b2 ee 4e 3e 18 83 b9 be c7 29 e9 bd
       -0.16446254 0.20208243 -0.3623283 -0.113849215
000260 66 15 96 3d b4 43 a6 3e cf 71 21 be 43 ba 8f bd
       0.073283 0.32473528 -0.15766071 -0.070179485
000270 53 86 f6 bd 9c ce 38 bb bb a9 20 3e 3f b4 bf 3d
       -0.12037339 -0.002819932 0.15689747 0.09360551
000280 ad e1 26 3e 84 95 c3 bd 01 69 56 3e 41 0b 1a 3e
       0.16297026 -0.09550002 0.20938493 0.15043356
000290 94 f9 6b 3c 25 cc 9f bd 5d 86 07 bd a7 b3 16 3e
       0.014402766 -0.07802609 -0.033087123 0.1471697
0002a0 c7 de a2 3e 70 cf 01 3f ab 52 b1 be 13 ee 62 bf
       0.3181059 0.5070715 -0.34633383 -0.8864452
0002b0 14 d2 07 3e ae 34 08 ba 0f ea b3 bc 31 92 d8 bc
       0.13263732 -0.0005195838 -0.021962194 -0.026436897
0002c0 66 98 4d be 26 8d c3 3c 4c b0 d5 bc b4 08 15 be
       -0.20077667 0.023871016 -0.026085041 -0.14554101
0002d0 80 b5 4f 3c 82 e8 d1 bd a9 e2 56 3e 48 0f f6 3c
       0.01267755 -0.102494255 0.20984901 0.030036584
0002e0 ca 21 21 3e e1 9f fb bc 38 49 47 be 1c c2 9d bc
       0.15735546 -0.030715885 -0.19461524 -0.019257598
0002f0 cf 4a 9e bd 22 4b 36 bd 06 d1 20 be ca 0a 1e 3e
       -0.07729112 -0.044505246 -0.15704736 0.15433803
000300 6e 7e aa 3e ef 45 9c 3e e2 3e ab be e5 4b 80 bf
       0.33299583 0.30522105 -0.33446413 -1.0023161
000310 20 b4 25 be 84 93 d3 bc dc 5e 12 3e ac 2d c4 3d
       -0.16181993 -0.025827177 0.14293998 0.09579024
000320 86 6d fe bc 3e 58 28 bd c4 8c 35 3e 79 1d d6 be
       -0.031058084 -0.04109978 0.17729479 -0.4181936
000330 4d 19 df 3d 95 a8 5e 3d f6 8a 81 bc 42 36 28 be
       0.108934976 0.05435999 -0.015813332 -0.16426948
000340 3b ac 30 3e 23 24 47 3e ce a9 11 3e ae a4 a6 bd
       0.172532 0.19447379 0.14224932 -0.08136879
000350 91 fb b1 bc 99 44 0c 3d 7c 2c 04 be 41 08 48 3e
       -0.021726402 0.034245107 -0.12907594 0.19534399
000360 1d 4f 2e be c0 86 de 3e 53 9a d4 3e 6c 4c 13 3f
       -0.17022367 0.4346218 0.4152399 0.57538486
000370 50 7f d5 bd 45 bc 22 be b4 49 74 be 2e e3 3a bd
       -0.104246736 -0.15892132 -0.2385624 -0.04562681
000380 96 cb b2 bd 3b 37 f9 be df 3e 28 be a3 bd 13 3e
       -0.08730237 -0.4867495 -0.16430233 0.1442781
000390 0f 2b e3 bc 9d 3f 06 bd e6 e7 68 3e 1e 23 75 3e
       -0.027730493 -0.03277551 0.22744712 0.23939177
0003a0 0e 24 7a 3e 7c f2 4b 3e 98 e3 5e bc aa 0f d5 bd
       0.24427816 0.19916719 -0.013604067 -0.10403378
0003b0 dd ff d0 3d ba fd 04 be a3 82 a8 3d 45 36 fd bd
       0.10205052 -0.12987414 0.08228042 -0.12363867
0003c0 8f e5 95 be da a0 5f bf 43 46 b8 3e cf 4b 91 3f
       -0.29276702 -0.87354815 0.35991105 1.135126
0003d0 ef d5 3a 3e ce a7 ae 3e 06 f4 47 3c dc 0c bc bd
       0.18245672 0.341124 0.012204176 -0.0918214
0003e0 37 87 a5 bd 47 28 26 3e c4 96 bb 3d 7f 16 91 3d
       -0.08082431 0.16226302 0.09159616 0.07084369
0003f0 e8 28 f6 bc 7d 81 9c bd a0 b1 18 bd a8 d6 f7 ba
       -0.030048802 -0.076418854 -0.03727877 -0.0018908577

net.0.bias f4 [50]
000000 f0 cc f9 3d b2 f7 d6 3d 1a 52 fe bb 9a 2a af 3d
       0.12197292 0.10496463 -0.007761252 0.085530475
000010 f4 05 a5 bc 7f 68 4d bd b1 f4 15 3e 31 ee 9d 3d
       -0.02014444 -0.050148483 0.14644124 0.07711447
000020 6c b4 34 be b8 11 00 3d 69 d8 b0 3c 4c 3a 5d bd
       -0.1764695 0.031266898 0.021587567 -0.054010674
000030 09 88 41 be 3a 0b 35 bd ac aa 3b 3d da 35 84 3d
       -0.1889955 -0.04420016 0.045817062 0.06455584
000040 86 28 7d 3e 01 ef 97 3d 89 27 1c be 4e 7e c0 3d
       0.2472249 0.07418633 -0.15249456 0.09399091
000050 05 51 d9 bb 82 57 5e bd 74 7e 09 be e4 75 95 3d
       -0.0066319727 -0.054282673 -0.13427144 0.072978765
000060 4a b8 e4 bd fb 86 16 3e bc bd eb 3d 57 b4 e4 ba
       -0.11167963 0.14699928 0.11510798 -0.0017448765
000070 4a d3 a2 bd 7d 8c 6d be 1e f6 f8 3d d0 52 25 3e
       -0.079504564 -0.23198123 0.12156318 0.16144872
000080 82 6b 78 be 23 55 41 3e 51 6a 88 3d f9 bf 61 be
       -0.24259761 0.18880133 0.06660903 -0.22045888
000090 1d 13 f9 3c e3 7d 13 3e b8 03 c5 bd f2 a0 54 be
       0.030404622 0.1440349 -0.0961985 -0.20764521
0000a0 d3 2e 15 be af 9c e6 bd 80 e9 cb bc 85 d6 df bd
       -0.14568643 -0.11260354 -0.024891615 -0.10929588
0000b0 96 38 92 bc 01 5c e9 bd 4e e7 f9 3d ea b1 0d 3e
       -0.017849248 -0.113945015 0.12202321 0.138374
0000c0 47 bb 8d 3c ed ad 0b 3d
       0.017301215 0.034101415

net.2.weight f4 [50, 50]
000000 3c f5 80 3e 42 a5 3d 3e 2d 72 5b bd fb 42 70 bd
       0.251871 0.18520072 -0.053575683 -0.058657628
000010 6f 93 a9 be c5 71 3b 3c 6e 28 a1 be 87 f5 57 be
       -0.33120295 0.011440699 -0.31476158 -0.21089755
000020 50 63 25 be 91 07 08 3f 93 00 52 be c3 65 4f 3b
       -0.16151166 0.53136545 -0.20508032 0.0031646348
000030 ef 35 62 3d 82 ce eb bd a0 a1 c4 be ed 19 26 3e
       0.055227216 -0.115139976 -0.3840456 0.16220827
000040 27 f0 b0 bd 38 6f a4 b8 c1 05 a7 3d ac 3b 5f 3e
       -0.086395554 -7.8408455e-05 0.08155394 0.21800107
000050 6f f0 e6 bd d6 5d 67 bd 07 66 0d 3e b5 d2 1b 3e
       -0.11276328 -0.056485973 0.13808452 0.15217097
000060 7a ba 64 be e4 f4 af bd 66 e0 a6 3e 1e 12 43 3e
       -0.2233676 -0.08591631 0.32593077 0.1904988
000070 70 1e 4d be 09 8c 32 bb 75 10 b5 3d ad f1 b2 bc
       -0.20031142 -0.0027244112 0.088410296 -0.021843756
000080 51 7e c2 3d 4c 16 83 bd c7 90 73 3d 31 a4 f9 3d
       0.09496749 -0.06400737 0.059464242 0.1218952
000090 70 b0 b4 3d 4e ac 5a bd 4f f9 a5 3e f8 a1 03 bc
       0.08822715 -0.05338698 0.3241677 -0.008034222
0000a0 0a d1 21 3e 02 2e ab 3d 18 b3 9b 3e 08 a1 d3 bb
       0.15802398 0.08358385 0.30410075 -0.0064584054
0000b0 cc 8b 28 be 52 ad 3f 3e 5a 19 9a bc 08 45 9e bd
       -0.16459578 0.1871846 -0.018810917 -0.077280104
0000c0 71 97 22 3e 04 73 60 3e 76 b0 b5 3e 7a b0 91 3e
       0.15878083 0.21918875 0.35486192 0.28454953
0000d0 fa b2 93 3e 03 a1 47 3e 44 0b f5 be f2 e8 b2 3d
       0.28847486 0.19495015 -0.47860157 0.08735837
0000e0 cd d5 96 be e9 bd 95 bb 8e de 6a 3e 23 0a 02 3d
       -0.29459992 -0.004569758 0.2293646 0.03174795
0000f0 3a bb f3 3c 18 39 67 be e0 e2 e4 bd 7b 9d c4 bd
       0.029752363 -0.22580373 -0.111760855 -0.096003495
000100 4b 20 6b be 23 41 b4 3c 03 f9 a6 3e 5f 0a a5 3e
       -0.22961538 0.022003716 0.32611856 0.32234475
000110 08 bb d2 3b 04 0c 07 3e d6 6e 88 bd 27 f5 ae be
       0.0064309873 0.13188177 -0.06661765 -0.3417141
000120 3b 33 2a 3e b4 67 70 be a4 42 ad be 01 3f 09 be
       0.16621105 -0.2347706 -0.33839905 -0.1340294
000130 8e 8f 76 3d a8 28 44 3d 78 0c d8 3e c1 40 a8 be
       0.0601955 0.047890335 0.42197013 -0.32861903
000140 9b b3 05 3e 61 8c c6 bd 61 17 4f be 49 f5 8d 3e
       0.13056795 -0.09694744 -0.20223762 0.277262
000150 17 e7 0e 3e f6 fc 31 3e 7f 54 39 3d 3e 70 a9 3c
       0.13955341 0.17381653 0.045246597 0.020683404
000160 69 dd 88 3e 1a fb 3d be 82 73 7e be c0 03 90 bd
       0.26731423 -0.18552819 -0.2484875 -0.07031965
000170 44 a8 f5 bc 59 cd 36 3e 46 14 3a bd 29 33 41 3e
       -0.029987462 0.17851771 -0.04542949 0.18867172
000180 e0 4f be bd 6d 13 a8 3d 77 a6 a7 3e e2 b7 f3 bc
       -0.09292579 0.0820683 0.3274419 -0.029750768
000190 3e b9 31 bd 64 6c 12 3e 30 ad ae 3e a1 e4 1b 3e
       -0.04338955 0.1429916 0.34116507 0.15223934
0001a0 bf 47 1c be 94 81 26 be 62 65 29 be 65 d4 4d 3e
       -0.15261744 -0.16260368 -0.1654258 0.20100553
0001b0 bf dc 49 3e e0 95 2c be a6 c3 42 be ec 1a 89 be
       0.19713114 -0.16854048 -0.19019946 -0.26778352
0001c0 19 40 10 be de 31 47 3e 52 ef b4 3d ef 10 01 be
       -0.14086951 0.19452617 0.08834709 -0.12604116
0001d0 9e 92 98 3d c2 ba 0c bc 24 31 24 3e f6 dd 1e 3e
       0.0744984 -0.008589448 0.1603437 0.15514359
0001e0 98 7a 6b 3d 10 02 51 be 3d ee d8 3d fa f8 02 be
       0.05748996 -0.20410943 0.10592315 -0.1279029
0001f0 d1 0d a6 3d 47 5a 08 3c 6f 84 19 3e 86 62 30 be
       0.08108104 0.008322305 0.14991926 -0.17225084
000200 07 b5 94 3e 0c b2 af be b4 a9 8c 3c 70 e8 0f 3c
       0.29044363 -0.34315526 0.017170765 0.008783445
000210 71 0d 1e be 84 93 70 3d db c3 46 be 19 bf 56 be
       -0.15434815 0.058734432 -0.1941065 -0.20971335
000220 06 04 51 bd 7b e5 27 3e e2 37 22 bd 04 85 97 be
       -0.051029228 0.16396134 -0.039604075 -0.2959367
000230 9b 79 8b be 38 b8 96 3d 11 62 4c bd 1e ae 18 bc
       -0.27241215 0.07359356 -0.04989821 -0.0093188565
000240 bd fa 82 3e 1c dc c5 3c 47 35 e8 bd 5f 1d 50 3e
       0.25581923 0.024152808 -0.11338287 0.20323704
000250 3d 10 88 3e 29 e9 bb bc 9e b2 63 3e 36 22 a0 be
       0.2657489 -0.022938328 0.22236106 -0.312761
000260 63 a0 3b be d9 34 0e be fb 55 4d 3e fa f6 94 3e
       -0.18322901 -0.13887347 0.2005233 0.29094678
000270 18 93 c8 bd 8e 04 fb bd 69 4a b5 be a2 f7 16 be
       -0.09793681 -0.12256728 -0.35408333 -0.14742902
000280 d0 a5 59 3e 85 33 4a 3e 56 50 03 3f cb 56 c3 bd
       0.21254659 0.19746216 0.5129446 -0.09538039
000290 bd c9 30 3d 3a ee 04 3e d9 ea 59 3e 64 a6 24 be
       0.043161143 0.12981501 0.21280994 -0.16079098
0002a0 29 c8 22 3e 81 fe ae be 78 86 00 3e 18 bb 6f 3e
       0.15896668 -0.34178546 0.12551296 0.23411214
0002b0 51 74 10 be 15 29 ad 3e b6 3f 3e bd 61 11 36 3d
       -0.14106871 0.33820406 -0.04644748 0.044450168
0002c0 da f3 34 bd 04 63 8e 3e ac 18 01 3e ba c9 d0 3e
       -0.044177867 0.27809918 0.12607068 0.40778905
0002d0 76 78 95 be 84 86 d1 bd 5c 29 54 3e c2 1c 82 bd
       -0.29193467 -0.10230735 0.20718902 -0.06353141
0002e0 07 b4 fe 3c 59 d5 ac 3e e9 fb 4f 3e 16 3e 69 3d
       0.031091703 0.3375652 0.2031094 0.056943975
0002f0 c4 25 75 bd 4a 48 c7 3e 55 ba cc 3e 73 e7 f2 bd
       -0.05985047 0.3892234 0.3998591 -0.11860552
000300 34 81 66 3e 07 b7 17 be cf 74 a3 3a af 9f 82 bc
       0.22510225 -0.14815913 0.0012470725 -0.015945284
000310 62 10 30 be 66 d1 2c bd a0 d3 76 be c5 3c 5c 3e
       -0.1719375 -0.042191885 -0.24104166 0.21507557
000320 1f a8 20 be 4a 3a fe 3d bd ae d5 3d 2b 15 a3 3d
       -0.15689133 0.124134615 0.10433719 0.07963022
000330 04 6b 55 3c 76 e2 eb bc a1 cb bf 3e 78 9f 7d 3e
       0.013026003 -0.028794508 0.37460044 0.24767864
000340 a1 11 8b 3e bc dc 80 be 33 46 d0 be d4 08 be 3d
       0.27161887 -0.25168407 -0.40678558 0.092790276
000350 43 01 05 be f4 d4 59 3e 13 fa 84 3e df 6f c2 be
       -0.12988763 0.21272641 0.2597204 -0.37975976
000360 fc 84 15 3e e3 2e 2b bc b8 e2 54 bd f5 15 9c 3c
       0.14601511 -0.01044819 -0.05197403 0.019053439
000370 73 32 2b bc 4b 7c 18 be 48 13 75 be 30 5c 85 3c
       -0.01044904 -0.14891164 -0.23933136 0.01627931
000380 31 92 06 3e 85 0f ac bc f8 94 1b bc 90 8c 1a be
       0.13141705 -0.021003494 -0.009495966 -0.15092683
000390 fb 6e 22 be fc c4 9a be 11 2c 80 be 7c 3b be 3b
       -0.15862648 -0.30228412 -0.2503362 0.005805431
0003a0 8a 69 d3 38 84 71 a0 3d d6 29 71 be 33 30 d9 bd
       0.00010080922 0.078341514 -0.23551115 -0.106048964
0003b0 bf d4 4a 3d 8a e7 80 3e eb 5a 14 bd 95 31 12 be
       0.049519297 0.2517665 -0.03621952 -0.14276727
0003c0 2d b4 ad bc 05 dd 5f be f7 25 7c be db 6a c0 bd
       -0.021204079 -0.21861656 -0.24623857 -0.09395381
0003d0 44 07 1d 3e ca 0d 74 be 66 68 53 3d c8 4f 07 3f
       0.15334803 -0.23833385 0.051613234 0.5285611
0003e0 53 b5 f9 3d 80 14 92 be 16 cd d2 bd 95 73 a0 be
       0.12192788 -0.28531265 -0.10293023 -0.31338182
0003f0 6b cd d6 bd 5f a0 15 3d 2d cf 3d 3f e6 4a 59 3e
       -0.10488399 0.036529895 0.7414425 0.21219978

net.2.bias f4 [50]
000000 eb 78 c5 3c 67 46 c1 3d 4c 1e d2 bc e1 23 11 be
       0.02410551 0.09437256 -0.025649212 -0.14173843
000010 32 3e 02 3e ff 64 14 3e 6f c2 30 be 38 93 28 3e
       0.12719038 0.14491652 -0.1726167 0.1646241
000020 dd 6c 96 bd c9 05 2a 3d 8f 41 83 3d 72 f2 d1 bd
       -0.07344983 0.041509423 0.06408989 -0.10251321
000030 96 03 e2 bc 44 3e 56 3d 29 3e 72 bd 1d da 60 3e
       -0.0275896 0.052305475 -0.05914131 0.21958204
000040 28 b3 ba bd bf 2c 5f bd 40 2b 1f 3d 87 5c a4 3d
       -0.091162026 -0.054486033 0.038859606 0.08025461
000050 46 58 d3 3c 9e 4d 3f 3d 34 27 48 bd 40 c6 e5 3c
       0.025798928 0.04670488 -0.048865512 0.028048635
000060 d4 a8 56 3d 51 60 e0 3d cc 17 21 bc 61 e3 15 3d
       0.0524071 0.10955871 -0.009832334 0.0365938
000070 c6 6a 17 3d 4f d4 04 3e d8 12 2a 3c a1 94 6f bd
       0.03696706 0.12971614 0.010380469 -0.058491353
000080 94 88 60 bd d1 04 34 3e c6 70 c8 bd fb 07 e5 bd
       -0.05481775 0.17579962 -0.09787135 -0.11183163
000090 bb c2 c2 bc ae 09 b6 3d 46 2f a3 3c c9 68 f0 bc
       -0.023774495 0.08888565 0.019920003 -0.02934684
0000a0 8a 2e 05 3d 1c 9d a6 3c bc 7f cc 3d 76 e2 c6 bd
       0.032515086 0.020338587 0.09985301 -0.09711163
0000b0 77 7a db bd f5 a9 c5 bd 5a c0 d7 3d d3 c4 4b 3e
       -0.10716718 -0.09651557 0.10534735 0.19899301
0000c0 2d 4c 40 3e 8b 3e 76 bd
       0.18779059 -0.06011824

net.4.weight f4 [50, 50]
000000 7b 60 ae be 88 9f f7 3c 59 64 69 3e df ba 9d be
       -0.34057984 0.030227438 0.22792186 -0.30806634
000010 99 80 4c 3f 9c 1a 02 3d 74 b4 b7 be 70 b3 53 be
       0.79883724 0.031763658 -0.35879862 -0.20673919
000020 ca 82 37 be 4c 4d 3d be bb df 33 3e 4a 3b 8f be
       -0.17920986 -0.18486518 0.17565815 -0.2797492
000030 a9 f1 48 bd 43 a3 df 3d 11 fd 18 bc cf 1b 81 3a
       -0.04905859 0.109198116 -0.0093376795 0.0009850207
000040 c4 6f 38 3f d0 dc ac 3d 95 db be 3e ba a5 a9 3c
       0.7204554 0.08440554 0.37276903 0.020708907
000050 43 51 d2 3e db fa 0b 3e 3f 17 80 bd 73 11 40 3e
       0.41077623 0.13669913 -0.06254434 0.18756656
000060 f2 34 03 3f 77 cc 1b 3d bf 1b e2 3d b7 65 6b 3e
       0.51252663 0.03803679 0.110404484 0.2298802
000070 0d 7f 29 be a7 e6 20 3f d8 8b 63 3d d1 22 15 bf
       -0.16552372 0.6285195 0.055553287 -0.5825625
000080 5b 85 96 3d d6 ca 1a 3e 61 71 3c 3d e0 66 28 be
       0.07349654 0.15116438 0.046006564 -0.16445494
000090 e6 5a 15 bf 19 77 e1 3e 50 c8 85 be bd b3 ca be
       -0.58341825 0.44036177 -0.2612939 -0.39590254
0000a0 d4 ed da 3e 99 d1 93 bc f3 35 02 3f c6 19 49 3e
       0.42759573 -0.01804428 0.5086357 0.19638738
0000b0 90 8b e0 3e a7 46 48 be ba 08 53 bd 98 47 18 3e
       0.43856478 -0.19558202 -0.051521994 0.14871061
0000c0 6e 07 8e 3e 1c ac 7c 3e 94 95 98 3d ba f8 f8 3e
       0.27740043 0.2467503 0.07450405 0.48627263
0000d0 3a 80 56 3e 40 0e 41 be 65 c2 61 3d 77 13 04 be
       0.20947352 -0.18853092 0.05511703 -0.1289805
0000e0 16 82 6f 3d 68 31 65 3d 07 c0 b7 3e 23 04 3d bd
       0.05847367 0.05595532 0.35888693 -0.046146523
0000f0 1c 7b 57 bf a4 6d 4e be bb 0f 1a 3f 21 fe 4f 3d
       -0.84172225 -0.20159012 0.6018025 0.050779466
000100 9c c0 c9 3c 23 04 7c bd db ea 9a 3d 3a 49 08 3f
       0.024627976 -0.061527383 0.075643264 0.53236735
000110 99 9b 98 bc fb 0d 0c 3e 84 37 55 be e7 3a 86 3d
       -0.018628882 0.13677208 -0.20821959 0.065542035
000120 2a 0f 37 3e 28 64 09 be a6 0d 10 be c0 6b a8 be
       0.17876878 -0.13417113 -0.14067706 -0.32894707
000130 76 2a 6b bf 84 72 0e be c5 41 ef bd 9a 35 9b bd
       -0.91861665 -0.13910872 -0.116824664 -0.07578583
000140 76 bb da be d3 12 c9 3a 62 21 5b be 1a c1 71 3e
       -0.42721146 0.0015340693 -0.21399453 0.23608819
000150 c8 27 14 3e 1d fb 84 be df 44 a7 3d 78 5d 02 be
       0.144683 -0.25972834 0.08167433 -0.12730968
000160 40 06 32 be 74 a8 d6 bd 5f 87 31 3e 7f 55 00 3f
       -0.17385197 -0.10481349 0.17336796 0.50130457
000170 a5 f5 1d be b9 46 06 bf 8e aa 13 bd 91 e4 e6 3e
       -0.15425737 -0.52451664 -0.036051326 0.45096257
000180 a8 ee 6d 3e 13 9e cf 3e 96 af ae be a8 29 9f bd
       0.23235571 0.4055029 -0.34118336 -0.07771617
000190 ab d5 8f be a9 75 5b bf a1 c9 0e be 77 61 8a 3c
       -0.28092703 -0.8572641 -0.13944103 0.016892178
0001a0 0a 1e 7a be 96 92 1f 3e f9 bb 0a bd a5 30 5b be
       -0.24425521 0.15583262 -0.03387067 -0.21405275
0001b0 3b eb 49 be 3d 6f 19 3d d1 e4 31 3f fd 1a 2c 3f
       -0.1971864 0.0374596 0.6948977 0.6722868
0001c0 50 56 9d be 0f 33 0c bd 70 ca a8 3e 46 9e 8d be
       -0.30729914 -0.03422838 0.32966948 -0.27659816
0001d0 e7 c9 1f be f2 ed cf be bf 27 52 3e a9 c1 8e be
       -0.15604363 -0.40611225 0.20522974 -0.27882126
0001e0 8a 30 12 3e 38 ce f8 bc 6a 8d 20 be f6 ce 56 3e
       0.14276329 -0.03037177 -0.15678945 0.20977387
0001f0 68 77 23 be 49 60 0f 3d c5 4f 2c 3f 54 e9 82 3e
       -0.15963519 0.035003934 0.6730922 0.2556864
000200 a1 48 93 3e e4 76 24 be bc 70 7b 3e 90 a3 08 3e
       0.2876635 -0.16060978 0.24554724 0.13343644
000210 13 68 87 3e 76 f4 5a be c3 47 7d bd d4 0d c4 3e
       0.2644659 -0.21382317 -0.061836015 0.382918
000220 37 dd 5c 3e 52 f2 0d 3e 7e 99 cf 3d 1f b9 05 be
       0.21568762 0.13861969 0.10136698 -0.130589
000230 bd c1 bf bb 24 69 03 bf f7 9b d5 3d 5a 7f 0a 3f
       -0.005851953 -0.51332307 0.104301386 0.54100573
000240 d5 a3 84 bd 1a b5 da bd 6f 8b e2 be bc 1c a5 be
       -0.06476561 -0.10679074 -0.44247004 -0.32248485
000250 d2 80 4d 3e 8e fd 40 3e 60 00 85 3e 06 46 88 3e
       0.20068672 0.18846723 0.2597685 0.26615924
000260 d4 2e b8 3d c4 3d 3c be ee 98 0b 3d 60 df 22 be
       0.08993307 -0.18382937 0.034081392 -0.15905523
000270 a2 50 f1 3d b5 72 33 3f b1 40 e2 3c 93 c5 ef be
       0.117829576 0.70096904 0.027618738 -0.46830425
000280 d7 d1 dd bd 09 e6 41 be 69 89 20 bd 16 a6 a8 3e
       -0.108310394 -0.18935408 -0.039193545 0.32939214
000290 df d0 f7 be 7a 55 09 3f 66 10 cc bd 29 32 0a be
       -0.48401543 0.5364605 -0.09964065 -0.13495697
0002a0 01 fe f3 bd 83 32 20 3f c7 9c 8f be ff c4 64 be
       -0.11913682 0.62577075 -0.280493 -0.22340773
0002b0 51 67 e7 3d 12 5c f4 be 88 12 2a be a2 fe 41 3d
       0.11299003 -0.47726494 -0.16608632 0.047361977
0002c0 4c 0a c9 bc 2c be b5 be 71 10 bb bc d5 77 f7 bd
       -0.024541043 -0.35496652 -0.022834988 -0.12083403
0002d0 81 cc 3a 3e af 83 18 3b ee 2e 93 be 9f ff d4 3e
       0.18242075 0.002327185 -0.28746742 0.41601273
0002e0 25 bd 97 be 26 89 3c 3d 8a dd 6b 3e 2d b0 6b be
       -0.29636493 0.046029232 0.23033729 -0.23016424
0002f0 af 4a a8 3e 26 4d 97 3e 73 34 1f bd e5 b4 74 bd
       0.3286948 0.29551047 -0.03886838 -0.059742827
000300 c6 bf 04 be 9c 4a c0 be 10 be 50 be 14 c0 18 bd
       -0.12963781 -0.37556922 -0.20385003 -0.037292555
000310 cd d1 52 3e e7 14 27 3e a1 6c 65 3e ed 3c 19 bf
       0.20587845 0.16316567 0.2240472 -0.5985859
000320 21 8b a7 3d 2b 44 d4 3e f5 c9 f8 bd 13 20 b9 bd
       0.081808336 0.41458258 -0.12147895 -0.09039321
000330 9a dd a7 be ce e5 28 bf ec 70 04 be 4d e8 9b 3d
       -0.32786256 -0.65975654 -0.12933701 0.07612667
000340 c0 9d 2c 3f 38 d8 66 be 48 fa f2 be 81 7e 3c 3e
       0.6742821 -0.22543418 -0.47456574 0.18407632
000350 35 b9 ad 3e e8 cd 9e 3d 3c 8f da 3d fd 5f d6 3c
       0.33930364 0.07754117 0.10671851 0.026168818
000360 cb 46 57 be 30 9e 01 3e e4 54 61 3e 80 36 02 3e
       -0.21023099 0.12658 0.2200504 0.12716103
000370 e0 be 21 bf 05 35 18 be 08 8a 34 3f d2 84 75 3c
       -0.6318188 -0.14863975 0.7052312 0.01498528
000380 87 86 2d be 9f 66 00 bf c7 d6 aa be 46 5a ad bd
       -0.1694585 -0.5015659 -0.33366987 -0.08464484
000390 1e ba a2 bc dc e9 dd be 04 70 5f 3d 0f c8 1c 3e
       -0.019864138 -0.43342483 0.054550186 0.15310691
0003a0 10 2d ac be 7f 09 9b bc d5 76 4d be c9 cf a4 bd
       -0.3362813 -0.018925427 -0.20064862 -0.080474444
0003b0 92 b3 cf bc ce de a1 be 8a de 16 3b 3b 41 13 3e
       -0.02535418 -0.316153 0.0023020827 0.14380352
0003c0 a6 11 ac 3d 41 56 e2 3d 7c 64 5e be 89 c4 da be
       0.08401804 0.11051608 -0.21718019 -0.4272807
0003d0 e2 dd 4a bd 07 4d 4c 3f e9 69 4b 3f b8 25 9b bd
       -0.04952801 0.79805034 0.7945848 -0.07575554
0003e0 08 3f d5 bd f9 d8 31 3e 4f 97 04 bf 6b 68 38 be
       -0.10412413 0.17367925 -0.5179338 -0.18008582
0003f0 d8 0f 64 3e cf 77 44 3e eb 45 23 3e d6 7d 7e 3e
       0.22271669 0.19186328 0.1594464 0.2485269

net.4.bias f4 [50]
000000 37 39 ab 3d 95 0e 9a bd 74 cd 4b bd 81 7e 73 3e
       0.08360522 -0.075223126 -0.049756482 0.23778726
000010 01 27 81 be 6f 77 73 be 4e ed ec 3c 59 da a8 bd
       -0.2522507 -0.23776029 0.02892175 -0.082447715
000020 82 46 86 3c 4f 49 3b 3e 71 a0 8c 3c 6c 9f 3a bd
       0.016391043 0.18289684 0.017166348 -0.045562193
000030 1d 45 4d bd 0b 57 8c 3e b1 69 ee bc fe 49 81 be
       -0.05011474 0.2741016 -0.029103132 -0.25251764
000040 27 d8 7a 3b cf a2 4f be d9 0d ed 3b da e7 5e bd
       0.003827581 -0.2027695 0.007234317 -0.05442033
000050 6e b7 d8 3d c4 35 32 3e 8f e1 9d 3e b9 90 62 bd
       0.105818614 0.17403322 0.3083615 -0.0553138
000060 5b a1 82 bb c9 51 31 3e 87 5d e5 bc f0 95 0a be
       -0.00398652 0.17316355 -0.027998699 -0.13533759
000070 72 38 24 bd d6 84 92 3c e0 41 f4 3d 17 42 8e bd
       -0.040092893 0.017885607 0.11926627 -0.069461994
000080 b2 e0 9b bd a7 02 71 be d1 a3 b9 bd 54 51 27 3e
       -0.076112166 -0.23536168 -0.090644486 0.16339618
000090 b3 6d b5 ba 10 3d a4 bd 98 42 4f be 93 14 35 be
       -0.0013841897 -0.08019459 -0.20240247 -0.1768363
0000a0 63 c5 67 be ab b6 0c 3d 82 80 0d 3e dc eb 58 bd
       -0.22633891 0.034353893 0.13818553 -0.052959308
0000b0 20 13 a8 be 81 eb 86 be a2 20 a4 3c 12 1a a8 bc
       -0.3282709 -0.2635155 0.020035092 -0.020520244
0000c0 d7 1b 34 be 0e 55 c4 3d
       -0.17588745 0.095865354

net.6.weight f4 [4, 50]
000000 34 96 24 3f 8c bb 61 bf 9a 54 2f 3f f2 bc 03 bf
       0.6429169 -0.881768 0.68488467 -0.5146018
000010 b2 9e b2 bf f1 f5 f5 3e 28 df 49 3f 25 db ac 3f
       -1.395468 0.480392 0.78856134 1.3504378
000020 c3 b5 0f 3f 19 47 30 3f 4b 44 70 3f 7b c1 71 bf
       0.5613672 0.68858486 0.93854207 -0.9443585
000030 ad 63 77 3e 6e 87 c1 3f 82 3b 3c 3f 61 37 7f bf
       0.24159117 1.5119455 0.735283 -0.99693877
000040 6d 19 06 bf 07 44 e1 bf a5 20 50 bf b3 dd e7 3e
       -0.52382547 -1.7598885 -0.8129981 0.4528633
000050 d0 1a 81 be 3b 49 ab 3f 87 e8 12 bf f2 d3 b9 3f
       -0.2521577 1.3381723 -0.5738606 1.4517806
000060 92 31 1b 3f b0 b7 b0 3f 19 01 de 3e 78 e4 59 bf
       0.60622513 1.3806057 0.43360212 -0.8511424
000070 0b 7e 95 3e 8e 7f 01 bf 7e a1 27 3f 46 82 1f be
       0.29197726 -0.5058526 0.6548079 -0.15577039
000080 b3 6c c2 be 2c 75 06 3f c4 5c bc 3f 50 4d 32 bf
       -0.37973556 0.5252254 1.471581 -0.6964922
000090 d4 bc 0b 3f 4b f2 4f 3f 9d bb d7 bf 0b 4a 51 3f
       0.54585004 0.81229085 -1.685413 0.81753606
0000a0 c1 e8 cb bf b1 fd 1e 3f b5 da 3e be 70 4b b6 bf
       -1.5930406 0.6210585 -0.18638118 -1.4241772
0000b0 0f dc e2 bd 03 5d ea 3d c7 4d a6 bf 41 d5 e1 be
       -0.11077129 0.11443522 -1.2992486 -0.44108012
0000c0 5a 5c 61 bf cf 67 28 3f 89 0c 2b bd 52 8b 99 bf
       -0.8803154 0.657834 -0.04176 -1.1995642
0000d0 bd cd 96 3f 3a 1e 00 bf db b4 bb be 2f b0 65 3e
       1.1781536 -0.5004612 -0.3666142 0.2243049
0000e0 56 65 8f 3f f8 67 e7 3e 04 14 ba 3e da 9d d2 3d
       1.12028 0.4519651 0.36343396 0.10284014
0000f0 c1 89 98 3e a6 f3 a1 bf 25 0a 9f bf 5b c7 43 3f
       0.29792598 -1.2652481 -1.2424971 0.7647607
000100 d6 0b 9e 3f 97 75 da bc 96 aa be bd c4 a5 1e bf
       1.2347362 -0.0266674 -0.093098804 -0.6197169
000110 9d 45 b8 bf 9b b3 87 3f a6 9c b6 be 9a ce 64 3f
       -1.4396244 1.0601686 -0.35666388 0.8937775
000120 12 5e 45 bf d5 74 b4 3e da 24 02 3e 07 ec 57 3f
       -0.77096665 0.35245386 0.1270937 0.84344524
000130 63 b6 9a 3f 41 62 c3 bd bb fc b0 3e b7 0d 81 bf
       1.208691 -0.09540225 0.34567818 -1.008231
000140 48 29 0c 3d 86 e1 16 bf 9d d7 6a 3e af 2e a5 3e
       0.034219056 -0.5893787 0.22933812 0.3226218
000150 2f 1c 21 3f f0 28 36 be 71 bb 60 3e 07 73 a9 3f
       0.6293363 -0.17789054 0.21946503 1.3238229
000160 0f 2f f5 be b1 ff 96 3e fc ce 11 bf 70 f0 1a bc
       -0.47887465 0.29491952 -0.5695646 -0.009456739
000170 26 68 f9 be 65 8b 01 be f8 09 42 3f d8 f8 d1 be
       -0.4871227 -0.12650831 0.7579646 -0.41010165
000180 48 5f a4 3e e5 bf 83 bf dd 50 af bd e7 bc db be
       0.32103944 -1.0292937 -0.08560345 -0.4291756
000190 b0 d8 42 3c 89 ac 50 bd d7 c9 01 bf e7 a9 86 3f
       0.011892483 -0.050945792 -0.5069861 1.05206
0001a0 fe 3f 3a be cd 12 90 bf 8f eb 31 bf e2 c5 42 bf
       -0.18188474 -1.1255738 -0.6950006 -0.76083195
0001b0 e7 c6 2b be 70 ac 86 be 2f c7 f0 be 95 dd de 3b
       -0.16775094 -0.26303434 -0.47026965 0.006801317
0001c0 86 1f 0d be fc b2 0a bd 8e b5 08 bf 3d 39 0d bf
       -0.13781556 -0.0338621 -0.5340203 -0.55165464
0001d0 ba 4b 13 3e 4f 02 4b 3e b7 3f b3 3e e5 3b 24 bf
       0.14384356 0.198251 0.35009548 -0.6415389
0001e0 42 bf 8b 3f c3 c1 68 be 9e f1 85 3f 74 bb e2 be
       1.0917742 -0.22730164 1.0464361 -0.4428364
0001f0 ad 83 5e be c6 65 ba bd 1b 89 27 3d b9 d3 90 3e
       -0.21729918 -0.09101443 0.04090224 0.28286532
000200 29 40 cd be e1 a0 f3 3e d0 99 d5 be b1 ab 9f 3d
       -0.40088013 0.47583678 -0.41718912 0.077964194
000210 bf 67 06 3f 03 8c 91 bf 8d 43 96 be 15 09 92 3f
       0.52502054 -1.1370853 -0.29348412 1.1409022
000220 37 76 8a be 4e 7e 7a be 79 cb a7 3e 75 19 8f bf
       -0.27043316 -0.24462244 0.32772425 -1.1179644
000230 0e c6 f8 bd bc c7 36 be e8 06 24 3c 68 27 57 3f
       -0.12147151 -0.1784963 0.010011412 0.84044504
000240 e9 7e 70 bf 73 61 1f bf ed e5 2a 3f ad 58 2d be
       -0.9394365 -0.6225807 0.6675709 -0.16928358
000250 2b 0c a9 3e 4e df 6d be 11 a2 7f 3f 29 d0 01 3d
       0.33017096 -0.23229715 0.9985667 0.031692658
000260 51 44 c6 bd 91 db 28 be b3 9a ef be 67 3d d3 3e
       -0.09680999 -0.16490008 -0.46797714 0.41257784
000270 70 f4 21 be 67 1e cf 3d b0 ac 9c 3f 8e 04 98 3f
       -0.15815902 0.10113221 1.22402 1.187639
000280 19 06 84 3f 20 2c 86 3e f7 f4 a5 be 43 b0 57 3e
       1.0314361 0.2620554 -0.32413456 0.21063332
000290 db 53 ea bd 1a 54 1f bf 8b ce a8 bf 67 55 57 be
       -0.114417754 -0.62237704 -1.3188032 -0.21028672
0002a0 21 d0 20 bd 01 b4 5e be bc 32 d1 be 4f 03 2a be
       -0.039260987 -0.21748354 -0.4085902 -0.16602825
0002b0 4b 5c ad be 1b bb 7d be b2 cb 96 3f bb 45 a9 3e
       -0.33859476 -0.24778406 1.1780913 0.33061013
0002c0 1a 25 0e 3f 6c 20 8d bf 00 26 8c 3f 0b 4e 3b 3e
       0.5552536 -1.1025519 1.0949097 0.1829149
0002d0 f5 d0 83 3f 75 c0 96 bf 20 5e 74 bf ef e5 dd 3e
       1.0298144 -1.1777483 -0.95456123 0.43339488
0002e0 b9 da 09 3f 46 0f c9 be 82 a4 92 3f 21 ec 90 3e
       0.5384937 -0.39269465 1.1456454 0.28305152
0002f0 1e b3 a2 be c6 0e 23 be 4e a9 ac be 61 b6 a7 3f
       -0.3177728 -0.15923604 -0.3372292 1.3102533
000300 8a 0b 92 3f 76 65 a1 be 1b 95 20 3e 71 f3 83 bf
       1.1409771 -0.3152272 0.15681879 -1.0308667
000310 fc 6b 85 3e 9a 14 03 bf c0 4d 96 bf 47 ab 6a 3f
       0.26058948 -0.5120331 -1.1742477 0.916676

net.6.bias f4 [4]
000000 db 6e 1b 3f 4a f6 65 bd 7f 11 d3 3e 06 74 f6 3e
       0.6071603 -0.056143083 0.41224286 0.48135394

net.0.weight f4 [50, 24]
000000 8e 5d 49 bf 9b cb 5a bf bb 40 ee 3e 75 07 ab 3e
       -0.7865838 -0.8546693 0.4653376 0.33404127
000010 c9 70 91 be 22 b6 2d bd 48 77 6a 3d bf 22 bd 3d
       -0.2840636 -0.042410024 0.05724266 0.09235143
000020 ca f4 81 bd db 26 b4 3d df 3e b1 bd da a1 85 be
       -0.06345518 0.087964736 -0.0865457 -0.26100045
000030 a2 fe f6 bd fc 5b fc 3c aa 45 97 3e 92 12 4a bd
       -0.12060286 0.03080558 0.29545337 -0.049334116
000040 ed 25 da 3d 5e 2c 03 bd 0f d2 fa 3d 42 84 7b be
       0.10651765 -0.032024734 0.12247097 -0.24562171
000050 8d 9c 7e bd f3 7f 12 be 32 85 92 be 8f 13 83 3a
       -0.062161017 -0.14306621 -0.28617245 0.0010000336
000060 aa e9 97 3e bf b6 8c 3e 70 d0 76 3e 2c 66 7b 3f
       0.2967046 0.27483174 0.2410295 0.98202777
000070 6d 8c 33 be b6 95 32 bd be 6d e7 bd f6 80 3e 3d
       -0.17534037 -0.043599807 -0.113002285 0.046509705
000080 91 b7 14 bd b9 35 81 3e af ac 08 be 82 2a 10 be
       -0.036307875 0.252363 -0.13347124 -0.14078715
000090 0f 18 a2 bc 50 18 b7 bd df 64 8c 3d 86 8b 2a 3e
       -0.019786863 -0.08940184 0.06855177 0.16654786
0000a0 98 a1 91 3d e8 f0 1c 3e cd df 81 3e 36 cb 06 3d
       0.071109 0.15326273 0.2536606 0.03290864
0000b0 2f 30 ac 3b a5 fb c3 3e 6c 60 a7 3e b9 19 93 be
       0.0052547674 0.38277927 0.32690752 -0.28730562
0000c0 cd a8 ed be 83 c3 b9 bf 3a 8c 5c 3f f5 6d 27 be
       -0.46417847 -1.451279 0.8615147 -0.16350539
0000d0 61 0c d2 be 0d 00 15 be 89 9d 1d 3d 31 13 fd 3c
       -0.4102507 -0.145508 0.038480315 0.03089294
0000e0 00 9c 19 bd 4c 71 d9 bd fa ef c4 3c 99 46 90 3e
       -0.03750229 -0.10617313 0.024040211 0.28178862
0000f0 0a 56 c6 bd e1 6d 82 bd d8 d6 b4 bd ab 37 4d bd
       -0.096843794 -0.06368614 -0.08830041 -0.050101917
000100 fa 5d 86 3b 48 b9 f2 3c cd ad c0 3b ca 97 45 3e
       0.0041005583 0.029629365 0.0058800937 0.19296184
000110 d6 30 1e 3e 02 e8 56 3e 98 ab 5a be 99 39 01 3d
       0.15448317 0.20986941 -0.2135452 0.03154907
000120 bf fd bd bd 90 a5 df 3d cd 86 5e bd 09 28 36 bf
       -0.09276914 0.109202504 -0.054327775 -0.7115484
000130 83 8b c2 3e f3 1a 35 bd 52 28 12 3d 47 fe 08 be
       0.37997064 -0.044215154 0.035682984 -0.13378249
000140 8c 92 aa 3e d0 8d a2 bd 9f f5 12 bc d9 3a 3c be
       0.3331493 -0.07937205 -0.008969693 -0.18381824
000150 6a 98 97 3c 7e 59 0e 3e 3a f4 8c 3e b1 0b 96 3e
       0.018505294 0.13901326 0.2753008 0.29305795
000160 76 3c 96 3e f9 e8 9d 3e 1f 38 19 3d 74 1c 58 3e
       0.29343003 0.30841807 0.037407037 0.21104604
000170 e7 5e 8c 3e 1e 13 dc 3b 33 87 95 3e 0b 16 ef 3e
       0.27416155 0.006716146 0.2920471 0.46696505
000180 5b 27 15 3f 87 d4 33 3e 2a 5c d0 be 52 61 5b 3d
       0.58263177 0.17561541 -0.40695316 0.05355961
000190 ef 7f 06 be 7e 33 b2 bd 43 17 87 3e c9 a3 d3 bd
       -0.1313474 -0.087012276 0.26384935 -0.10333974
0001a0 d1 87 61 be fc f1 38 3d 11 03 e6 3b b6 7d 8c bc
       -0.22024466 0.04515265 0.0070194085 -0.017149787
0001b0 da b0 2f 3d 11 18 42 bc 27 00 2e be d2 e5 b4 3d
       0.04289327 -0.011846558 -0.16992246 0.08832897
0001c0 84 ac 71 bd 1d a7 cd bc e0 cf 93 bd dc b8 16 bc
       -0.059002414 -0.0251041 -0.072173834 -0.009199347
0001d0 0e 75 ec bd 45 db 45 3d 3f 54 a9 be bf f4 da 3d
       -0.11545764 0.048304815 -0.33072087 0.10691213
0001e0 3d 02 88 3e f7 d9 2d bf ac e7 a5 3e f8 25 cd 3d
       0.26564208 -0.6791071 0.32403314 0.100170076
0001f0 e4 db 08 3e aa 71 7f be df 80 84 be 0d 9e d6 bd
       0.13365132 -0.24945703 -0.2587957 -0.104793645
000200 d7 d3 6d 3c b0 c6 1a be fd 5d c7 bd 7d 10 24 be
       0.014515839 -0.15114856 -0.09734724 -0.16021915
000210 72 c5 7f 3d f7 b7 d9 bd 46 31 13 be aa 77 67 be
       0.062444158 -0.10630792 -0.14374265 -0.22604242
000220 8d fb 2c be b1 cf 29 be 7d 01 40 bd 86 5b 2e 3e
       -0.16892834 -0.16583134 -0.04687642 0.17027101
000230 3d d7 b4 3d 7e cf 18 3e 45 b5 96 bd a7 9b 2d be
       0.08830116 0.14922902 -0.07358793 -0.16953908
000240 49 ec de 3e 6d 47 15 3f e1 2b 7e 3d e7 9f 43 3f
       0.43539646 0.5831211 0.062053565 0.76415867
000250 cc de 4b 3e fa d9 f0 3d 7c 79 18 3e 43 80 54 3d
       0.19909209 0.11760326 0.14890093 0.051880132
000260 ee 02 97 3d 84 8d 60 3e 10 9e b2 3c 65 cc 30 bd
       0.07373606 0.21928984 0.021803886 -0.043163676
000270 16 35 e9 bd cd 10 1c be 2a 4a b7 bc a7 cd 0a 3e
       -0.113870785 -0.15240784 -0.022374231 0.13555013
000280 70 b3 1c 3e 5a bd 44 3e ac 0f 55 3e 98 59 b8 3e
       0.15302825 0.19212857 0.2080676 0.36005855
000290 7c 04 ac 3e 46 f6 8a 3e 24 d7 a1 3e 46 18 3c 3e
       0.3359717 0.27141017 0.31609452 0.18368635
0002a0 b9 9a a1 3e 40 e6 63 3f 36 f9 24 3e a2 d1 71 be
       0.31563357 0.8902321 0.16110691 -0.23615125
0002b0 8c f0 b1 3e 04 64 06 3d b1 d0 fb 3e 7b 82 94 bd
       0.34753835 0.032810226 0.49182656 -0.0725145
0002c0 23 50 e9 bc 36 dc 6c 3e 85 3a 48 bd 73 9c 01 be
       -0.028480595 0.23130879 -0.048883934 -0.12657337
0002d0 15 2c 3f 3e 89 b8 81 3d 8a 90 b4 be 89 69 57 be
       0.1866916 0.063340254 -0.35266525 -0.21036352
0002e0 a3 6a 6e be 20 2e 81 3d fd 5d 14 be 70 0c 2f be
       -0.23282866 0.06307626 -0.14488979 -0.17094588
0002f0 5c bb dd bc 42 e3 64 3e f9 5d da bd 01 9a 87 3c
       -0.027066879 0.22352317 -0.10662455 0.016552927
000300 91 cc 29 3e 09 25 6e 3f 87 29 f9 be 0c c8 08 bf
       0.16581942 0.9302526 -0.48664495 -0.5343025
000310 d2 3a bb 3e 62 c1 50 3e 2a 89 06 3e a3 c5 12 3e
       0.36568314 0.2038627 0.13138261 0.14333205
000320 ec 75 4f be b3 b2 b0 bc ee 81 8c 3d a0 01 54 3d
       -0.20259827 -0.021569585 0.068607196 0.051759362
000330 1e 8e 02 be 43 46 53 3e 5f f2 be bd 3a 78 f7 bd
       -0.12749526 0.20632271 -0.09323572 -0.12083478
000340 d3 03 a8 3d 92 f9 14 3d e5 88 eb b9 f2 05 4f 3c
       0.082038544 0.03637082 -0.00044924687 0.012635695
000350 95 9b 25 be 04 c1 64 bb e2 ab 3e 3e 13 3c 6e bb
       -0.16172631 -0.0034905085 0.18620256 -0.0036351725
000360 e5 b9 24 bf e0 79 66 bf c8 d6 da bc 92 bb b5 bf
       -0.6434615 -0.90029716 -0.026713744 -1.4197867
000370 1d eb d6 bd c0 ad c1 bd f4 08 db 3d cb 1a 61 3d
       -0.10494063 -0.09456968 0.10695067 0.054957192
000380 51 cd c1 bd 78 84 3f be 85 35 74 bd 8e 79 91 be
       -0.09462989 -0.18702877 -0.059621353 -0.2841305
000390 52 4e 3e bc c1 85 88 bd 33 ba 0d 3e ae 9a 09 3d
       -0.011615353 -0.066661365 0.1384056 0.03359478
0003a0 6c bc f5 3d 2c 4d 09 3e 57 22 48 be 99 64 6c be
       0.11998829 0.13408345 -0.1954435 -0.2308525
0003b0 57 08 49 be d6 1a 57 be 2f 42 2e bd d9 02 bf 3d
       -0.19632088 -0.21006331 -0.042543586 0.09326715
0003c0 01 b7 69 3f 44 ad 71 3f 67 fd 80 be f4 dd 36 3f
       0.91294867 0.9440501 -0.2519333 0.71432424
0003d0 41 56 1a 3e 81 85 bb 3c 16 68 12 3b 59 ac 1c 3d
       0.15071966 0.022890808 0.0022339872 0.0382503
0003e0 be 34 21 3d 5b eb 56 bd 73 c3 38 3e 1d b3 81 3d
       0.03935694 -0.052470546 0.18043308 0.06332991
0003f0 4f a0 3e 3c 15 29 74 bd 92 a1 b3 bd da e6 ec 3c
       0.0116349 -0.05960949 -0.087710515 0.028918672

net.0.bias f4 [50]
000000 13 ef 06 3d 80 b2 a0 be 9b 16 2b be 77 f1 9a 3e
       0.032942843 -0.31386185 -0.16707842 0.30262348
000010 80 c4 23 be 5e c5 2d be 28 c7 4f be f6 18 3d be
       -0.15992928 -0.16969821 -0.20290816 -0.18466553
000020 20 56 9a 3e d2 e0 a4 3e 26 bc be 3d 32 28 0a 3e
       0.30143833 0.32202774 0.0931323 0.13491896
000030 66 81 dd be 75 70 86 bd e8 bb 36 3d 8e d1 85 3e
       -0.43262786 -0.06564418 0.044612795 0.2613644
000040 8c f9 d0 bd 66 9c 46 be 83 98 5b be af 6a b5 3e
       -0.10203847 -0.19395599 -0.21444897 0.35432956
000050 d5 89 6d 3e 99 d5 a3 3d ee a8 55 bd ae 4a 7a 3b
       0.2319711 0.07999725 -0.052163057 0.0038191485
000060 74 e5 04 bf 94 8a c5 3e 9f f0 d3 3c 3c f1 da 3e
       -0.5191262 0.3858229 0.025871573 0.42762172
000070 7d 90 4b be 2b 6b 43 bc 1a f8 a2 3d 87 bb b0 3d
       -0.19879337 -0.011927406 0.07957478 0.08629518
000080 93 0f a6 bd b4 5f 6f 3c 73 00 50 be da 65 87 bd
       -0.08108439 0.01461022 -0.20312671 -0.066112235
000090 15 8e d0 3c 36 25 d2 bd 04 35 ad 3e f9 c1 b4 be
       0.025458375 -0.10261004 0.3382951 -0.3530424
0000a0 9c a8 a3 be 16 18 7b 3e 75 e1 ed bd 72 06 98 be
       -0.31964576 0.24520907 -0.11615268 -0.29692417
0000b0 d5 e5 b8 3e e1 3f aa be 89 1e 01 3e a0 02 17 3d
       0.36112848 -0.3325186 0.12609304 0.036867738
0000c0 36 d0 76 be 1c 06 68 3e
       -0.24102864 0.2265858

net.2.weight f4 [50, 50]
000000 1d 8e 35 3f 39 27 df 3d 3b 99 3c 3f 22 8e 11 bd
       0.7091997 0.10896153 0.7367131 -0.03553594
000010 13 af 84 bd d8 6c 26 bd 39 d9 8e be 23 7d 0d bf
       -0.06478705 -0.040631145 -0.27900103 -0.5526907
000020 30 2f 3f bf 0c a5 2a 3f c3 83 ea be 2e 77 fe be
       -0.7468138 0.6665809 -0.4580365 -0.49700302
000030 9c ff b6 be a4 71 6a 3e 72 9e b3 be 0c ca 90 3e
       -0.3574189 0.22894913 -0.35081822 0.2827915
000040 4d 4c e4 3e 59 92 e7 3e be 2c 39 be 00 93 2f 3e
       0.44589463 0.45228842 -0.18083474 0.1714592
000050 e7 21 f8 3c 28 1b ae 3a 30 5c e5 3e bb 97 12 bf
       0.030289603 0.001328324 0.44796896 -0.5726277
000060 58 9d e1 bd b6 ba 1a be c6 0a 8b 3e 7f 0e ca bd
       -0.11016339 -0.15110287 0.27156657 -0.09866046
000070 c7 a8 32 bd d8 09 1f 3f 09 3c 25 be e7 c6 52 bf
       -0.04361799 0.62124395 -0.16136183 -0.8233475
000080 a3 c9 19 3f 99 ca 98 3b ec 70 bd 3c c0 5f 4a 3e
       0.600733 0.0046628234 0.023125134 0.19763088
000090 78 8b ba 3e 61 1e 63 be 4a 3d 20 3d 4d 09 12 3d
       0.3643453 -0.22179557 0.03912095 0.0356534
0000a0 33 f3 cc bd 6a 61 6a 3c a7 f9 f4 3d b4 79 dd be
       -0.10007324 0.014305452 0.1196168 -0.43256915
0000b0 63 62 91 3d fd 18 b0 bd d9 7d 82 3c 47 5d 0d bf
       0.07098844 -0.08598516 0.01592915 -0.55220455
0000c0 b2 d6 dc be 51 96 8a be 65 11 09 3c 69 31 07 3f
       -0.4313255 -0.27067807 0.008365964 0.5280977
0000d0 bb 7e 0c bd cc ea 1b bd f4 b8 01 3e a9 79 2a bd
       -0.034300547 -0.038065717 0.1266821 -0.04161993
0000e0 60 38 33 3e a3 4a 19 be c7 8d 71 be 18 e8 33 be
       0.17501974 -0.14969878 -0.2358924 -0.17569005
0000f0 c9 36 0f 3e 01 9c 24 be d3 5b 07 3d 2e 3c c4 3d
       0.13985743 -0.16075136 0.033046555 0.09581791
000100 d5 b5 c6 3d 83 7b ac be 00 e2 09 3f 7e 28 ca be
       0.097026505 -0.33687982 0.53860474 -0.39484018
000110 cf e7 f0 3d bd 9f 52 be 47 8b 6e be 0a a9 a2 3e
       0.11762964 -0.20568748 -0.23295318 0.31769592
000120 c5 a3 a1 bd f2 ed 94 3c 3c 7d 3f 3e 9a 53 36 bf
       -0.07892565 0.018179867 0.18700117 -0.71221316
000130 84 90 36 3e c6 1e 37 be 87 8b 91 bd 50 7a f6 3e
       0.17828566 -0.17882833 -0.07106691 0.48140192
000140 76 57 07 bf 09 a2 db be a3 06 32 3e 64 90 a6 be
       -0.5286783 -0.4289706 0.17385344 -0.32532036
000150 bb 44 20 3e 52 84 18 3f f0 f4 db bd 66 6e 3b bd
       0.15651219 0.59576905 -0.107400775 -0.04575958
000160 b3 ec 44 3d 41 44 18 3b b8 5e 45 3d 8d c8 29 bc
       0.048077296 0.0023234042 0.048186034 -0.010362756
000170 45 46 73 bd 7f 91 ce 3b 18 ab 06 3c 99 39 9f 3d
       -0.059393186 0.0063039656 0.008219503 0.07774658
000180 5d 95 6b be 67 13 42 3d 34 a6 e4 3d 76 c5 ad 3c
       -0.23006196 0.047381785 0.11164513 0.02121232
000190 73 26 30 bf 93 d7 ea bd 8e 7c 29 bf 1d f9 ad bc
       -0.6880867 -0.11466899 -0.6620568 -0.02123695
0001a0 01 56 05 bc 1e 22 80 3d c9 aa a8 3e 69 26 0b 3f
       -0.008138181 0.06256507 0.329428 0.54355484
0001b0 f5 ec 15 3f da e3 9a be 26 71 1c 3f 23 67 ef 3e
       0.5856469 -0.30251962 0.6111015 0.46758375
0001c0 bc 18 23 3e 0f 32 56 be 78 a6 0b 3e 64 b8 3c be
       0.15927404 -0.20917533 0.13637722 -0.18429714
0001d0 da 43 80 be 90 93 ec be 07 1c 6a bd 95 ca 25 3e
       -0.25051767 -0.4620633 -0.057155635 0.1619056
0001e0 4c 59 e7 3d 7a 63 b7 be 3e d1 f7 be e8 6f 0b 3f
       0.11296329 -0.35818082 -0.48401827 0.5446763
0001f0 09 7e a0 bd 31 03 ff 3e d8 3f ca bd cc 4e 99 3d
       -0.07836539 0.49807122 -0.098754585 0.074857324
000200 66 90 cf 3d cf 7d 28 bf 51 d8 1b 3e 79 10 13 3f
       0.10134964 -0.6581697 0.15219237 0.5744701
000210 ef 49 d9 be 58 e2 cc bc 62 66 34 be 0a ce 78 be
       -0.4243922 -0.025010273 -0.17617181 -0.24297348
000220 81 ac be be de e9 7c 3e 8d 09 e0 3b 78 d1 c9 bd
       -0.37240985 0.24698588 0.006837076 -0.09854406
000230 06 e7 be 3d 5c 0a 86 3d c5 12 27 3d dc fd c3 3e
       0.09321408 0.06544945 0.040789384 0.38279617
000240 16 0b a4 be 6e 72 a5 3d cd d0 17 3d 23 28 16 3f
       -0.32039708 0.08078466 0.037064362 0.58654994
000250 c2 a4 d8 3e e4 bd 99 3e ac 07 a3 bc ab cd 24 bd
       0.423132 0.30027688 -0.01990112 -0.040235203
000260 03 f8 05 bf 04 7f 5c be 99 b9 a2 3e b6 b0 1e 3d
       -0.5233156 -0.21532828 0.31782225 0.038742743
000270 bc c1 3f be 84 58 54 bd 77 b4 96 3e a0 d5 20 bf
       -0.18726248 -0.051842228 0.2943456 -0.62825966
000280 fb 31 6b be 6e eb b0 be 26 2f b5 bd c0 48 32 3d
       -0.22968285 -0.3455462 -0.088468835 0.04352641
000290 ba 79 38 3d 3b c1 7e 3e 32 1e e8 bd e8 a9 9e be
       0.045037962 0.24878399 -0.11333884 -0.30989003
0002a0 f0 bf 2c 3d 44 71 56 be 23 69 fd bd 56 16 98 3c
       0.042175233 -0.20941645 -0.12373569 0.018565338
0002b0 93 8b 48 3e b8 77 73 be 98 3c 23 3e 33 31 8b 3e
       0.19584493 -0.23776138 0.15941083 0.27185974
0002c0 c9 a9 66 bf 1f c2 0e be 6b 26 3e 3e 7b 0f 26 bf
       -0.9010282 -0.13941239 0.18569343 -0.6486737
0002d0 2d 9a 34 3e 7e c7 6c 3e 9c 59 c6 be 56 8d 59 3e
       0.17636938 0.23122975 -0.38740242 0.21245322
0002e0 7c b1 83 3c 8b a4 b0 be ac 75 30 bf 0a 3c ac 3e
       0.016075842 -0.34500536 -0.68929553 0.33639556
0002f0 58 9d 32 be eb 97 58 3e 77 63 db be f0 b0 64 bf
       -0.17442834 0.21151702 -0.42849323 -0.89332485
000300 e7 89 e6 be a2 95 5d bd 35 24 73 bf 63 f5 a2 3d
       -0.45027086 -0.05409778 -0.9497712 0.0795696
000310 75 23 8b 3a 1b 69 24 be 07 bb 91 bc 5d 7a 45 3e
       0.0010615425 -0.1605572 -0.017789377 0.19284959
000320 53 55 f5 bc 5b 35 eb bd a8 ee 95 be 9f 1f 8c 3d
       -0.029947912 -0.11484786 -0.29283643 0.06841969
000330 98 2f 0e be 85 fa 48 be f8 13 00 be 9e 8c 01 3d
       -0.13885343 -0.19626816 -0.12507617 0.031628244
000340 c7 19 92 3d ce 8b e6 bd ad 3a bb bd 9b 4c 8b bd
       0.07133823 -0.112571344 -0.09142051 -0.06801721
000350 5b b3 88 3d 43 3e db bc fe 1d 70 bd eb 1e 9b 3d
       0.06674834 -0.026763087 -0.058622353 0.075742565
000360 8c 9a 7c bd 20 1b c5 3b e4 e7 c8 bd fa 63 67 3e
       -0.061670825 0.0060151964 -0.098098546 0.22596732
000370 66 85 31 bd 91 b3 fe bc af 2b b9 3d bd b7 44 bd
       -0.04334011 -0.031091483 0.09041535 -0.04802679
000380 83 21 9b bd 17 eb f3 bc 41 12 cc 3d 6c 89 10 3e
       -0.07574751 -0.029775186 0.09964419 0.14114922
000390 8d 95 07 be 51 aa 2a be 49 01 d1 3c 80 4f e3 bc
       -0.13240643 -0.16666533 0.025513308 -0.02774787
0003a0 b8 5a 3b be 39 51 58 be 4a d4 0a be b7 4b 1b bd
       -0.18296325 -0.21124734 -0.13557544 -0.037914004
0003b0 69 bb 2c be 53 e6 ef bd d4 cc ba 3d 17 0f 46 bc
       -0.16868366 -0.11713853 0.09121099 -0.012088559
0003c0 fb 41 10 bd 5d 94 b4 bc b8 27 9d ba 18 ed ca 3d
       -0.035219174 -0.022043401 -0.0011989987 0.09908503
0003d0 70 10 1a bd 07 08 66 3d cd 61 26 3e 58 81 ce 3d
       -0.037613332 0.05616 0.16248246 0.10083264
0003e0 e4 e2 98 3d 3c 14 0b 3e 62 62 1a 3d 61 a2 1d 3f
       0.07465151 0.13581938 0.03769148 0.61575896
0003f0 75 d8 12 bf 23 50 0b b9 7e 04 65 3e 15 17 57 be
       -0.5736154 -0.00013285926 0.22364995 -0.21004899

net.2.bias f4 [50]
000000 2f 05 4c bd a1 54 1b be 5f 34 bc bd 33 27 75 3c
       -0.04980963 -0.15169002 -0.091896765 0.014962959
000010 9a f4 26 3e 30 ce 5a 3d 55 03 bd 3c 82 c0 29 be
       0.16304246 0.053419292 0.023072878 -0.16577342
000020 c7 8c 50 be 7f 66 27 3e 62 22 c0 3e 49 76 84 be
       -0.20366202 0.16347693 0.37526232 -0.25871494
000030 cc 29 23 3d 5c a7 4f be e0 32 e0 3e 0c 9c ab be
       0.039834782 -0.20278686 0.43788815 -0.33517492
000040 52 cb 95 bc d7 be 09 3e e9 97 b5 bc 3d 8f 39 3d
       -0.018285427 0.13451706 -0.022167163 0.04530262
000050 a6 df 6a 3d 2c fd 64 3e 73 a3 0f 3d ae 00 7c bd
       0.057342194 0.22362202 0.035067987 -0.061524086
000060 68 fa 8a be 86 47 ce be 0e 55 45 be 14 60 33 be
       -0.2714417 -0.40288943 -0.19270727 -0.1751712
000070 8c 41 0e be 62 ee 95 3e e7 e9 b1 be bb 39 76 be
       -0.13892192 0.29283434 -0.34748766 -0.2404546
000080 9d 27 f6 bc e0 ce 38 be 22 77 18 bd d7 3e cf 3e
       -0.030048186 -0.18047667 -0.03722299 0.4047763
000090 80 d3 78 3e 71 7c 3d 3e 10 a3 94 be 2f fb 97 bd
       0.24299431 0.18504502 -0.29030657 -0.07420956
0000a0 90 b1 97 be 7e 50 12 3d d0 f1 81 bd d4 d2 90 3e
       -0.29627657 0.035721295 -0.0634495 0.2828585
0000b0 6c 9c f2 3d c9 84 b7 be 37 76 63 be 5d 1b 85 3e
       0.11846241 -0.35843495 -0.22213064 0.2599744
0000c0 6e 07 7b bb 7d 08 8b 3e
       -0.003830399 0.27154914
