pretrain_ckpt/gail/500_expert/BipedalWalker-v3/value.ckpt (torch, 27109 bytes, 7 tensors)

net.0.weight f4 [50, 24]
0.38632652 -0.114127755 -0.17153592 -0.14124203 0.33353686 -0.002030228 0.016585264 -0.104493186
0.027912943 -0.12491704 -0.14667459 0.15423864 -0.08371401 -0.0714139 -0.0951344 -0.115929484
-0.027361814 0.06824 -0.089506045 -0.17667818 -0.052027978 0.1127533 -0.0294463 -0.15863855
0.19126679 -0.12451701 0.06333956 0.23617439 0.040778372 0.20280628 0.21498573 0.20008975
-0.107618324 0.23040035 -0.16555794 -0.13362083 0.18398483 -0.15989791 0.17489801 -0.081406906
0.07008215 -0.0019966543 -0.18691583 0.13549536 -0.014705097 -0.013658778 0.034952324 0.12211703
0.08382406 -0.24478789 -0.08510494 0.13857017 -0.39390978 0.1554871 0.08178137 0.20149334
0.120159365 0.09302153 -0.19720238 -0.19519992 0.1441288 -0.07913808 -0.024585636 0.1856469
-0.10689984 0.0703385 0.18954045 0.021828022 -0.03129196 -0.16550949 0.13625038 0.16341232
0.11458821 0.26087514 0.16545905 -0.2985592 -0.106251344 0.039541416 -0.058223948 0.1234362
-0.08645561 -0.2466938 0.14564843 0.013800897 -0.06835507 -0.03370165 -0.051394295 -0.21021119
-0.22623667 -0.06704299 -0.052399185 0.25687253 -0.021261973 0.29155242 0.29272953 0.22116464
0.3555513 0.19320093 -0.12861638 -0.15779008 -0.19502136 -0.045072373 0.21101329 -0.27374548
0.09500389 0.10153334 0.008616881 0.017090771 -0.085462555 0.071257696 -0.20673984 -0.1200019
0.119072095 -0.07979441 0.14215565 -0.103093356 0.1604365 -0.085172005 0.102634534 -0.15924548
0.1227875 0.04198304 0.12230258 0.077684544 0.025952268 -0.07860361 0.15369785 -0.1923764
0.04555248 -0.243488 -0.21996334 -0.036638208 0.07416182 -0.15558721 -0.061676793 0.030525902
-0.06893572 -0.035874054 0.12876965 0.03435059 -0.008358173 0.06441061 -0.20357105 -0.21824996
-0.06725767 -0.08434042 -0.10753969 0.2925462 0.13590352 -0.09303234 0.1940832 0.07010356
0.020111874 0.14558966 -0.16770086 0.1460457 0.045935057 0.074034296 0.03680346 -0.027167847
-0.033036586 -0.066224396 -0.056838766 0.053577848 -0.21740758 0.015737312 -0.2300911 0.13666913
0.20916392 -0.080241546 -0.13354816 -0.067593426 0.29255086 0.10651207 0.06798986 -0.12606148
0.17317855 -0.1027698 0.058087155 -0.03007434 -0.1345516 -0.039582845 -0.114824295 0.0428457
-0.13352422 0.06825908 -0.21162023 -0.166151 0.14755616 -0.19704476 -0.19352858 0.111746356
0.026101153 0.1109156 -0.18002638 0.1599 0.009396589 0.12813924 -0.019572506 0.0755858
-0.21672721 0.0783306 0.1362466 0.024779202 -0.07259792 0.09373389 0.0024752098 -0.08558713
-0.17052893 0.17288506 -0.12461606 -0.012033595 -0.17775261 -0.05354348 0.08753758 0.08909644
-0.2701234 0.082978435 0.21447758 -0.023866883 -0.12415649 0.13422844 -0.09986147 0.19208725
0.18608224 0.14217657 -0.06254979 -0.19560014 -0.03696842 0.12508416 -0.14230163 -0.10214925
-0.1686749 -0.07610234 -0.060292214 -0.16633567 0.058478802 0.14885367 -0.026386255 -0.027979162
0.4200628 0.08765669 0.36835602 0.16491368 0.55240077 0.1257581 -0.10568073 0.043798264
0.14776263 0.067456305 -0.071813546 0.43286955 0.18852016 0.057197906 0.093194924 -0.026924212
00000000: 97cc c53e d0bb e9bd 1da7 2fbe c0a1 10be
00000010: 58c5 aa3e 930d 05bb d2dd 873c 8600 d6bd
00000020: afa9 e43c 81d4 ffbd dd31 16be bcf0 1d3e
00000030: 4072 abbd 7341 92bd d3d5 c2bd 706c edbd
00000040: e225 e0bc 6ac1 8b3d f24e b7bd 20eb 34be
00000050: 4a1b 55bd 34eb e63d 5e39 f1bc 2572 22be
00000060: 71db 433e c602 ffbd 2cb8 813d b3d7 713e
00000070: 3907 273d 73ac 4f3e 3825 5c3e 54e4 4c3e
00000080: ff66 dcbd 12ee 6b3e 0588 29be e6d3 08be
00000090: 8566 3c3e 47bc 23be 7718 333e aab8 a6bd
000000a0: 3b87 8f3d 4dda 02bb dd66 3fbe 4cbf 0a3e
000000b0: a6ed 70bc 11c9 5fbc 2b2a 0f3d 7e18 fa3d
000000c0: f3ab ab3d ada9 7abe 804b aebd 57e5 0d3e
000000d0: 8bae c9be 0338 1f3e fe7c a73d 4554 4e3e
000000e0: 1d16 f63d 1282 be3d 6cef 49be 7de2 47be
000000f0: 8096 133e 2513 a2bd d167 c9bc 391a 3e3e
00000100: 4eee dabd a20d 903d e416 423e aed0 b23c
00000110: 002c 00bd 527b 29be 3885 0b3e 8f55 273e
00000120: 39ad ea3d 6d91 853e 196e 293e c0dc 98be
00000130: 4e9a d9bd 2ef6 213d 3c7c 6ebd 1ecc fc3d
00000140: a40f b1bd 4d9d 7cbe dd24 153e 281d 623c
00000150: befd 8bbd be0a 0abd d382 52bd 9a41 57be
00000160: 96aa 67be d64d 89bd 87a0 56bd cc84 833e
00000170: 972d aebc 5c46 953e a5e0 953e fc78 623e
00000180: d20a b63e 77d6 453e 03b4 03be b993 21be
00000190: aeb3 47be cf9d 38bd de13 583e 5e28 8cbe
000001a0: 6691 c23d b6f0 cf3d d22d 0d3c f201 8c3c
000001b0: fe06 afbd 8eef 913d 9cb3 53be 8ec3 f5bd
000001c0: 12dc f33d 406b a3bd 4091 113e 9c22 d3bd
000001d0: 7749 243e a96e aebd 0e32 d23d 3f11 23be
000001e0: 0378 fb3d 68f6 2b3d c679 fa3d 1319 9f3d
000001f0: da99 d43c eefa a0bd f862 1d3e 52fe 44be
00000200: 3d95 3a3d eb54 79be 123e 61be f211 16bd
00000210: 27e2 973d 4152 1fbe cea0 7cbd 7511 fa3c
00000220: 2c2e 8dbd acf0 12bd 31dc 033e 34b3 0c3d
00000230: b8f0 08bc b6e9 833d ee74 50be eb7c 5fbe
00000240: 64be 89bd acba acbd c53d dcbd 9ec8 953e
00000250: 4b2a 0b3e bd87 bebd bfbd 463e 7592 8f3d
00000260: a8c1 a43c 7515 153e c6b9 2bbe 018d 153e
00000270: 6626 3c3d 4b9f 973d 3abf 163d 1b8f debc
00000280: 5f51 07bd a8a0 87bd c4cf 68bd 7274 5b3d
00000290: 18a0 5ebe 89eb 803c 009d 6bbe fef2 0b3e
000002a0: 112f 563e ae55 a4bd d9c0 08be 6c6e 8abd
000002b0: 3ac9 953e 0023 da3d 453e 8b3d 4316 01be
000002c0: b855 313e f978 d2bd ccec 6d3d 765e f6bc
000002d0: e5c7 09be 9f21 22bd 0029 ebbd f97e 2f3d
000002e0: 93ba 08be 6bcb 8b3d f9b2 58be 7d23 2abe
000002f0: f618 173e 1ac6 49be 5b2c 46be 46db e43d
00000300: 16d2 d53c b827 e33d d658 38be d3bc 233e
00000310: 27f4 193c ef36 033e 8556 a0bc bacc 9a3d
00000320: bded 5dbe cb6b a03d 3b84 0b3e c1fd ca3c
00000330: 38ae 94bd 8ef7 bf3d 2137 223b 4e48 afbd
00000340: 239f 2ebe c808 313e b436 ffbd 8e28 45bc
00000350: c804 36be 6850 5bbd e746 b33d 3278 b63d
00000360: 9d4d 8abe 99f0 a93d 03a0 5b3e 7b84 c3bc
00000370: c245 febd 2e73 093e 2c84 ccbd 85b2 443e
00000380: 588c 3e3e bc96 113e 1b1a 80bd 674b 48be
00000390: 336c 17bd 1016 003e 85b7 11be a033 d1bd
000003a0: 1db9 2cbe 8bdb 9bbd f8f4 76bd e653 2abe
000003b0: 7887 6f3d 196d 183e fd27 d8bc 8e34 e5bc
000003c0: 7912 d73e 5a85 b33d 2999 bc3e 22df 283e
000003d0: 236a 0d3f bbc6 003e 236f d8bd cf65 333d
000003e0: 164f 173e 8826 8a3d fb12 93bd 14a1 dd3e
000003f0: 6e0b 413e 5a48 6a3d fbdc be3d 2a90 dcbc

net.0.bias f4 [50]
-0.21487771 -0.18554138 -0.033749767 0.00040425337 0.18675852 0.024514915 0.0706364 -0.051219232
-0.00815272 0.1992742 0.11066109 -0.10254713 -0.061118335 0.06473572 -0.2179478 0.066485286
0.18624695 0.2710884 -0.045779474 -0.022238567 -0.18119192 -0.12380627 0.029830797 -0.013364432
-0.36067626 0.13236073 -0.12619156 0.033326022 0.041945416 -0.030349 -0.07161191 0.08859134
0.22395253 -0.04326975 0.0329099 -0.0067351167 -0.12860358 -0.015358757 -0.08919962 -0.056072813
0.085606255 -0.066625565 0.16970345 0.1792931 0.012572402 -0.11622939 0.23991875 -0.0029389977
0.15680121 0.038069684
00000000: e708 5cbe 8ffe 3dbe 323d 0abd f8f1 d339
00000010: a03d 3f3e 81d3 c83c d1a9 903d 42cb 51bd
00000020: fc92 05bc 890e 4c3e 48a2 e23d 3b04 d2bd
00000030: 3857 7abd 2994 843d b52d 5fbe 7029 883d
00000040: 85b7 3e3e 19cc 8a3e 4283 3bbd a82d b6bc
00000050: 608a 39be 248e fdbd b75f f43c 7ef6 5abc
00000060: 8faa b8be 9289 073e 5c38 01be de80 083d
00000070: f5ce 2b3d 779e f8bc 44a9 92bd 606f b53d
00000080: d053 653e 9f3b 31bd 88cc 063d 41b2 dcbb
00000090: a8b0 03be 4ca3 7bbc 4aae b6bd 9bac 65bd
000000a0: 5552 af3d fc72 88bd bec6 2d3e 9c98 373e
000000b0: 7afc 4d3c ad09 eebd 43ad 753e 339c 40bb
000000c0: 7f90 203e f5ee 1b3d

net.2.weight f4 [50, 50]
-0.09989409 -0.12746364 0.1337054 -0.089362085 -0.18440934 -0.1853574 0.049894504 0.031272836
-0.012618207 -0.07697703 -0.38455757 -0.009666129 -0.080017224 -0.2625257 -0.15336294 -0.24061587
0.16546093 0.103903845 0.1336798 0.020894343 -0.008553403 -0.12866306 0.11248752 0.08208862
-0.27853483 -0.0060445876 0.038771804 -0.08013749 0.14172138 -0.15758112 -0.5237701 -0.1122316
0.100940466 -0.007451825 -0.024075966 -0.0159464 0.011807682 0.051482636 0.07446978 -0.10364221
0.13047302 -0.15693584 0.18888809 0.1615887 0.20859188 0.109022126 0.04129058 0.5449222
0.1810062 -0.10196389 0.1292022 -0.06333413 -0.03472948 -0.13323681 0.021907726 0.1386566
0.15125664 0.040058322 -0.026589686 0.025483778 -0.17690796 -0.06350053 0.14297654 -0.076715134
0.07690254 -0.012699076 0.054994356 -0.048197933 -0.1322165 -0.056213353 -0.09286546 0.13231887
-0.12886629 0.011722128 0.09903618 0.08697087 -0.04806906 0.090353966 0.09569808 -0.068841815
-0.0558951 -0.066477194 -0.0931634 -0.081172206 -0.118505985 -0.004323723 0.0016398494 -0.06824752
-0.0020836527 -0.106060326 -0.12891796 0.008337494 0.025270969 0.06821125 -0.094390966 0.15486032
-0.15953858 0.2513966 -0.036835555 0.0111141065 -0.14236805 0.033497036 0.026647134 0.027794465
0.0071632247 -0.09608489 0.0729839 0.036401805 0.05390781 -0.056780968 0.09944785 -0.15002844
-0.001706695 0.1953241 -0.094045006 0.14453872 0.18178333 0.06293792 -0.054870237 -0.1225815
-0.049495928 -0.08259061 0.08114805 -0.08462046 0.10697547 -0.04014094 -0.085787 -0.05824882
-0.087931775 -0.13335307 -0.0031211833 -0.11056893 -0.020706434 -0.03159241 0.12230824 -0.016473286
0.07582304 -0.0012437818 0.05530049 -0.048553247 0.07832091 0.11782144 0.11318262 -0.009736788
-0.12566833 0.08248147 0.10981307 0.024060568 0.06368202 -0.008642111 -0.112191595 -0.15741046
-0.100916654 0.08071764 -0.19052151 0.008327082 -0.1730519 0.0015076644 -0.06693705 0.15042356
-0.19308314 -0.058241423 -0.13335928 -0.19830105 -0.11069106 -0.03562439 -0.09390821 0.08315316
-0.022286328 0.20964746 0.09892471 -0.040243544 0.12548491 0.07560505 -0.064071 0.18815511
-0.019177629 -0.06292269 0.036244106 0.10030357 -0.35769036 0.042635847 0.048891984 -0.22834873
0.05914888 -0.08648475 0.07671455 -0.16572902 0.006879395 -0.041601896 0.18572131 0.08618705
0.17715529 0.022361094 0.19874914 0.058225486 0.07220192 0.21017112 0.18110186 -0.07812336
-0.0636471 -0.137595 0.11546728 0.06873194 0.055415012 -0.12819183 -0.1684429 -0.062494908
-0.104465276 -0.039227247 -0.25040337 0.0069595976 0.096679695 -0.21586224 0.08215081 -0.021255102
-0.10631705 -0.10683514 -0.00858988 0.1365898 0.07185926 0.09145027 0.13252002 -0.14729308
-0.10349198 0.21346526 0.11524571 0.09435934 -0.07283055 -0.059728265 -0.27141926 0.0644123
0.09234473 -0.10273594 -0.041544862 0.06529368 0.06695238 -0.08222987 0.06190177 -0.12938558
0.14056163 0.05798641 -0.020159272 0.108620234 0.19382371 -0.07357466 -0.00040543498 0.16271314
0.1213975 -0.15520035 -0.17008853 0.11986745 -0.0044638086 0.024402788 -0.08406904 -0.020965172
00000000: 4695 ccbd d485 02be 12ea 083e 7803 b7bd
00000010: cdd5 3cbe 55ce 3dbe 2e5e 4c3d f217 003d
00000020: 99bc 4ebc 22a6 9dbd bbe4 c4be af5e 1ebc
00000030: 12e0 a3bd c569 86be 2d0b 1dbe 0264 76be
00000040: 976e 293e 8acb d43d 5ce3 083e 9d2a ab3c
00000050: 9323 0cbc 40c0 03be db5f e63d 141e a83d
00000060: 1e9c 8ebe ad11 c6bb 2fcf 1e3d 201f a4bd
00000070: 691f 113e f25c 21be cc15 06bf aed9 e5bd
00000080: e0b9 ce3d 702e f4bb f63a c5bc 06a2 82bc
00000090: 0275 413c 75df 523d 9d83 983d 5e42 d4bd
000000a0: b89a 053e cab3 20be e16b 413e 8277 253e
000000b0: 1c99 553e fe46 df3d 5020 293d 0580 0b3f
000000c0: b059 393e 72d2 d0bd 954d 043e 53b5 81bd
000000d0: 8040 0ebd 3b6f 08be d577 b33c fffb 0d3e
000000e0: 05e3 1a3e 3214 243d 9dd2 d9bc 5bc3 d03c
000000f0: 5c27 35be 910c 82bd 7168 123e d31c 9dbd
00000100: 147f 9d3d c90f 50bc c341 613d 326b 45bd
00000110: c363 07be f93f 66bd 3f30 bebd 997e 073e
00000120: 86f5 03be 2b0e 403c 7bd3 ca3d c91d b23d
00000130: 10e4 44bd 800b b93d 5bfd c33d f0fc 8cbd
00000140: 43f2 64bd 3225 88bd 74cc bebd 9d3d a6bd
00000150: 44b3 f2bd 04ae 8dbb 37f0 d63a 5bc5 8bbd
00000160: e48d 08bb 2836 d9bd 1203 04be fc99 083c
00000170: 1005 cf3c 57b2 8b3d 0d50 c1bd b493 1e3e
00000180: 155e 23be 0eb7 803e e1e0 16bd f117 363c
00000190: eec8 11be 3034 093d 174b da3c 38b1 e33c
000001a0: 7cb9 ea3b 28c8 c4bd 9578 953d 0f1a 153d
000001b0: 70ce 5c3d 2993 68bd 50ab cb3d 0ea1 19be
000001c0: 2eb3 dfba 0a03 483e ab9a c0bd f501 143e
000001d0: 6925 3a3e 99e5 803d 9dbf 60bd 020c fbbd
000001e0: 3ebc 4abd 4425 a9bd f330 a63d 7e4d adbd
000001f0: f515 db3d d46a 24bd 18b1 afbd 5196 6ebd
00000200: 9315 b4bd b58d 08be c48c 4cbb f771 e2bd
00000210: 8aa0 a9bc 0b67 01bd be7c fa3d fcf2 86bc
00000220: 1c49 9b3d 6406 a3ba c482 623d c5df 46bd
00000230: b766 a03d 5e4c f13d 4acc e73d 0d87 1fbc
00000240: 33af 00be 0cec a83d ade5 e03d ab1a c53c
00000250: b86b 823d a497 0dbc b5c4 e5bd 3530 21be
00000260: 64ad cebd 4a4f a53d 1218 43be 506e 083c
00000270: 8434 31be d39c c53a 4b16 89bd a208 1a3e
00000280: 96b7 45be 8f8e 6ebd 568f 08be 6e0f 4bbe
00000290: ffb1 e2bd e1ea 11bd f352 c0bd 344c aa3d
000002a0: d191 b6bc d3ad 563e 0a99 ca3d 6ad6 24bd
000002b0: 1e7f 003e d2d6 9a3d a837 83bd bcab 403e
000002c0: 671a 9dbc 9cdd 80bd b374 143d f56b cd3d
000002d0: 3123 b7be eda2 2e3d f642 483d 40d4 69be
000002e0: 1946 723d eb1e b1bd 851c 9d3d deb4 29be
000002f0: 8c6c e13b c066 2abd ba2d 3e3e d682 b03d
00000300: 3268 353e 9d2e b73c e584 4b3e d97d 6e3d
00000310: 9ade 933d 1937 573e c472 393e 24ff 9fbd
00000320: 6959 82bd b4e5 0cbe 1c7a ec3d 55c3 8c3d
00000330: dafa 623d b844 03be 4c7c 2cbe a9fa 7fbd
00000340: e4f1 d5bd c0ac 20bd df34 80be 560d e43b
00000350: 0100 c63d fe0a 5dbe af3e a83d 2e1f aebc
00000360: c1bc d9bd 62cc dabd 91bc 0cbc 32de 0b3e
00000370: f32a 933d 474a bb3d 54b3 073e ffd3 16be
00000380: 9af3 d3bd a396 5a3e f105 ec3d 783f c13d
00000390: 2f28 95bd a0a5 74bd 77f7 8abe 99ea 833d
000003a0: 3c1f bd3d 3867 d2bd f22a 2abd b1b8 853d
000003b0: 541e 893d 2268 a8bd b68c 7d3d a77d 04be
000003c0: 63ef 0f3e 2883 6d3d 0f25 a5bc 4974 de3d
000003d0: b979 463e 50ae 96bd 9090 d4b9 469e 263e
000003e0: 419f f83d d7ec 1ebe b02b 2ebe 117d f53d
000003f0: 2445 92bb 5be8 c73c 642c acbd 27bf abbc

net.2.bias f4 [50]
0.16351154 -0.05658272 0.19083986 -0.09054931 -0.13617536 0.04208849 0.098765634 -0.008747224
0.03574439 -0.021791311 0.06497524 0.14045075 0.08367562 -0.07006619 -0.077446 -0.095524564
-0.115452595 0.15656148 -0.178819 -0.027169548 -0.111064255 -0.037903734 0.1649241 0.01525519
0.008481705 0.18620048 0.10384553 0.025836809 -0.1912231 0.019777559 -0.036996275 -0.10249821
-0.07947429 -0.14049593 0.0729861 0.017964523 0.06639689 0.038352337 0.03696165 -0.0057259765
-0.12187242 -0.2756628 0.051945847 0.10471998 -0.0045737703 0.016370885 -0.050608665 -0.05071403
-0.15390795 -0.18276891
00000000: 926f 273e 48c3 67bd 866b 433e eb71 b9bd
00000010: 8e71 0bbe fb64 2c3d a345 ca3d 8450 0fbc
00000020: b668 123d b183 b2bc bd11 853d 52d2 0f3e
00000030: 205e ab3d dd7e 8fbd 029c 9ebd 62a2 c3bd
00000040: 6972 ecbd a751 203e 541c 37be ac92 debc
00000050: a875 e3bd f240 1bbd dde1 283e e8f0 793c
00000060: d9f6 0a3c 57ab 3e3e f7ac d43d b7a7 d33c
00000070: fdcf 43be 8c04 a23c 6889 17bd 95ea d1bd
00000080: 6bc3 a2bd 2ade 0fbe bd79 953d 562a 933c
00000090: 18fb 873d 5717 1d3d 1965 173d f9a0 bbbb
000000a0: 3f98 f9bd ad23 8dbe 2bc5 543d 6e77 d63d
000000b0: 91df 95bb 3c1c 863c 084b 4fbd 84b9 4fbd
000000c0: 0c9a 1dbe c627 3bbe

net.4.weight f4 [50, 50]
0.13935742 -0.07855664 -0.09094496 0.07893199 0.082715966 0.034037616 -0.05534286 0.005037201
-0.13515812 0.061333586 0.09959979 -0.121867225 0.02746437 0.037983753 0.04623366 -0.0025753058
0.1894417 -0.06271952 0.05360215 0.17194214 0.15242462 -0.16702756 -0.13991976 -0.16398928
-0.066873826 0.14125448 0.0062191635 0.012605335 -0.04317653 0.16341521 -0.028904987 -0.08985345
0.06725669 0.035477668 -0.03535908 -0.09179346 -0.08542921 -0.09315423 -0.08578815 -0.022212643
0.05397073 -0.18886024 0.007057779 0.097427055 0.13564733 -0.18180779 0.15118866 0.026361272
-0.12310351 0.050714605 0.2722114 -0.101614036 0.0318259 0.13804801 0.097963214 -0.08518041
-0.12886095 0.041942183 -0.017193822 0.11508855 0.20406483 0.11468286 -0.12139445 0.06332679
0.109084204 0.131513 0.17317465 0.09559997 -0.014697118 0.09169148 0.056415707 -0.15236908
0.005676726 -0.16590878 -0.07694651 0.06933161 0.22807682 -0.003593517 -0.09723552 0.07433008
-0.069167405 0.12993366 -0.047956154 0.114107795 0.0031635805 0.05558037 -0.16394328 -0.16873175
-0.21257065 -0.050235532 -0.02817679 -0.26216647 -0.0003056831 -0.061179023 0.007413473 -0.07536968
0.080071874 0.12373924 -0.04179319 0.03331928 0.024288537 0.050008073 0.14870399 -0.18023346
0.0015441616 0.09241347 0.0064276266 0.10273759 -0.011169348 0.018994756 -0.16683906 -0.06106181
0.14572568 -0.07908426 0.0047617545 -0.10764963 0.03734984 0.032102905 -0.17604846 -0.029513035
0.06953385 0.03353417 -0.047344558 0.12640484 0.13940158 -0.20378308 -0.054600615 0.055782028
-0.15722214 0.043626133 0.17540644 -0.08865841 -0.08023492 0.0073600216 0.11362917 -0.088927366
-0.0151531175 0.042955127 0.14768615 -0.084191225 -0.09652537 0.16417536 -0.049916476 0.08498199
0.06826498 0.078713626 0.07777572 -0.09317727 0.06205054 -0.13626075 -0.02191576 -0.17796192
0.12646617 -0.03837183 -0.22617184 0.12194816 0.19624096 0.13774453 -0.018570641 0.13222463
-0.2195879 0.062313985 0.044441864 -0.023406137 -0.038014974 -0.04418577 -0.004054285 -0.025007954
-0.20631653 0.03938907 -0.038052157 0.04291973 0.13220684 0.15558556 0.0688928 -0.019380875
-0.16254997 -0.039211247 -0.09669398 -0.20196095 0.10753019 -0.15880133 0.060824588 -0.06451186
-0.11593175 0.00014587774 0.07920282 -0.03694788 0.18318501 0.05113062 -0.021055683 0.16886584
0.08850252 -0.0070716687 -0.049599916 0.012789249 0.070588775 -0.14291106 -0.016277783 0.045226254
-0.022571178 0.19719008 -0.01231826 0.19384323 0.21547073 -0.07817791 -0.10784845 0.00930083
0.1067653 0.04730319 -0.049462296 0.0040258407 -0.08737281 -0.07582248 0.099258274 0.13527177
-0.018023634 -0.14606783 0.059659753 0.20791644 0.16652344 -0.06948626 -0.014377314 0.011623988
-0.10882193 -0.0626605 0.09107934 0.09842023 0.09143713 -0.046102032 -0.16376217 0.06776007
0.06418937 0.15641584 0.09774068 -0.05179922 -0.0871781 0.07651337 -0.10962181 0.042971674
0.01777858 -0.04349543 -0.055908747 0.120669946 0.08661534 -0.13943642 -0.060676455 0.19565436
-0.18447487 0.16179477 0.0022697116 -0.15414669 -0.08301748 -0.22132635 0.033954807 0.11051846
00000000: b6b3 0e3e 4ee2 a0bd 5a41 babd 18a7 a13d
00000010: fd66 a93d 076b 0b3d 32af 62bd 1b0f a53b
00000020: e466 0abe ed38 7b3d fafa cb3d 8695 f9bd
00000030: f5fc e03c da94 1b3d 825f 3d3d 76c6 28bb
00000040: 01fd 413e 1773 80bd ee8d 5b3d 9a11 303e
00000050: 3315 1c3e 4609 2bbe 2047 0fbe ceec 27be
00000060: 25f5 88bd 04a5 103e 20ca cb3b 9b86 4e3c
00000070: e0d9 30bd 5156 273e 27ca ecbc 1605 b8bd
00000080: e0bd 893d 0851 113d afd4 10bd 36fe bbbd
00000090: 82f5 aebd a5c7 bebd b3b1 afbd 4af7 b5bc
000000a0: 6a10 5d3d 9464 41be f144 e73b d687 c73d
000000b0: 22e7 0a3e d22b 3abe 33d1 1a3e 98f3 d73c
000000c0: b11d fcbd 1eba 4f3d 4b5f 8b3e 051b d0bd
000000d0: e05b 023d 755c 0d3e f0a0 c83d 1173 aebd
000000e0: 20f4 03be 91cb 2b3d 0fda 8cbc 8cb3 eb3d
000000f0: 5ff6 503e d9de ea3d a79d f8bd 7ab1 813d
00000100: 8a67 df3d 58ab 063e b254 313e ebc9 c33d
00000110: 2ecc 70bc bec8 bb3d 2814 673d a406 1cbe
00000120: d403 ba3b fee3 29be 2296 9dbd bbfd 8d3d
00000130: f88c 693e 3681 6bbb 6b23 c7bd 5e3a 983d
00000140: a4a7 8dbd 540d 053e ac6d 44bd 59b1 e93d
00000150: 1354 4f3b 3ea8 633d bfe0 27be 04c8 2cbe
00000160: 1fac 59be c6c3 4dbd 03d3 e6bc af3a 86be
00000170: 1744 a0b9 db96 7abd b8ec f23b 6b5b 9abd
00000180: b9fc a33d 006b fd3d 562f 2bbd cc79 083d
00000190: c1f8 c63c 44d5 4c3d dc45 183e 1f8f 38be
000001a0: 7765 ca3a 4643 bd3d d79e d23b 1668 d23d
000001b0: a4ff 36bc e49a 9b3c dcd7 2abe f31b 7abd
000001c0: 1d39 153e eef6 a1bd 7e08 9c3b 6977 dcbd
000001d0: 25fc 183d 567e 033d 0c46 34be 52c5 f1bc
000001e0: c367 8e3d 205b 093d 5eec 41bd 4570 013e
000001f0: 4abf 0e3e 83ac 50be e5a4 5fbd b27b 643d
00000200: d7fe 20be 51b1 323d bf9d 333e 8a92 b5bd
00000210: 3552 a4bd 562c f13b 69b6 e83d 8d1f b6bd
00000220: c844 78bc b7f1 2f3d 0a3b 173e 736c acbd
00000230: 18af c5bd 961d 283e 3875 4cbd 0a0b ae3d
00000240: 83ce 8b3d 9c34 a13d e048 9f3d b9d3 bebd
00000250: b528 7e3d f087 0bbe ae88 b3bc a63b 36be
00000260: 5980 013e c82b 1dbd 9799 67be f5bf f93d
00000270: 64f3 483e e70c 0d3e 7521 98bc e565 073e
00000280: a7db 60be f33c 7f3d ac08 363d 3abe bfbc
00000290: 97b5 1bbd 23fc 34bd cfd9 84bb 7bdd ccbc
000002a0: a444 53be 6f56 213d 94dc 1bbd 99cc 2f3d
000002b0: 3b61 073e d251 1f3e ab17 8d3d a4c4 9ebc
000002c0: 8073 26be f99b 20bd 7e07 c6bd dace 4ebe
000002d0: ca38 dc3d d19c 22be 3423 793d cb1e 84bd
000002e0: a06d edbd c2f6 1839 1735 a23d a956 17bd
000002f0: da94 3b3e 576e 513d f87c acbc 2beb 2c3e
00000300: cf40 b53d 75b9 e7bb 4829 4bbd 008a 513c
00000310: d990 903d 4757 12be fc58 85bc 2a3f 393d
00000320: 31e7 b8bc 32ec 493e 87d2 49bc d77e 463e
00000330: 5ca4 5c3e bd1b a0bd a6df dcbd 8262 183c
00000340: c4a7 da3d fdc0 413d fa98 4abd 33eb 833b
00000350: 84f0 b2bd d148 9bbd ec47 cb3d af84 0a3e
00000360: 4da6 93bc ce92 15be c95d 743d 0ce8 543e
00000370: 1f85 2a3e d04e 8ebd d38e 6bbc 8a72 3e3c
00000380: 08de debd 2654 80bd ce87 ba3d 8c90 c93d
00000390: 6443 bb3d 7cd5 3cbd 45b1 27be cbc5 8a3d
000003a0: b775 833d 792b 203e 442c c83d 6b2b 54bd
000003b0: 6f8a b2bd 0bb3 9c3d 6681 e0bd 1103 303d
000003c0: 62a4 913c 4428 32bd 9200 65bd ce21 f73d
000003d0: 6263 b13d 6cc8 0ebe e087 78bd 9e59 483e
000003e0: fbe6 3cbe 87ad 253e 71bf 143b a1d8 1dbe
000003f0: 1205 aabd 60a3 62be 3214 0b3d 8157 e23d

net.4.bias f4 [50]
-0.19648339 0.035108227 0.043376092 0.20192671 0.0048546647 0.08324338 -0.10532979 -0.01454732
-0.12256587 0.06095876 -0.021166928 -0.108737804 -0.052479316 -0.0017040888 -0.06391638 -0.028857274
-0.11201795 -0.027241759 0.07642538 -0.114455074 -0.06440381 0.092293985 0.004034359 0.06434209
-0.101610325 -0.20603181 0.004826132 -0.061285373 -0.052077085 0.1373022 -0.051665973 -0.105651975
-0.11751185 0.0074004773 -0.1983715 0.23055342 -0.21053842 0.11713949 -0.12239731 0.048352584
0.10943312 -0.10980202 0.10484258 -0.16548413 0.14622845 0.003736359 -0.24839208 -0.08087534
0.027108246 -0.149774
00000000: f132 49be a5cd 0f3d 21ab 313d e0c5 4e3e
00000010: e113 9f3b 817b aa3d 25b7 d7bd e257 6ebc
00000020: d103 fbbd e5af 793d 4466 adbc edb1 debd
00000030: 8df4 56bd bb5b dfba 97e6 82bd 1766 ecbc
00000040: ab69 e5bd 1c2a dfbc e984 9c3d 6c67 eabd
00000050: 25e6 83bd a104 bd3d a832 843b c9c5 833d
00000060: 1319 d0bd 01fa 52be 8824 9e3b 5f06 7bbd
00000070: c84e 55bd f398 0c3e b39f 53bd 1060 d8bd
00000080: 0eaa f0bd b47f f23b e621 4bbe 3216 6c3e
00000090: 6297 57be d4e6 ef3d 71ab fabd 5c0d 463d
000000a0: 791e e03d e2df e0bd b5b7 d63d ac74 29be
000000b0: e9bc 153e b4dd 743b 7e5a 7ebe f8a1 a5bd
000000c0: 1d12 de3c 5b5e 19be

net.6.weight f4 [1, 50]
-1.2693928 -1.4938416 0.6600421 1.2996602 -1.0884547 1.4187651 1.6004235 1.5949676
-1.4853997 -1.5386779 1.633156 -1.1498173 -1.5821443 1.5832005 1.5464401 -1.3126241
-1.2546799 1.3554888 1.6139344 -1.3231139 1.4741908 1.7162355 -1.125906 1.3284047
-1.466201 -1.5617415 -1.543022 -1.5242251 -1.3702652 1.4795192 -0.9393565 -1.1959763
-0.9204513 1.779974 -1.285898 1.2690105 -1.3244245 1.5148208 -1.7581671 1.2895715
1.5667595 1.7786778 1.4059012 -1.4400237 1.3367788 1.5484751 -0.87556726 1.7919922
-1.6301379 -1.6475546
00000000: 777b a2bf 3436 bfbf 85f8 283f 445b a63f
00000010: 7c52 8bbf 189a b53f adda cc3f e627 cc3f
00000020: 9421 bebf 66f3 c4bf 410b d13f 372d 93bf
00000030: b483 cabf 50a6 ca3f c0f1 c53f 1104 a8bf
00000040: 5a99 a0bf a880 ad3f 6795 ce3f cc5b a9bf
00000050: 49b2 bc3f 9bad db3f b01d 90bf 2a09 aa3f
00000060: 79ac bbbf 25e7 c7bf bf81 c5bf cf19 c3bf
00000070: da64 afbf e360 bd3f ab79 70bf c015 99bf
00000080: b2a2 6bbf 30d6 e33f 4e98 a4bf f06e a23f
00000090: be86 a9bf a6e5 c13f 9f0b e1bf ae10 a53f
000000a0: 938b c83f b7ab e33f 92f4 b33f b252 b8bf
000000b0: 911b ab3f 6f34 c63f 2d25 60bf 0060 e53f
000000c0: 5ca8 d0bf 12e3 d2bf
