pretrain_PPO/PPO-result/mask12-24/model.pt (torch, 57273 bytes, 16 tensors)

log_std f4 [4]
00000000: 0ea8 b63f 3e5b 9c3f b6e2 f03f 573e c73f
1.4270036 1.2215345 1.8819187 1.55659

net.0.weight f4 [50, 24]
00000000: 4bb2 533e 8109 febd 27f9 993d a644 93be
00000010: 1f25 fcbd 6cea e7bb 0d36 f9be 7c24 433e
00000020: da4d ddbd cfd0 b43d c4eb 74bd 9c47 193e
00000030: 925c ff3d 1ca2 57bb 4c70 fe3d 21b6 d2bd
00000040: 971b 31be 096b a13d acf0 2cbe e453 33be
00000050: 6d5f 3c3e b12d 24be 207a 31be 0704 53bd
00000060: 0d0b 83be 0764 0e3e 3635 0e3e 29e3 9d3d
00000070: 4b4d 41bd bc86 f2bd 6751 15bd 8651 10be
00000080: 2fea 303d 6609 1cbd 08fb 2cbe e427 ad3e
00000090: ee71 1a3e 9494 edbd 45c1 f1bd 7f5f b9bc
000000a0: fb29 32be be96 263d 83d8 c43d 7019 00bd
000000b0: 4515 08be 8c33 993d 7fe2 0abd f09b e0bb
000000c0: daa5 d3be 02a3 78bd 7fc5 1c3e 577f 923d
000000d0: 9a45 83be d144 b23d d148 5b3e cb28 80bd
000000e0: ca8a 40be 4a6a 0b3e c8b8 ffbd 3f12 3bbe
000000f0: a6c1 f23c 7158 75bd 7da9 5f3d dd9e 41be
00000100: 0a80 a3bd d956 e7bc b557 003e f21c 3abe
00000110: 7172 233e 2e52 0f3e 4bb3 783d b2be b5bd
00000120: e871 1b3e 6b24 8ebe 6675 29be d7be f1bc
00000130: 8f66 bf3e 8e72 d13d 5cbd ea3d 5eb5 a53d
00000140: 97fd 193d 0c6e 9f3c ef6a c33d 33c6 9cbe
00000150: ec66 33be 8e02 75bc 393b 4abe a813 1e3e
00000160: cfce fe3d 71ab 9f3d a17c 4b3e 6118 ce3b
00000170: 1787 d3bd d4a4 1cbd f485 183e d1ec 043e
00000180: 4f6f 4bbe 6eea 953e fc65 233e f8d1 563d
00000190: 15cf 80bd c896 d43d 4a73 fd3d b391 a33d
000001a0: 8a85 8cbc ee88 a2bc 6034 91be c739 eebb
000001b0: 3a92 173e 5ba8 9ebd 6eb4 38be 738e dc3d
000001c0: c14a 6fbd fecf d13d 5dd5 acbd 0810 c63b
000001d0: a6fe 7e3d 7512 a13c d209 a53c 3651 e6bc
000001e0: 5a4d acbd 9446 153d cee1 223e 002d 2ebe
000001f0: 77aa 88be 113a 9c3d fafe d1bd 44f8 78bb
00000200: d592 08be 206d 1cbc c76c 7bbd 2a7e 4f3e
00000210: 68bb 3bbe 9324 57bd 0207 15bc 9487 c4bd
00000220: ebe3 7abd 8e1b 20be 6dc2 0cbe bf62 0d3e
00000230: f6d3 4cbe d69f c2bd 1023 173e fb43 4dbe
00000240: f55e cebe 4f34 c33d 125a f93d f90e 4bbe
00000250: 249a 4abe 8630 c53c a6ed 70be bbe4 47be
00000260: 2b0c 3dbe fc11 b6bd 31b3 96bd bf57 843e
00000270: 525d 2c3e edee e5bc bb9a f5bd 1376 71bd
00000280: d8e2 32bd b591 183e e6ad 973d 364b cc3d
00000290: 0066 babd d26a 503e 3de3 23be 4f8a 11be
000002a0: e35d ccbe 8f0a d1bd 23ee 98bd bdbe 3d3e
000002b0: 7dbb 0a3e 9392 a93d 728a a23c 3c3c bdbb
000002c0: 6cd7 01be 3707 f3bd 4aae d7bd 43f2 dc3e
000002d0: 64cb 0ebe 6b7b 4ebe aee5 ba3d 4ad5 b5bb
000002e0: 34f0 3fbe 5e07 39be 04dd adbd 2c95 31be
000002f0: 014e d5bd df88 b9bd 4460 c1bd 453c b63c
00000300: 1a86 ae3e 7866 eabc 1810 3ebe 0cf8 87be
00000310: 020c adbc 03f8 093e c002 6cbe b962 babd
00000320: 92fc 2f3e 8c50 513e 1338 073c 435a 11be
00000330: ae1e 033e 150e 2cbe 4a86 76bd 877f 02be
00000340: f467 08be 369e 3b3d a4d0 c93a c41c cebd
00000350: 05c3 b03d bc50 4fbe bb12 2c3e 5f26 b8bc
00000360: 9261 56bd 5a09 073e a5b0 853e cd05 283e
00000370: a028 873e f9c4 a13d 0c30 ab3e c7fb d1bd
00000380: 86a5 373d 3200 f7bd 9b46 13be 0319 393e
00000390: a0f2 123e 1618 db3d 1812 113d c40f 8f3d
000003a0: 798e ef3d 7f3b f93b 4667 42be 06ef 14be
000003b0: b854 8f3d cf68 153e 54e5 d8bd c465 8e3d
000003c0: 0ccb d03d 8193 f43d 3d2a f8bd ec57 b73e
000003d0: 42cf 973e cd67 8e3b fb13 d33e e2fb e43d
000003e0: f95c b83d b21a aabd acc4 d1bd beea 1abe
000003f0: 1912 983c 9292 6abc e3a0 293d 857b 0c3e
0.20673482 -0.124041565 0.07518225 -0.28763312 -0.12311768 -0.007077506 -0.4867405 0.19056886
-0.10805865 0.088288896 -0.059795156 0.14968723 0.12468828 -0.0032903021 0.12423763 -0.102886446
-0.17295681 0.078817435 -0.16888684 -0.1751247 0.18395777 -0.16033055 -0.17331743 -0.051517513
-0.2559437 0.13905345 0.13887486 0.07709343 -0.047192853 -0.11842105 -0.036454584 -0.14093599
0.043192085 -0.0380949 -0.16892636 0.33819497 0.15082523 -0.11600605 -0.11804441 -0.022628544
-0.17398827 0.040671103 0.09611609 -0.03127426 -0.13289364 0.07480535 -0.03390741 -0.0068545267
-0.41337472 -0.06070233 0.15309714 0.071531944 -0.2563904 0.08704532 0.21414496 -0.06257781
-0.18802944 0.13614765 -0.12486416 -0.18268679 0.029633354 -0.059898797 0.054604996 -0.18908258
-0.07983406 -0.028239654 0.12533458 -0.18175104 0.15961625 0.13996193 0.060717862 -0.08874263
0.1518017 -0.2776216 -0.1654869 -0.029509945 0.37382933 0.10226928 0.11461899 0.08091234
0.037595358 0.019461654 0.0954188 -0.30619964 -0.1751973 -0.014954222 -0.19749154 0.15437186
0.12441789 0.07796372 0.19871761 0.0062895273 -0.10328501 -0.03824313 0.14894849 0.12980963
-0.1986668 0.29280418 0.15956873 0.052446336 -0.06289498 0.10380322 0.12375505 0.07986774
-0.01715352 -0.019840684 -0.2836027 -0.007270071 0.14801875 -0.07746955 -0.18037578 0.107693575
-0.0584209 0.102447495 -0.08439133 0.0060443915 0.06225457 0.019662121 0.020146284 -0.028114896
-0.08413191 0.03644426 0.1590645 -0.17009354 -0.26692554 0.07628263 -0.10253711 -0.0037989775
-0.13337262 -0.009547502 -0.061383035 0.20262972 -0.18333209 -0.052525114 -0.009095909 -0.09596172
-0.061252516 -0.15635511 -0.13746043 0.138072 -0.20002732 -0.095031425 0.14759469 -0.20045464
-0.4030682 0.095314614 0.12175383 -0.1982993 -0.19785362 0.02407099 -0.23528156 -0.19520847
-0.18461673 -0.08890149 -0.07358397 0.25848195 0.16832474 -0.02806803 -0.11992403 -0.058950495
-0.043673366 0.14899333 0.07406215 0.09975283 -0.09101486 0.20353249 -0.16004653 -0.14212917
-0.3991538 -0.10207092 -0.07467296 0.18529792 0.13548084 0.0827991 0.019841406 -0.0057750028
-0.12679833 -0.118666105 -0.1053129 0.4315358 -0.13944775 -0.20164268 0.09125839 -0.0055491077
-0.18743974 -0.18069217 -0.08489421 -0.17342061 -0.10415269 -0.09059309 -0.09442189 0.022245536
0.34086686 -0.028613314 -0.18560827 -0.26556432 -0.02112389 0.13473515 -0.23047924 -0.09100861
0.17186192 0.20440882 0.008253115 -0.14194588 0.12804672 -0.16802247 -0.06018666 -0.1274396
-0.13320905 0.04580518 0.0015397263 -0.1006408 0.08630947 -0.20245641 0.1680402 -0.022479234
-0.052339144 0.13187161 0.26111332 0.16408463 0.26398182 0.07898898 0.33435094 -0.10253101
0.04483559 -0.12060584 -0.14382403 0.18075947 0.14350367 0.106979534 0.035417646 0.06985429
0.116970964 0.0076059694 -0.18984708 -0.14544305 0.06998581 0.14590763 -0.10590616 0.06953004
0.10194978 0.11942197 -0.12117431 0.35809267 0.29650313 0.00434587 0.4122618 0.11180855
0.09002108 -0.08305873 -0.1024259 -0.1512861 0.018563317 -0.014317172 0.0414132 0.13718994

net.0.bias f4 [50]
00000000: 8489 e0bd 5492 33bd 3e10 e0bd c127 13be
00000010: a77a c83d 6c64 55bd 634c 233e ee9f a43d
00000020: 09cc a83d 426a ea3d 940d 8abd a951 f2bd
00000030: 0f33 bf3d a3c8 d1bd f523 cf3d d362 883d
00000040: b44e 2e3b b3e2 2bbd a92f 77bc cc6c 16bb
00000050: cf9a fdbd 0b01 3e3e 4728 cabd 23c2 a3bd
00000060: b29a 323c 31ad 0d3b 0c4c cdbd 85d3 47bd
00000070: 4f21 f73d b8f6 d53d 2753 69bd 4d74 873d
00000080: d83b 2f3c b997 053d d2ab 89bc 3531 ecbd
00000090: d030 303e fddb 113e e404 833d 7a11 b63d
000000a0: f4f0 1c3e f5f0 873d 2a86 d03d e0ee 8c3c
000000b0: 3f19 06bd 2558 673d 3563 04be 937b 79bd
000000c0: 8a81 8a3c 2694 16be
-0.10963729 -0.04384072 -0.10940598 -0.14370634 0.09789019 -0.052097723 0.15947108 0.08038317
0.082420416 0.11446048 -0.06740871 -0.11831982 0.093359105 -0.102433465 0.1011428 0.06659474
0.0026597204 -0.041964244 -0.015087047 -0.0022953032 -0.12383043 0.18555085 -0.098709635 -0.07996013
0.01090114 0.0021618123 -0.100242704 -0.048785705 0.120669 0.104474485 -0.056964066 0.066139795
0.01069542 0.032615397 -0.016805563 -0.11532823 0.1720612 0.14244075 0.06397417 0.08890052
0.15326291 0.06637756 0.1018184 0.017203748 -0.03273892 0.056480546 -0.1292847 -0.060908865
0.016907472 -0.14704952

net.2.weight f4 [50, 50]
00000000: bd4c 03be df2a 323e 5847 033e 7ce7 39be
00000010: c8c3 353d 465c 403e 68dd 383e 2316 de3e
00000020: 8fcb 1fbe 401b e6bc 18d5 c53d 9c12 8abe
00000030: bdc7 623e 31d5 0d3d 3bb0 98bc e652 1abe
00000040: 6db1 ca3c 7eea 483d 164f 943e 2a08 bb3d
00000050: 1da0 5f3d 4b58 f6bc 7468 073e 20db 9b3d
00000060: 5be7 55be 22b8 c13d 50cd 3b3e c712 3a3c
00000070: 9391 fa3d 5751 543e 8670 5f3d b94d 04be
00000080: d195 abbd 3d54 07be 2461 13bd 0e2d d9bc
00000090: 6c54 4f3e 23c9 033b 03e3 30be 6b15 073a
000000a0: 76d7 10be 0ff1 b0be 3560 7bbc 0646 803d
000000b0: d0d3 663d cbe0 8d3d ddbf 4ebd 48c4 073e
000000c0: 720b 573d 2933 81be 2ccd 95be d28c e4bc
000000d0: 925b b93d 4d3a 2f3d 45ee 843d 5ae9 3cbe
000000e0: 067a 4bbd b6ab 693e 736c 2cbe 932d 2e3e
000000f0: 5b2c 9c3e aca0 aebe 88cd 97bc 1b3a e9bd
00000100: 692a fe3d 5b55 23be e1ed de3d ad41 293e
00000110: 720c 803e 529c d23d f33e 033e 1ba8 7cbe
00000120: 05ac 72bd 2599 113e 1d84 313e e1f7 5e3e
00000130: 48c2 56bd a8d6 9a3e e1df 7abd 8f82 83bd
00000140: 2fe8 703e effa 7d3e 0df3 b8bd e7d3 80be
00000150: 0691 69be e89a 753d e8e9 9d3d 4117 ef3d
00000160: 2b8e f9bd cfc2 c63d 2358 0e3e 20eb 083e
00000170: 3d01 263d dcc6 1a3c f918 29be 67b8 203e
00000180: 2861 033e 3ff0 5b3d d44d bebe b46c d2bd
00000190: 393a a5bd 5c97 1fbe d4e3 213c 9a1d 783d
000001a0: d4b3 733d 4849 80bd 6aef c8bd 3320 f4be
000001b0: 281c 893d e898 42be f7ea 9c3d bc9d 2a3e
000001c0: ee8b 5abe 0686 263d e071 273e b673 e63b
000001d0: 8447 32bc 77e2 3abe 97c7 9dbe fdb6 27be
000001e0: 3ee2 78be c8cf 223e e896 afbd c4c6 05bc
000001f0: 3857 6e3e db4b b03d caea a4be 2752 bebd
00000200: 6e18 843d ee25 17be 59fd aabd 15bd 953d
00000210: 6ad1 8abd 5bdf 713e f3db f7bd b3c5 dd3b
00000220: f04e e53c 093b 6d3e 9bdf 183e f546 673d
00000230: 759e b23d 1d39 f53e 086a d0bd a262 e7bd
00000240: 5662 1ebe e242 7bbe 2a2a 32be 2f53 33be
00000250: d42d a9bd 1f83 813e 3ff8 4b3e 8701 a1be
00000260: 49f2 5e3e 5fd7 bb3d b13d f93d 5445 a13c
00000270: 8fc5 01be b385 d7be b028 e13d 6b7e 21be
00000280: 5681 b5bc 8fe9 d6bd dd91 633e 3973 993d
00000290: 0815 08be d1b5 0c3b 57b5 9ebd b5bb 193c
000002a0: ec02 3dbd 6cad 993d 3b63 403e ee16 5abe
000002b0: 5564 aa3e e991 393e 7c8c a5bc 9b8f 77bc
000002c0: 6e6f f9bd 5996 0a3e c820 6d3e 3385 dc3d
000002d0: d834 133d f160 fc3d 43aa a43d a291 4c3e
000002e0: f810 45bd 0acd 073e 584f f93d 312f 83be
000002f0: 5491 013e 62af d3bd ab77 a43c 676d 87bd
00000300: a41c 173e a79a abbe 571f 26be 8395 febc
00000310: 8950 1f3e 7b5d 7dbe 2e65 cbbe 09ad 503c
00000320: b833 d4bd 11d1 3bbe 7a40 983e 38b7 a33d
00000330: 5866 89bc 5dcd cbbc 0832 60be a9b9 f0bd
00000340: 9e62 0b3d a49d 55bd fa24 9f3d 371c 74be
00000350: e5e5 15bc 6d3a 23be beb3 03bc 72cc 2abe
00000360: f954 243e bc0b 773d 6d20 e23d 9579 6c3e
00000370: 3525 073e 23b4 c8bd 2030 333d 7156 c03d
00000380: ef22 cebc 4e4a 6f3d dbf2 f6bc b005 903e
00000390: 83c8 db3d ee99 61bc cd01 093e 5197 3b3e
000003a0: 0956 2f3e e882 0b3e e290 3ebe f5bf 9d3d
000003b0: 5cc3 ef3d ce11 2bbe dbae df3d 695a 7b3e
000003c0: ba07 9ebd 62d0 e4bd 719b a53e 0503 54be
000003d0: 07d6 a1bd 1fc9 753d a1cf 843d 5c05 9ebd
000003e0: 52ed b1be acd6 a43d d4cd 903e f0f9 43bd
000003f0: 42ab ef3d 3b48 48be 81b5 03be 7fcf 553e
-0.12822242 0.17399167 0.12820184 -0.1815471 0.044376165 0.187852 0.1805321 0.43376264
-0.15604995 -0.028089166 0.09659785 -0.26967323 0.22146507 0.034627143 -0.01863872 -0.15070686
0.024742806 0.049051754 0.28966588 0.091324165 0.054596055 -0.030071398 0.1322344 0.07610154
-0.20889036 0.09458949 0.18340039 0.011357016 0.12234797 0.20734154 0.05455067 -0.12920274
-0.083781846 -0.13215728 -0.035981312 -0.026510742 0.20247048 0.00201089 -0.17274098 0.0005153033
-0.14144692 -0.34558913 -0.015342762 0.06263356 0.056354344 0.069276415 -0.050475944 0.13258469
0.05250115 -0.25234345 -0.29258096 -0.02789918 0.09050669 0.04278021 0.06490759 -0.18448392
-0.049676917 0.22819409 -0.16838245 0.17009573 0.3050259 -0.34106958 -0.018530622 -0.11388036
0.12410433 -0.1595053 0.108852156 0.1652896 0.25009495 0.10283722 0.12816982 -0.24673502
-0.05924608 0.14218576 0.17335553 0.21774246 -0.052431375 0.30241895 -0.061248664 -0.064213865
0.23526071 0.24802755 -0.09030733 -0.2516167 -0.22809228 0.059962183 0.0771063 0.11674357
-0.121853195 0.097051255 0.13900809 0.13370943 0.040528525 0.009446826 -0.16513433 0.15695344
0.12830031 0.053695913 -0.37168753 -0.1027464 -0.08067746 -0.15585083 0.009880979 0.060575105
0.05949767 -0.06263977 -0.098112896 -0.47680816 0.066948235 -0.19003642 0.076620035 0.16661733
-0.21342441 0.04065516 0.16352034 0.007032837 -0.0108813085 -0.18250452 -0.30816337 -0.16378398
-0.24305055 0.15899575 -0.08573705 -0.008165065 0.23275459 0.08608218 -0.3221038 -0.09293013
0.06449972 -0.14760563 -0.083491035 0.07311455 -0.06778224 0.2362036 -0.12102499 0.0067679523
0.027991742 0.23167051 0.14929049 0.056464154 0.087216295 0.47895136 -0.10176474 -0.112981096
-0.154672 -0.24537233 -0.17398897 -0.17512201 -0.08260694 0.2529535 0.19918917 -0.31446478
0.21772112 0.09171938 0.1216997 0.019686379 -0.12673019 -0.42094192 0.10994089 -0.15770881
-0.022156399 -0.104937665 0.22223611 0.0749268 -0.13289273 0.0021470676 -0.077494316 0.009383132
-0.046145365 0.07503781 0.18787853 -0.2129781 0.33279672 0.18122067 -0.02020859 -0.015109922
-0.12179457 0.13533916 0.23157036 0.10767593 0.035939068 0.123231776 0.08040287 0.1997743
-0.048111886 0.1326181 0.12173337 -0.25621942 0.12653095 -0.10336186 0.020076593 -0.06612664
0.1475702 -0.33516428 -0.16222893 -0.031077152 0.15558065 -0.24742691 -0.3972563 0.012736567
-0.10361427 -0.18341471 0.29736692 0.079939306 -0.016772434 -0.024878198 -0.21894085 -0.11754162
0.034029596 -0.05215229 0.077707246 -0.23838888 -0.009149049 -0.15940256 -0.008038459 -0.16679552
0.1604804 0.060313925 0.11041341 0.23093255 0.13197787 -0.09799983 0.043747067 0.093914874
-0.025163142 0.05842047 -0.0301451 0.2812934 0.10731604 -0.01376961 0.13379593 0.18319441
0.17122664 0.13624156 -0.18609956 0.077026285 0.11707184 -0.1670601 0.10922023 0.24546207
-0.077163175 -0.11172558 0.32345155 -0.20704277 -0.079021506 0.060006257 0.064849146 -0.07715866
-0.34751374 0.08048758 0.28282034 -0.04784578 0.11702587 -0.19558804 -0.12862207 0.20879935

net.2.bias f4 [50]
00000000: 34c4 a1bd b1c8 3a3d 66c4 183e e102 68bd
00000010: f858 b73d efa5 ea3c 7fcb 0b3d 8f43 49bc
00000020: 8ce4 b43d fde0 97bd 7000 c7bd 5dd3 9bbc
00000030: 6052 c03d 8423 abbd 5c78 033e dc7b b73d
00000040: bcfb a6bc c9ec cd3d 7700 943b c317 0dbe
00000050: f372 103e f81b 423c e753 993d d74b 163e
00000060: cf15 913d 25a3 81bd 3a96 02be 1695 1b3d
00000070: 71f1 07be 23c0 26bd c7bb 0bbe 0789 8e3d
00000080: 0617 04be eea0 c3bd e7f4 b83d 3455 51bd
00000090: 4c2b 2a3e 5da6 d4bb 87de 24be 0f75 fdbd
000000a0: cb28 a3bb 727f d23d 2ee3 8c3d f6b7 273e
000000b0: 15f6 9b3c f8b1 ad3d 4669 63bd e8a4 0d3e
000000c0: 1f4c 6a3e 6a72 c4bd
-0.07898751 0.04560155 0.1491867 -0.05664337 0.08952516 0.028643576 0.034129616 -0.012284174
0.08832654 -0.0741596 -0.0971688 -0.019021684 0.09390712 -0.083563834 0.12838882 0.08959171
-0.020383708 0.10054929 0.004516657 -0.13778596 0.1410635 0.011847489 0.07486706 0.14677368
0.07084238 -0.063299455 -0.1275262 0.037983976 -0.13275696 -0.04071058 -0.1364585 0.0695973
-0.12899408 -0.09552179 0.090310864 -0.051106647 0.16618079 -0.0064895586 -0.16100512 -0.12375843
-0.004979228 0.102782145 0.068792686 0.1637877 0.01903824 0.084812105 -0.05552032 0.13832438
0.228806 -0.09592135

net.4.weight f4 [50, 50]
00000000: a927 93be 4250 89be 19da c43e 6dec 2dbe
00000010: 55fe 91bd 4b44 98bc 6b9e 15bf a706 173e
00000020: 3189 903e a977 61bd 060f f63c d766 7cbc
00000030: 8736 60be 8ef8 f03e 7c8a 8d3e 980d 41be
00000040: edb9 c13e 8231 35be b7a5 fcbd 5de3 8f3d
00000050: 7262 e33e 66d3 d5be 7c65 82be ae42 8c3e
00000060: ebe7 db3d ad95 e5bb 5fa1 6cbe 05b9 fdbd
00000070: 1d4e d2be 4a5e b6bd 7dd5 1abe 7009 a93e
00000080: 63fe 7cbd 7409 dd3d d803 9dba 7715 dabe
00000090: 4331 c23e c8bb 923e ee44 853e 5519 c73c
000000a0: 9994 86be 5616 333e 00e3 273d 31ff 233e
000000b0: 94a4 b73e e286 0f3f eeca ca3d efbd 83be
000000c0: f2ff c43e 5b99 5ebb 7508 903e f448 243e
000000d0: 9a6f 3fbe de48 63bb 238a a03e df49 1e3d
000000e0: 06ae fb3e a171 13be ebb5 d4be 2513 15be
000000f0: 2c77 06be ca7b 9b3d ceef e83e 940f 29bf
00000100: 7ab0 b8be f3ea 1cbe 857b b3bd 5adb 253e
00000110: de8a db3d 6fad 85be 7752 abbe 7f9c ba3e
00000120: d9e4 ad3e b3a5 a73d f9de f9bd a1fc 123e
00000130: ea36 5d3d 0cb7 013c 8251 193f 4ad5 85bd
00000140: 52bc 93bc 7287 41bd 23a1 493d 2d34 05be
00000150: 9488 ec3e 0d3b c83d 7968 0abd 2235 22bd
00000160: 403b efbe 9bea 43be 5947 0d3f a06d ba3d
00000170: ef60 b1bd bd72 a0bc 9fb4 15be 9446 8fb9
00000180: 52d7 0abf b142 743e 53cc 9fbd a1e7 95bd
00000190: 0381 c3be beb1 45be d5db 873e 44af 3d3e
000001a0: e343 8c3e 3bb9 f0bd 325c c2bd ba4e 52bd
000001b0: 461f 1a3e fd23 08be 6e1a 2c3e e80a 4bbe
000001c0: f7dc d2bc 5c03 dd3d e9a6 10be 19eb 13bf
000001d0: 675a 8e3e 944f 0cbe b7a7 14be 3cde 93bb
000001e0: 473b 8ebe 2933 88be d96d dabc 02e3 cd3d
000001f0: 22c7 a73e 613a 3d3e b01e 44be bbb4 babe
00000200: f7f0 96bb 3ed5 dbbd bc72 a93e 1682 aa3e
00000210: 510e 51be 20c7 9d3e 744e 0bbe b2bc 3f3d
00000220: f6cb 993e 3d7c 693e 1779 153e 53e8 0b3e
00000230: 6ebc e4bd d493 1c3e 8560 67be b25a 553e
00000240: 83c6 c53d 25c3 fb3d 4263 26bc bdde 2cbd
00000250: ce24 a23c 979c 2e3e e9a8 31bc 4fa6 983e
00000260: 784f 893d 9707 4cbe c496 a53d ca98 c4be
00000270: 032d 00bf 8438 f33d 3617 79bd 93a9 103e
00000280: f1a4 de3e 904d 2abe f0e2 b2be 0337 013e
00000290: 5e10 9d3e f2b3 203e 8b2f 543c 4091 eabd
000002a0: 1a8b d4bd 6334 8cbe fcdd 023f 9512 763d
000002b0: 2da0 8bbe 96ab d43e 4a53 cb3c bcbd 02be
000002c0: b0d3 cdbe 1286 a4bd 0bea fbbe 8733 bcbe
000002d0: 88d7 89be 517b a73e fdd3 7a3e e200 a6bd
000002e0: fa8b 513e e8c0 34be c1f2 093e 13d7 023e
000002f0: c988 ebbc 9190 183e 954a bcbe 45ca 90bd
00000300: 9b3c 17bc caf7 be3e e14a 323f 4be3 223e
00000310: a7d8 11bd 770a febe 2409 183d 04f9 d1be
00000320: 255b 7b3e 879b 043e 2556 25be 692c 403e
00000330: f1df 553a d08a ae3b 8c00 a93e d600 abbd
00000340: 764b bbbe 9bd8 e6bd 4f8f 78be 6c41 aebd
00000350: 0f82 f53e cbba 74be 4660 d2be 3e7f c4bd
00000360: 2d69 18be a4b7 ea3c 8117 f3bd 4032 abbe
00000370: b18b 40be 2858 3a3e 31d4 a33e 0a7a 173c
00000380: ae6c 68be 6226 823e 8416 c23d b4be 04be
00000390: 42cb fc3e 2101 12be 89a9 df3d f3e6 33be
000003a0: 5e52 43bd 0665 18be 4e02 853e 807e 58bd
000003b0: cc56 1ebe 73eb 48be 5a5f 85be 8432 96bd
000003c0: 928c 783e 2edf c8bc ca69 843b 3482 a33d
000003d0: f625 d6bd 71a8 a2be 07df c4be 4f80 803e
000003e0: 3aa7 03be a687 e53c 2205 723e 3b45 5f3e
000003f0: 20e0 27be f9d3 813e 74ad 443e 3c57 54bd
-0.28741196 -0.26819044 0.38447645 -0.1698472 -0.07128588 -0.018587252 -0.5844485 0.14748631
0.2822967 -0.055045757 0.03003646 -0.015405378 -0.218958 0.47064632 0.27644718 -0.18852842
0.37837163 -0.17694667 -0.12336295 0.07025788 0.44411045 -0.41762847 -0.2546805 0.27394623
0.10737594 -0.007006368 -0.23108433 -0.12388805 -0.4107522 -0.08904703 -0.15120502 0.33015013
-0.06176604 0.10792819 -0.0011979295 -0.425945 0.3792821 0.2865889 0.26029152 0.024304071
-0.26285246 0.17488989 0.04098797 0.16015317 0.3586775 0.5606519 0.09901987 -0.25730845
0.3847652 -0.0033965919 0.28131452 0.16043454 -0.18694916 -0.0034680883 0.3135539 0.038644668
0.49156207 -0.14398815 -0.41545042 -0.14558084 -0.13131398 0.0759197 0.45495456 -0.66039395
-0.3607214 -0.15324001 -0.08763794 0.16196957 0.10719846 -0.26108882 -0.33461353 0.36447522
0.3396366 0.081859015 -0.12200732 0.14354183 0.05400745 0.007917177 0.59889996 -0.06534822
-0.018034134 -0.04724831 0.049225938 -0.13008185 0.4619795 0.09776888 -0.03379104 -0.039601453
-0.46724892 -0.19132464 0.5518699 0.091029406 -0.08661067 -0.019585961 -0.14619683 -0.0002732767
-0.542348 0.23853566 -0.078026436 -0.0731957 -0.38184366 -0.19306085 0.26534906 0.1852389
0.27395543 -0.1175408 -0.09490241 -0.05134461 0.15050992 -0.13294978 0.16806957 -0.19828379
-0.02574013 0.107916564 -0.14126171 -0.57780606 0.27803347 -0.13702232 -0.14517103 -0.0045125764
-0.277796 -0.26601532 -0.026663708 0.10053064 0.32769114 0.18479301 -0.19152331 -0.3646601
-0.004606362 -0.10734032 0.33095348 0.33302373 -0.20415618 0.30815983 -0.13604146 0.046810813
0.30038422 0.228013 0.14596973 0.13662843 -0.111687526 0.15290767 -0.22595413 0.20835379
0.09657004 0.1229308 -0.010155501 -0.042204607 0.01979294 0.17051922 -0.010843494 0.29814383
0.067046106 -0.1992477 0.08085397 -0.3839782 -0.5006868 0.11876014 -0.06081315 0.14127187
0.43485215 -0.1663115 -0.34938765 0.12618642 0.3067655 0.15693644 0.012950788 -0.114534855
-0.10378094 -0.27383718 0.5111997 0.060076315 -0.27270642 0.4153716 0.024819989 -0.1276769
-0.40200567 -0.080333844 -0.49201998 -0.36758062 -0.2692225 0.3271127 0.2449493 -0.08105637
0.20463553 -0.17651713 0.1347151 0.12777357 -0.028751748 0.14898898 -0.36775652 -0.0706983
-0.009230758 0.37298423 0.69645506 0.15907018 -0.035607006 -0.4961736 0.037118092 -0.41010296
0.24546488 0.12949954 -0.16146143 0.18766941 0.0008158675 0.0053266063 0.3300823 -0.08349769
-0.3658101 -0.11271783 -0.24273418 -0.08508572 0.4795079 -0.23899381 -0.41089076 -0.09594582
-0.14883871 0.02865202 -0.118697174 -0.33436775 -0.18803288 0.18197691 0.31997827 0.009245405
-0.22697708 0.2541991 0.09476951 -0.12963372 0.49373823 -0.14258243 0.10921008 -0.17568569
-0.047685973 -0.14882287 0.2597832 -0.052855015 -0.15462798 -0.19621067 -0.2604931 -0.07333854
0.24272373 -0.024520483 0.0040409314 0.07983819 -0.10456459 -0.31769136 -0.38451406 0.25097892
-0.1285676 0.028018784 0.2363477 0.21803753 -0.1639409 0.25357035 0.19206792 -0.051841006

net.4.bias f4 [50]
00000000: 42ee 903e b87d 613c 6e1b e63d f04e 123e
00000010: bf61 96bd aa4c 97bd 7baa 62be 534b 7cbd
00000020: 1b12 7ebd 1b4d f0bd 0c8f 32bd 898c 3bbe
00000030: 5e2b 1dbb 5d95 80b9 79e4 a63e 02f5 433e
00000040: 0c4c 063d 7723 d03d 1078 723d a52a 2ebe
00000050: 71a6 71bd 2e55 513e f75c cb3d e641 0e3e
00000060: 7081 06be 4ab2 d0bc abef 42bd 1803 77be
00000070: d1c3 4ebe c517 d33d e388 e4bd 2eb3 d9bb
00000080: 67ef 12be 65ab 96be f37e 90b9 3c60 b63d
00000090: e8a8 e33c 3c98 d9bd a4e2 403e 430f 70bd
000000a0: 6cbd f0bc 22ad 93bd a9c3 743e c312 3cbe
000000b0: 5df2 8ebd 3cc5 37be 9cac b03d dbbd 033e
000000c0: 368b f3bd 654d f73d
0.28306776 0.013762884 0.112357005 0.14287925 -0.07342862 -0.073876694 -0.22135346 -0.061595272
-0.062028985 -0.11733457 -0.04359345 -0.18315329 -0.0023982148 -0.00024525347 0.32596186 0.19136432
0.032787368 0.101630144 0.05919653 -0.17008455 -0.05899662 0.2044265 0.09929841 0.13892326
-0.13135314 -0.02547564 -0.047591846 -0.24122274 -0.20191886 0.10307268 -0.111589216 -0.0066436743
-0.14349137 -0.2942764 -0.00027560405 0.08905074 0.027790502 -0.106247395 0.18836457 -0.058608305
-0.029387198 -0.07210757 0.23902763 -0.18366532 -0.06979821 -0.17946333 0.086266726 0.12865393
-0.11891787 0.12075309

net.6.weight f4 [4, 50]
00000000: ddbb 673c cf8c a53e 47ae 3e3d 0da0 6ebf
00000010: 1ff3 9d3d 7be1 113e b798 16bf 797c 673f
00000020: 1922 25bf ddc7 9fbd 9464 0a3f bce2 53bd
00000030: 3104 99be 0027 193d ce90 343e 92ce ffbe
00000040: 8721 103d fa88 61be 6fc5 3abf a9c7 22bd
00000050: 1f6b dfbe cb44 fa3e 7470 95be fec1 883e
00000060: 9c37 c3be e77f 25be 6abc 1cbf a9b9 a73e
00000070: a6e6 0abd d6b6 17bf a5b6 a1bd a7c1 f0bc
00000080: f34a 443e f4cb a33d 5a09 163f acb2 203e
00000090: f4b7 c8be 2d47 90be 5aaf ef3d 3d5b 7c3d
000000a0: 896c 043f 6c86 a03e 244d ccbc bd06 1fbe
000000b0: fd29 7a3e 5428 b1be 2390 b6be 2975 d03e
000000c0: 03fc 583f 7c84 11be bfed 2bbc 4191 0fbf
000000d0: c14a 443e 8b2d 97bc 5a88 07bf bbf6 ffbe
000000e0: f560 4c3e 4cb6 aa3d 24d2 f8bd ac0c 94be
000000f0: 9871 d0be 5cc9 033f 84c5 cb3e 5dba ccbe
00000100: 0745 313e 3662 2ebe e57e 6bbe bf09 8b3e
00000110: cedd 313e 62a7 e43e d5af 153f 9b47 e33e
00000120: 3602 943e 9c4f 0cbf 4ce4 843e a1c0 2e3d
00000130: 0003 223e 5aab ee3d b273 293e d751 b33e
00000140: 9045 803e 7a5c 083f 537e 6cbe eaae a53c
00000150: 6ec9 aebe 884c 15bf 33f6 fe3e 1ea1 a8be
00000160: 0eae 20bf cafe 66be 9cb5 53be 09d6 0e3f
00000170: e08b 19bf fdd5 f3be b48a 38be a240 8f3e
00000180: 9970 483e ae62 15bf 0d3e a63d 8ae0 b8bc
00000190: 0ecc 663f 081d 89be 9910 103f c027 a13e
000001a0: ea63 f0be 1a7d f6be 4da1 21be ecba 6abe
000001b0: 7017 203d 48ec 41bf dd57 94be 4157 54bd
000001c0: e39a a13e 7294 30bd dc7f 1b3f 91fe d03e
000001d0: c7cd d8bd 968a f73e 0408 8b3e be6b 2a3d
000001e0: 822f 8c3e 8057 f33e 3cb5 a13e 4343 73be
000001f0: 4875 38be 6e0b 10be fab0 763d fbe3 b2be
00000200: cbf5 54be 4ea9 dd3e 9f7c 15be 5838 4f3e
00000210: 39d0 1cbf 70fa 11bf 300a 64bc 473d b5be
00000220: 49c3 b43d 3382 ddbe a49b 94be aa89 dabe
00000230: 9fb8 d6be 5df3 5abc f324 1dbe e360 10bf
00000240: 7024 c0bb 5483 05be 2a11 043f c0d6 31be
00000250: 142f 8dbe 4de3 a93e 46fc 5a3d 16e7 48bd
00000260: 613a f03e 602b bbbd a848 9c3d c2f0 593e
00000270: e504 37bd 5471 04be 4f39 4e3e 130c 373d
00000280: 2f35 8d3c 449e b8bd 1b0d be3e d779 d4be
00000290: 86dc 9abe 49a2 0d3f c8e3 23bf 945b d03e
000002a0: 51f2 0bbd 33b5 dc3e 27f4 a0bd a81b 26be
000002b0: f4d9 ab3e ea57 25be 765b cc3e 00d1 253f
000002c0: 4f1e 5d3e 6199 03bf 57cb 243f b917 efbd
000002d0: 5387 c33e 81e5 f8bd 4c4f a1be 9606 e7be
000002e0: ebac 18be 3371 3d3e adf8 853b aaf3 5b3e
000002f0: add7 5abe 73d5 e7be 4ef8 f43e 98cb 67be
00000300: 8611 3e3d e6d7 443e f740 1dbf 9973 e93e
00000310: c3de f43e ac78 79bd 66d0 04bd 6c41 053f
0.014143911 0.3233399 0.046552923 -0.9321297 0.07712387 0.1424617 -0.58826774 0.90424305
-0.64505154 -0.07801793 0.5405972 -0.051729903 -0.2988601 0.03739071 0.17633364 -0.49962288
0.035188224 -0.22024909 -0.7295751 -0.039741192 -0.43636414 0.4888061 -0.29187357 0.26710504
-0.38128364 -0.16162072 -0.61225 0.32758835 -0.03391137 -0.5926336 -0.07896165 -0.029389216
0.19169216 0.07997885 0.5860802 0.15693158 -0.39202845 -0.28179303 0.117033675 0.06161045
0.5172811 0.31352556 -0.024939127 -0.15529914 0.2443008 -0.3460108 -0.35656843 0.40714386
0.8475954 -0.14210695 -0.010493695 -0.56081015 0.19169141 -0.018454334 -0.5294243 -0.49992928
0.19958861 0.083355516 -0.12149456 -0.28915918 -0.40711665 0.51479125 0.3979913 -0.39985934
0.17311488 -0.17029652 -0.22997625 0.27155873 0.17369768 0.44658953 0.58471423 0.44390568
0.28907937 -0.54808974 0.25955427 0.042664174 0.15821457 0.116537765 0.1654804 0.35023376
0.25053072 0.5326611 -0.23095064 0.020225007 -0.34138054 -0.583199 0.4979721 -0.32935423
-0.62765586 -0.22558132 -0.20674747 0.5579534 -0.5997906 -0.47624198 -0.18021661 0.27978998
0.19574203 -0.583537 0.08117304 -0.022568006 0.9015511 -0.26779962 0.56275326 0.3147564
-0.46951228 -0.4814232 -0.15784188 -0.22922868 0.03908485 -0.7575116 -0.28973284 -0.051841024
0.31563482 -0.04311032 0.6074197 0.4081922 -0.10586124 0.4834792 0.27154553 0.041606657
0.27379996 0.47527695 0.31583583 -0.23756127 -0.18013489 -0.1406686 0.06022737 -0.3493956
-0.20796888 0.43293232 -0.1459832 0.20236337 -0.6125522 -0.5702276 -0.0139184445 -0.35398313
0.0882631 -0.43263397 -0.29024994 -0.42683154 -0.4193773 -0.013363686 -0.15346126 -0.5639784
-0.0058637187 -0.13038379 0.5158869 -0.17367077 -0.2757498 0.3318123 0.053463243 -0.049048506
0.4691954 -0.091391325 0.076310456 0.21283248 -0.044682402 -0.12933856 0.20139049 0.04468925
0.017237274 -0.09014562 0.37119374 -0.41499206 -0.3024637 0.5532575 -0.6401944 0.4069487
-0.034166638 0.43106994 -0.07859068 -0.16221488 0.33564723 -0.16146818 0.3991353 0.64772034
0.21593593 -0.5140591 0.6437277 -0.116744466 0.38189182 -0.121531494 -0.3150581 -0.45122212
-0.14909713 0.18500213 0.0040884824 0.21479669 -0.21371336 -0.45280036 0.4784569 -0.22636259
0.04640343 0.19222984 -0.61427253 0.45596007 0.47826204 -0.060906097 -0.032425307 0.5205295

net.6.bias f4 [4]
00000000: 163f 9fbb 143d eb3c 84f7 1c3f bb90 bb3a
-0.0048598154 0.028715648 0.6131518 0.0014310101

net.0.weight f4 [50, 24]
00000000: f499 a9bc cdc6 363f 6345 bcbe 76d7 063f
00000010: df19 0a3f 69f0 b63d 5ae3 843e 0dae 413d
00000020: 01f5 acbd 361f 623e 0428 a9bc 4423 0a3e
00000030: 723b 20be 46c6 1e3e 2f4e ec3c b7f5 093e
00000040: 4f2e b7bd 1e5b 48be a953 1dbd 4b7a 37be
00000050: 5264 4ebe dc3b 0e3e 2480 dabb 3b91 5cbc
00000060: 0465 b13e 2b2b 6c3f 3df6 9c3d d1d5 e8bc
00000070: 9d87 0dbe a898 a53c 811d 9fbe c2b3 aa3d
00000080: 5245 b53e ab10 e53d e63a e63b 2a69 073f
00000090: b4fd d1bd 11dd 89ba ca8a 6a3d 7615 03be
000000a0: afbf 493e 7262 173e 5d15 323e 6300 91bc
000000b0: 0c6d 243e 75b1 b7bd 264f ff3d aad4 c23d
000000c0: 365d 033f a71e 993e 67c0 a7bd 1721 623e
000000d0: 1edc 6e3e 335a d63b dce0 153e 3b1c ce3c
000000e0: 405a 4c3d 8eb4 833e 351c 823d 726c b9bd
000000f0: d46f 4b3c f8d4 133e c56e 9dbd 1416 6b3d
00000100: ff5d 1a3e 76b6 523c e9a1 233e 440b 163e
00000110: be81 e1bd 12f9 963b aa40 61bb d142 e73d
00000120: c7f1 26bd 79e2 b3bf 4df8 f23e 89be ea3c
00000130: 114b 32be 4392 03bc 6575 033e d2f9 6439
00000140: bab2 293e fc8f 76be e565 4dbd ed97 23be
00000150: b95a 4c3d 7ad7 37bc 77f3 c6bd 840f f5bb
00000160: 6288 6dbc 9bc4 abbd c390 973d 7efe e0bd
00000170: 9f8b bf3c 4c76 10bd 32ab 4bbe 604b 6d3d
00000180: 97dc 1c3e 3a0c 253c ced4 793c 540e 33be
00000190: b21e 6c3e be47 dfbd d57a 02be d511 07bd
000001a0: 66f1 143d c4be e83d d19e b83d d6cc c2bd
000001b0: 1d76 013e 9d11 08be 3fba 18bd 7f99 d4bd
000001c0: 6d05 7abd 0dc1 2d3d a70c 2ebd c74f a7ba
000001d0: e5e6 113e 492b 3ebe 978c 64bd c85d 2d3e
000001e0: 5111 7d3d 52f8 4ebe cc07 84be 6d88 883e
000001f0: 0960 1bbe 76d0 5bbd db87 9bbc 518a 643d
00000200: 4411 39bd 6332 9fbd 554e e63d 64ef e2bd
00000210: 843e 35be 5c18 abbd 75e0 45be 96f9 3d3e
00000220: da11 5ebd 799d 37be dc2b 40bc d308 0b3e
00000230: 7424 42bc 0445 43be cf48 9b3d cfe6 d83d
00000240: d64d 95be a4f3 11bd acdb 3b3e 3b00 a6be
00000250: 1b2c 42be 8cde 30be ee7d c3bd 37cf 6a3e
00000260: 61aa 423e e498 5e3c 76a7 013e 867d 293e
00000270: 5d10 a13d c9a4 873a ea79 3fbd 76ac 443e
00000280: b2c6 b4bd c184 2e3e 10e5 053e 4cd3 08bc
00000290: f37c 8dbd b3a4 3ebe 661b 31be f4fe 2c3e
000002a0: 360f 8f3e 66f0 2f3f 3f94 36bf 1183 44be
000002b0: cb53 563e b7cc bb3c b03a 8ebd c932 b4bd
000002c0: 76aa 6f3d 30cf d9ba 4f30 7f3d a189 c53d
000002d0: 5e73 b3bb 8c17 9cbb 11b8 1cbd ee22 2539
000002e0: 272c 73bb 6957 17be 3b89 b4bc 4d82 1d3d
000002f0: f0c4 81bd ecc1 83bd 593d 1cbe 7c43 933d
00000300: 6765 a73e 7870 313d a9e7 563e 5b35 603f
00000310: 6141 b43e 638f cbbd a7c5 243e 98e2 25be
00000320: b970 3f3d b1c7 b0bd 74e0 d83c e865 0abe
00000330: c887 f23c 0120 46be 3aa7 373d 6bf1 3ebe
00000340: 35e9 813d 6fc4 cdbc 0374 bdbd 4657 173d
00000350: 63ce 8cbc a496 b33d ad75 5c3d 6470 213e
00000360: 6813 09bf 5835 c2be 55bc d83c 6afe 0ebf
00000370: 7b46 d0be 37af 9eba f8b6 273d 6b20 88bd
00000380: e662 3b3e 1463 b6bd 66a1 0d3e 34da aabd
00000390: 65c6 4e3e 64ae 903d 9a00 ecbd a54d 46be
000003a0: 5661 07be 101e 343d 80ec 65bd 2761 313d
000003b0: 0e15 453e a6b0 47be 47b0 833d 2678 bdbd
000003c0: 08f3 0fbf 35dc 49bf e6e6 b43e 6aec cdbe
000003d0: 15d4 d5be 40b4 9a3d 20c0 c9be 5c80 3d3d
000003e0: 99a0 9fbd 9840 ebbb aa5f 643d 2514 b73c
000003f0: 1785 1d3e 6563 1c3e aceb 1a3e 86b2 fa3c
-0.020703293 0.71397096 -0.36771688 0.5267252 0.53945726 0.08932573 0.25954705 0.04728513
-0.08445168 0.22082219 -0.020648964 0.13490015 -0.15647677 0.15505323 0.028845875 0.13472639
-0.089443795 -0.19566008 -0.038409863 -0.17917745 -0.20155457 0.13890022 -0.0066681076 -0.01346236
0.3464738 0.9225337 0.07664154 -0.028422268 -0.13821264 0.020214394 -0.31077197 0.08335067
0.3540445 0.1118482 0.007026064 0.5289484 -0.10253468 -0.0010518153 0.057261266 -0.12801155
0.19702028 0.14783648 0.17390962 -0.01770038 0.16057223 -0.08969394 0.12466268 0.09513219
0.51314104 0.29906198 -0.08190995 0.22082935 0.23326156 0.0065415143 0.14636558 0.025159946
0.049890757 0.2572369 0.06353036 -0.090538874 0.012416799 0.1443671 -0.07687143 0.057394102
0.15074919 0.012860885 0.15979733 0.14652735 -0.110110745 0.004607328 -0.0034370818 0.11292041
-0.04075792 -1.4053489 0.47455063 0.028655307 -0.17411448 -0.008030477 0.12837751 0.0002183684
0.16572085 -0.24078363 -0.050146002 -0.15975924 0.049891207 -0.011220807 -0.09714406 -0.0074786562
-0.014497848 -0.08387109 0.07400658 -0.109860405 0.023382006 -0.035269067 -0.19889525 0.05793321
0.15318523 0.010073716 0.0152484905 -0.17485934 0.23058584 -0.109023556 -0.12742169 -0.03297599
0.036363028 0.11364511 0.09014667 -0.095117256 0.12642713 -0.13287969 -0.037286993 -0.103808396
-0.06104033 0.042420436 -0.042492535 -0.0012764864 0.14248236 -0.185712 -0.05579814 0.16930306
0.061784092 -0.20211914 -0.257872 0.26666585 -0.15173353 -0.0536656 -0.01898568 0.05579597
-0.04518248 -0.077732824 0.112454094 -0.110808164 -0.17699629 -0.083542556 -0.19323905 0.1855224
-0.054216243 -0.17931165 -0.011729207 0.13577585 -0.011849511 -0.19069296 0.075822465 0.10590898
-0.29160947 -0.035632744 0.18345517 -0.3242205 -0.18962137 -0.17272395 -0.095455036 0.22930609
0.19010307 0.013586257 0.12661538 0.1655179 0.07864449 0.0010348792 -0.046747126 0.19206414
-0.088269606 0.17042829 0.13075662 -0.008351158 -0.06908598 -0.18617515 -0.17295608 0.16894132
0.27941293 0.68726194 -0.71319956 -0.19190623 0.20930402 0.022924764 -0.069447875 -0.08798749
0.058512174 -0.0016617533 0.06230193 0.09645391 -0.0054763993 -0.004763549 -0.038261477 0.00015748639
-0.0037105174 -0.14779438 -0.022038093 0.038454343 -0.06336391 -0.06433472 -0.15257777 0.07190606
0.3269455 0.04332015 0.20986809 0.87581414 0.3520613 -0.09939458 0.16091023 -0.1619972
0.04673836 -0.08631838 0.026474215 -0.13515437 0.029605761 -0.19348146 0.044837214 -0.18646781
0.06343309 -0.02511808 -0.09250643 0.036948465 -0.017188257 0.08768967 0.053823162 0.1576553
-0.53545237 -0.37931323 0.026456991 -0.55856955 -0.40678772 -0.0012106661 0.040945977 -0.06646808
0.18299446 -0.089056164 0.138311 -0.083424 0.20192869 0.07064512 -0.11523552 -0.19365557
-0.13220724 0.043973982 -0.056133747 0.043305542 0.19246313 -0.1950098 0.064301066 -0.09251432
-0.5623021 -0.78851634 0.35332412 -0.40219432 -0.41763368 0.07553911 -0.39404392 0.04626499
-0.077943034 -0.007179331 0.055755295 0.022348473 0.15382801 0.15272291 0.15128964 0.030602705

net.0.bias f4 [50]
00000000: 3ae0 43bc 6aeb 01be 4716 07be edde d9bd
00000010: a195 8b3e d648 a93e 2287 5ebe 77e1 843e
00000020: 6ec5 653e 1fc5 9ebc c7e9 763e aec6 d53e
00000030: e5ef b4be cad7 93be 55b2 6cbe 1233 cabd
00000040: 88a8 bdbe 25e2 203e 7b0a 9dbe 68e7 afbe
00000050: 8ef2 b83e 1301 acbe e09c 4a3e 1853 9cbe
00000060: 5b72 bd3d d17e 9e3e c5dc f7bd a88a 453e
00000070: 9eea 8b3e afb9 97be 55c5 933d bbf4 5b3e
00000080: 2f9f 1738 de05 b73e 16b8 c03c a82e a23e
00000090: a7c2 193e d476 0ebe ec09 8e3e 3141 7dbd
000000a0: 0145 ab3d 4601 00be 17c1 88be 6f6b ba3d
000000b0: e86a 843d 1d54 89be 33d7 4abc 51cf c1be
000000c0: 4dd3 34be b082 783d
-0.011955315 -0.1268746 -0.13192092 -0.10638223 0.27262595 0.33063382 -0.21731237 0.25953266
0.22438595 -0.019381104 0.24112616 0.41753143 -0.35339275 -0.2887557 -0.23114903 -0.09873022
-0.37042642 0.15711267 -0.30672058 -0.34356236 0.36122555 -0.3359457 0.19786406 -0.30532146
0.09250327 0.30956128 -0.12102655 0.19291174 0.27327436 -0.29633853 0.072153725 0.21480076
3.6149457e-05 0.35746664 0.023525279 0.3167622 0.1501566 -0.13912517 0.27741945 -0.06182975
0.08362771 -0.12500486 -0.26709816 0.091025226 0.06465703 -0.26821986 -0.012380409 -0.37853482
-0.1765873 0.06067151

net.2.weight f4 [50, 50]
00000000: 41da 3e3c 9241 eb3d 3630 483e 6af7 58be
00000010: 5727 873e 27e1 983e 9c9e 46be 4de2 2b3e
00000020: 00ef 2a3e 2814 29bf 53bf b7bd 56a7 c03e
00000030: 0f39 ffbe 1b7f 953e f33e e2bd a720 56be
00000040: 5cf1 99be a4de ec3e c830 3ebe 5f6c aebe
00000050: 8065 bd3d a7a2 a8be 6535 a73e f74f 04be
00000060: 6878 9abe 8b88 d93e 40f2 fc3e 2e83 eabe
00000070: fe99 9c3e 52f9 c6be 93ca 173e 54fc 2d3d
00000080: facc bf3e 2898 af3e 4887 54bb 5992 b43e
00000090: db5f 7a3e 8685 c6bc 27a0 b53d 7485 1dbd
000000a0: 0b3a 48be d8fd cf3e 716b 99be 9990 a0be
000000b0: b509 33be d471 6bbe a6ec 11bd a5fe ce3d
000000c0: 60f5 7a3e af96 f63d da71 a23e 9647 0ebd
000000d0: a4be 093e d248 8bbd cfd0 bbbe a030 18be
000000e0: bd7f 853d 9143 12be 9ff7 19be 12fe 263d
000000f0: 3882 8abd 6c62 21be dd8e 09bc e494 803e
00000100: 4114 343e b94b 22be 5602 d73e be67 08be
00000110: 9a4c 653d ad08 6f3e b07d f43d 23e8 803e
00000120: ae66 7cbe 6bc7 593e 1ba4 35be b0bd 8fbe
00000130: 3fe3 223d 62e5 adbd 640f 61be fb42 eb3d
00000140: 790b 0cbe b454 00bd 50b5 ba3d 1884 4dbe
00000150: 2f81 843c 1f68 65be 5c0f 08be e08c 003d
00000160: 4c87 c7bd 0b76 983d 6f8c 493d 607e 11bd
00000170: fbfb 403e 0e88 dcbd bc90 b9bd 70ed 973e
00000180: 5f0b 7e3c e3ff 653e 935e 7c3e c831 3a3d
00000190: 51ee 423e 6510 cbbc 655b 5b3e 7312 97bd
000001a0: 2385 313d cb24 3abe 6a74 00bd 1357 b8be
000001b0: e289 063e 4e37 9ebe 73c6 333d b437 1dbe
000001c0: 7ea8 863e c8b7 013f 69f9 013d a1db 8a3e
000001d0: 17c8 92bb ea87 5cbd 95d2 983d d27d 543e
000001e0: 580f 38bf 5d5c 553d ef93 58be 447e 82bc
000001f0: ca02 183e b36e 3e3d 25f5 833e 81ba 02be
00000200: e266 97bd 1493 c53d e085 11be 21ca 99bb
00000210: 821a bb3e 0338 99bd fd3d 2d3e 65a9 57bd
00000220: f640 0ebc 34df 1dbe fb25 df3c 0a7a b5be
00000230: 53bd f2bd 9141 a23d c85e c73d f4ea 39be
00000240: f4e8 efbd 43d1 87be 88a1 debc 3edb b53e
00000250: 1442 023b 2eba 1a3e aabb 65be 1c8c a93a
00000260: 702a 15be 1e7c 9fbd 60c5 a23d ef7a e13d
00000270: 9d8b 403e 6130 23be 890e 62be 6bb1 f33d
00000280: 32e7 1d3e 4f61 e3bd b767 a23d a6c4 a83d
00000290: eee3 753e 7623 823d d371 493d f1e2 1a3e
000002a0: dfe4 4d3d eb85 e8bd 98d5 cabe adbb 25be
000002b0: 01a9 0a3d ae51 1abc 5fcd f6bc 7dfd 493e
000002c0: 6be5 08bd 6de3 81be 3972 ecbd 3c13 093d
000002d0: 3594 a03d 085a c03d 96a4 6fbc 58f9 d33d
000002e0: 4b6a 80be 8c38 003e 7cdb 45be 78d1 1cbd
000002f0: a5e5 153c e229 3e3e 0fad 963d 851e f83d
00000300: 6176 f9bd fb2e cbbd ed28 353c dc05 ccbd
00000310: 0424 803d d289 6a3d b226 1ebd ba33 8f3e
00000320: 8c3d 263d b0da c2bc 90ea 343c 20af 3fbc
00000330: 8553 55bd 18c0 02be 74c3 5abd f90f 143e
00000340: 5f34 a4be 0701 8f3e 826b 9b3d f7ea d03c
00000350: 06e8 34bd 7a94 8dbd 3fb9 0b3e 0d6b 96be
00000360: c1ea 323d 350d 283e a2f6 69be 9716 d63d
00000370: a685 803e 8858 003c be6d 043e 989e a0bd
00000380: 52e9 60be 8989 e0bd a2c2 ab3d 5735 cb3d
00000390: 583c 00bd f519 d7bc e167 4cbe 17bf d9bd
000003a0: 6fba e1be acb6 2f3e 9f86 55be e9f0 35bd
000003b0: 153d 8bbd 10ea 0c3d 39da cfbb 0af7 3a3e
000003c0: 0c5f f13c 78a9 8c3d cae0 473e 1c41 363b
000003d0: 7e29 043e 5407 ec3d 5136 703e 7f29 e9bd
000003e0: 1416 22be 8458 003e 2ae5 d83d 42fe 2c3c
000003f0: b8c7 08be dd9e 64be c28e fc3d 2394 9d3e
0.0116487155 0.11487116 0.19549641 -0.21188131 0.263972 0.29859278 -0.19396442 0.16785546
0.16692734 -0.6604638 -0.08972039 0.37627667 -0.4984822 0.29198536 -0.11047163 -0.20910893
-0.30066955 0.4626361 -0.18573296 -0.34067056 0.09247875 -0.32936594 0.32657924 -0.12921129
-0.30169988 0.42486987 0.49403572 -0.45803207 0.30586237 -0.3886209 0.1482337 0.042476967
0.37461072 0.34295774 -0.0032429267 0.35267904 0.24450628 -0.02423359 0.08868437 -0.03845735
-0.19553392 0.40623355 -0.29964784 -0.3136032 -0.17484172 -0.2299264 -0.035626076 0.10107163
0.24507666 0.12040459 0.31727487 -0.03473624 0.1345163 -0.06800999 -0.36682746 -0.14862299
0.06518505 -0.14283587 -0.15035866 0.040769644 -0.067631185 -0.15760201 -0.008395878 0.25113595
0.17585851 -0.15849198 0.4199397 -0.13320825 0.055981256 0.23343153 0.119380355 0.25177106
-0.24648544 0.21267478 -0.17738383 -0.28074408 0.0397675 -0.08491017 -0.21978527 0.11487385
-0.13676251 -0.03133078 0.09116614 -0.20069921 0.01617488 -0.22403 -0.13287109 0.03138435
-0.09742603 0.0744439 0.049206194 -0.03552091 0.18846123 -0.10768138 -0.09060809 0.29673338
0.015505641 0.22460894 0.24645452 0.04545763 0.19036223 -0.024788091 0.21421583 -0.07376566
0.04333986 -0.18178098 -0.03136102 -0.36003932 0.13138536 -0.3090157 0.043890428 -0.1535328
0.26300424 0.5067105 0.031731997 0.2712069 -0.004479419 -0.053840555 0.0746204 0.20751122
-0.7189841 0.052090038 -0.21150182 -0.015929349 0.14844814 0.04649229 0.25772968 -0.12766458
-0.0739267 0.096471936 -0.14211226 -0.004693285 0.3654366 -0.074813865 0.16918178 -0.05265178
-0.00868248 -0.15417176 0.02723979 -0.3544467 -0.11852517 0.07922662 0.09734875 -0.18156034
-0.11714354 -0.26526842 -0.027176633 0.3551883 0.0019875811 0.15110084 -0.2243487 0.0012935433
-0.1456697 -0.07787345 0.079478025 0.11009776 0.18803258 -0.15936424 -0.22075857 0.11899074
0.15420225 -0.111025445 0.07929938 0.08240633 0.2401273 0.0635442 0.049180817 0.15125634
0.050267097 -0.11353668 -0.39616084 -0.16184874 0.03385258 -0.009418888 -0.030127225 0.19725604
-0.033421915 -0.25368825 -0.11545224 0.03346561 0.07840768 0.09392172 -0.014626643 0.10350293
-0.25081095 0.12521571 -0.19322008 -0.038285702 0.00914899 0.18570665 0.07357227 0.12115196
-0.12180782 -0.0992107 0.011057121 -0.09962055 0.062568694 0.057260342 -0.03861112 0.27969152
0.04058604 -0.023785919 0.011042252 -0.011699468 -0.052081604 -0.1276859 -0.053409055 0.14459218
-0.32071206 0.2793047 0.07588865 0.025502665 -0.044166587 -0.06913085 0.13644885 -0.29378548
0.04368091 0.16411288 -0.22847989 0.104535274 0.25101966 0.0078336075 0.12932488 -0.07842749
-0.21964005 -0.10963733 0.08386733 0.09922283 -0.03130755 -0.026257494 -0.19961502 -0.106321506
-0.4408755 0.17159528 -0.20852135 -0.044419203 -0.0679876 0.034402907 -0.006343153 0.182583
0.029464267 0.06868261 0.19519344 0.0027809804 0.12906453 0.11524835 0.2345822 -0.11384868
-0.15828735 0.12533766 0.105905846 0.010558667 -0.13357437 -0.22326227 0.123319164 0.30777082

net.2.bias f4 [50]
00000000: 3491 753e 8625 babe 4964 3f3b 67a5 143e
00000010: ebd3 0cbd df1b 323e a7e8 8f3e 7b32 a2be
00000020: 6c9c 953e 3ae5 87be 970e 8c3d 751a 10be
00000030: 12e2 9d3e 58d5 03be dcc9 c5be 4369 bb3d
00000040: 8441 0a3c 1ec6 0cbe 9780 9c3d 204a 383c
00000050: ebd6 58be 206b 7c3c f94b 2ebe aa5d 8b3e
00000060: 5e66 b83e 95be fabe bd0e c03e 8fde 65bd
00000070: 918d 993d 5e79 873e 21c4 743e 071a 113c
00000080: 2b20 1fbc 1097 273e 86fd b8bd d094 a1be
00000090: 3648 ec3d 01a1 11be 09ce bd3c 3cfc c1be
000000a0: 45fd 3bbd 2428 a03e de5c 313e f9aa b7be
000000b0: 3b33 a9be ba00 42bd 9736 7e3e 1550 493c
000000c0: 70ae 233d 9192 c9bd
0.23981172 -0.36356753 0.0029204062 0.14516221 -0.03438179 0.17393444 0.28107187 -0.3167914
0.29220903 -0.26542073 0.0683872 -0.14072593 0.3083654 -0.12874353 -0.3863057 0.091509365
0.008438472 -0.1374745 0.07641714 0.0112481415 -0.21175735 0.0154064 -0.17021169 0.27219898
0.360156 -0.48973528 0.37511244 -0.05612045 0.07497705 0.26459783 0.23902942 0.008856303
-0.009712259 0.1636622 -0.09032731 -0.31558847 0.11537211 -0.14221574 0.023169534 -0.37887752
-0.045895834 0.31280625 0.17320582 -0.3587263 -0.33046898 -0.047363974 0.24825512 0.012287159
0.03996128 -0.098424084

net.4.weight f4 [50, 50]
00000000: d528 28be 3752 1fbb d186 283f bd42 a63e
00000010: 9d39 fcbe 884c 243e e8bb 423d 67d9 b23e
00000020: 86b6 7f3e c3d2 9cbd d31a 57be ee3f 33be
00000030: bb62 4f3e 4596 c2be ecb7 3cbe ac02 8e3e
00000040: b9fe cabe 1149 5dbe 2203 f3be 3bce b03e
00000050: 3a65 f8b8 aff3 81be e9c7 3fbe 3fca 1a3e
00000060: 9138 573e 3d35 e03e 6c56 15bf 53cb 55be
00000070: 9e4a 663e 460b d53d 558e 25bc 5ae5 cdbd
00000080: e0d2 efbe 59d9 ac3e 9223 d33e 3154 8f3d
00000090: 9725 8b3e 464c 53be 24ca eabe e68a 28be
000000a0: a003 1fbf fd7e 6a3e b780 593e bb42 3bbe
000000b0: 444c 9a3e 23bf b3be 91a3 9a3d f767 a8be
000000c0: 031c b5be 9e00 9b3e ba86 9dbd 8985 edbe
000000d0: 9dec b6be d209 923e f971 ac3d bb36 093f
000000e0: 6423 433f 8656 8cbb 2391 1b3f 92e5 87be
000000f0: b21e 85bd 2d23 afbe 0cc4 2d3f 4400 8e3c
00000100: dfb7 48bf 1eb1 f33d 995d 62be d5a0 c2be
00000110: d45d 47be 22ed ffbe 57c2 1fbf 8316 6ebd
00000120: 6a8f c3bd 06ab 0b3f be92 443f 68ee 743d
00000130: f0eb 98be e92e 423e 665e 3f3e 5a8d be3e
00000140: 2160 a23e 8e45 0cbf 2c02 bbbd 1716 673e
00000150: 8d2e fbbc a43f 5cbf 5428 55bd d99c 07bf
00000160: 5253 cbbd 70c8 18bf 9a8d 19be 32f2 193f
00000170: eb77 b93e da99 1bbf 5895 3f3e 45b6 afbe
00000180: 1788 163f eb8d 643c a720 a9bd ddc7 8c3d
00000190: fb61 5dbe 6969 30be ff1d a5be bc65 823e
000001a0: e781 673e f224 ca3e 0460 a33e 5d9a 2c3e
000001b0: 0b56 b73e 1272 5abe fbbf 1c3e f3a6 8ebe
000001c0: dc9c a93e 0afd 26be 8b99 b2be 9baa 293e
000001d0: a08a 6b3c c827 1dbe 4685 55be 1f1f 95be
000001e0: 210d acbe ba3c b43b 6e96 10be f8ae cd3e
000001f0: 178c dd3e e024 3a3e c432 a1be bd30 acbd
00000200: f660 d4bd 0e1e cc3d 0f4f 343e ae14 dcbe
00000210: cbce c1bd d170 c93e fe0c c83d ea72 25bf
00000220: e78d cdbd 3e63 a5be e60a 27bd 0062 babe
00000230: 08ed 67be 4da6 2d3e 570e 6b3e 6e18 ecbe
00000240: dd67 063d fccf b5be 0dca ae3e dbc1 a6bd
00000250: 2978 dabd 4350 9a3e e6cb 8b3e 3eec 303e
00000260: 1e19 b8bd 77f3 4cbe 0dfa f8bd a3ba 79be
00000270: 8e7a 84be 6a36 a6be a792 8fbd d3f2 863e
00000280: 59cc c23e 5ef9 02bd 64b9 7ebe ac93 1f3f
00000290: ef0b ef3d 0a5e 01bf aa34 0cbe 0136 ad3e
000002a0: 719b d23e a54b acbe 848d 463e d416 d83e
000002b0: 53cb 9e3e 57b0 0dbe a153 19be 704b 47be
000002c0: 8e4f ba3e 4ad4 043f f672 8cbe 3fda 56bc
000002d0: 2c4e 4dbe 7305 d3bb af83 ce3e 6df9 a4be
000002e0: f592 5abe 577b 86bc 4742 28bf bf0f bf3d
000002f0: 5f0f c03e 84ac 813e a8c1 173f 7fa2 2cbe
00000300: 5ced 3cbe b5a1 2d3e f020 67be 976e 5c3e
00000310: fc91 81be 2f94 d13e 14f2 c23e d7cf 8cbe
00000320: 3e30 aebe d5ae 58be 225e ec3e 66f8 d43e
00000330: 23a8 d2be 5a24 9e3e 1651 353e 60bc aa3e
00000340: 7fce 453e 83ab 0cbe 4a61 06bf 7fa4 7bbe
00000350: b302 9b3e 6af7 efbe a4f8 85be d6f2 123f
00000360: 3574 72be bef7 20be c9ea 05bf cbb1 253f
00000370: 2e0f 66be 7733 27bf 0c88 dfbe 9a6c 723e
00000380: 9571 d33d 58cc 2f3e c85d 97be 4bbc f2be
00000390: f6de a43e 932b d33e 8f42 5f3e fc81 a23d
000003a0: d1b3 d8be 345b d63e f36a dd3e f89c c43d
000003b0: 0bac 4d3f c45c efbd 2496 f7be 827a f2bd
000003c0: e693 19bf 629b 813e 1518 c93e 4bbe 79be
000003d0: 1960 c53e 6991 d0be c192 8a3e 3406 cfbe
000003e0: e009 a4be 3b32 da3e 8e97 543e ad3d 7a3d
000003f0: 8155 c93e 46c9 803d 52ad d73d 782b 6bbe
-0.16421826 -0.0024310478 0.65830714 0.32472792 -0.49262705 0.1604482 0.047542483 0.3493149
0.24971971 -0.07657387 -0.21006326 -0.17504856 0.20252506 -0.38005272 -0.18429536 0.27736413
-0.39647463 -0.21609904 -0.47463328 0.3453234 -0.000118444164 -0.25381228 -0.18728603 0.15116213
0.21017672 0.43790618 -0.58334994 -0.20878343 0.22489402 0.10402541 -0.010104735 -0.10053511
-0.46840572 0.33759573 0.41238075 0.0699848 0.27177116 -0.20634565 -0.45857346 -0.16459236
-0.62114906 0.22900005 0.21240507 -0.18287174 0.3013631 -0.35106763 0.07550729 -0.3289182
-0.35372934 0.30273908 -0.07691713 -0.46390942 -0.35727397 0.28523117 0.08420176 0.5359914
0.76225877 -0.0042827753 0.60768336 -0.26542336 -0.06499995 -0.34206524 0.6787727 0.017334111
-0.78405565 0.11899017 -0.22106017 -0.3801333 -0.19469386 -0.49985605 -0.62405914 -0.058126938
-0.095488384 0.54557836 0.7678641 0.059797674 -0.29867506 0.18963207 0.18688354 0.37217218
0.31713966 -0.5479363 -0.091312736 0.2256702 -0.030661846 -0.8603461 -0.052040413 -0.52973706
-0.099280015 -0.59680843 -0.14995423 0.60135186 0.36224303 -0.60781634 0.18709314 -0.34318748
0.58801407 0.0139498515 -0.08258181 0.068740584 -0.21619408 -0.17227711 -0.32249448 0.25468242
0.22608148 0.39481312 0.31909192 0.1685576 0.35807833 -0.21332577 0.1530761 -0.27861747
0.33127487 -0.16307464 -0.3488277 0.16568987 0.0143763125 -0.15347207 -0.20851621 -0.29125306
-0.33603767 0.0055004032 -0.14119884 0.40172553 0.43270943 0.18178129 -0.31484044 -0.084077336
-0.10370056 0.0996667 0.17608283 -0.42984527 -0.09463271 0.39343885 0.09768103 -0.6462847
-0.10036831 -0.32302278 -0.040781878 -0.36402893 -0.22649014 0.1695797 0.22954689 -0.46112388
0.032813895 -0.35510242 0.34138528 -0.08142444 -0.1066745 0.3013936 0.27304 0.17277619
-0.08989166 -0.2001475 -0.121570684 -0.24387603 -0.25874752 -0.3246339 -0.070103936 0.26357135
0.3804653 -0.031976096 -0.24875408 0.62334704 0.11672198 -0.5053412 -0.13691965 0.33830264
0.41134217 -0.33651462 0.19389921 0.42204916 0.310145 -0.138368 -0.14973308 -0.19462371
0.3638882 0.5188643 -0.27431458 -0.013113557 -0.20049351 -0.0064398586 0.40334842 -0.32221547
-0.21345122 -0.016416235 -0.6572613 0.09329175 0.37511727 0.2532693 0.5927987 -0.16858862
-0.1844992 0.16956218 -0.22571158 0.21526562 -0.2530669 0.40933368 0.38075316 -0.2750232
-0.3402118 -0.21160443 0.46165568 0.41595763 -0.41143903 0.3088711 0.17706713 0.33346844
0.19317053 -0.13737302 -0.524922 -0.24574469 0.30275497 -0.4686845 -0.2616626 0.5740179
-0.23677142 -0.15719506 -0.5231138 0.64724416 -0.22466728 -0.65312904 -0.43658483 0.2367424
0.103243984 0.17167795 -0.29563737 -0.4740928 0.32201356 0.41244182 0.21802734 0.07934949
-0.4232469 0.41866457 0.43245658 0.09600252 0.8034064 -0.116876155 -0.48356736 -0.11839773
-0.599913 0.2531386 0.39276186 -0.24388997 0.3854988 -0.4073594 0.2706509 -0.4043442
-0.32038784 0.42616448 0.20760939 0.061093975 0.39323047 0.0628839 0.10531105 -0.22965801

net.4.bias f4 [50]
00000000: cf4b 7c3e 3527 573f c9b4 1b3f d48f 39be
00000010: bc44 f83d 22ed 7ebe 8584 833f 2caf 1a3e
00000020: 2856 69be fa72 49bf 1180 803f 9f22 12be
00000030: 1bbb 90be 04c2 2d3e adc3 8c3e d97b 8f3e
00000040: 153c 613f 8456 aa3d 45cf 1fbe b44f 38bd
00000050: 59fb 90bf 0165 d2bd d107 0a3e 53a3 67bf
00000060: 4c7a 823f b400 9d3e e2b1 863f 29e2 b63e
00000070: 8cae 893f 6c09 5bbe a553 673f d518 31be
00000080: ab05 533f 625d 5c3e 35bf 98be 543b 58bf
00000090: 8fdd 1f3e 797e 103f 3ffd 6ebf 9f89 263d
000000a0: be0c 90be 4209 713f ad8c 8cbf 5147 813e
000000b0: 7521 543e 415a 68bf be7f 7d3f d058 50bf
000000c0: 8ac9 443d af90 9cbe
0.24638294 0.840442 0.6082273 -0.18121272 0.12122485 -0.24895146 1.0274817 0.15105885
-0.22786772 -0.78691065 1.0039083 -0.1427102 -0.2826775 0.16968542 0.2749304 0.28024176
0.879823 0.08317283 -0.15606411 -0.044997886 -1.1326705 -0.10273171 0.13479544 -0.9048359
1.0193572 0.306646 1.0523036 0.35719422 1.0756392 -0.21390313 0.90362006 -0.17294629
0.82430524 0.21519998 -0.2983338 -0.8446553 0.15611862 0.5644298 -0.9335517 0.04065859
-0.28134722 0.9415475 -1.0980431 0.25249723 0.20715888 -0.90762717 0.99023044 -0.8138552
0.048043765 -0.30579135
