pretrain_ckpt/gail/5000_expert/BipedalWalker-v3/discriminator.ckpt (torch, 29259 bytes, 7 tensors)

net.0.weight f4 [50, 28]
-0.005323903 0.34197953 0.13794793 0.36942312 -0.08029893 0.043178484 0.0118521685 -0.16421415
-0.3092907 -0.06224477 -0.22443439 0.07658684 0.14988312 -0.03968064 0.058734767 -0.013138885
0.06055785 -0.052732747 -0.22666918 -0.002160879 0.0494159 -0.1218731 -0.11513963 -0.1615338
-0.029484823 0.048510537 0.005756174 -0.14971496 0.14194643 0.19656754 0.21367653 0.22496921
-0.14751115 -0.080520466 -0.15558605 0.11875507 -0.054971192 0.049270093 0.2257565 0.13196786
0.07462757 -0.024253776 -0.028938197 0.07377694 0.18561542 0.0057639675 0.111368455 0.15597586
0.13505462 0.040094826 0.20574747 0.056927852 -0.12801589 -0.16841386 -0.41990206 0.29350394
-0.18160619 -0.13914855 0.12456193 0.057689965 0.20534606 0.03919381 -0.17345396 0.020515399
-0.19571452 0.14699171 -0.242905 0.21317622 0.1899807 -0.015435573 -0.22153705 0.045069914
0.03817883 0.054350976 -0.22860532 -0.17798138 0.10953237 -0.1461302 0.14197917 -0.18712085
-0.20291638 0.06771612 -0.20368303 -0.13184622 -0.037561208 0.042373244 -0.2305405 -0.0024982
0.19266684 -0.052222792 0.033766795 -0.19748399 0.08279642 -0.15769373 -0.14917494 0.12782979
0.23007348 -0.023918666 0.07736076 -0.21473043 0.015964508 -0.03770029 -0.055529866 0.093086585
0.004930784 0.09897798 -0.050952964 0.011059097 -0.222292 -0.24761358 -0.29153064 -0.1694482
-0.07109043 -0.47695526 -0.22558379 0.025904672 0.048841536 0.1596159 0.12723605 -0.03778915
0.093731344 -0.022332598 -0.16350685 0.053963423 0.19074267 -0.022183545 -0.0069548585 0.15704837
0.17850405 0.10542618 0.22627476 0.2877444 0.18936363 0.11009774 0.08654441 -0.017680157
0.0827005 0.11506331 -0.12744492 -0.05337646 -0.034932088 0.026757259 -0.13461435 -0.2905424
0.013001246 0.01379062 -0.14931989 0.16539672 -0.019019175 0.07047267 -0.060131162 -0.07604016
0.16257834 -0.042016637 0.20792595 -0.002863432 -0.009507979 0.14507678 0.1460535 0.19671755
0.16813917 0.015968934 0.04265756 0.21860807 -0.09198053 -0.041408446 0.18148695 0.104384996
0.045814756 -0.056607567 -0.25632766 -0.12831542 0.05046132 -0.019368684 -0.097976975 0.009546761
-0.1773695 -0.120810665 -0.061011583 -0.07664922 -0.23561463 -0.001121094 0.017752744 -0.13117409
-0.09464117 -0.18622507 0.087241076 -0.06270411 0.14840169 0.16504867 -0.14515896 0.04589748
0.21395002 -0.115116015 0.14850935 0.18069004 -0.020905273 0.24941723 0.30823344 0.060997523
-0.1645077 -0.0920113 -0.049205504 0.01855688 -0.14918074 0.023828957 -0.03330852 0.14214201
-0.1680519 -0.07640057 0.07204905 0.03455023 -0.056957826 -0.009041428 -0.105821125 0.101712674
0.13083059 -0.12044801 -0.2241767 -0.18639222 0.12368773 0.08202799 -0.009839107 -0.19043782
-0.043189093 0.11635266 0.033327162 0.13233332 -0.035079684 -0.25331444 -0.15472096 0.048969015
-0.12695052 0.16631423 -0.024503581 0.0864694 0.13405778 -0.098303266 0.09665567 -0.071603425
-0.17711826 -0.074747495 -0.083301134 -0.015863217 -0.13960426 -0.14013332 -0.16293523 0.047090363
-0.19259812 0.13120204 -0.28815302 -0.04632454 -0.1639346 -0.44648227 -0.20969972 -0.25102252
00000000: 2374 aebb f117 af3e 3942 0d3e 0725 bd3e
00000010: c473 a4bd ecdb 303d 992f 423c c127 28be
00000020: 5a5b 9ebe 5ff4 7ebd 21d2 65be 90d9 9c3d
00000030: f67a 193e 2b88 22bd de93 703d 7a44 57bc
00000040: 820b 783d 4bfe 57bd f71b 68be 899d 0dbb
00000050: 5468 4a3d 9b98 f9bd 54ce ebbd 1e69 25be
00000060: 288a f1bc fcb2 463d 4a9e bc3b e14e 19be
00000070: 685a 113e 0049 493e 05ce 5a3e 545e 663e
00000080: 2a0d 17be eae7 a4bd f351 1fbe dc35 f33d
00000090: 7929 61bd 70cf 493d b62c 673e 9522 073e
000000a0: 57d6 983d dbaf c6bc cc0f edbc 5d18 973d
000000b0: f811 3e3e aadf bc3b 2515 e43d 23b8 1f3e
000000c0: c24b 0a3e 793a 243d 77af 523e 2e2d 693d
000000d0: 9916 03be af74 2cbe 67fd d6be 2646 963e
000000e0: f9f6 39be f57c 0ebe 531a ff3d 504c 6c3d
000000f0: 3d46 523e b089 203d ea9d 31be e90f a83c
00000100: 6369 48be ff84 163e 17bc 78be de4a 5a3e
00000110: 4d8a 423e 7ce5 7cbc 9cda 62be 3b9b 383d
00000120: 6861 1c3d 219f 5e3d 8317 6abe c040 36be
00000130: 8252 e03d 28a3 15be fd62 113e 9c9c 3fbe
00000140: 50c9 4fbe c0ae 8a3d 4992 50be b202 07be
00000150: c8d9 19bd 918f 2d3d cf12 6cbe d7b8 23bb
00000160: 754a 453e 91e7 55bd 0d4f 0a3d 3e39 4abe
00000170: 2b91 a93d 777a 21be 51c1 18be d0e5 023e
00000180: 6298 6b3e 14f1 c3bc 516f 9e3d 4be2 5bbe
00000190: 00c8 823c 9f6b 1abd 4973 63bd 2ea4 be3d
000001a0: 6a92 a13b f8b4 ca3d 0eb4 50bd 3731 353c
000001b0: 84a0 63be 6a8e 7dbe 8143 95be d483 2dbe
000001c0: dc97 91bd 7b33 f4be 70ff 66be 0936 d43c
000001d0: 100e 483d 5a72 233e 2b4a 023e ccc8 1abd
000001e0: 38f6 bf3d daf2 b6bc 576e 27be c008 5d3d
000001f0: 0c52 433e 44ba b5bc 95e5 e3bb 4ad1 203e
00000200: c4c9 363e aee9 d73d 92b4 673e 3c53 933e
00000210: 8ae8 413e ed7a e13d 323e b13d fad5 90bc
00000220: e15e a93d 50a6 eb3d ec80 02be 46a1 5abd
00000230: f314 0fbd 0a32 db3c 58d8 09be f9c1 94be
00000240: 2e03 553c 0df2 613c 50e7 18be c25d 293e
00000250: 1ace 9bbc fa53 903d 184c 76bd f2ba 9bbd
00000260: f07a 263e a319 2cbd 8aea 543e 6ba8 3bbb
00000270: 5bc7 1bbc 028f 143e 0c8f 153e 5370 493e
00000280: ad2c 2c3e 48d1 823c b2b9 2e3d cbda 5f3e
00000290: 4a60 bcbd e79b 29bd b7d7 393e cdc7 d53d
000002a0: 41a8 3b3d 56dd 67bd 613d 83be 1e65 03be
000002b0: 87b0 4e3d 13ab 9ebc 27a8 c8bd 056a 1c3c
000002c0: 5aa0 35be 956b f7bd 48e7 79bd 44fa 9cbd
000002d0: f644 71be acf1 92ba 346e 913c 8052 06be
000002e0: 3bd3 c1bd c9b1 3ebe 73ab b23d 036b 80bd
000002f0: 9df6 173e 8502 293e 8da4 14be fffe 3b3d
00000300: b715 5b3e f2c1 ebbd d612 183e cf06 393e
00000310: 8941 abbc 3b67 7f3e c6d0 9d3e 8ad8 793d
00000320: b574 28be 6c70 bcbd b68b 49bd 9904 983c
00000330: d6c2 18be f234 c33c 846e 08bd ad8d 113e
00000340: cc15 2cbe e777 9cbd 748e 933d 8b84 0d3d
00000350: 9c4c 69bd 7f22 14bc bfb8 d8bd bc4e d03d
00000360: 74f8 053e 72ad f6bd 948e 65be 9add 3ebe
00000370: fe4f fd3d 4afe a73d 3534 21bc 2202 43be
00000380: 0ce7 30bd 4e4a ee3d 1082 083d 6382 073e
00000390: b7af 0fbd 6eb2 81be 2c6f 1ebe bc93 483d
000003a0: 51ff 01be 474e 2a3e bcbb c8bc de16 b13d
000003b0: 7146 093e 3953 c9bd 68f3 c53d d1a4 92bd
000003c0: 7d5e 35be 3715 99bd c999 aabd 94f3 81bc
000003d0: 6bf4 0ebe 1c7f 0fbe 7ed8 26be d3e1 403d
000003e0: 7138 45be d459 063e cb88 93be cdbe 3dbd
000003f0: 79de 27be 5399 e4be 86bb 56be 0686 80be

net.0.bias f4 [50]
-0.17682716 0.17976438 -0.027140575 -0.14680131 0.11991673 0.09405363 0.12026243 -0.047375306
-0.13157018 -0.06423095 0.07563398 0.042470343 0.1583036 -0.16045927 0.062179636 0.15886624
0.1269338 0.21735029 0.14195545 0.116742045 -0.067032225 -0.055109628 -0.051766444 0.044305883
0.1588501 0.12266839 -0.09777813 -0.07412879 -0.18717071 -0.08097275 0.107568234 -0.038801793
-0.028346544 0.23803674 0.07805715 -0.027134407 0.035029523 0.1196995 0.10518374 0.10749943
-0.13480498 0.13640517 -0.042715956 0.023495402 0.093976736 0.042563617 -0.026046358 -0.026614008
0.02526238 0.018249651
00000000: 2e12 35be 2714 383e e955 debc 1553 16be
00000010: e796 f53d 319f c03d 264c f63d 9c0c 42bd
00000020: 55ba 06be 848b 83bd fde5 9a3d 62f5 2d3d
00000030: 571a 223e 6f4f 24be 13b0 7e3d d5ad 223e
00000040: effa 013e 1391 5e3e c55c 113e 7416 ef3d
00000050: 3148 89bd a2ba 61bd 0d09 54bd 167a 353d
00000060: 9aa9 223e 9139 fb3d e63f c8bd d6d0 97bd
00000070: aea9 3fbe 0bd5 a5bd bc4c dc3d a1ee 1ebd
00000080: 0337 e8bc e7bf 733e 6ddc 9f3d fa48 debc
00000090: 1e7b 0f3d 0325 f53d 936a d73d a928 dc3d
000000a0: 510a 0abe ccad 0b3e edf6 2ebd 6e79 c03c
000000b0: e076 c03d 3057 2e3d 2c5f d5bc 9f05 dabc
000000c0: 0df3 ce3c 4b80 953c

net.2.weight f4 [50, 50]
0.068952724 0.09689142 -0.15577309 -0.10018023 0.013354884 -0.02990646 -0.08962227 0.018348867
0.005726828 0.07047828 0.040869404 -0.056031454 0.046618644 -0.15958287 0.09331898 -0.097802795
-0.11866492 0.07135966 -0.020363452 0.0030899127 -0.105300635 -0.088712126 0.15807399 0.11875791
-0.0012900052 -0.073292725 0.117803596 -0.02710107 -0.15587392 0.06849055 -0.102977335 -0.16734532
-0.056751333 -0.04668089 0.09292708 -0.1048541 0.018626014 -0.070008546 -0.10582406 0.067950495
0.11041665 -0.18920422 0.060992327 0.09031583 -0.19864447 0.037888024 0.051257562 0.04678201
0.027965656 -0.05978649 0.04317823 0.09118754 0.3386519 0.27453092 0.14418475 0.050573878
-0.16063514 -0.047311958 0.25932068 0.1607462 -0.147603 0.053852882 -0.28605443 -0.21926114
0.02682865 -0.17687333 -0.014088707 -0.015347338 0.18792139 -0.107244834 -0.037481338 0.010682494
0.17912632 -0.051564474 -0.072778486 0.10125985 0.042946476 0.0016450097 0.016358774 0.017968947
0.12656042 -0.06678614 -0.12434649 -0.06456834 0.23282227 -0.20661277 -0.21650575 -0.067678005
-0.047176015 -0.24591468 0.3016627 -0.068007 0.099237874 0.12680934 0.05019876 0.03131917
0.10172328 0.027468478 -0.08552819 0.20833108 -0.11631629 -0.34186286 0.037855476 -0.048688464
-0.17028308 0.09315652 0.1836653 0.14154902 0.16000299 0.40511847 -0.2785101 0.061922975
-0.006913822 0.10613292 -0.09644217 0.040325813 -0.14236309 0.076872 -0.20927075 -0.21792741
-0.06972423 -0.25361487 0.039754845 -0.10714058 -0.08347191 -0.031932708 0.09935748 0.09412117
0.23317532 0.06209633 -0.0101604825 -0.07623752 0.16406228 -0.22286482 -0.0491671 0.22858047
-0.12746224 0.01984861 0.06834689 0.03954521 0.007247195 -0.05434892 0.22615989 -0.21784633
-0.2559192 -0.0687414 0.20158878 -0.08069557 0.12787986 -0.16554646 0.0049944874 0.19125004
-0.107645 -0.093102776 -0.011306703 -0.07275925 -0.015112099 -0.025126716 -0.009340628 -0.13933583
0.024297329 -0.25353673 -0.020490963 0.06270855 -0.06989004 -0.027614325 -0.064604715 -0.14975223
0.07405827 -0.08917044 0.04033793 0.1656459 0.015824055 0.16828102 -0.19319755 0.019034473
-0.032995995 0.028784832 -0.0027322215 -0.043233443 -0.09909515 -0.1248217 0.13262323 0.012560894
0.051512606 -0.10677165 0.11912633 -0.09639859 -0.13572814 0.18574055 -0.12214045 0.07295926
0.029937916 0.106029026 0.11696232 0.034984335 0.13502459 -0.0956478 0.062946506 -0.023523346
0.15161718 0.11182941 -0.004397832 -0.031753957 0.09379004 -0.21412082 0.053632762 0.06430291
-0.025468513 -0.07202514 0.19318882 -0.079301655 0.097280845 -0.022812868 0.06306291 -0.006735731
0.16452354 -0.14381061 0.1194123 0.018651322 -0.0368805 -0.028084338 -0.10866966 0.102867365
-0.002347566 -0.15123548 0.18399172 0.14510976 0.12669761 -0.20234768 -0.020300787 0.13079685
-0.027935848 0.010912496 0.12748055 -0.081249766 -0.11713785 0.13063532 -0.10887981 0.030844567
0.006041939 -0.008027143 -0.033282626 0.22194315 0.14798087 0.12969343 -0.016877031 -0.05100543
-0.027721902 0.12403186 -0.16942699 -0.10757967 0.087207206 -0.03780434 -0.08961046 0.034638483
00000000: 1637 8d3d 026f c63d fb82 1fbe 4b2b cdbd
00000010: 72ce 5a3c 64fe f4bc e18b b7bd 5d50 963c
00000020: 1da8 bb3b eb56 903d ad66 273d 3d81 65bd
00000030: 31f3 3e3d b169 23be 051e bf3d d54c c8bd
00000040: 9806 f3bd 0325 923d 41d1 a6bc 2280 4a3b
00000050: dca7 d7bd b4ae b5bd 26de 213e 5937 f33d
00000060: 6415 a9ba 7f1a 96bd 0343 f13d 1003 debc
00000070: 6a9d 1fbe c644 8c3d c8e5 d2bd 925c 2bbe
00000080: 1674 68bd 7634 3fbd 8e50 be3d bfbd d6bd
00000090: 9595 983c a460 8fbd 49ba d8bd a129 8b3d
000000a0: 2022 e23d c0be 41be 17d3 793d 82f7 b83d
000000b0: 7569 4bbe 7930 1b3d 73f3 513d 7e9e 3f3d
000000c0: 3b18 e53c aee2 74bd a8db 303d 88c0 ba3d
000000d0: c863 ad3e 518f 8c3e 2ba5 133e 8e26 4f3d
000000e0: 8a7d 24be 2fca 41bd aec5 843e a79a 243e
000000f0: 3e25 17be d794 5c3d ba75 92be fe85 60be
00000100: c2c7 db3c 481e 35be 52d4 66bc 6773 7bbc
00000110: 776e 403e 2ea3 dbbd 0886 19bd a105 2f3c
00000120: e46c 373e 4535 53bd e30c 95bd 5361 cf3d
00000130: a5e8 2f3d 5e9d d73a d602 863c 9d33 933c
00000140: 0e99 013e 2cc7 88bd 5fa9 febd 683c 84bd
00000150: f668 6e3e 4c92 53be afb3 5dbe c49a 8abd
00000160: a33b 41bd 0fd1 7bbe 8973 9a3e 4147 8bbd
00000170: 3a3d cb3d 4fda 013e 379d 4d3d 8848 003d
00000180: 4c54 d03d 9305 e13c 6729 afbd be54 553e
00000190: 3c37 eebd a608 afbe 580e 1b3d 8e6d 47bd
000001a0: b05e 2ebe d8c8 be3d c212 3c3e 3af2 103e
000001b0: d3d7 233e b06b cf3e e098 8ebe f2a2 7d3d
000001c0: 588d e2bb 375c d93d 7983 c5bd ae2c 253d
000001d0: a1c7 11be 116f 9d3d 124b 56be 5d28 5fbe
000001e0: 94cb 8ebd cfd9 81be fad5 223d 856c dbbd
000001f0: 52f3 aabd dfcb 02bd ef7b cb3d 9ac2 c03d
00000200: 83c5 6e3e b958 7e3d 2778 26bc 6b22 9cbd
00000210: f1ff 273e ad36 64be 7163 49bd 0011 6a3e
00000220: 7685 02be 8d99 a23c 74f9 8b3d 28fa 213d
00000230: e179 ed3b f99c 5ebd 7596 673e 1c13 5fbe
00000240: d707 83be 4bc8 8cbd 4a6d 4e3e b843 a5bd
00000250: f0f2 023e 0385 29be cca8 a33b 0dd7 433e
00000260: fb74 dcbd abac bebd c03f 39bc cd02 95bd
00000270: bd98 77bc 8bd6 cdbc 6f09 19bc 0dae 0ebe
00000280: 310b c73c 91cf 81be aadc a7bc 576d 803d
00000290: 8222 8fbd 7037 e2bc 7a4f 84bd a658 19be
000002a0: ddab 973d fe9e b6bd 6339 253d 149f 293e
000002b0: 73a1 813c dc51 2c3e 94d5 45be 2fee 9b3c
000002c0: cf26 07bd 2bce eb3c 120f 33bb 8d15 31bd
000002d0: 66f2 cabd 85a2 ffbd 62ce 073e 35cc 4d3c
000002e0: e2fe 523d 18ab dabd 81f8 f33d a06c c5bd
000002f0: 51fc 0abe c532 3e3e c624 fabd aa6b 953d
00000300: 5c40 f53c bf25 d93d f189 ef3d bc4b 0f3d
00000310: e343 0a3e fee2 c3bd 19ea 803d 08b4 c0bc
00000320: 8941 1b3e d106 e53d b01b 90bb 7010 02bd
00000330: fe14 c03d 7d42 5bbe 07ae 5b3d 3eb1 833d
00000340: 58a3 d0bc eb81 93bd 4ad3 453e e868 a2bd
00000350: 2e3b c73d 0de2 babc 2127 813d 68b7 dcbb
00000360: dc78 283e 1743 13be 708e f43d a8ca 983c
00000370: 0210 17bd 2011 e6bc 338e debd 20ac d23d
00000380: 9fd9 19bb 79dd 1abe 5368 3c3e a797 143e
00000390: 05bd 013e 3b34 4fbe d64d a6bc 9cef 053e
000003a0: b8d9 e4bc 53ca 323c 438a 023e 4766 a6bd
000003b0: f8e5 efbd 44c5 053e 61fc debd bfad fc3c
000003c0: 75fb c53b 4784 03bc 5d53 08bd 1145 633e
000003d0: 4c88 173e 5bce 043e b341 8abc 12eb 50bd
000003e0: 0b19 e3bc 6a04 fe3d 457e 2dbe bb52 dcbd
000003f0: b199 b23d b9d8 1abd b085 b7bd 15e1 0d3d

net.2.bias f4 [50]
-0.0781777 0.13514173 -0.108113885 -0.19965377 0.029206658 0.12849426 -0.13236496 -0.030207345
0.20462325 -0.0788746 -0.12667972 0.11144854 0.03949621 -0.000931156 0.0051698657 0.16388693
-0.030726096 -0.058027092 0.124075405 0.14093545 -0.06857503 -0.12130154 -0.25705102 -0.013541053
0.19823831 -0.012012268 0.049235564 -0.08518425 0.16757473 0.03918549 -0.022697423 0.11808892
-0.030692222 0.1524471 0.09498384 0.098366454 -0.07592232 -0.10768685 0.079558894 0.09985123
-0.18207085 -0.21830809 -0.07307701 0.1409822 0.12218057 -0.20493507 0.12862597 0.074598655
0.06125203 0.19713373
00000000: a11b a0bd 9862 0a3e d06a ddbd 0a72 4cbe
00000010: cd42 ef3c 0094 033e ae8a 07be 6575 f7bc
00000020: c288 513e 0289 a1bd 54b8 01be 223f e43d
00000030: c7c6 213d d218 74ba fa67 a93b fad1 273e
00000040: 4bb5 fbbc d1ad 6dbd 3f1b fe3d 6251 103e
00000050: 1171 8cbd f16c f8bd 319c 83be 4bdb 5dbc
00000060: fcfe 4a3e 1bcf 44bc 3bab 493d 1475 aebd
00000070: b698 2b3e f780 203d f2ef b9bc 9bd8 f13d
00000080: 416e fbbc 181b 1c3e e386 c23d 5a74 c93d
00000090: 297d 9bbd ec8a dcbd c6ef a23d cd7e cc3d
000000a0: c870 3abe 288c 5fbe 66a9 95bd a35d 103e
000000b0: cf39 fa3d 80da 51be 87b6 033e 2ec7 983d
000000c0: 69e3 7a3d 6ddd 493e

net.4.weight f4 [50, 50]
0.09616083 -0.09103181 -0.062134508 0.07065059 0.14701557 -0.07564583 0.041250974 0.17284496
0.009765489 0.019411603 0.13498916 0.070685275 -0.03579226 -0.13781321 -0.0490649 -0.07408801
-0.16748483 0.10450602 -0.21609916 -0.054928128 -0.11149785 -0.0326738 0.08222263 0.046779864
-0.027984811 -0.02019013 -0.0006731334 0.07570928 0.17600226 0.057540752 0.07003315 -0.078305855
0.15409374 0.045256495 -0.056510955 -0.026610732 -0.022463532 -0.03769732 -0.1455299 -0.053867765
0.1088838 0.08502076 0.0047355103 -0.08519346 -0.09913698 -0.030569356 0.015216787 -0.056587767
0.05337236 -0.13256782 0.0028605359 -0.22671339 -0.111135244 -0.033203058 0.009219355 -0.22088382
-0.15799579 0.09557898 -0.0564484 -0.03767201 0.14001974 0.043381978 0.0946761 -0.064291164
0.092755206 -0.023153728 -0.12723808 0.17139885 -0.11631254 -0.12822767 0.08038553 0.013974443
0.12949407 0.092035316 -0.0855159 0.18038957 -0.12304405 -0.04444133 0.14997831 -0.11202354
0.06953129 0.18195136 0.25276756 -0.025905693 -0.22382946 -0.15842454 0.0068266485 0.023696108
-0.10397662 -0.16504672 0.006863843 0.1248865 0.21092135 -0.16295378 -0.14995457 0.022389023
-0.20522182 -0.18707678 -0.071956515 0.0021339757 -0.14215025 0.022160053 -0.010459786 -0.041179612
-0.23646589 0.065852486 -0.20005222 0.07681095 0.029832935 -0.01098477 -0.12078195 0.17666484
-0.2429484 -0.027335055 0.18526363 0.017306058 -0.04833911 -0.050513025 0.16878527 0.15679753
-0.062008724 -0.012685257 -0.00366965 0.09379809 0.10722703 -0.043175697 0.18170242 0.07033559
-0.02749235 0.01486122 0.08954763 0.079169594 -0.1009483 -0.011357298 0.049022887 0.0304532
-0.07071825 -0.26764968 0.06530595 -0.001696702 -0.094761826 -0.15138596 -0.13510324 0.19081128
0.20670581 -0.13345316 0.13698493 0.20409177 0.12742308 0.16301389 -0.03596588 -0.07484597
-0.17051879 0.09396578 -0.036584888 -0.27655524 0.09378392 0.13321611 -0.089327596 0.01155921
0.1468266 -0.06909423 0.0042139674 -0.13729447 0.046591166 0.037567027 -0.09551449 0.20362023
-0.11596934 0.021918463 -0.008442465 0.20196912 0.10753907 -0.07879038 0.0371888 0.2888299
-0.064973705 0.010812034 0.074903816 0.022481913 0.07715976 -0.021543842 0.16741213 -0.12299926
-0.274548 -0.18816222 -0.038487215 0.20926727 -0.2072729 -0.13939705 0.17106895 0.14668213
0.09967365 -0.2929842 -0.12610203 0.08584236 -0.11503179 -0.20639142 -0.078005895 -0.0068232343
-0.07308684 -0.089423984 -0.28582302 -0.13040756 0.1680303 -0.21606186 0.105544604 0.07705045
-0.025498237 0.002043227 0.1980101 -0.16817239 0.09981648 -0.1603272 0.056858353 -0.15819445
-0.09473033 0.10512448 -0.008935629 -0.116349645 0.122294456 0.15013942 -0.019304495 -0.124007866
-0.17649823 0.28087547 -0.09853155 0.15813035 0.15592507 -0.19325604 0.056292478 0.13155933
0.19688953 -0.15607761 -0.11166247 -0.23051634 0.11090697 0.2160387 -0.17706549 -0.05742126
0.07849949 0.0092825135 0.20019348 0.0044451114 -0.16311917 -0.034442555 -0.21084747 -0.25367317
-0.16970028 0.0459267 -0.058260866 0.10586509 0.14324199 -0.045773156 0.013963227 0.20350902
00000000: f8ef c43d e36e babd c180 7ebd 42b1 903d
00000010: 408b 163e 33ec 9abd c8f6 283d 45fe 303e
00000020: 6eff 1f3c 1505 9f3c 993a 0a3e 71c3 903d
00000030: e89a 12bd e81e 0dbe 47f8 48bd 74bb 97bd
00000040: 2581 2bbe 4107 d63d 1949 5dbe 51fc 60bd
00000050: fc58 e4bd f6d4 05bd 5764 a83d 3e9c 3f3d
00000060: 6740 e5bc c665 a5bc 3875 30ba 780d 9b3d
00000070: f039 343e daaf 6b3d 8a6d 8f3d d25e a0bd
00000080: c0ca 1d3e e05e 393d 0878 67bd c0fe d9bc
00000090: 7105 b8bc 8168 1abd ca05 15be 72a4 5cbd
000000a0: 78fe de3d 5d1f ae3d 572c 9b3b e979 aebd
000000b0: 5408 cbbd 966c fabc d54f 793c 93c8 67bd
000000c0: fa9c 5a3d dcbf 07be d477 3b3b 8e27 68be
000000d0: e09a e3bd eeff 07bd c70c 173c 5e2f 62be
000000e0: a6c9 21be eabe c33d 7036 67bd f74d 1abd
000000f0: 5661 0f3e 4db1 313d 8be5 c13d 16ab 83bd
00000100: 71f6 bd3d e3ac bdbc b34a 02be 2e83 2f3e
00000110: 4535 eebd 1d4e 03be 2ba1 a43d 10f5 643c
00000120: 189a 043e 037d bc3d f622 afbd 0bb8 383e
00000130: 85fe fbbd 1d08 36bd ea93 193e 996c e5bd
00000140: 6c66 8e3d 7551 3a3e c06a 813e 2d38 d4bc
00000150: 8d33 65be 0b3a 22be 14b2 df3b 571e c23c
00000160: b2f1 d4bd 0202 29be 17ea e03b 7ec4 ff3d
00000170: c4fb 573e 5bdd 26be b18d 19be 2f69 b73c
00000180: ab25 52be 0e91 3fbe f05d 93bd 2cda 0b3b
00000190: d68f 11be 0089 b53c 865f 2bbc f4ab 28bd
000001a0: 1d24 72be abdd 863d 7dda 4cbe 0f4f 9d3d
000001b0: 3364 f43c 77f9 33bc 875c f7bd a1e7 343e
000001c0: 77c7 78be c4ed dfbc c0b5 3d3e 6fc5 8d3c
000001d0: 3bff 45bd bfe6 4ebd 0cd6 2c3e 888f 203e
000001e0: dcfc 7dbd d3d5 4fbc 837e 70bb 3719 c03d
000001f0: d899 db3d 00d9 30bd 3310 3a3e 1b0c 903d
00000200: a337 e1bc 797c 733c bf64 b73d ab23 a23d
00000210: fbbd cebd f613 3abc 39cc 483d fd78 f93c
00000220: bbd4 90bd 6109 89be 20bf 853d df63 deba
00000230: 7d12 c2bd ec04 1bbe 8158 0abe 0864 433e
00000240: b0aa 533e f2a7 08be c745 0c3e 6ffd 503e
00000250: 327b 023e 1ded 263e f550 13bd d848 99bd
00000260: 7a9c 2ebe 2271 c03d 09da 15bd a698 8dbe
00000270: c911 c03d ce69 083e 63f1 b6bd d762 3d3c
00000280: b659 163e 4781 8dbd 5215 8a3b ec96 0cbe
00000290: 61d6 3e3d e2df 193d 1a9d c3bd d281 503e
000002a0: 5581 edbd 598e b33c 4452 0abc fed0 4e3e
000002b0: 723d dc3d da5c a1bd 4853 183d 83e1 933e
000002c0: ef10 85bd f524 313c 2c67 993d fd2b b83c
000002d0: f005 9e3d b67c b0bc 166e 2b3e 09e7 fbbd
000002e0: 8e91 8cbe 99ad 40be c5a4 1dbd 294a 563e
000002f0: 593f 54be 1abe 0ebe b32c 2f3e d733 163e
00000300: b321 cc3d 0602 96be e420 01be 1fce af3d
00000310: ca95 ebbd 4658 53be 8ec1 9fbd 7095 dfbb
00000320: 8eae 95bd ec23 b7bd 6557 92be 8f89 05be
00000330: 2310 2c3e 523f 5dbe c527 d83d a0cc 9d3d
00000340: aee1 d0bc a9e7 053b 29c3 4a3e 6235 2cbe
00000350: 956c cc3d d02c 24be 4ee4 683d bafd 21be
00000360: fa01 c2bd 814b d73d bf66 12bc b948 eebd
00000370: 8475 fa3d 26be 193e 7624 9ebc d6f7 fdbd
00000380: f4bb 34be e9ce 8f3e e9ca c9bd ecec 213e
00000390: d2aa 1f3e e9e4 45be f192 663d 7db7 063e
000003a0: 699d 493e cfd2 1fbe 4baf e4bd 7a0c 6cbe
000003b0: 3223 e33d 4039 5d3e a850 35be 8e32 6bbd
000003c0: 57c4 a03d af15 183c 85ff 4c3e 4ca8 913b
000003d0: b608 27be a313 0dbd 66e8 57be 73e1 81be
000003e0: e9c5 2dbe a31d 3c3d f2a2 6ebd cccf d83d
000003f0: 07ae 123e a27c 3bbd 05c6 643c ab64 503e

net.4.bias f4 [50]
-0.1796994 -0.10267042 0.041792683 -0.12676568 -0.07986972 0.0326651 -0.19138496 0.13471445
0.011131101 -0.0912313 -0.13510999 0.057510372 0.08920135 -0.16078216 0.030639993 0.043426093
0.014729984 -0.17502752 0.1937444 0.1719366 -0.05163981 -0.0799076 -0.06935624 0.17208311
-0.04122366 -0.16606107 0.018389419 -0.028496912 -0.008538399 -0.12325461 -0.1454364 0.07830245
0.023441842 0.07865996 -0.17696452 0.1485406 0.05324603 -0.09754403 -0.13217534 0.09161108
-0.043216895 -0.022238227 -0.17860809 0.2532056 0.21662246 0.15135753 -0.037091207 -0.037794605
0.123680785 -0.0428184
00000000: 1f03 38be df44 d2bd ce2e 2b3d ddce 01be
00000010: bc92 a3bd d7cb 053d 6bfa 43be 96f2 093e
00000020: 395f 363c 7ad7 babd 465a 0abe ff8f 6b3d
00000030: 33af b63d 14a4 24be b900 fb3c 8fdf 313d
00000040: 0856 713c 6a3a 33be ef64 463e 2610 303e
00000050: 4484 53bd 99a6 a3bd a50a 8ebd 8e36 303e
00000060: 24da 28bd ea0b 2abe 68a5 963c 5b72 e9bc
00000070: a4e4 0bbc ea6c fcbd 48ed 14be 095d a03d
00000080: 1b09 c03c 7918 a13d 3036 35be 071b 183e
00000090: 8218 5a3d 2ac5 c7bd f958 07be 979e bb3d
000000a0: 3304 31bd f12c b6bc 0ae5 36be 2aa4 813e
000000b0: 47d2 5d3e 78fd 1a3e f3ec 17bd 84ce 1abd
000000c0: 5a4c fd3d 5962 2fbd

net.6.weight f4 [1, 50]
-0.07378448 -0.18350726 0.11308259 -0.15460938 -0.24358645 0.22630647 -0.1680598 0.1861906
-0.17161277 -0.23457693 -0.21807876 -0.19354 0.24800968 -0.15163848 0.18162969 0.10222066
-0.1390986 -0.20544864 0.18759935 0.13474844 0.13662344 -0.1417436 -0.17564677 0.17218462
-0.17204413 -0.13560489 -0.1267073 -0.16949312 0.19718508 -0.23101662 -0.17606033 0.19769453
0.15692231 0.24252588 -0.17401844 0.21491256 0.22241925 -0.1395371 -0.16428278 -0.10380488
-0.1380304 0.09779425 -0.17777276 0.14046983 0.20229395 0.1252796 0.15290645 -0.115166545
0.21916406 -0.16828606
00000000: 511c 97bd 54e9 3bbe d897 e73d ec51 1ebe
00000010: ba6e 79be e2bc 673e de17 2cbe c0a8 3e3e
00000020: 42bb 2fbe ef34 70be 0a50 5fbe 5a2f 46be
00000030: 40f6 7d3e 1e47 1bbe 22fd 393e 1159 d13d
00000040: dd6f 0ebe 2161 52be 0b1a 403e 7ffb 093e
00000050: 04e7 0b3e 3c25 11be bfdc 33be 2a51 303e
00000060: 562c 30be 02dc 0abe 8fbf 01be 9b8f 2dbe
00000070: e3ea 493e 9f8f 6cbe 2949 34be 6f70 4a3e
00000080: 3eb0 203e b458 783e e431 32be 0a12 5c3e
00000090: dfc1 633e d0e2 0ebe bf39 28be a797 d4bd
000000a0: d757 0dbe 5a48 c83d 100a 36be 53d7 0f3e
000000b0: 2526 4f3e 4c49 003e 8293 1c3e 70dc ebbd
000000c0: 8b6c 603e 2e53 2cbe
