pretrain_ckpt/gail/30_expert/Pendulum-v1/discriminator.ckpt (torch, 24904 bytes, 7 tensors)

net.0.weight f4 [50, 4]
000000 db ac 25 be 5e 28 97 be 3c d7 30 3e 4a 42 e9 bd
       -0.1617922 -0.29522985 0.17269605 -0.11389597
000010 4c c1 08 bf ba 9c ba be 90 9d 98 be 77 57 dd bd
       -0.5341995 -0.36447698 -0.2980771 -0.10807698
000020 67 ca dd be ba 65 91 be 80 47 5f be 9f 13 1c 3e
       -0.43318483 -0.28397924 -0.21804619 0.1524186
000030 4c 5c 3c be 9c 10 d6 3e 56 ab 08 3f a5 d1 64 3e
       -0.18394583 0.41809547 0.5338644 0.22345598
000040 00 be 0c bf f9 06 cf be 60 1e 09 bf ed de 75 be
       -0.54977417 -0.40435007 -0.53561974 -0.2401082
000050 e6 fe 34 3e 94 5e d7 be 8b dc 22 be b1 50 cf 3e
       0.17675361 -0.42064345 -0.15904443 0.4049125
000060 44 1d a4 3e 32 1d 45 3e 75 9c 21 3e 86 f1 b0 3e
       0.32053578 0.19249418 0.1578234 0.34559268
000070 fa d8 d6 3e 57 6e 99 3e f1 83 af 3e fa 14 b5 3e
       0.41962415 0.29966995 0.3428035 0.35367566
000080 34 1a d0 be ab f4 f5 3e 5f cf 9b 3e 92 47 25 3d
       -0.4064499 0.4803823 0.3043165 0.040351458
000090 c6 66 a9 3e 6a cc 06 bd f9 c9 6d 3e bf 86 32 3e
       0.33086222 -0.03290979 0.23221578 0.17434214
0000a0 62 d2 da 3e 88 66 a8 be ab 27 ff 3d 71 29 9f 3d
       0.42738634 -0.32890725 0.12458738 0.07771576
0000b0 57 f8 45 3e a5 48 b7 be a4 15 c8 be 0c f1 90 3e
       0.19333015 -0.3579761 -0.3907901 0.28308904
0000c0 12 fc 10 bf 70 83 b2 3e 75 6a fd bd 05 99 8d 3e
       -0.5663463 0.34865904 -0.12373821 0.27655807
0000d0 f4 93 93 3d e5 a0 eb 3e aa 4d 0a bf 76 73 01 3e
       0.07205954 0.4602119 -0.54024756 0.12641701
0000e0 3a 5d 02 3f 3b 37 df be 9e 08 07 3d b8 51 34 bd
       0.509235 -0.43596825 0.032967202 -0.044023246
0000f0 dd 46 5b 3e 0d 2a fe 3d 3a af c6 be 42 cf ff bd
       0.21413751 0.12410364 -0.38805562 -0.12490703
000100 2a 55 17 bf 73 0c 3d 3b 0a 2f d8 be 0e ac 64 ba
       -0.59114325 0.0028846532 -0.42223388 -0.0008723148
000110 c0 60 cd be 73 f9 ae bd 12 ab 4c 3c d9 c7 8e bd
       -0.40112877 -0.085436724 0.012491958 -0.06971712
000120 c1 cf e5 be f4 08 11 3e 55 89 2e be 94 39 19 3e
       -0.44885066 0.14163572 -0.17044576 0.1496337
000130 f4 87 33 be 4a 74 63 3e 82 dd 9a be 18 45 c2 be
       -0.17532331 0.2221233 -0.30247122 -0.3794334
000140 c4 74 61 3e d4 b3 d8 be 2a a6 4b 3e ae ed f5 3e
       0.22017199 -0.42324698 0.19887605 0.48032898
000150 58 7c 94 be df 28 e7 3d f8 39 c1 be d7 02 fa 3e
       -0.29001117 0.112870924 -0.3773954 0.48830292
000160 9a b4 f9 3e 3a 89 b8 bd d9 6c 37 3e 2f ce c7 3e
       0.487706 -0.09010549 0.17912616 0.39024493
000170 93 fd 33 be 9b 38 a3 3e 34 a8 31 bc 7b 77 00 3e
       -0.175772 0.31879124 -0.010843325 0.12545578
000180 ff 9c 08 3e 19 df 02 bf 15 da 00 bd 9e 86 21 bc
       0.1334114 -0.5112167 -0.03145798 -0.009858755
000190 1c 16 10 3f 44 24 c2 3e 6b 18 22 3e d7 23 0d 3e
       0.56283736 0.37918293 0.15829627 0.13783203
0001a0 a2 ae 93 3e a9 3d 5d 3e be df 80 3e f7 b5 12 be
       0.28844172 0.21605553 0.25170702 -0.14327227
0001b0 69 59 6b be cb b2 0b be 9b fb 09 3b 1c c9 d1 b9
       -0.22983326 -0.13642423 0.002105451 -0.00040013425
0001c0 6c d4 83 3e f7 a3 1d 3e 36 86 b8 3e ed 6d 8a 3e
       0.25748003 0.15394579 0.36039895 0.27036992
0001d0 60 b8 3c be 04 03 0e be 31 2e 93 3e 06 e0 ac be
       -0.18429708 -0.13868338 0.2874618 -0.33764666
0001e0 c8 ed 75 be 1e 3a a5 be e6 30 c7 be f6 d9 03 bf
       -0.24016488 -0.32270902 -0.38904494 -0.51504457
0001f0 05 7f 16 3f f9 b0 8a be 5f 25 01 3f de c8 bc 3d
       0.58787566 -0.27088144 0.5044765 0.09218
000200 6b 19 48 be 9a 15 89 be 4a 49 5f 3e a2 e2 e1 3c
       -0.19540946 -0.26774293 0.21805301 0.027573887
000210 8c 10 aa bd a9 4b 62 3e 5c 02 d4 3c 17 8c 4b bd
       -0.08303937 0.22099175 0.025880031 -0.049694147
000220 23 be b4 be e6 ed 48 3e d3 f0 2a 3e 27 d0 a7 be
       -0.35301313 0.19622001 0.1669343 -0.32775995
000230 9e c6 86 bd 91 4a f9 be 8f 1d dc 3e 1c 57 bb 3e
       -0.06580852 -0.48689702 0.429913 0.36589897
000240 d3 97 f1 3d 3b c4 c2 bc 5a 4c 2c 3e 73 bc bb be
       0.11796536 -0.02377521 0.16826001 -0.36667213
000250 7e b4 bd 3e b7 e1 8b be bf 59 22 be 23 7c bb 3d
       0.37051767 -0.27320644 -0.15854548 0.091545366
000260 39 33 7b be fc 64 a9 3e 0e 04 ce 3d e9 2e 5c 3d
       -0.24531259 0.33084857 0.10059367 0.053755675
000270 62 73 5f 3d 8e 7d e6 3e 5f 22 af 3d 98 18 04 3e
       0.054553397 0.45017666 0.08551478 0.12900007
000280 81 92 9e be 8d 84 63 3e d9 a6 bf 3b b2 3f 6a 3e
       -0.3097115 0.22218533 0.005848747 0.2287586
000290 04 94 ca bd 82 ed 16 be 98 06 ad be 3d 02 93 bc
       -0.09891513 -0.1473904 -0.33794093 -0.017945403
0002a0 82 34 ba 3e 19 0b 54 be 27 62 96 3e ef 43 81 bd
       0.36368185 -0.20707358 0.2937176 -0.063117854
0002b0 10 88 1a be e3 6b 0e 3f 55 c5 0a bf eb 38 54 bd
       -0.15090966 0.5563337 -0.54207355 -0.051812094
0002c0 74 ba 51 3e 84 6f 87 bd 0b ec b0 be 4a 3d ca be
       0.20481282 -0.06613067 -0.34555086 -0.39499885
0002d0 45 4f 7d 3e d6 f5 f2 3e c1 af 3e be 66 5d 5a 3e
       0.2473727 0.47453183 -0.18621732 0.21324691
0002e0 6e ab 44 be 7c 0e 65 be ac 0b b7 3e fa 05 44 3e
       -0.1920602 -0.22368807 0.35751092 0.19142905
0002f0 24 e5 6a be fe 6b 5e 3e 65 3b df 3e c9 fb 2c 3e
       -0.22938973 0.21720883 0.43600002 0.16892923
000300 b4 fe b1 be af 0f f2 be 45 b8 d9 bd 4f cf cc 3d
       -0.34764636 -0.4727759 -0.1063085 0.100004785
000310 5c 4a d7 be 51 42 45 be 0a c1 9b be 87 37 18 3e
       -0.4204892 -0.19263579 -0.30420715 0.14864932

net.0.bias f4 [50]
000000 4e 44 f1 be bd 3f 22 3e a4 fb af 3e 7d 47 42 be
       -0.47122425 0.15844627 0.34371674 -0.18972583
000010 7e d3 01 bf e0 e7 b1 be 99 58 4e be 68 a5 c4 be
       -0.50713336 -0.3474722 -0.20150985 -0.38407445
000020 09 8d 66 3e 60 c4 82 bd e2 09 b9 bd 90 3b c1 be
       0.22514738 -0.06385112 -0.09035088 -0.37740755
000030 a2 0e 53 3e 30 8f 74 3e 82 91 95 3d df af 03 3e
       0.2061105 0.23882747 0.07303144 0.12860058
000040 0b 83 b2 bd 7a ae 71 3e eb 87 c7 be 6e df 0a 3e
       -0.08716401 0.23601714 -0.38970885 0.13561794
000050 89 f8 b8 3e 8b 7e 66 be 4e 70 86 be 1d f1 e6 3e
       0.36127117 -0.2250921 -0.26257557 0.4510583
000060 74 a2 d3 bd e1 fa ae be fa 77 49 be 0c 56 e9 be
       -0.1033372 -0.3417578 -0.19674674 -0.4557346
000070 23 8b ee bd 10 98 cc 3e 2b ba d7 be 36 71 c5 3e
       -0.11647632 0.39959764 -0.42134222 0.38562936
000080 55 d3 c7 be 26 1e 03 3f 98 51 9f 3e 21 1c 3a 3d
       -0.3902842 0.5121788 0.3111694 0.045436982
000090 ad 02 8d 3c 39 41 27 3e 1e 55 e5 be 6c 88 ab 3e
       0.01721319 0.16333474 -0.44791502 0.3350252
0000a0 8a 58 de be c3 6c 22 be b0 1e 63 3d c6 40 f1 be
       -0.43426925 -0.15861802 0.055449188 -0.4711973
0000b0 5c 7a 6f 3e ca a1 43 be 2c 12 62 3d 4d 45 cf be
       0.2338652 -0.19104686 0.05519311 -0.4048256
0000c0 52 bd 94 bd ed 03 c6 be
       -0.072626725 -0.3867487

net.2.weight f4 [50, 50]
000000 9e ed bd bd d4 2b 00 be 40 ce 80 3d e0 2b 91 3d
       -0.092738375 -0.12516719 0.06289339 0.070884466
000010 b9 48 ef 3b 35 2d d6 3d 9f 9d 09 be 50 5a d1 3c
       0.0073023704 0.10457841 -0.13439034 0.02555576
000020 05 42 ed bd 52 02 5a 3d 6e 21 a2 3d b9 7d 25 bd
       -0.11584858 0.05322487 0.079165325 -0.0404031
000030 48 a8 d9 bd ab 01 29 bc 93 38 11 bd 10 41 01 bb
       -0.106278 -0.010315339 -0.035454344 -0.0019722618
000040 71 51 36 3d 9a bb 7b bd a8 b2 66 bd ad 24 18 3e
       0.044511262 -0.061458208 -0.056322724 0.1485774
000050 4e 0b 14 be 3b 6e 4d bd 14 2a b0 3d 8f 31 a4 bd
       -0.14457437 -0.050153952 0.08601776 -0.08017265
000060 7a 5f db 3d 20 a3 af bd fa 29 96 3d 00 8e da 3d
       0.1071157 -0.085760355 0.07332225 0.106716156
000070 eb ca 0c 3d 06 94 d8 bd 06 74 d4 3c c9 3a 85 3d
       0.034373205 -0.10575108 0.02593423 0.06505353
000080 7c ad 7a bd b6 62 53 bd 96 75 6e 3d 6a e7 5d 3d
       -0.061200604 -0.05160781 0.058217607 0.05417577
000090 ec 49 a8 bd bb 29 a9 bd ef d7 a3 b8 cb 30 ff bc
       -0.082172245 -0.082599126 -7.8126664e-05 -0.031151196
0000a0 48 d9 9e 3d fd a2 8b 3c 0f f3 35 bb 3e 53 a9 bd
       0.07756287 0.017045492 -0.0027763282 -0.0826783
0000b0 de 6b 07 3d 0c da 5a 3d ed aa a7 3d ed 62 06 3e
       0.033061855 0.053430602 0.081868984 0.13123675
0000c0 68 bf c2 bd 06 27 fd 3d 21 9f ba bd 03 ba 41 3c
       -0.09509164 0.12360959 -0.09112383 0.011824134
0000d0 c8 23 12 3e ac d1 8c bd 3e 2a 25 3d 11 4b 7c 3d
       0.14271462 -0.06875929 0.04032349 0.061595026
0000e0 10 a4 ff bc e7 82 d8 bc 20 7e 3c 3e 6d b7 07 be
       -0.03120616 -0.026429607 0.18407488 -0.13253565
0000f0 50 7b 13 3d a4 e2 fa 3d e3 62 02 3d 35 2e 3f be
       0.03600627 0.122502595 0.031832587 -0.1866997
000100 ee 6e 9f bd 3f b7 03 be 81 7c b9 bd 98 81 0a bc
       -0.0778483 -0.12862872 -0.0905695 -0.008453749
000110 59 ff d9 3d 73 58 b7 3d 30 b4 6d bd 14 71 0a be
       0.10644407 0.08952417 -0.05803317 -0.13519698
000120 cb cd a7 3d 7e 22 4d 3e 50 07 cb 3b 07 a5 2b be
       0.08193549 0.20032689 0.00619594 -0.16762172
000130 b0 6a d1 3d 70 72 e1 bd 60 dd 98 3b b0 db 25 3e
       0.10225427 -0.11008155 0.004665062 0.16197085
000140 9c e9 cb 3c 04 4b 9b bc 5f 2f 3e bd 1f 55 15 bd
       0.024891667 -0.018956669 -0.046431895 -0.03645813
000150 1a 20 07 3e 25 be 5f 3c c8 b6 97 bd 53 e2 0f bd
       0.1319584 0.013656174 -0.0740791 -0.03512795
000160 0d 66 a6 bd b2 b2 a8 bd 0d 2a cf bd 39 a1 ba bc
       -0.081249334 -0.082372084 -0.101154424 -0.022781955
000170 b2 b0 b0 bd 43 03 f7 bd 10 bf 8b bd 6e a6 5a 3d
       -0.08627452 -0.12061169 -0.06823552 0.053381376
000180 ed 12 db bd 45 f9 82 bd 85 8c 79 3d ac 30 76 bc
       -0.10696969 -0.06395201 0.060925025 -0.015026253
000190 fd e8 ff 3d 14 01 01 be 64 ab 11 bc 6a 8c 74 3d
       0.12495611 -0.12598068 -0.00889096 0.05970422
0001a0 4e 87 2a bb a4 a1 1c bd 94 02 11 3e e7 5e c0 3d
       -0.002602059 -0.03824009 0.1416114 0.09393101
0001b0 14 9f ff bc ea 92 2a 3e 93 62 f7 3d c5 f1 f8 bc
       -0.031203784 0.16657606 0.120793484 -0.030388722
0001c0 bf fd 38 b9 2a 77 92 3d 75 de da 3d 02 3a 1f 3e
       -0.00017642135 0.07151635 0.106869616 0.15549472
0001d0 0e 62 26 3d 8b 01 56 bd 3c 3b ac 3c 23 aa e0 3d
       0.040620856 -0.052247565 0.021024339 0.10969951
0001e0 93 9b 6b 3d 2d 8f b8 3d 48 e6 b9 bd 17 d2 4c be
       0.057521414 0.090116836 -0.09077126 -0.20002018
0001f0 37 b8 56 3e e1 cf 30 3d f9 40 c9 bb 88 37 4e 3d
       0.2096871 0.043167 -0.0061417785 0.050345927
000200 82 ee e0 3d 43 81 fc bd 36 84 dc 3d 90 22 1f 3e
       0.10982992 -0.12329342 0.10767405 0.15540528
000210 a0 0e 2f bc 02 57 47 be 2c 60 6b bd 2d b0 c1 3c
       -0.010684639 -0.19466785 -0.057464764 0.023643577
000220 8f 77 d7 3d a0 76 fc 3c c9 1c 10 3e 21 49 0f be
       0.10520851 0.030818284 0.1407348 -0.1399274
000230 1a d7 8b bd cc 59 e5 3d ad ab e0 3d 4a d0 61 38
       -0.06828137 0.11198768 0.109702446 5.3838165e-05
000240 1a d7 5e 3d b8 83 34 3c b0 f3 17 be 3e bf be bd
       0.054404356 0.011017732 -0.14839053 -0.0931382
000250 ea b9 7a bd 81 dc 76 3c 10 9f 8f bd d4 6d 11 3d
       -0.061212458 0.015067221 -0.07012761 0.03550513
000260 90 28 07 bd 50 69 35 3d de f9 0c be d4 c5 42 bd
       -0.032997668 0.044289887 -0.13767192 -0.047551945
000270 6d fa 1d 3d 92 be ec 3d bb d3 47 be 4e 01 9c 3d
       0.038568903 0.11559786 -0.19514363 0.07617436
000280 39 96 2b 3e 3a 49 86 bd 42 e3 01 be 97 1f 23 3e
       0.16756524 -0.065569356 -0.12684348 0.1593002
000290 e4 fd 13 3e d4 ff 46 bb c8 6e b7 3c 5d 0a 25 bc
       0.1445232 -0.0030364888 0.022391692 -0.010073272
0002a0 88 83 18 3d cc 22 0a bd 46 ce b2 bd 86 75 c3 3b
       0.037234813 -0.03372459 -0.0873075 0.0059649376
0002b0 d5 0b d6 3c 43 2a 0c be fc 1a 04 3e 6d 47 03 3e
       0.026128689 -0.13687997 0.12900919 0.12820216
0002c0 c3 81 35 3d eb 24 e6 3c f8 fd 4e 3c 84 08 6e 3d
       0.044313204 0.028093776 0.012633793 0.05811359
0002d0 c1 e2 0a 3e eb ca 06 3e 10 83 d0 3d cc e7 ba bd
       0.13563062 0.13163345 0.10181248 -0.09126243
0002e0 27 f8 54 3d a4 f6 ce bb 9a 34 98 bd 00 ba 90 3d
       0.05199447 -0.006316023 -0.07431908 0.07066727
0002f0 6f 7e 69 bd 7d 2f 9c 3d c3 e6 e0 3d 6e e0 0b 3e
       -0.057005342 0.07626245 0.10981514 0.13659832
000300 d7 28 f8 3d b5 b7 25 be c6 63 80 bd af 8a 09 3e
       0.121171646 -0.1618336 -0.0626903 0.1343181
000310 da 1c b9 3d 38 65 a5 bc 2d 32 da bc cd 5b e6 bc
       0.09038706 -0.020189866 -0.026635254 -0.028119946
000320 f1 41 ed 3d 72 87 dc 3d db 1d 54 bd 36 e6 85 3c
       0.11584843 0.10768022 -0.051786285 0.016345125
000330 9d dc a2 bd 14 e5 b6 3d 3e cf 99 bd 48 d7 c7 bd
       -0.07952235 0.08930412 -0.075102314 -0.097578585
000340 a7 3b 11 3d 1c 63 62 3d b9 a6 31 3d 46 65 80 bd
       0.03545728 0.0552703 0.04337189 -0.062693164
000350 59 1b ef 3d a9 85 01 be 8b 4a eb bd 5a ff b1 bd
       0.11675138 -0.12648644 -0.11488827 -0.086912826
000360 e8 2c 9c bd 5b 68 ec 3d ad 3f 78 bd e8 6f 7b bc
       -0.07625753 0.11543342 -0.0606076 -0.015346505
000370 a1 a5 b1 bc ae 89 a8 3d 63 7c 30 3b 16 40 2e 3d
       -0.021685423 0.08229385 0.002692961 0.042541586
000380 5b 31 17 be 0a aa 18 3d 82 5a 90 bd 5f 11 14 3a
       -0.14764921 0.037271537 -0.07048513 0.00056483404
000390 2e f7 ed bd 5f dd 1c 3d e0 cf ba bc 59 11 0c bd
       -0.116194114 0.038297053 -0.0228042 -0.03419623
0003a0 36 dc b3 3d 3a 8e 3d 3d 41 6f 42 3d 0b 27 b3 3d
       0.08782236 0.046278216 0.04746938 0.08747681
0003b0 8d 51 87 bc 51 6b 67 bd 37 73 4c bd 7e ad 9f bd
       -0.016518379 -0.05649883 -0.049914565 -0.07796763
0003c0 d6 46 0d 3c 12 2a ad bd e8 66 a0 bd 16 d1 87 bd
       0.008622846 -0.0845529 -0.07832128 -0.06631677
0003d0 43 c8 f6 3c fa 0c 83 3d 0d 86 04 be 65 4e 9e bd
       0.03012479 0.063989595 -0.12941761 -0.07729796
0003e0 34 5b 46 3d 60 69 56 3d f4 85 74 bd 97 d9 6d bd
       0.04842682 0.052346587 -0.05969806 -0.058068838
0003f0 d4 fd c4 bd 02 e1 a7 3d 8f dd a5 3d 40 bc 13 bc
       -0.096187264 0.08197214 0.080988996 -0.00901705

net.2.bias f4 [50]
000000 14 68 41 be bf a0 68 3e e0 b7 f1 bd ce 2f e6 3c
       -0.18887359 0.2271757 -0.118026495 0.028098967
000010 76 d5 72 3e e5 3b 52 3c 3b 8c 36 3e ff 00 64 3d
       0.23714241 0.012831663 0.17826931 0.055665012
000020 c2 d0 3a be 6b 57 13 be 1c d0 e8 3d ec 2a ce 3d
       -0.18243697 -0.14388816 0.11367819 0.100667804
000030 52 ba 3c be c6 bb 40 3e 9d 60 2b 3d dc 58 22 bc
       -0.1843045 0.1882163 0.041840184 -0.009908881
000040 8a 17 3c bd c0 3e c8 3d d8 6a c0 bd 09 9d 01 3e
       -0.045920886 0.097775936 -0.09395379 0.1265756
000050 5a 33 d1 3d 4c 12 d2 3c 1f 36 34 bd c5 3f 41 3e
       0.10214873 0.02564349 -0.043996926 0.18871982
000060 7e 8c 1c be d3 03 43 be 51 5c 8f bc b9 a5 a5 3d
       -0.15287969 -0.19044428 -0.017500075 0.0808825
000070 af 06 57 bc 83 01 36 bc 3a ec 5a 3e 4f 7f d1 bb
       -0.013124152 -0.011108759 0.21379176 -0.00639335
000080 df d7 4a 3e d9 a4 44 bd 04 d6 36 3e 61 b1 4f 3d
       0.19808911 -0.048008773 0.17855078 0.05070627
000090 54 38 63 3e b5 32 24 bd fe 70 a7 bc 43 c2 52 bd
       0.22189456 -0.04008742 -0.020439621 -0.051454794
0000a0 99 a5 30 3e 31 d3 33 be a9 47 26 3e d0 2b 48 be
       0.1725067 -0.17561032 0.16238274 -0.19547963
0000b0 1b 87 34 3d 3e 8c fe 3d e0 73 be bd 7f 99 dc bd
       0.04407416 0.12429093 -0.09299445 -0.107714646
0000c0 ab ec b3 3b a9 70 07 3e
       0.0054908595 0.1322657

net.4.weight f4 [50, 50]
000000 f2 95 98 bd 0d d4 68 3d 6a 23 15 be 69 57 a4 3d
       -0.07450475 0.056842852 -0.1456429 0.08024485
000010 6e a1 44 bc 9b f5 29 3e 7c d8 2c 3e 2c 2f 2c 3d
       -0.012001378 0.16597597 0.16879457 0.042037174
000020 ea 44 22 bd 67 29 04 3d 8c ff 17 3e 3c 10 61 3c
       -0.039616503 0.032266047 0.14843577 0.013736781
000030 36 c8 0d be 3b a3 93 3c 00 52 f2 39 f9 aa 99 3d
       -0.13845906 0.01802217 0.00046218932 0.075033136
000040 84 2d 67 3c 02 ed 01 3e a4 fa 2f be ef 02 50 3e
       0.014109973 0.12688068 -0.17185456 0.20313619
000050 a6 42 0f bc 17 3d 8a 3d 49 7c ad 3d 7f 26 1a 3e
       -0.008743918 0.06749933 0.08470971 0.15053748
000060 a1 f6 12 be ff 6a e9 bd 8f bc a2 bd fc 3f 98 3d
       -0.14351894 -0.11397361 -0.07946121 0.07434079
000070 e8 b1 e5 bd 77 54 a2 bd a4 32 82 bd fc 5e 29 be
       -0.112155735 -0.07926267 -0.06357315 -0.1654014
000080 ed f2 6c bb 1e e0 2d bc dc 49 fd bc 88 7c db bd
       -0.0036155537 -0.010612516 -0.030919008 -0.10717112
000090 f4 e3 bf 3c 8e 1e 9c bd 64 bd 95 bd 51 5c 08 3d
       0.023424126 -0.07623015 -0.07311514 0.033291165
0000a0 4d 43 31 3e 75 e0 cd bd 3b 02 b4 bc b4 e0 9e bd
       0.1731083 -0.100525774 -0.02197372 -0.077577025
0000b0 ba 81 c6 3c 0d 58 8e bd 19 36 06 be 06 52 09 be
       0.02423178 -0.06950388 -0.13106574 -0.13410196
0000c0 fe 4c 17 bd a9 51 96 bd 62 f8 d3 bc 6b 3a 40 be
       -0.03693866 -0.07339794 -0.025875274 -0.18772285
0000d0 75 8d 68 bb a4 dd 06 3e 0e 68 dd bd dc 29 14 be
       -0.0035484706 0.13170487 -0.108108625 -0.14469093
0000e0 b6 a5 d6 bd 78 ff 54 3c 99 cb 0d 3e 29 36 09 3e
       -0.104808256 0.013000362 0.13847198 0.13399567
0000f0 d2 86 e1 bd da c1 b8 bd aa f4 85 bd 99 c6 f0 bd
       -0.11012043 -0.09021349 -0.065408066 -0.117566295
000100 53 f5 9a bd 9b 3c b2 bd 7e 1a 26 3e af 1b e2 bd
       -0.07566323 -0.08702966 0.16221043 -0.110404365
000110 2b 3d 28 3d ea 31 36 be 6d 56 c2 bd 1b 3e 54 bd
       0.04107396 -0.17792478 -0.09489141 -0.05181704
000120 fe 2e e6 bd 8b ef c8 3d bd 8a 52 3e 4b 5f 19 3e
       -0.11239432 0.09811314 0.20560737 0.14977758
000130 ac 96 a6 bd 05 d0 b1 3d ab f6 a0 bd 14 23 97 bc
       -0.08134207 0.08682255 -0.07859548 -0.018449344
000140 0c ef 03 be 75 fa 54 3d d4 11 4e bd 89 20 8b bd
       -0.12884158 0.051996667 -0.05030997 -0.06793315
000150 b1 59 65 bd 0b 07 24 3e d1 07 1b be eb aa 1a be
       -0.05599374 0.16018312 -0.151397 -0.15104263
000160 ef f4 00 be 1a 2d 18 be 93 af 0b be 76 ff 06 3e
       -0.12593435 -0.14860955 -0.13641195 0.13183388
000170 59 5b 70 bd 3e 32 82 3c 02 d5 dc bd bf cd 7f bc
       -0.058680866 0.015893098 -0.107828155 -0.015613019
000180 85 4f 2a 3d ab 98 f3 3d 04 cd ba bd b3 7d 8d 3c
       0.041579742 0.118943535 -0.09121135 0.017271852
000190 8f 48 2c 3e f4 85 d8 bd d2 bb 4f 3e 36 0b 1c 3d
       0.16824554 -0.105724245 0.20286492 0.03809663
0001a0 99 49 09 be 95 00 d3 bd 20 0b 58 bd 2d 67 e2 3d
       -0.13406982 -0.103028454 -0.052744985 0.110548355
0001b0 cb d6 a8 3c ad f9 2a bd 8b fa 2d bd 94 70 df 3c
       0.020610234 -0.041742016 -0.042475265 0.027275361
0001c0 c3 71 7d 3c 2e 40 53 3c c7 9f 7c 3b 3e 8a 61 bd
       0.015469017 0.01289372 0.0038547383 -0.05506348
0001d0 45 aa fd 3b 4f 12 a5 bd 4d 9b 8f 3d 04 3f 36 be
       0.007741245 -0.08060133 0.07012043 -0.17797476
0001e0 d2 ed c7 bd 10 55 1a bb b5 6e b5 bd 9f 0f 84 3c
       -0.097621575 -0.0023549236 -0.08859006 0.01612073
0001f0 9b e9 43 3e e5 6e f9 3d 9f de a4 3d 24 b0 57 3d
       0.19132082 0.121793546 0.08050274 0.052658215
000200 d2 dc f0 3c 51 c2 82 bd 7d 29 24 3d a4 7b f5 3d
       0.02940217 -0.06384719 0.04007863 0.11986473
000210 16 7e c5 bd 88 c4 67 bd 36 64 80 3d c7 90 a9 bd
       -0.096431896 -0.05658391 0.06269114 -0.08279567
000220 92 59 c1 3c ce ef 77 3d e2 b2 0c be c8 77 b0 3d
       0.02360228 0.06053143 -0.13740113 0.086165965
000230 44 a2 4d 3d 7d 8f 26 3e 97 e0 08 3d f7 5d ae 3d
       0.050203577 0.16265674 0.03341731 0.08514016
000240 af 12 ac 3c 0c ec 0f be ff 0f 91 bd c2 ef 8e 3d
       0.021005003 -0.14054888 -0.07083129 0.06979324
000250 38 5a f3 bc 17 bf 57 3d 19 73 62 3a 3f 08 e2 bc
       -0.029706106 0.05267247 0.00086383667 -0.027591823
000260 7f 76 38 be 9a dc 21 be 4d 07 8a 3d 15 40 a7 bd
       -0.18013953 -0.15806809 0.06739674 -0.081665196
000270 16 1c 3e 3e a5 7b 65 3d b2 77 e5 3d 47 89 86 3d
       0.18565401 0.05602612 0.11204471 0.06569152
000280 72 bc 06 3e 90 3a c7 3d 6e 2a 05 be 53 e2 24 3e
       0.13157824 0.09727967 -0.13004467 0.16101961
000290 4c 78 b1 bc db 6b f9 3d 14 bb b6 bd 27 c0 bd bc
       -0.021663807 0.12178775 -0.08922401 -0.023162914
0002a0 3c d3 59 3d 00 bf b0 bd a7 1e 2d bd f8 b7 95 bd
       0.053179964 -0.0863018 -0.04226556 -0.0731048
0002b0 50 b3 4b bd fd f6 44 3d e1 cf 1b be 34 90 8d 3d
       -0.049731553 0.04808711 -0.15216018 0.0691227
0002c0 54 84 d2 bd a1 36 86 bd f0 a2 07 3e be cd a4 3b
       -0.10279146 -0.065533884 0.1324575 0.005029409
0002d0 2e 41 92 3c 6b 57 53 be 5c 0e 06 3e ff 50 2f 3e
       0.017853346 -0.20638816 0.13091415 0.17120741
0002e0 5b 39 f9 3b 99 53 98 3d ab 77 4e 3b 23 8b ea bd
       0.0076057143 0.0743782 0.0031504433 -0.114523195
0002f0 f7 76 aa 3d 35 d5 8b 3d a9 c1 1d 3e 00 49 1b be
       0.08323472 0.068277754 0.15405907 -0.15164566
000300 87 1f ad bd 4e ca dd 3c cb 9a f5 3c 33 dc b3 3d
       -0.08453279 0.027074005 0.029981038 0.08782234
000310 64 7b 58 bd a8 d7 9b bd bd 09 8e 3d ed e5 d2 bd
       -0.05285205 -0.076094925 0.06935451 -0.10297761
000320 8a b5 6b bd 4d 0b 79 3d 47 85 92 3d d9 cc 7e 38
       -0.057546176 0.060801793 0.07154327 6.07491e-05
000330 7e e2 ff bd 97 d5 1b be 0c 49 df bd 5f 5f dd bb
       -0.12494372 -0.15218197 -0.109026045 -0.006755754
000340 88 32 9e bd 2b 81 c8 bd 15 77 1b be b7 4e aa 3d
       -0.07724482 -0.09790262 -0.15182145 0.08315795
000350 be dc f3 3b d5 ef b1 bd e0 c5 f4 bd 7a 6a 09 bd
       0.007442086 -0.086883225 -0.11951804 -0.03354881
000360 a5 f9 e3 bc 95 b0 41 3c 4e 24 8b 3a bc 82 e6 bd
       -0.027829 0.011821886 0.0010615678 -0.11255404
000370 6a 6a 9a bd 86 fc c2 bd 2d f4 42 3d d4 38 81 3d
       -0.07539828 -0.09520821 0.047596145 0.06309667
000380 83 51 0f 3e 21 93 d3 3d 4c d3 d4 3c 36 fd 6d bd
       0.13995938 0.10330797 0.02597966 -0.05810281
000390 82 fa d6 bd c4 0a 8a bd 49 86 dc 3c 3b 8d 93 bd
       -0.10496999 -0.06740335 0.0269195 -0.07204672
0003a0 c1 a6 9f bd e7 34 88 bd 38 78 2a be 96 ba 93 bd
       -0.07795478 -0.06650715 -0.16647422 -0.07213323
0003b0 be dd ee 3c ca 73 3d bb 00 ed 74 3c 77 6f d4 3c
       0.02915847 -0.0028908127 0.014949083 0.025932057
0003c0 b9 21 0d be 92 68 7b 3c ae a6 0c bd 87 6d 04 3e
       -0.13782395 0.015344756 -0.034338646 0.12932406
0003d0 f9 02 bc bd 36 c1 c9 bd ac 1e 06 3d ec 31 47 3e
       -0.091802545 -0.09851305 0.032744095 0.19452637
0003e0 7f 3e 06 be 87 8c ee 3c 0b e2 8d bc 9b e3 42 be
       -0.13109778 0.029119743 -0.0173197 -0.19032137
0003f0 6a 3d 46 3e df d7 c8 3d 14 e0 33 3d ca 2f f3 bd
       0.19359365 0.09806799 0.04391487 -0.118743494

net.4.bias f4 [50]
000000 3f 5a 00 3e 46 f9 b5 bd 56 47 67 bd 43 72 87 bd
       0.12534426 -0.08885436 -0.056464516 -0.066135906
000010 95 91 cf 3c 08 4c 19 be a7 16 87 3c ef 9f a2 bd
       0.025337974 -0.1497041 0.016490294 -0.07940661
000020 a2 05 4f be 2c 39 16 3b 2d eb 48 3e b6 89 a0 bd
       -0.20216992 0.002292226 0.19620962 -0.07838766
000030 97 09 1a 3d 76 a5 ab bd c3 46 55 bc 02 04 58 be
       0.0376068 -0.083811685 -0.013017359 -0.21095279
000040 d3 84 19 3e f3 a6 8d bd b2 b6 43 3e ab 87 0a be
       0.14992075 -0.06916609 0.19112661 -0.13528316
000050 74 26 1f 3e c5 93 de bd 84 0f 73 be 48 5d 62 3e
       0.15542012 -0.108680286 -0.23736387 0.22105896
000060 9d 20 60 bd 3b 1b 94 3a cc d0 15 3e 3b fc 39 3e
       -0.054718602 0.0011299619 0.14630431 0.18162625
000070 f7 f0 a6 3c 9f 77 30 3e b9 df 0b 3e bf de d0 bd
       0.020378573 0.17233132 0.13659562 -0.101987354
000080 b7 2a bb 3b 05 a6 2a 3e 98 14 52 3e e2 79 97 3d
       0.005711879 0.16664894 0.20515668 0.07396294
000090 92 dd 48 3d fd f5 ee bd 00 12 33 3e 07 95 25 3d
       0.04903943 -0.11668012 0.17487335 0.040425327
0000a0 da 7f 16 3e a0 f3 07 be 1f ff 18 3e d3 e0 41 be
       0.14697209 -0.1327653 0.14941071 -0.1893342
0000b0 d6 12 a4 bc 39 81 65 bd 09 25 5b 3e fd 14 28 3e
       -0.020028513 -0.05603144 0.21400847 0.16414256
0000c0 6a 50 58 be bd b3 db bd
       -0.21124426 -0.10727642

net.6.weight f4 [1, 50]
000000 52 0b c0 3d 4d 89 52 be 25 51 cb bd b8 3f a4 3d
       0.09377159 -0.20560189 -0.099275865 0.08019966
000010 30 bc 1e be 1f 1a ca bd 59 b1 d2 3d 8a ca b3 bd
       -0.15501475 -0.098682635 0.10287733 -0.08778866
000020 7c ac 23 be 69 c0 c9 3c c0 ba 59 3d 31 83 b6 bd
       -0.15983766 0.024627881 0.053156614 -0.089117415
000030 24 d1 85 bd c1 1a 16 be 6f a8 de 3d 54 b7 48 be
       -0.06534031 -0.14658643 0.1087197 -0.19601184
000040 1d 59 09 3e c3 54 36 be fb 65 d8 3d 63 d9 36 be
       0.134129 -0.17805772 0.10566326 -0.17856364
000050 c0 0f eb 3d 14 50 22 be 98 27 b4 bd 21 53 01 3e
       0.114776134 -0.1585086 -0.087966144 0.12629367
000060 b9 dc e5 bd 7d 29 df 3d 8b 09 3a 3e 2d 7b 58 3e
       -0.1122374 0.10896585 0.18167703 0.21140738
000070 60 da 07 3e fb 40 5c 3e d1 23 54 3e cc 75 26 be
       0.13266897 0.21509163 0.20716788 -0.16255873
000080 cb 76 9f bd 4f 76 ce 3d 73 e0 21 3e d8 22 c0 3c
       -0.0778633 0.10081159 0.15808277 0.023454115
000090 74 c0 58 3e c3 be 10 be 6b f2 c7 3d 6b cc 3e 3e
       0.21167165 -0.1413527 0.097630344 0.18632667
0000a0 64 77 2a 3e 2f 70 d2 bd d6 bc 63 3e 02 04 48 be
       0.16647106 -0.102753036 0.22240004 -0.19532779
0000b0 50 ad ba 3d 69 43 2f be 75 5f 82 3d c8 30 aa 3d
       0.09115088 -0.17115559 0.06365863 0.083100855
0000c0 e2 8f 40 be d8 88 08 be
       -0.18804887 -0.13333452
