bc/outputs/Pendulum/bc_Pendulum-v1_30data_10000epochs/model.pth (torch, 24738 bytes, 7 tensors)

net.0.weight f4 [50, 3]
000000 e7 19 e3 be 53 61 66 3f 38 48 0e 3f 62 76 c0 be
       -0.443557 0.89992255 0.5557895 -0.3759032
000010 3d 90 3a 3f 53 0c c8 3e 7f 90 6c 3e c2 59 57 3f
       0.7287634 0.39071903 0.23101996 0.84121335
000020 eb 35 91 bf ea b9 7b 3e 5d 48 72 3f 9a 00 1c 3f
       -1.134458 0.2458264 0.9464167 0.6093842
000030 61 a3 66 be f3 54 77 bf b9 50 4c 3f ae 5f 49 3e
       -0.22523262 -0.96614 0.79810673 0.19665405
000040 01 ea 80 3f 2c e5 71 3a 4f de 9f bd 81 44 82 3f
       1.0071412 0.00092275697 -0.07806074 1.0177156
000050 dc d0 b3 be c8 38 31 be c6 65 19 3e f1 69 88 3f
       -0.35120285 -0.17306817 0.1498023 1.0657331
000060 36 e7 cd 3e 3a 42 4b bf c9 f0 2d be cc 2e 94 3d
       0.40215462 -0.7939793 -0.16986383 0.07235488
000070 67 f0 62 bf d7 53 9d be 39 ff df 3e 72 6c 3b bf
       -0.88648075 -0.30728027 0.43749407 -0.7321235
000080 74 e9 d6 3e be 25 a2 3e 20 de 36 3f b8 89 1d 3f
       0.41974986 0.3166942 0.71432686 0.6153827
000090 3d 61 d4 3e 6a db 59 3f 65 c3 d7 be 45 09 ec be
       0.41480437 0.85100424 -0.42141262 -0.46100822
0000a0 7f 10 7b bd 80 30 4b bf fb bc 7c be 31 39 e3 bd
       -0.06129503 -0.7937088 -0.24681465 -0.11094893
0000b0 cf 0e 94 bf f4 cd 5a 3e e6 be 6b bf c7 6a d1 3e
       -1.1567019 0.21367627 -0.9208816 0.40901777
0000c0 36 97 c9 be 71 16 ad be dd b9 5f 3e ca 06 66 3e
       -0.39373177 -0.33806184 0.21848245 0.22463527
0000d0 7c 7f 82 bf d5 28 a6 be dd d4 c9 be 7d 7a 93 3f
       -1.0195155 -0.32453027 -0.39420214 1.1521755
0000e0 a8 f3 42 3f 6f 66 e6 3e 4d 7c 1e bf 4d 12 05 3e
       0.7615304 0.45000026 -0.6190842 0.12995262
0000f0 5a e1 b1 3e ea 2e 2b 3f 8b 2f b5 be d9 61 c4 be
       0.34742242 0.6686846 -0.35387835 -0.38355902
000100 02 a2 54 3f d1 7c 0a 3f 67 bf 9f 3d 0e 45 83 3e
       0.83059704 0.54096705 0.07800179 0.25638622
000110 b1 75 4f 3f 24 f9 32 3d 4c 18 65 bf 96 93 34 3f
       0.8103896 0.04369463 -0.894902 0.705377
000120 b5 34 8b 3d 51 4f 01 bf 4b d5 5b bf 7e 13 98 be
       0.067971624 -0.5051165 -0.85872334 -0.2970237
000130 56 1d 3a bf 34 3d a3 be eb 87 3c be 36 cb 87 3f
       -0.72701013 -0.31882632 -0.18411224 1.060889
000140 09 52 39 3e 57 53 dd 3d 48 c3 9b be bd d9 96 bf
       0.180977 0.108069114 -0.30422425 -1.1785198
000150 ff e4 00 3e a4 f5 86 3f 2b 3f 27 3f 12 04 eb 3c
       0.12587355 1.0543714 0.6533076 0.028688464
000160 0a e3 49 3f 8b ce 2f 3f ed 01 69 3e 53 c0 5a 3f
       0.7886206 0.68674535 0.22754641 0.85449713
000170 47 f7 1a bf 40 89 79 3e e8 6b 09 3d db 81 2b bf
       -0.60533565 0.24368763 0.033550173 -0.6699502
000180 dd aa ed 3e ee a3 82 bf cd 47 58 bf 49 4f d5 be
       0.4641942 -1.0206277 -0.8448456 -0.41662052
000190 64 76 24 3f 72 a6 12 bf db 5b cf be 86 fb fb be
       0.6424315 -0.57285225 -0.40499768 -0.49215335
0001a0 99 a2 56 bf 4b 90 4a be 27 1d 88 bf 77 bb 71 3f
       -0.83841854 -0.19781606 -1.0633897 0.94426674
0001b0 10 48 aa be d0 ca 1d 3f 9b f5 2c 3e 9e 56 d9 be
       -0.33258104 0.6163759 0.16890566 -0.42448896
0001c0 b9 8b 26 bf bb c1 4d bf 48 58 1b bd 32 f2 6d 3e
       -0.6505695 -0.80373734 -0.03792599 0.23236921
0001d0 bf 79 95 3f ce fe 22 bd 03 5c 05 3f e6 d8 40 3f
       1.1677779 -0.039793782 0.52093524 0.7533096
0001e0 a9 c6 c3 3e ec ed 61 3d 83 1c 87 3f dc e5 fb 3e
       0.38237503 0.05515854 1.0555576 0.49198806
0001f0 fa 0a 7e bf 17 1f 0c bf a4 6d c2 be f7 40 17 3f
       -0.992355 -0.5473494 -0.37974274 0.59083503
000200 20 7e 4b bf 06 33 e4 be a8 eb 21 3f 93 a8 e3 3e
       -0.79489326 -0.44570178 0.6325021 0.4446455
000210 a9 33 8b be b7 d8 4d bf 89 2d 81 bf 7d 80 9a 3e
       -0.2718785 -0.80408806 -1.0092021 0.30176154
000220 45 f1 e6 be 27 d6 37 bf 83 fc 02 bf 24 ab 19 3d
       -0.4510595 -0.71811146 -0.5116655 0.037516728
000230 7f 61 54 bf 4e 8d c9 3d 63 ad 7d 3f 92 f0 ea be
       -0.8296127 0.09841405 0.9909269 -0.45886666
000240 59 f9 08 3e de 02 1b bf 33 4e e5 be d9 68 bf 3e
       0.13376369 -0.6055125 -0.44786224 0.3738468
000250 6c 0c 24 bf 65 25 7f 3f
       -0.64081454 0.99666435

net.0.bias f4 [50]
000000 2f 8c f7 3e 12 c7 ca 3e 60 b2 9a 3d 24 f4 69 be
       0.4834914 0.39605004 0.075535536 -0.22847039
000010 39 7f 66 bd 2d fe b0 be 03 64 05 3e 95 c5 52 bd
       -0.056273673 -0.3456892 0.13026433 -0.05145796
000020 06 23 af be b9 b6 d8 bd 5d f3 9b be 7c 2f a4 3e
       -0.34206408 -0.105817266 -0.3045911 0.32067478
000030 1b 0a 73 3e 44 00 db bd fd 4f 9c 3e e5 0c 03 bf
       0.23734324 -0.1069341 0.30529776 -0.5119155
000040 1d 9e 22 bf 49 a1 a8 3d 5d 62 be be 8d ca 08 3c
       -0.6352251 0.08233888 -0.3718442 0.008349073
000050 59 df cb be e4 4a 2f be 5f 68 e4 3e 87 8c 2d be
       -0.39818838 -0.17118412 0.4461088 -0.16948138
000060 a7 63 ef bd a8 d4 ac 3e 4f 1a 0f be 4c fc 9c be
       -0.11688929 0.33755994 -0.1397488 -0.30661237
000070 e6 04 9a be b3 2e 8f be e4 b4 9a be 22 ad ae be
       -0.30081862 -0.27965316 -0.30216134 -0.34116465
000080 84 29 ad be 8e 0b c3 3d 77 bd 8b 3e 9c 3d 87 3e
       -0.33820736 0.09523688 0.27292988 0.26414192
000090 48 62 6a be a3 24 07 3f 69 7b 2e be 74 f7 fa bd
       -0.22889054 0.5279028 -0.17039265 -0.12254229
0000a0 fe 14 a6 be 05 10 b1 be d4 a2 9f 3d 6e 5b b8 3c
       -0.3243789 -0.34582534 0.07794729 0.022504535
0000b0 f8 b6 ec 3e 83 72 ff be ab 34 8c 3a b9 4b 94 3c
       0.46233344 -0.49892053 0.0010696849 0.018102514
0000c0 d7 56 31 3e a8 82 88 3e
       0.17318283 0.26662183

net.2.weight f4 [50, 50]
000000 dc 2e c8 be 0d 49 01 bf 67 90 55 be f4 bc bc be
       -0.3909825 -0.5050209 -0.20855866 -0.3686291
000010 20 6e e9 3d eb 0f a4 be ad b1 b8 be 9e 5e 19 3c
       0.11397958 -0.32043394 -0.36073056 0.009360937
000020 2c 82 16 3f 4f 0a 94 3e 51 0e 3a 3e f5 38 fe 3c
       0.58792377 0.28914115 0.18169524 0.031033019
000030 e4 fd fd bd 90 06 c1 3d 36 02 26 3e 57 32 a4 3e
       -0.124019414 0.0942508 0.16211781 0.32069656
000040 67 0b 36 3c 55 30 9b 3e cf 77 47 be 7e 04 67 3e
       0.011111117 0.30310312 -0.19479297 0.22560307
000050 49 9b b2 be ca 02 50 be 8d 09 2a 3d a7 d3 97 3e
       -0.34884098 -0.20313564 0.041513015 0.29653665
000060 e5 4e a1 3e 58 8e 02 3f ca 1d fc be 3f 13 98 3d
       0.31505504 0.5099845 -0.49241477 0.07425546
000070 01 fc 18 bf 3f a5 02 bf 7c 54 a1 be 68 7c 06 be
       -0.5975953 -0.51033396 -0.3150977 -0.13133395
000080 8f 9a f5 3e c5 da 5d ba c7 41 7d 3e cf a1 a0 3e
       0.4796948 -0.000846308 0.24732123 0.3137345
000090 8f 78 4b be 81 c6 5f 3e 34 fe 26 be 12 e7 da be
       -0.19870208 0.21853067 -0.16307908 -0.42754418
0000a0 bb ad 72 3d a8 42 d1 3e a3 17 e2 bd 2c 36 cb bd
       0.059247714 0.40871167 -0.110396646 -0.09922442
0000b0 01 52 cb 3e c9 3c 30 3e c5 dc 00 bc 6e 81 6e be
       0.39711002 0.17210688 -0.007865136 -0.23291561
0000c0 60 cc 61 3e 4c 49 14 3e 14 05 94 3e 3f 49 cc 3e
       0.22050619 0.14481086 0.28910124 0.39899632
0000d0 68 9e 18 bd e8 6f c0 3e 10 01 22 be 58 fb 8d 3e
       -0.037260443 0.37585378 -0.15820718 0.27730823
0000e0 a5 73 cf 3d a8 4c 1a 3e 71 a0 df be 13 05 d4 be
       0.10129479 0.15068305 -0.43677095 -0.4141012
0000f0 f4 e1 0c be a0 8b 03 3d 29 4a b8 3c 35 c3 d1 bc
       -0.1375807 0.03211558 0.0224963 -0.025605777
000100 84 f4 ce bd 05 0e 3a be d7 2d a3 bd aa f8 8e be
       -0.101052314 -0.1816941 -0.07967728 -0.2792409
000110 d8 cb b1 3d 4c 03 4a be d5 d9 71 3e fb be 80 3d
       0.08681458 -0.1972782 0.23618253 0.06286427
000120 e8 c7 16 3e 9a 19 15 3d c5 5f 68 be c7 1e dc be
       0.14724696 0.03640137 -0.22692783 -0.4299223
000130 f9 55 a7 3e b2 99 47 be 7e 00 61 3e f5 04 c9 3e
       0.3268278 -0.19492224 0.21972844 0.39261594
000140 3d 03 6a 3e d0 f1 39 bd ee 49 8c be 01 2b 07 3e
       0.22852798 -0.045396626 -0.27400154 0.13199998
000150 1e b4 2e be 45 d6 8e bd 0a 04 8e 3d dd ca 93 be
       -0.17060897 -0.069744624 0.06934364 -0.2886571
000160 1e 50 3c 3e 38 3d 9c 3e 2b 46 94 3d 16 02 c8 be
       0.18389937 0.30515456 0.07239946 -0.3906409
000170 de cf 38 3e c7 55 53 3e 04 28 dd be 4e 06 96 be
       0.18048045 0.2063819 -0.43194592 -0.29301685
000180 ef bc fe bd ff 54 a0 3d ad 90 d3 be 29 22 1f be
       -0.1243838 0.07828712 -0.41321316 -0.15540375
000190 6b b0 87 be cd 2c b1 be cc f1 11 3e 9c 6a 6b be
       -0.26501784 -0.34604493 0.14252394 -0.22989887
0001a0 20 2d c4 bb 2c 9d 66 bd 37 55 66 be ec 84 97 be
       -0.0059868246 -0.056302235 -0.22493444 -0.295936
0001b0 b2 7c 8a 3e 3b 90 96 3e b0 c5 f7 3d 22 70 5a be
       0.2704826 0.29406914 0.12098253 -0.21331838
0001c0 05 d2 51 3c ac bd 23 3e f9 d1 92 3e 55 27 15 bd
       0.01280642 0.15990323 0.2867582 -0.036414463
0001d0 e8 89 03 be 2b 9f 87 3d 97 8c 16 be df b1 81 3e
       -0.12845576 0.06622156 -0.14702068 0.25331017
0001e0 34 35 d2 bd f2 59 29 be 1a 39 40 3d 42 6b 4d 3d
       -0.10264054 -0.16538218 0.046929456 0.050151117
0001f0 d2 11 5a 3e 2d 70 9f 3e a1 19 1f be 15 f0 57 3e
       0.2129586 0.3114027 -0.1553712 0.21087678
000200 c8 27 cd bd 25 48 9c be 99 f7 89 bd ff a2 5e 3e
       -0.10017353 -0.30523792 -0.06736679 0.21741866
000210 d7 fa 26 3e a1 f2 bf 3d 9a 1c 96 3e 0d 22 98 3d
       0.16306625 0.0937245 0.29318696 0.0742837
000220 b6 1c 2c be ae 36 bd 3d e5 20 a7 be 5a 03 c3 be
       -0.16807827 0.09238945 -0.32642284 -0.38088495
000230 22 a1 56 be 8c 60 a6 3e eb 06 28 3d 0e ef 34 be
       -0.20959905 0.32495534 0.041022222 -0.17669317
000240 94 5e 85 3e 7c ac 0a 3e 51 a8 0d bd 87 50 93 bd
       0.2604872 0.1354236 -0.034584347 -0.07193094
000250 e2 84 01 3e 02 43 04 3e 42 ac 2c 3f fd c8 10 3f
       0.12648347 0.12916186 0.67450345 0.56556684
000260 f4 a2 ea 3d 1a 8a e8 3e dd 59 cd bd 28 26 ed 3e
       0.11456862 0.45417863 -0.10026906 0.46318173
000270 14 8a 61 3e b7 85 eb 3d 4b 9b ef be 6c 64 a4 be
       0.22025329 0.115001135 -0.46798167 -0.32107866
000280 ab e8 aa be 8d aa d9 38 39 8a 0e bc f3 cc de 3d
       -0.33380637 0.00010379134 -0.008699947 0.10878935
000290 27 f8 0b be 1a 71 80 be 09 22 c9 bc 63 87 e9 be
       -0.13668881 -0.2508629 -0.024552362 -0.45611104
0002a0 71 2f 00 3e b1 42 59 be b3 3d bb 3e 61 ee 0f 3e
       0.12518097 -0.21216847 0.3657051 0.14055778
0002b0 2e 8a 56 3d 40 46 d2 be bc d2 ab be 60 9f 07 bf
       0.052377872 -0.41069221 -0.33559215 -0.5297756
0002c0 01 af 9b 3e f3 bd 52 be 34 13 ec 3e 86 dc 25 3f
       0.30406955 -0.20580272 0.461084 0.6478962
0002d0 f2 ec 99 3e 1c 5b 97 3d a8 58 d8 be 58 7a 04 3e
       0.30063587 0.073904246 -0.4225514 0.12937295
0002e0 3f 29 13 be f8 26 4c be 6a 50 87 3e 67 bc e0 be
       -0.14371203 -0.1993674 0.2642854 -0.4389374
0002f0 4d 8d b0 3d e0 bd 07 3f c4 07 53 3d 81 46 1f bf
       0.08620701 0.530241 0.051521078 -0.62216955
000300 9b ea 68 3d 2d 00 8b 3e 70 10 f2 be fb fd 8b be
       0.056864362 0.27148572 -0.47278166 -0.2734221
000310 e1 2f 6e 3a fd 82 d3 3e 00 8f c9 be b8 c8 6b be
       0.0009086114 0.41310874 -0.39366913 -0.23025787
000320 9b 70 80 3e 53 d1 b4 3e 3f db a8 3d 82 41 46 3e
       0.2508591 0.35315952 0.08244943 0.19360927
000330 fe e7 41 be 89 b0 24 3e 6f ae 54 3d f6 7e 1f 3e
       -0.18936154 0.16082968 0.051924165 0.15575776
000340 fc 94 17 be 83 8f 83 bd 78 5a e9 bd d7 4b 38 3e
       -0.14802927 -0.06423857 -0.11394209 0.1799768
000350 79 91 95 3e 1a 2b 8e be 9e ca c0 bd 4c 75 40 be
       0.2921255 -0.2776726 -0.09413646 -0.18794745
000360 75 2a 84 be 7d f9 0c bd 7e d7 1b be dd 61 e1 bc
       -0.25813642 -0.034417618 -0.15218922 -0.027512485
000370 4f 1b 31 bd 6e 05 a7 3d 28 e7 7d 3e 08 c1 9a 3d
       -0.043238934 0.081553325 0.2479521 0.07556349
000380 2d 65 77 be 5f 71 5d be 32 04 2a 3e 1e f7 2d be
       -0.24159689 -0.21625279 0.16603163 -0.16988799
000390 df 78 87 3d a3 d2 87 3e 1e 4b 22 3d e1 14 85 bd
       0.06614851 0.2652789 0.03962242 -0.06498123
0003a0 5f b2 5f bd cf 78 d1 3c 08 52 a6 be 97 de 2b bc
       -0.054613467 0.025570301 -0.3248446 -0.010490081
0003b0 0a 5f 0e bd 36 7f 98 be c9 be 51 3e a0 4d 99 3e
       -0.034758605 -0.29784554 0.20482935 0.29942036
0003c0 d1 3e 91 3e a7 2f fa bd 04 ff 18 be f9 46 ad 3d
       0.28368238 -0.1221612 -0.1494103 0.084608026
0003d0 a9 ae 1c bc ed 38 93 be 64 37 d3 bd 97 89 bc b7
       -0.009563127 -0.28754368 -0.10313299 -2.2475417e-05
0003e0 d0 9c 24 bd 9a c5 07 3e 2e fc d7 3e 22 00 e1 3e
       -0.04018861 0.13258973 0.42184585 0.43945414
0003f0 aa e6 28 3c e1 2e 6c 3e 9d 67 dc bd 31 39 e6 3d
       0.010308901 0.23064758 -0.1076195 0.11241377

net.2.bias f4 [50]
000000 c9 ae 3a 3d b1 92 1e be 63 97 80 bd 74 78 43 bd
       0.045576844 -0.15485646 -0.06278875 -0.047722295
000010 4d 83 d9 3c 44 6e 8a 3e 71 21 63 3e 8d f4 69 bb
       0.026551867 0.2703725 0.22180726 -0.0035698742
000020 c6 aa fa 3c 30 88 c7 bd ce 39 a6 3d c4 8c 91 bd
       0.03059901 -0.097427726 0.08116494 -0.07106927
000030 96 a4 37 bd 8c ce 03 bd e7 71 4c 3d 2a a8 5c bd
       -0.044834696 -0.0321794 0.049913313 -0.05387131
000040 20 c7 63 3d 4d fb a4 bd 97 50 23 be 68 ff dd bc
       0.055609822 -0.08055744 -0.15948711 -0.027099326
000050 23 1b 7c bd 23 78 84 be 44 02 0b be f8 e3 9b bd
       -0.061549317 -0.25872907 -0.13575083 -0.07611841
000060 6d ec 07 be 6a 3b 8b bc 41 f7 b3 3d f7 f1 fd 3c
       -0.13273783 -0.016996104 0.08787394 0.030999167
000070 6a 77 98 3d 8e 69 c7 3b fc db 11 3e 71 17 ab bc
       0.074446514 0.006085581 0.14244074 -0.020885201
000080 95 10 3b be ad 35 7a 3e c6 38 91 3b e9 b9 7b be
       -0.18268044 0.24434538 0.0044318167 -0.24582638
000090 0f 44 87 bd 42 e2 04 3e 5a d3 b4 3c 66 96 46 bd
       -0.06604778 0.12976936 0.022073437 -0.048483275
0000a0 13 b2 81 bd 6c 3a 84 3c 89 df c5 bb 97 20 20 3e
       -0.06332793 0.016141139 -0.0060386104 0.15637432
0000b0 39 e2 b7 3c 6d cd 94 be 01 ad 4e 3e cb 8d ef bc
       0.022446739 -0.29062977 0.20183183 -0.029242417
0000c0 ec a8 0f bf 8c 76 ec bd
       -0.5611713 -0.115460485

net.4.weight f4 [50, 50]
000000 4f 45 9e 3e c0 e2 11 be ca 28 b8 3c 41 a5 0c bf
       0.30912253 -0.14246655 0.022480387 -0.5493966
000010 35 0c 90 3c 03 ff 69 3e 76 9e ae bd 39 ae 3e bc
       0.017583946 0.22851186 -0.08526318 -0.011638218
000020 cb f7 6e be 1d 48 1b be 8b 20 0e be 95 6e 8e 3d
       -0.23336713 -0.15164228 -0.13879602 0.069546856
000030 08 0e 21 be 8e d9 13 3d 7b a1 ce 3e 63 61 13 3e
       -0.15728009 0.03609615 0.40357575 0.14392619
000040 37 e1 9f 3e 5a 15 43 be 6b 93 fb 3d 69 77 1d bf
       0.31226513 -0.19051114 0.12283977 -0.6151033
000050 80 44 a0 bd 45 56 7e 3e 85 23 e2 3d bc be 80 3e
       -0.07825565 0.24837597 0.11041931 0.2514552
000060 16 d0 49 be fc ab c2 be c9 d3 86 3d c2 02 0d bd
       -0.19708285 -0.3802184 0.065833636 -0.03442646
000070 96 76 39 3d b8 42 1c 3e ed a0 0f 3d e9 68 19 be
       0.045279108 0.15259826 0.03506558 -0.14981426
000080 29 b8 d4 bd 70 bf 61 bb f1 be 90 3d ce 27 9c bd
       -0.10386688 -0.003444638 0.07067669 -0.0762478
000090 36 26 72 3d 18 05 76 3e d3 b1 50 bd 63 33 fb 3d
       0.059118472 0.2402538 -0.050950836 0.122656606
0000a0 68 b0 6e bd 46 84 c6 bd db 1d 57 be 99 96 79 bd
       -0.058273703 -0.09693198 -0.21007483 -0.060934637
0000b0 d4 a5 89 3d 33 39 ab 3d b5 6e bb bd c6 92 97 3c
       0.06721082 0.08360519 -0.09151975 0.018502604
0000c0 95 64 b0 be 0c 9d 89 bd ce 1e a0 be 17 cf 3a 3e
       -0.34451738 -0.067194074 -0.31273502 0.18243061
0000d0 e4 fd 8d be 8f be ea 3e e1 99 3d 3e 44 73 b6 3e
       -0.27732766 0.4584851 0.18515731 0.35634816
0000e0 ac 91 3c ba 3d 6a 8d 3e 4b 93 78 3e 8c 9d 4a 3f
       -0.00071933377 0.27620116 0.24274938 0.7914665
0000f0 0d 1d 44 3e ca 13 87 be 84 e4 8c 3e e2 b8 67 3e
       0.19151707 -0.26382285 0.27518094 0.22629121
000100 ea df 0e bf 7f c2 04 bc 82 5b 02 bf c5 3d e6 3d
       -0.55810416 -0.008103012 -0.5092088 0.1124225
000110 dd 0a e9 bd 15 14 fd 3e 78 c0 b7 be 84 c5 a1 3d
       -0.11379025 0.49429384 -0.3588903 0.07899001
000120 5b 64 52 bd ff 99 ae be 3a 70 61 be 2b 91 b5 3e
       -0.051365238 -0.34101865 -0.22015467 0.35462317
000130 89 77 0b bf 37 6b eb 3e 87 6a 8c 3e c2 82 95 3c
       -0.5447927 0.45980236 0.27425024 0.018250827
000140 ce 35 b3 3e 37 47 aa 3e c5 c4 9b be c2 af b9 3d
       0.35001987 0.33257458 -0.3042356 0.09066726
000150 0d dc b3 be e0 14 48 bd 85 92 57 be 36 c8 7e be
       -0.35128823 -0.048848033 -0.21051987 -0.24881062
000160 73 f2 c0 3e 2d c0 cf bd 93 ad 16 3f fd b5 03 3f
       0.37684974 -0.101440765 0.58858603 0.5144957
000170 15 02 8e 3c 4f 37 01 bd 32 30 78 be 3f f2 4e be
       0.017334977 -0.031546887 -0.24237135 -0.20209597
000180 1b a1 92 3e 98 74 65 3c 4a 46 85 bc 05 25 94 3e
       0.2863854 0.014004849 -0.016268868 0.28934494
000190 4e 17 67 bc fe a7 17 3c 49 2a 39 3d be d0 74 bc
       -0.014104677 0.009256361 0.045206342 -0.014942346
0001a0 eb 53 14 be 38 92 7d be d6 11 1d 3e 28 5f d4 3d
       -0.14485137 -0.2476281 0.15338835 0.10369712
0001b0 e2 ee 13 3e 93 33 4d bf ca 85 70 3d 66 a2 36 be
       0.14446595 -0.8015682 0.05872134 -0.17835388
0001c0 7b 0d 30 3e ee e8 97 3c aa 97 d4 3e 7f 3b 69 be
       0.17192642 0.018543687 0.4152196 -0.22776602
0001d0 23 b6 16 3e 8a 8a e7 3d d1 c2 b4 be 1b 43 66 bd
       0.14717917 0.11305721 -0.35304883 -0.05621634
0001e0 54 75 57 3e ec 6f d7 be 2d 55 db be b2 5a 95 3d
       0.21040851 -0.42077577 -0.4283842 0.072926894
0001f0 5b 7f f1 3c 58 8e f0 bd 5b c8 2b 3e 24 db 5c bf
       0.029479673 -0.117459 0.16775648 -0.8627188
000200 69 a5 4f be e9 99 9c be d0 86 56 be 7e 67 75 bf
       -0.20277943 -0.30586174 -0.20949864 -0.9586104
000210 4c 23 e7 3d 6a ea 6f bd 74 46 bd 3e 94 f4 e6 be
       0.11286029 -0.058573164 0.36967814 -0.45108473
000220 00 13 c8 bd f9 03 a9 3e c5 d6 00 3e 5a 8d b9 bc
       -0.09769249 0.33010843 0.12581928 -0.02265041
000230 7e 45 7f bf cd ea d4 bd 78 be 31 3d 0f 22 8e 3e
       -0.9971541 -0.10396347 0.043394536 0.2776036
000240 43 a3 63 3f b6 70 92 3e 10 e4 bf be 65 bd c7 be
       0.8892099 0.28601617 -0.37478685 -0.39011684
000250 ba 41 fd 3e f9 49 c9 3c 71 19 ae be df dc 7d 3e
       0.49464208 0.024571406 -0.34003785 0.24791287
000260 ef 94 91 be 03 08 c4 3e 68 1d 15 bd a9 46 5e bd
       -0.2843394 0.38287362 -0.036404997 -0.054266606
000270 fe b6 49 be 63 ba 86 3e 53 30 7f 3e e8 00 a6 3e
       -0.19698712 0.26314077 0.24920778 0.32422566
000280 a7 b1 3d 3d 12 81 28 bd 4c 42 8b 3e 0d bd 0c 3d
       0.046312 -0.041138716 0.27199018 0.03435998
000290 35 81 34 bf f8 d4 7e be f3 93 c4 be 55 ef be 3e
       -0.70509654 -0.24885929 -0.38394126 0.3729197
0002a0 55 a0 20 3e 5c 2c 59 3f 6c a7 a7 3c 0b 35 9f 3e
       0.15686162 0.8483331 0.020465575 0.31095156
0002b0 e2 7b c6 3e 9d bc 60 be 35 7e 5a 3e 7d 53 94 3e
       0.3876639 -0.2194695 0.21337207 0.28969947
0002c0 b7 f5 36 bf 51 e3 68 3e aa aa ba 3d dc 60 3a bd
       -0.7146868 0.22742964 0.09114583 -0.04550253
0002d0 17 b7 91 3d f2 90 12 3d d8 99 0c bc fa eb 37 bd
       0.07115 0.035782762 -0.008581601 -0.04490278
0002e0 85 49 24 be b6 94 28 3e dd 6e f1 bd 7a 90 78 be
       -0.1604367 0.16462979 -0.117887236 -0.24273863
0002f0 87 5e 66 3d 0a a8 8c 3e c7 d5 86 3e ff 17 ee 3e
       0.056242492 0.27471954 0.26334974 0.46502683
000300 58 20 08 3e 1c f0 2b be 60 8e 92 be 98 60 08 be
       0.13293588 -0.16790813 -0.28624249 -0.13318098
000310 31 b7 a9 3d 8d 7e 80 3e b9 fb 7d 3e 73 b4 3e 3e
       0.08286894 0.2509655 0.24803056 0.18623523
000320 da b7 83 3e ec bf 75 be 14 13 f5 3c 64 e7 d1 be
       0.25726205 -0.23998994 0.029916324 -0.4099685
000330 df de 1b 3d 13 d1 cd 3d 35 ae d9 3e 12 c9 94 be
       0.038054343 0.10049643 0.42515722 -0.29059654
000340 54 df 93 be e4 38 b8 be be 8a f0 3c 7c 57 75 bd
       -0.28881323 -0.35980904 0.029363032 -0.059897885
000350 bb d7 5f be 47 f5 50 be 60 86 49 3f f3 cf 26 3e
       -0.21859638 -0.20406066 0.78720665 0.16290264
000360 e4 51 cf 3e e2 b6 a8 be 17 55 8a bc 42 7c 59 bf
       0.40492165 -0.3295203 -0.016886277 -0.8495523
000370 12 d9 1d bd 0d 0d cb be da bb c2 be 95 af 98 3e
       -0.038537093 -0.39658394 -0.38033944 0.29821458
000380 57 e4 5b be 78 e3 be be be 52 16 3f 60 09 c8 be
       -0.21473823 -0.3728292 0.58720005 -0.39069653
000390 8a 37 d4 bc 85 83 4c 3d 1e ce 2b be 71 c0 55 bd
       -0.02590539 0.049930114 -0.16777846 -0.05218548
0003a0 56 0e e8 bc fe f3 16 3e fa 42 1b 3d b9 ae 06 be
       -0.028327148 0.14741513 0.03790567 -0.13152589
0003b0 d7 09 5c 3e 8c e3 9a 3e 7a 0c 3a be c3 bb 2f be
       0.21488129 0.3025173 -0.18168822 -0.17161469
0003c0 a4 72 0a bf b0 c3 6d be 4e e5 6a be df f4 0a 3e
       -0.5408118 -0.2321918 -0.22939035 0.13569973
0003d0 96 a7 2d 3e 6e 45 3f 3e bb 9f 4b be fe e4 77 be
       0.1695846 0.18678829 -0.19885151 -0.24208447
0003e0 43 2a 8a be c6 46 34 be 2b da 0a 3e 17 97 e5 bd
       -0.26985368 -0.17605123 0.13559787 -0.11210459
0003f0 b1 03 38 3e 3f a3 00 be b5 fd 5f be 89 bb a2 be
       0.17970158 -0.12562273 -0.21874125 -0.31783703

net.4.bias f4 [50]
000000 d9 b8 ec bc cf 53 76 bd 28 b4 7b 3d 31 1b a1 be
       -0.028896736 -0.06013852 0.061451107 -0.31466058
000010 0d b5 a6 3e 32 f3 92 bd 29 68 e9 bd 69 33 c8 3d
       0.32560006 -0.07175292 -0.1139682 0.09775431
000020 4d 02 50 3e df 7f 5e bc 2e 1e e1 bd fc 1c 11 be
       0.20313378 -0.0135802915 -0.109920844 -0.14171213
000030 58 75 78 be 2a 5d 2a bc de f9 09 bd 21 88 10 be
       -0.24263513 -0.010398189 -0.033685558 -0.14114429
000040 2d be 8b bd b7 16 4e bb a2 1d 93 3e e1 0c 94 3e
       -0.068233825 -0.0031446645 0.28733546 0.28916076
000050 cb 2a a5 3e 0b e9 9f bd d0 3b 9f 3e 20 0a 2a be
       0.3225921 -0.07808121 0.3110032 -0.16605425
000060 03 10 b5 3e 25 4a 21 be 2e ff a3 3d ff 02 df bd
       0.35363778 -0.1575094 0.08007656 -0.10889243
000070 b6 b7 42 3e bd d4 b3 3e 6c 28 a7 bd 38 67 86 bd
       0.19015393 0.35123244 -0.08162007 -0.06562656
000080 5d 00 3f be c8 88 3e 3e 94 b9 72 3e fa 24 62 3d
       -0.18652482 0.18606865 0.23703605 0.055211045
000090 dd b5 b7 3e bc af d2 3d 4e cc 86 be 0d 4d 7b be
       0.35880938 0.10287425 -0.26327747 -0.24541111
0000a0 60 cb 9a be c9 3f 60 be 8c e1 b1 3e bb 6b 67 be
       -0.30233288 -0.21899332 0.3474239 -0.2259969
0000b0 16 0f a9 3d 78 8f 7a bd 2a 68 0c 3d 37 c4 2e 3e
       0.082548305 -0.06117198 0.034279026 0.17067038
0000c0 02 11 e1 3d 48 63 50 3e
       0.10989572 0.20350373

net.6.weight f4 [1, 50]
000000 26 0d 82 be 99 f5 f5 be 83 fe 07 bf 28 c9 8a 3e
       -0.25400656 -0.4803894 -0.5312273 0.27106595
000010 6d f9 9e be 58 97 86 3e 74 47 fa 3e e8 a1 b3 3e
       -0.31049672 0.2628734 0.4888264 0.35084462
000020 68 27 f1 3e 75 29 98 be 1f c2 cc 3e 6c 62 18 bf
       0.47100377 -0.2971913 0.39991853 -0.5952518
000030 ae ef 53 bf 28 03 87 3e 81 79 d4 be e6 13 51 3e
       -0.827876 0.26369596 -0.4149895 0.20417747
000040 b4 3c df be 4b 88 3d 3e 8e f7 ba 3e e3 54 39 bf
       -0.43601 0.18509023 0.36516994 -0.7239515
000050 30 2b 2c 3f e7 f9 36 3e 04 9d fd be 8c 1b 9a 3e
       0.672534 0.17868768 -0.49533856 0.30099142
000060 58 bb 32 bf 47 99 ff 3e 64 2e c7 be 81 dc df be
       -0.69817114 0.4992163 -0.3890258 -0.4372292
000070 32 20 f8 3e 19 ee e7 be e1 dc 2b 3f fe ec cb 3e
       0.48462063 -0.45298842 0.6713391 0.39829248
000080 14 5b 22 3f 4c 44 e9 3e 10 f7 62 be f9 b4 58 be
       0.63420224 0.4555992 -0.2216456 -0.21162786
000090 ee 56 7b be 48 89 de be 71 62 93 3e 7b 28 af 3e
       -0.2454488 -0.43464112 0.28786042 0.34210572
0000a0 13 43 05 3f 96 b2 9c be 33 8e 10 3f 11 85 b1 be
       0.5205547 -0.30605 0.5646698 -0.34671834
0000b0 f9 42 28 3f b8 d6 41 3f 53 ee ba 3e d7 61 f5 be
       0.6572719 0.7571826 0.36509952 -0.47926208
0000c0 d9 2e e1 3e 1e 93 9a 3e
       0.43981054 0.30190367
