gail/gail_output/20_expert/Pendulum-v1/discriminator.ckpt (torch, 24904 bytes, 7 tensors)

net.0.weight f4 [50, 4]
000000 f8 ac 2b 3f 58 14 15 3f 35 1b e5 3e d2 21 c2 be
       0.67060804 0.5823417 0.4474732 -0.37916428
000010 ae 09 63 be 41 c0 e7 bd 9a 29 0f bf ce c9 f7 be
       -0.22171661 -0.113159664 -0.55922854 -0.48396152
000020 a5 c0 c0 3e 13 0b 2c be fc cb a8 bd 05 6c b9 be
       0.37646976 -0.168011 -0.08242032 -0.36215225
000030 f0 a5 9d be 8b f5 94 3e 06 71 3d 3d 63 b9 77 be
       -0.30790663 0.29093584 0.046250366 -0.24191813
000040 66 cb 55 3f 57 89 2a 3f b4 ac ae 3e 96 d9 a5 bc
       0.83513486 0.66615814 0.34116137 -0.020245355
000050 ab 8b 87 3e 89 89 00 bf c4 6c 12 bf bd 1c bd 3e
       0.26473746 -0.5020986 -0.57197213 0.36935988
000060 14 d3 39 3e 18 5c f3 be 19 7a d2 3d e1 3e 8e be
       0.18146926 -0.475312 0.102771945 -0.27782348
000070 13 71 94 3d 88 b1 27 be 5c d7 ed be df 48 ae 3d
       0.0724813 -0.16376317 -0.4645337 0.08509993
000080 08 57 93 3e b8 65 07 bf 82 12 9e 3b e1 49 85 3e
       0.28777337 -0.52889585 0.0048239836 0.26032928
000090 41 53 bf bd c8 fe 31 3e 26 3d d5 3d 08 64 8e bc
       -0.09342051 0.17382348 0.10412054 -0.017381683
0000a0 0f d1 11 bf 91 ad 25 3e 00 a9 29 be 90 26 0b 3f
       -0.56959623 0.16179492 -0.16568375 0.54355717
0000b0 12 f5 b3 3e 83 46 66 be ab 36 f8 bd 44 3d 56 be
       0.3514791 -0.22487836 -0.12119802 -0.20921808
0000c0 17 cd 03 bf 46 50 e2 3e 03 ea c7 bc 4f 2d ae bd
       -0.5148482 0.4420187 -0.024403578 -0.08504736
0000d0 d6 cd 8d be a6 ed 8d 3e 6d 34 84 3e 90 de e9 be
       -0.27696103 0.27720374 0.25821248 -0.45677614
0000e0 fa 8a e7 3d 43 10 f0 3e 65 cf 87 3d 8d 84 0c 3e
       0.113058046 0.46887407 0.06631354 0.13722439
0000f0 a8 1b aa 3e 62 fa b5 3e a2 fd f4 be 96 14 47 be
       0.33224225 0.3554259 -0.47849756 -0.19441447
000100 71 aa f4 bd 37 c7 62 be b6 49 f7 be 70 73 d7 be
       -0.119465716 -0.22146307 -0.48298424 -0.4208026
000110 ea 4c 97 be c6 28 0b 3e 5b 6e 13 be 3a 63 13 bf
       -0.29550868 0.13589773 -0.14397566 -0.5757328
000120 7e 73 ed 3d d4 bf 00 be ea 75 f7 be d6 ba b7 3e
       0.11594294 -0.12573177 -0.4833215 0.35884732
000130 58 bf c3 be bf 7f 42 3e a3 bb 10 be 22 2d c5 bb
       -0.3823192 0.18994044 -0.14134078 -0.006017343
000140 ec b9 47 3e ce 00 9a be 0e a9 fe 3d 45 ef 9c bd
       0.19504517 -0.3007874 0.124345884 -0.076628245
000150 1c b5 d8 3d 73 8a 19 bf 45 b8 85 3e fe 31 bd 3e
       0.10581419 -0.5997688 0.2611715 0.36952204
000160 3b df 80 be e1 1d d8 3e eb 94 fa 3e f6 27 19 bf
       -0.2517031 0.42210296 0.4894174 -0.598266
000170 4b 65 a6 3e 25 6c 01 bf fd 09 79 3e 5b 66 c4 3d
       0.32499155 -0.5055564 0.24320216 0.09589835
000180 0d 71 2b bf 7a 95 54 3e 77 55 a2 bd b5 51 d7 3e
       -0.66969377 0.20760146 -0.079264574 0.42054525
000190 e0 90 87 bc 96 4f 26 bf a4 f3 0d bf 71 be 94 3e
       -0.016548574 -0.6496519 -0.5544989 0.29051545
0001a0 12 92 0c be b9 4c 2c 3f 0d 1e 40 3d c7 09 0d bc
       -0.13727596 0.6730457 0.04690366 -0.008608288
0001b0 cf 89 29 3e a0 a6 0d be e8 e0 8d be 72 84 d5 3e
       0.16556476 -0.13833094 -0.27710652 0.4170261
0001c0 d0 4f 15 bf 6c 49 ef bd 9f 16 cc be 8b d1 e6 3e
       -0.5832491 -0.11683926 -0.3986101 0.45081744
0001d0 f0 50 6f be b1 d3 0c be 3d 1d 9a 3e b1 52 c4 bd
       -0.23370719 -0.13752629 0.30100432 -0.09586085
0001e0 8a 7d e3 bd 2a b2 0f bf 3b 7c 57 bd 98 c6 39 bd
       -0.11107929 -0.5613123 -0.05260871 -0.04535541
0001f0 59 3b c0 3e 21 7e bd 3e 9b 04 25 3d f7 1a 03 3f
       0.3754528 0.3701029 0.040287595 0.5121302
000200 31 c4 d6 3e 40 c6 21 3e 8c fd 00 bf 02 49 0a 3f
       0.41946557 0.15798283 -0.5038688 0.5401765
000210 2b 64 14 3f 01 b3 a5 3e 8f ac 19 3e 9e d6 98 3e
       0.57965344 0.32363132 0.15007232 0.2985124
000220 e0 34 06 bf 40 d4 51 be 2e 30 ac be cd ba e1 be
       -0.5242443 -0.20491123 -0.33630508 -0.4408783
000230 5f 18 41 be a1 d7 76 bd 24 63 8e 3e 24 48 20 3e
       -0.18856953 -0.060264233 0.27810013 0.1565252
000240 5c 3b 93 3e f2 4a 92 3e 83 9d 40 3c bd 7a bd bb
       0.28756225 0.28572804 0.011756304 -0.005782454
000250 1c 98 7e 3e b5 5d 2b 3d 07 8c 56 be da 6f e4 3e
       0.24862713 0.041837413 -0.20951854 0.44616586
000260 ac dc 99 bc ea 55 80 3d a4 29 b0 3e e4 ac 84 3e
       -0.018781982 0.06266387 0.3440677 0.25913155
000270 48 61 d7 bc 60 a8 a6 be 29 f7 f9 bd 22 6a 54 bd
       -0.026291505 -0.32550335 -0.12205345 -0.05185903
000280 57 94 b0 be 5a c6 1c bf 9f 65 96 bd a1 b8 84 3d
       -0.34488174 -0.6124016 -0.073436014 0.06480528
000290 79 c0 0b 3f f5 5b 3d bf c1 b5 cd 3e 35 aa b3 be
       0.54590565 -0.7396844 0.4017773 -0.35090795
0002a0 bf d2 ef be 08 63 e8 3e bb 47 66 be 4f ee 84 3e
       -0.46840474 0.45388055 -0.224883 0.25963065
0002b0 2c 04 f8 3d d9 92 31 be ad c6 83 3e 2d 99 65 be
       0.12110171 -0.17341174 0.25737515 -0.22421713
0002c0 8c b4 5d be 63 5b d5 3e 5c 7e 15 3f 01 e8 4e bc
       -0.21650904 0.41671285 0.58395934 -0.012628556
0002d0 0f 3b d4 be 80 95 66 3d 1c 88 3d 3e 2a dc ad bb
       -0.41451308 0.056294918 0.18508953 -0.0053057866
0002e0 2d d3 99 be 88 32 12 3f e7 b0 14 3f c4 0f a2 3e
       -0.30043927 0.57108355 0.5808243 0.31652653
0002f0 27 75 03 bd a3 4d e7 be ab f3 df 3e 38 a8 d9 be
       -0.032094147 -0.4517642 0.4374059 -0.42511153
000300 c4 44 ea be 91 f8 e1 bc 0a 3a 9d 3e df 8a 27 3d
       -0.4575559 -0.027584346 0.30708343 0.040903922
000310 55 b6 0d bf 1d a4 43 3f 55 fb 94 3e b9 09 d1 3e
       -0.5535634 0.7642229 0.29098 0.4082773

net.0.bias f4 [50]
000000 12 df b5 be 1b 57 40 be b5 12 da be 63 47 bd bd
       -0.35521752 -0.18783228 -0.42592397 -0.092421316
000010 f2 bc 75 be 68 0d ba be fe ec 02 3f f4 8d e2 3e
       -0.23997858 -0.36338353 0.5114287 0.44248927
000020 23 3d af bd 37 c7 b6 3d b7 02 d1 3e 89 4a 60 3d
       -0.08556583 0.08924716 0.40822384 0.054758582
000030 a6 47 e4 be 62 cc 2b 3e 33 20 87 be ab b6 f4 bd
       -0.44585913 0.16777185 -0.26391754 -0.11948904
000040 71 14 52 3d 60 80 0b 3e 9f 76 75 be 31 a4 aa 3e
       0.051289026 0.1362319 -0.23971032 0.33328393
000050 b2 f0 f0 3e 60 2d 82 be 87 68 cb 3e d9 4e 12 be
       0.47058636 -0.25425243 0.39728186 -0.1428789
000060 8f 17 46 be 24 07 b2 be 1d 7f bd 3e 2d d0 92 3d
       -0.19344924 -0.34771073 0.37011042 0.07168613
000070 25 66 a6 3d f8 c4 8d bd 4d 83 3e 3d 7e 15 20 3e
       0.08124951 -0.069223344 0.046511937 0.15633199
000080 b5 4a ac 3e c6 af b1 3d 27 ae 90 be 6e f7 2f 3e
       0.33650747 0.08676104 -0.28257868 0.1718423
000090 f6 e9 1f 3e ad 09 4d be 17 5f 99 be bb ed cc 3d
       0.15616593 -0.20023222 -0.2995536 0.10006281
0000a0 67 2f 84 3e ac aa a0 3e 30 95 d1 3d 15 23 e0 bd
       0.25817415 0.31380212 0.102335334 -0.10944191
0000b0 1f f0 ab be cf 08 f9 3e 41 cb 0a 3d 35 fb f4 3c
       -0.33581635 0.48639533 0.033885244 0.029904941
0000c0 7c 71 3d 3e d8 c1 ba be
       0.18500322 -0.36476016

net.2.weight f4 [50, 50]
000000 b2 30 1e be d4 fd 6f 3d ac 49 a7 3d 81 fa 0b bd
       -0.15448263 0.05859168 0.08168349 -0.034174446
000010 1d a2 ad bc e5 96 d5 bd a3 cb 99 bc ad 60 ea 3b
       -0.021195466 -0.104291715 -0.01877386 0.007152638
000020 13 1f 85 3d 0b 8b b9 bd 46 fc 85 3d be 1d 4d 3d
       0.065000676 -0.090597235 0.06542258 0.050077192
000030 e3 40 7d 3d 3b 9b a3 3d dd 5c cb bd e4 2d f2 bc
       0.06182946 0.07988592 -0.09929822 -0.029562898
000040 bc fe 56 bd cd d6 d8 bd 25 11 f6 bd 63 ea ef 3d
       -0.052489027 -0.10587845 -0.12014989 0.117146276
000050 64 d3 59 3d 3e f3 1b 3d ba 18 1d bd 89 5d b0 3d
       0.053180113 0.03807377 -0.03835366 0.086115904
000060 fb 1a f9 bd 2d f3 0e bd ec 2e 03 bd d3 76 01 bd
       -0.12163349 -0.03489988 -0.03202717 -0.03160746
000070 26 ae 56 bd ab fa c1 bd dc 02 26 3d 3f 01 db bc
       -0.052412175 -0.09471639 0.04053007 -0.026733993
000080 dc 36 d1 3d 2a a0 86 3d 38 f0 2a 3d e5 77 a6 bd
       0.10215542 0.065735176 0.041732997 -0.08128337
000090 4d 8f b0 bc 4c 4c 98 3c 09 58 95 3d 5d 8e c7 3d
       -0.021552706 0.018591069 0.07292182 0.097439505
0000a0 e0 0e 2d 3c d8 0c be 3d aa 39 f1 3d 5b fb 0b be
       0.0105626285 0.092797935 0.11778577 -0.13670103
0000b0 16 83 b7 bd f9 cc a0 bd fc 40 06 be f4 ef aa bd
       -0.089605495 -0.078515954 -0.13110727 -0.08346549
0000c0 83 62 b4 3d 7c f1 af 3d 23 b2 36 3e 5d 1f 95 3d
       0.08807852 0.08590981 0.17841391 0.07281373
0000d0 85 52 bf 3d a6 c7 a5 bd f7 61 8a bc dc 2f d8 3d
       0.09341911 -0.080947205 -0.016892416 0.105560035
0000e0 07 53 b8 bd d7 f8 b1 bd 7e 69 d6 3d 3f 66 da bd
       -0.09000211 -0.086900406 0.1046934 -0.10664033
0000f0 ba 45 1e 3d be d9 ad bd dc 71 02 bd 55 60 74 bd
       0.038640715 -0.08488797 -0.031846866 -0.059662182
000100 09 42 b0 3d 88 2a c1 bc 6a 84 ab bd 8e 5e ee 3d
       0.08606345 -0.02357985 -0.08374865 0.116391286
000110 9c d8 1f be 1b 2d 68 bd f3 b6 cc bd f7 c4 fc 3d
       -0.15609974 -0.05668364 -0.09995832 0.123422556
000120 c1 f3 a6 bd 45 a9 a6 3d 52 bb 87 3d cd ea d0 bd
       -0.08151961 0.08137754 0.066275254 -0.10201035
000130 d0 75 90 3d 41 1b 9b 3d 48 98 91 3d bc cf 2b bd
       0.07053721 0.07573558 0.071091235 -0.041946158
000140 bb b3 f3 3d 6a 97 ff bd 1c 02 20 3e ac b4 f4 3d
       0.11899515 -0.12480052 0.15625805 0.11948523
000150 3d 44 16 be 0b 3e 66 3d 34 9a 21 bd 85 6d b6 bd
       -0.14674468 0.056211513 -0.0394537 -0.08907608
000160 5d f5 ae bd 95 e0 c8 bd db 66 33 3e ff 93 92 bd
       -0.08542893 -0.098084606 0.17519705 -0.07157134
000170 c2 f2 83 39 d5 76 aa bd 54 29 38 bd fb fb da 3d
       0.00025167136 -0.08323447 -0.04496129 0.10692593
000180 5f 45 67 bd 10 2a bb 3d 71 d7 c4 bd 58 e8 28 be
       -0.05646264 0.09138882 -0.09611405 -0.16494882
000190 d7 5c 4c be e1 f5 1a 3d 8a df bc bd 04 70 91 bd
       -0.1995729 0.037832145 -0.09222324 -0.071014434
0001a0 8f b3 20 be e0 52 a6 3d 6b 39 c3 bd d5 4f 03 bd
       -0.15693496 0.08121276 -0.09532436 -0.032058556
0001b0 73 fd 31 be 75 e1 33 bd ad d8 62 bd 0f 84 fe 3c
       -0.1738184 -0.043916184 -0.05538242 0.03106883
0001c0 04 8a 29 be 88 b0 15 bd 90 c8 0e 3e 56 f3 67 bd
       -0.16556555 -0.036545306 0.13943696 -0.056628548
0001d0 62 19 2c bd 5a 69 f2 bc 44 fd c5 3b a4 7b 07 3e
       -0.042016394 -0.029591251 0.0060421545 0.13230759
0001e0 4c ed 33 3e f9 31 03 bd 6b a7 15 bd 0d 82 5a bd
       0.1757099 -0.03203008 -0.036536615 -0.053346682
0001f0 05 f3 42 3d b2 a0 14 3e 3a cf 98 3e 6e 1a d2 bb
       0.047595043 0.14514425 0.298456 -0.006411842
000200 3a 23 d3 3d e7 88 3f bc 81 fe 75 be e9 7e 08 be
       0.10309453 -0.011690355 -0.24022867 -0.13329662
000210 8d f6 c3 3d 00 e2 da 3d b4 9b e6 3a 3c ec 47 bd
       0.0956851 0.10687637 0.001759401 -0.048809275
000220 b3 8f 06 3e 86 df 25 be c1 f6 09 3d 3e 06 e7 bd
       0.13140754 -0.16198549 0.03368259 -0.112804875
000230 95 bc 40 be 7e c5 4a 3d 71 15 fd 3d e9 ee a8 bd
       -0.18821938 0.04950475 0.12357605 -0.082486935
000240 36 11 b2 3d cd 1b 0f 3e 81 26 b4 bc a9 4f 06 3e
       0.08694689 0.13975449 -0.021991016 0.13116325
000250 ba c8 07 3e ac 31 e7 bc a4 43 84 bd c0 57 c9 bd
       0.13260165 -0.028221928 -0.06458214 -0.0983119
000260 b7 27 3b bd be 0d d7 bd 0d 95 49 3e c7 a2 52 3b
       -0.045692172 -0.10500668 0.19685765 0.003214048
000270 08 e6 d9 3d ab a5 6c bd 5a d4 15 be 66 7b b7 3d
       0.10639578 -0.05777518 -0.14631787 0.08959083
000280 bd ac 5d 3e 7e 4a 8f bd 68 00 04 3e 6b 9d 03 be
       0.21647926 -0.0699663 0.1289078 -0.12853019
000290 af 3f c0 3d 6d e4 a7 bd c2 c6 85 3c 32 fc 9d 3c
       0.09387147 -0.08197866 0.016330127 0.019285295
0002a0 a9 18 bd bd 69 de a3 3c 2d d4 9c 3c 65 9b 06 3d
       -0.09233219 0.020003514 0.019144142 0.03286304
0002b0 99 9e dd bd 60 05 8e bd db 38 9d 3c 81 86 50 3d
       -0.10821266 -0.06934619 0.01919215 0.050909523
0002c0 c4 55 82 bd db c1 b3 3d 8d 65 c7 bd e7 74 f0 3d
       -0.06364015 0.08777209 -0.09736166 0.11741047
0002d0 b9 a5 61 3c 92 39 1a 3e 5f 66 07 3e 81 a3 f7 bd
       0.0137724215 0.15061024 0.13222645 -0.12091733
0002e0 fb e4 80 3c c9 0b 05 be 62 6b bf bd 0b 0c e0 3d
       0.015734186 -0.12992777 -0.093466535 0.10939797
0002f0 f1 12 84 bd 81 71 e3 bd ae f9 66 3e 4a 4f 55 bc
       -0.06448925 -0.111056335 0.22556183 -0.013019392
000300 cc a2 b7 3c 7d 42 04 3e 8a ed 5f 3c a8 1c 63 bd
       0.022416495 0.12915988 0.013667474 -0.05544725
000310 85 c3 0d 3e b2 5a 18 bd 32 78 0d be 89 1d 1d be
       0.13844116 -0.03719587 -0.13815382 -0.15343298
000320 74 a1 2e 3d 6f a0 ea 3d 7b dd 4b 3d 18 b5 70 3d
       0.042634442 0.114563815 0.049771767 0.058766454
000330 04 54 39 3d 69 2f 1e 3e 5b d1 c6 3d 49 19 ff 3d
       0.04524614 0.15447773 0.097079 0.12455995
000340 35 4f b2 bd 6d bf f6 bb 88 fc c5 bd ad 1f 29 be
       -0.08706514 -0.007530144 -0.09667307 -0.1651599
000350 db 33 4e be ac 32 8f 3d 58 1b 9e 3d a6 90 d8 3d
       -0.20136969 0.06992087 0.07720059 0.105744645
000360 e2 9f 97 bc b8 b1 2a 3a 65 a0 30 3d a7 78 bf 3b
       -0.018508855 0.00065114675 0.043121714 0.0058432403
000370 5c ed d8 3d 68 4e ce bd 21 27 10 3d 60 a9 26 3e
       0.10592148 -0.100735486 0.035193566 0.16275549
000380 9f 83 7c bd 6d 27 46 bd 09 47 62 bc 00 58 11 3e
       -0.06164896 -0.048377443 -0.013810881 0.14193726
000390 2f 9e 0a 3e d8 22 b2 3c cc 2c 3c be fe f1 00 be
       0.13536905 0.02174513 -0.18376464 -0.12592313
0003a0 8f f5 ca 3d 48 57 75 bc 9d a6 1e bd e2 7e 0c bc
       0.09910118 -0.014974423 -0.038733114 -0.008575173
0003b0 f9 10 1d bd 9f a4 e9 bd f7 33 e6 bd 13 d9 da 3d
       -0.038346265 -0.11408352 -0.1124038 0.10685935
0003c0 ca 78 7b 3d bf da 1b 3e cc fc f8 bd eb a5 04 bd
       0.06139449 0.15220164 -0.12157592 -0.032384794
0003d0 87 d1 94 bd 2b 80 e8 3d a3 0f d6 3d 9c d6 18 bc
       -0.07266527 0.11352571 0.10452201 -0.009328511
0003e0 1b 18 15 3d 0d 80 f4 bc da 56 90 bc 82 10 a4 bc
       0.036399942 -0.029846216 -0.017619539 -0.020027403
0003f0 4a d7 34 3d ea ce 61 bd 99 86 fb 39 c6 68 e9 3d
       0.04415063 -0.05512897 0.00047974734 0.11396937

net.2.bias f4 [50]
000000 ea ed 4f bb 3d c4 4c bc 5b 41 67 3e b7 e0 0a 3c
       -0.0031727501 -0.012497959 0.22583525 0.008476428
000010 7e aa 2b 3e b9 fd 6f 3e dc 11 c2 3d ef 44 8f 3d
       0.16764256 0.23436631 0.09476063 0.0699557
000020 df a3 42 3d 6d 5f 6c 3e e0 c0 4b 3d ce e1 3d be
       0.04751956 0.23083277 0.049744487 -0.18543169
000030 69 00 5e be d6 b5 05 be 4f 58 cf bd bc 82 10 be
       -0.21679844 -0.13057646 -0.101242654 -0.14112371
000040 57 95 1e bd 38 d9 32 be 43 fe cd bd 11 f3 27 bd
       -0.03871664 -0.17465675 -0.10058262 -0.04100329
000050 22 34 55 be 31 4e 45 be b9 92 5e bd a1 fa f9 bb
       -0.20820668 -0.19268109 -0.054339144 -0.0076287542
000060 88 4f 14 3e b5 13 df 3c 4f e3 5f 3e b2 66 07 3e
       0.14483464 0.027231077 0.21864055 0.13222769
000070 7b 8c 37 3e 6c b2 f1 3d 16 85 b7 bd 16 bb 0c 3d
       0.17924683 0.118016094 -0.08960931 0.034358107
000080 41 ce 2c 3e 86 b3 9f bd cd 5e 4a 3e 87 93 25 3e
       0.16875555 -0.07797913 0.19762726 0.16169558
000090 bd 78 5f be 3f 80 64 3e cb 2c 66 3c b0 8d c5 3d
       -0.21823402 0.22314547 0.014048765 0.09646165
0000a0 b6 13 97 bd da 17 98 3b cb 96 84 3d 3a 8f da 3d
       -0.073768064 0.004641515 0.06474074 0.106718495
0000b0 07 03 42 be 7a d7 20 3e 43 81 0c be 2c 22 49 3d
       -0.18946467 0.15707198 -0.13721184 0.049104854
0000c0 de 1c 3a 3d 24 db e3 bd
       0.045437686 -0.11125782

net.4.weight f4 [50, 50]
000000 ce dc e5 bd 85 49 76 bd 37 2e 47 bd 2f 95 d5 3d
       -0.11223756 -0.060128707 -0.04862806 0.10428845
000010 21 04 8b bd 90 db 8e bd 84 ec b4 bd 2d d5 86 bb
       -0.06787897 -0.06975472 -0.08834174 -0.004114768
000020 5e 6c 8c 3d 65 a1 27 bd d6 33 03 bd 0a 0b 74 3e
       0.06856607 -0.040925402 -0.032031856 0.23832336
000030 05 99 41 3d ce a3 f7 3d 7d 7d ff bd ce 08 88 3c
       0.04726507 0.1209179 -0.12475107 0.01660576
000040 59 ab 0b bd a2 59 1a 3e 5a f2 52 3e 14 d4 9e bd
       -0.034098957 0.15073255 0.20600262 -0.077552944
000050 3f 44 e7 3d 66 25 a6 bd b7 39 08 3e c7 ad 09 be
       0.11292314 -0.08112602 0.13303266 -0.13445197
000060 39 8e 81 bd 18 14 89 bc 54 db 90 be 8c c7 24 bc
       -0.06325955 -0.016733214 -0.28292334 -0.010057341
000070 41 ad c2 bd 49 d5 83 bd 84 99 7a bd 15 ff 18 be
       -0.09505702 -0.06437165 -0.06118156 -0.14941056
000080 28 1e 6e bd 9e c5 a2 bd 42 05 5a be 56 08 31 be
       -0.058134228 -0.07947849 -0.21291068 -0.17288336
000090 ba 2a 0b bd 83 ed c2 bd 50 e9 0c bc a0 3c 1e be
       -0.033976294 -0.09517958 -0.008600548 -0.15452814
0000a0 bf c7 4a 3d 85 f0 5a bd fa ed 96 bd e9 28 40 be
       0.0495069 -0.053452034 -0.07369609 -0.18765606
0000b0 de 76 ac 3c ef 6c 93 bd 6f 0c 21 3e 49 82 e1 bc
       0.021052774 -0.07198512 0.157274 -0.027527945
0000c0 ca 67 6d bd 20 0d 24 3e 7e 0e f5 bd c2 2b 39 3d
       -0.05796031 0.16020632 -0.11965655 0.045207746
0000d0 45 e0 fa 3d e1 0c 8d bd 8f 6d ea bc a2 84 a7 bd
       0.12249807 -0.06887222 -0.028616695 -0.081795946
0000e0 57 0a 0e 3d 4e ae ff bd f6 29 71 3d 4b dc 21 bc
       0.03467783 -0.12484418 0.058877908 -0.009879182
0000f0 4e 08 9e 3d 97 1a 84 be a3 83 a5 bc 12 e5 7f 3d
       0.07716428 -0.25801536 -0.02020437 0.062474318
000100 3f 25 36 be bc 9d 00 bd 1f 25 58 bd 7a 2d 03 be
       -0.17787646 -0.031400427 -0.052769776 -0.12810317
000110 b0 61 0c 3c e0 39 95 3d 60 9d 85 3d 88 fd e2 bd
       0.008568212 0.072864294 0.065241575 -0.110835135
000120 ea 4d 52 bd ce 4b a1 bc 30 6f 03 3e 8b 46 8e bd
       -0.051343836 -0.019689467 0.12835383 -0.06947049
000130 13 1d b7 3d be 83 2e 3e 0f 39 5e 3e f9 55 e2 3c
       0.08941092 0.17042443 0.21701454 0.027628886
000140 b3 df a0 3d a7 85 08 3e 8c aa e6 3d 0b 51 85 3d
       0.07855167 0.13332234 0.11262998 0.06509598
000150 c9 47 2c 39 46 02 ba 3e 8e fe 31 be e5 ef 33 3e
       0.0001642994 0.3632986 -0.17382261 0.17571981
000160 d0 94 79 3d 2d ad 00 bb ee aa 00 3d b9 de 5c 3e
       0.060932934 -0.001963447 0.03141301 0.21569337
000170 e2 00 3b 3e 13 54 e3 3d ba 3b 50 3d 40 23 d4 3c
       0.18262056 0.1110002 0.05083821 0.025895715
000180 7f ce ba bd c3 01 a2 3d f5 5e 15 3d 70 3e 84 bc
       -0.09121417 0.07910492 0.03646751 -0.016143054
000190 5d 1e cd 3c 5e fa c0 3d e8 80 4a be b9 cf b8 3d
       0.025038892 0.09422754 -0.19775736 0.09023995
0001a0 18 56 28 bd d2 2f c5 bc a7 19 95 bd 80 f0 b7 bd
       -0.04109773 -0.024070654 -0.072802834 -0.089814186
0001b0 1e e7 ac 3d 70 b6 33 bd 44 e6 3e bd af 0a 2a 3e
       0.084425196 -0.043875158 -0.046606317 0.16605638
0001c0 88 75 17 3e d5 6b dc bd a0 7c 8b bd a8 3e 53 bc
       0.14790928 -0.10762755 -0.0681088 -0.012893356
0001d0 73 82 46 3d ca ff 2a 3d 87 ae 21 3d 4f 52 85 bd
       0.04846425 0.041747846 0.039473083 -0.0650984
0001e0 46 c8 39 3d 93 46 18 3e 49 bd 30 3e be 63 2b be
       0.04535701 0.14870672 0.17259707 -0.16737267
0001f0 4b 04 0f be 02 39 b1 3d 72 ca 71 be a0 d5 b4 bd
       -0.13966481 0.086534515 -0.23612383 -0.08829808
000200 09 21 62 bd 8d fc 05 be 36 c2 bf bd 16 c2 d0 bd
       -0.055207286 -0.13084622 -0.09363215 -0.10193269
000210 2b 46 ba be e6 3a 03 be 99 5a fe bd 07 ae 4e be
       -0.3638166 -0.12815437 -0.12419624 -0.20183574
000220 47 ca 4f 3e d4 4d 89 be 3b a3 bc bd 76 ae 19 3d
       0.20292006 -0.2681719 -0.09210821 0.037519895
000230 6f 80 0c 3d 76 b6 bb be 0b 4d d4 bd d1 f7 1f be
       0.03430217 -0.36662644 -0.10366257 -0.15621878
000240 95 10 81 3e a8 f2 dd 3d 6d 23 11 bc e8 98 63 be
       0.25207964 0.10837299 -0.008858544 -0.22226298
000250 2b 38 8f bd d1 29 8f 3d 92 1d 2e 3d 37 e3 30 3e
       -0.06993135 0.06990398 0.04250867 0.17274176
000260 8c 39 8e be c7 d3 f4 3d aa e0 c5 3c b8 a7 3a be
       -0.2777828 0.11954456 0.02415498 -0.18228042
000270 a9 29 9a 3d 66 37 7c 3d ff 2b 29 3c 98 4b 32 be
       0.07527477 0.06157627 0.010325431 -0.17411649
000280 63 eb 89 be f0 fd 8b 3e 53 4c 25 3e 79 4f 72 3d
       -0.26937398 0.27342176 0.16142397 0.059157822
000290 de 6f 0f 3c bc f9 32 3e b0 e2 91 bc b8 e6 82 bc
       0.008754699 0.17478079 -0.017808288 -0.015979156
0002a0 04 69 2e 3e 22 74 01 bd 9c 67 3b bd a3 86 f1 3d
       0.17032248 -0.031604894 -0.045753106 0.11793258
0002b0 77 f5 65 bd de 9e 51 be 3e c7 c6 bd 6a 1f e0 bd
       -0.056142297 -0.2047076 -0.09705971 -0.10943492
0002c0 5e 57 5a be 55 9f 19 bd e2 55 8c bd ae ca fa 3b
       -0.2132239 -0.037505466 -0.06852318 0.007653556
0002d0 40 95 c8 bc 28 0c 84 bd 26 92 60 be 53 8f fb bb
       -0.02448523 -0.06447631 -0.21930751 -0.0076769977
0002e0 37 21 5c be a7 03 a1 be c0 1e 12 3d 37 93 12 be
       -0.21497045 -0.314481 0.035673857 -0.1431397
0002f0 65 cf b2 3b aa 99 8c 3c 37 5e 49 3d 04 ac b9 bd
       0.0054568523 0.017163116 0.049162116 -0.090660125
000300 5f c2 e2 bd e1 c2 77 be d0 43 8b 3d a7 01 b7 bd
       -0.110722296 -0.24195434 0.068000436 -0.08935862
000310 0d 34 55 3e 83 73 16 be f9 7b ad bc f9 0e 36 3e
       0.20820637 -0.14692502 -0.021177279 0.17779149
000320 a8 6d cd 3d c5 f8 3f 3d a1 91 3e 3e 90 c2 a6 3d
       0.10030681 0.046868104 0.1861024 0.081425786
000330 9f d0 19 bd 0a 28 36 3e ec 32 cf 3d 6d 15 25 3d
       -0.037552472 0.17788711 0.101171345 0.040303636
000340 e9 ca c7 3c 1d 84 77 3d ca 04 f1 3d 5d 3b 06 bd
       0.024388747 0.060428727 0.117684916 -0.032771457
000350 40 72 cd bc 37 8c eb bd ad 5b c8 bd 4e 2d ea bc
       -0.025078893 -0.11501353 -0.09783111 -0.028586056
000360 4a 5e 8d 3d 56 e9 0b 3d ef 85 3e bd a1 6a ff 3d
       0.0690275 0.034158073 -0.046514448 0.1247151
000370 21 ec 99 bc 3c 6a 2b be 3d 70 67 3d 8b 74 b6 3c
       -0.018789353 -0.16739744 0.056503523 0.022272369
000380 59 cf 49 3e 0a 6e d7 3d 3b 1c 99 3e 51 fa 04 bd
       0.19708003 0.10519035 0.2990435 -0.032465283
000390 f7 22 60 3d 62 a1 c0 3d 25 16 d7 bc 02 3a 81 bd
       0.054720845 0.09405781 -0.026255677 -0.06309892
0003a0 54 20 5e 3e 39 11 ac bc 59 04 e2 3d 7a 2c 87 3e
       0.2169202 -0.021004306 0.110359855 0.2640112
0003b0 d4 6d a8 ba 22 55 4e 3d 58 bd 88 3c 01 53 8c bd
       -0.0012850114 0.050374158 0.016691849 -0.06851769
0003c0 dd 93 9b bc 54 56 8a 3e 40 a6 18 3d 54 6d 85 3e
       -0.018991405 0.27018988 0.037267923 0.26059973
0003d0 6c 23 bd bd 95 f7 d8 bd 47 cb bb bd b9 19 e1 bc
       -0.09235272 -0.105940975 -0.091696315 -0.027478086
0003e0 6e fe d5 3c 8a d3 1c be 52 69 c7 bd 6e 83 af 3c
       0.026122298 -0.15315071 -0.09736885 0.021424975
0003f0 41 c5 84 bd 8f b0 e9 3d 45 9a de 3a 53 04 ad 3c
       -0.06482936 0.11410629 0.0016983232 0.021120226

net.4.bias f4 [50]
000000 99 40 33 be fb a6 d4 3c e6 29 42 be c0 e4 08 be
       -0.17505111 0.025958529 -0.18961295 -0.13368511
000010 8b a4 c1 bc 05 c5 5c be 2f 04 65 bd 18 52 f4 3d
       -0.02363803 -0.21559532 -0.055912193 0.11929721
000020 32 f3 90 bd 1b 44 00 be e1 c9 47 bd 65 ad 21 3e
       -0.07077636 -0.1252598 -0.04877651 0.15788801
000030 37 5c cb bd 71 18 bd 3c bf bf a1 3d 37 70 36 3d
       -0.09929698 0.023082944 0.07897901 0.04454061
000040 47 96 ed bc 20 3e 55 3e 1c d0 12 be bb a2 29 3e
       -0.029002322 0.2082448 -0.143372 0.16565983
000050 df 35 cf 3d b7 8e 88 bd d9 38 37 be 55 2b 6a 3e
       0.10117697 -0.06667846 -0.1789278 0.22868092
000060 63 e8 dc bc 97 d2 0f bd a4 8a 9b bc 23 6e 58 3d
       -0.02696628 -0.035112944 -0.018987007 0.05283941
000070 e5 e1 0b be 0c 36 d0 3c 72 5d 1b be e3 65 5d bd
       -0.1366039 0.025416397 -0.15172365 -0.054052245
000080 79 2c 44 3e be ea da bc 35 43 1f 3d 29 fb 17 3e
       0.1915759 -0.026723262 0.038882453 0.14841904
000090 97 52 59 bd a8 dc 0b be 44 9e 23 3e 05 cf 5b bd
       -0.05305728 -0.13658392 0.15978342 -0.053664226
0000a0 a6 e0 4f be 74 e8 34 3e cc 66 dc 3c 78 ba 18 3e
       -0.2030054 0.17666799 0.026904486 0.14914882
0000b0 e9 3a 0b 3d 65 2d 5d 3e 29 ec 66 3d cd 1d bf 3d
       0.033991728 0.21599348 0.056377564 0.09331856
0000c0 cc 95 2f be 5d 75 b6 bd
       -0.17146987 -0.08909104

net.6.weight f4 [1, 50]
000000 44 67 6a be da b6 1e 3e d7 ae 44 be c6 49 6e be
       -0.22890955 0.1549944 -0.19207321 -0.2327033
000010 d5 bd 55 3e 8b db 96 be fc 03 b3 bd 53 81 18 3e
       0.20873196 -0.29464373 -0.08740994 0.14893083
000020 2e 0d 87 be da d8 54 be bd 64 4f 3d 8f 43 ec 3d
       -0.26377243 -0.20785847 0.05063318 0.11536323
000030 37 25 80 be 81 3e 32 be 74 7f a0 3e 3f 81 76 3e
       -0.25028393 -0.17406656 0.3134724 0.24072741
000040 99 ac e2 3d 0f 28 42 3e 09 1c 86 be 34 e2 9a 3e
       0.11068077 0.18960594 -0.26193264 0.30250704
000050 03 85 99 3e ca 56 78 be fe 9d 96 be 13 02 e9 3d
       0.29984292 -0.24251857 -0.29417413 0.11377349
000060 c2 58 80 be 54 48 38 3e 32 c3 f8 3d 7d 18 e9 3d
       -0.25067717 0.17996341 0.121466056 0.11381624
000070 dc 95 57 be 8c 41 4f 3e 9e 40 91 be 0a 98 4d be
       -0.2105326 0.20239848 -0.28369612 -0.2007753
000080 50 d5 81 3e 07 87 98 bc c2 50 62 be e6 2a c1 3d
       0.25358057 -0.018619074 -0.22101119 0.0943201
000090 7b dc ed bd 5a 41 7c be c3 3e 4e 3e 2c 9f 93 be
       -0.11614319 -0.24634305 0.20141129 -0.28832376
0000a0 c8 94 60 be 28 4a a1 3e 2e b1 5a be 4f 40 3e 3e
       -0.21931756 0.3150189 -0.21356651 0.1857922
0000b0 00 e7 fe bd 70 e3 ad 3e c7 22 d1 3d cd 6d 39 3e
       -0.124464035 0.33962584 0.102117114 0.18108292
0000c0 4f 9f ba bd 66 68 53 bd
       -0.09112417 -0.051613234
