gail/gail_output/20_expert/Pendulum-v1/value.ckpt (torch, 23314 bytes, 7 tensors)

net.0.weight f4 [50, 3]
00000000: b72a 39bd 7d47 b63c a1af e43e 94d6 113f
00000010: 8830 3ebd 9d22 0d3f 4aa5 e4be b54d a1bc
00000020: 624a 483e c208 b7be 8af5 c2be 0670 11bc
00000030: 31c8 fbbe b4d4 96be 06f7 fd3e 9d99 a63d
00000040: cdbf 07bf 49f6 a33e 0cad 133f 7cc4 373e
00000050: 1d58 e23e 8107 273e bfdc edbe afd7 0c3f
00000060: d019 80be 0cba 15bf fe5d a8be c806 7ebe
00000070: 8936 d8be 4610 04bf 9ff0 2bbe 4d8e bebe
00000080: 09dc 0ebe 4132 f83e 61e2 69be 5699 06bf
00000090: bb02 24bf ea53 8b3e 0248 393e 724f 8fbe
000000a0: fc64 1ebf a4c6 0dbf de9c 18be fb4b 8c3a
000000b0: 8abc ef3e d933 413e 45f2 c53e 9ffa 0dbf
000000c0: 74a6 c03e d41b 0fbf 8ce9 59be 09f5 a73d
000000d0: 219f b6be 469d 043f bf6a 61be 8c91 b83e
000000e0: 6272 29be e2a3 a73e 5043 5fbe 7fab cf3e
000000f0: e67c 0dbf b59e 173e 98d7 cabe 7b3c bbbe
00000100: 20f4 56bf 7dd1 77be 9619 20bf 31ec 413e
00000110: 33af 4cbe 60a9 c8bc 32e5 b2bd 55bc 883e
00000120: 9c05 64be 1a2c 87be b661 033f 6142 09bf
00000130: 2a38 10bf c0db b3be bf26 1e3e a5db 1e3e
00000140: f8da 443e 3cc6 d53e dfd2 dcbe 51c4 393e
00000150: d571 d33e 9a02 fa3e a9ce 52bf 6b48 a63e
00000160: 0da8 873e 9a29 19bd 0b37 12bf f14a abbd
00000170: 0619 38bd 041b e23e eccd ffbe 78fc dbbe
00000180: 534d 89bf 984e f0bd b91d 993e 3cb7 93bf
00000190: f9ac d8be 2f56 c9be 4f5e 253f a6e2 27be
000001a0: df13 db3e cc9f 553e 37ab 8cbe 955f 13be
000001b0: e42f fcbe 7a07 efbe 5551 853e fd93 7b3e
000001c0: b455 15bf 7a11 fb3e 142f a03e 0204 913e
000001d0: 20a7 8bbe 54bf 353e 20ff 04be fa3c bcbe
000001e0: 60dc 6a3f 94b3 9fbe adb3 8cbe e6c9 d73e
000001f0: ee82 69be 0516 063f 0f14 00bf ec73 91be
00000200: c476 453e 9a74 edbe 1394 e53e 2789 8d3d
00000210: 9881 26bf 8238 e43e bf55 dabd d0fc d5be
00000220: 917b 1b3c e6de 2dbd 2218 babd d890 093f
00000230: 7501 d13e a113 0b3f b2ba f13e b957 e73e
00000240: 88a0 debe 0f68 48bf 18a0 06bf 4ae9 063d
00000250: 36d9 9d3e aa99 46be
-0.04520675 0.022250885 0.44665244 0.56968045 -0.046433 0.5513094 -0.44657356 -0.019690374
0.19559625 -0.3574887 -0.38077956 -0.008876806 -0.4917617 -0.29459155 0.49602526 0.08134768
-0.5302704 0.32023838 0.57685924 0.17946047 0.4420785 0.16311456 -0.46457478 0.5501661
-0.25019693 -0.5848701 -0.3288421 -0.24807274 -0.42229107 -0.5158733 -0.16791008 -0.37217942
-0.13951124 0.4847584 -0.22840263 -0.5257772 -0.64066666 0.2721246 0.18093875 -0.279903
-0.6187284 -0.55381227 -0.1490359 0.0010703796 0.4682353 0.18867435 0.386614 -0.5546054
0.37626994 -0.5590184 -0.21280497 0.082010336 -0.3566828 0.5180248 -0.22013377 0.36048543
-0.1654754 0.3274222 -0.21803021 0.4056053 -0.55268705 0.14806636 -0.3961761 -0.3656958
-0.83966255 -0.24201007 -0.6253904 0.18937756 -0.19988708 -0.024494827 -0.08735122 0.26706186
-0.22267765 -0.26400834 0.5132097 -0.5361691 -0.563357 -0.35128593 0.15444468 0.15513475
0.19224155 0.41752803 -0.43129632 0.18141295 0.41297784 0.4883011 -0.8234659 0.32477126
0.264954 -0.03739319 -0.5711524 -0.08363903 -0.04494574 0.44161236 -0.49961793 -0.42966056
-1.0726722 -0.117337406 0.2990549 -1.1540294 -0.42319468 -0.39323565 0.6459703 -0.16395053
0.42788598 0.20861739 -0.27474377 -0.1439193 -0.49255288 -0.46685392 0.26038614 0.24568172
-0.583339 0.4903677 0.31285918 0.2832337 -0.27275944 0.17748767 -0.12987947 -0.3676527
0.91742516 -0.31191695 -0.27480832 0.42146224 -0.22803852 0.5237735 -0.50030607 -0.28408754
0.19283587 -0.46378022 0.44839534 0.06910925 -0.65041494 0.44574362 -0.10660886 -0.41794443
0.00948991 -0.0424489 -0.09086634 0.5373664 0.40821424 0.54326826 0.4721275 0.45184115
-0.4348185 -0.7828378 -0.52588034 0.032937326 0.3082978 -0.19394556

net.0.bias f4 [50]
00000000: c21c 843e e0de ecba 33eb aa3e 60cd d0be
00000010: e4de 14bc 9a7c 843e bcff a03e 6e07 a13e
00000020: 67d0 08bf f379 a9be ba79 a3bc 079b b73d
00000030: c172 8f3d 642b fa3e 4515 06bd 347f 823e
00000040: b59d 14bf 44a5 c83e 58bd 40be 78c8 313d
00000050: 546b f9be b7dc 7f3e f7fc ce3e 6001 0ebf
00000060: aab3 55bd 3e98 c2be 95f8 423e 63b4 00bf
00000070: d81d 073f 6e30 f03e bebd 0fbf e29a bd3e
00000080: d0a3 193f 0d33 3e3f 5c2d eabe c658 ee3e
00000090: 334f f53e 38f1 433e 8e09 4cbf 1bb0 e4bd
000000a0: 1bf6 20bf 973e 9ebe 7df9 133e 186f c3be
000000b0: 11aa 9cbe 114c 1dbf b0cc f6be c54a 2ebd
000000c0: 10b2 1b3f 1f19 06bf
0.2580319 -0.0018071793 0.33382568 -0.4078169 -0.009086344 0.25876313 0.3144511 0.3145098
-0.53442997 -0.33100852 -0.019955505 0.08965116 0.070043094 0.4886123 -0.032735128 0.25487673
-0.5805314 0.39188588 -0.18822229 0.043404073 -0.48714697 0.2498654 0.40427372 -0.5547085
-0.052173294 -0.38006777 0.19040139 -0.5027525 0.5277991 0.4691195 -0.561489 0.3703223
0.60015583 0.7429665 -0.4573773 0.46552104 0.47911987 0.19134986 -0.7970208 -0.11166402
-0.6287553 -0.30907127 0.14450641 -0.38170695 -0.305985 -0.61444193 -0.4820304 -0.042551775
0.60818577 -0.5238208

net.2.weight f4 [50, 50]
00000000: 24d1 ffbd 7452 463d a396 24be d338 02be
00000010: d491 4d3d 8ef3 503d 420b 09be 9712 03bd
00000020: 6905 92bd ba22 553d 37ab b0bd cdb1 1cbe
00000030: 8b89 223b 4b3f 323e 1433 0cbc 7b91 75bd
00000040: 57c7 82bd ed00 8cbd c2fb 9dbd c1cb 2ebd
00000050: 28c5 0f3e 28df 42be dfc0 b6bb e28b 523d
00000060: c47f be3d 54b2 9ebd f1d8 30bd 45eb 183e
00000070: 4bf4 bbbd cf26 663d 9b8a 9dbd 967c 523c
00000080: cf6d 5dbe 6d06 0bbe c7b2 02bd d5d0 b23d
00000090: 2b49 fbbd ae80 16be 9d51 d83d efa6 e9bd
000000a0: 864d 843e d9ca 47be 0aae d0bd 9296 8e3c
000000b0: 4c30 41bc cfe4 9e3d ce04 f33d f585 843a
000000c0: f12a 4b3e 5611 f13d e82a a43d 4615 62bd
000000d0: 3133 1539 1795 c1bd 111f d93d 052d 34bd
000000e0: 8329 653d 7886 bdbd dc63 14bd 6b0c ebbd
000000f0: f06d 8fbd 1d90 b6bc adde bdbd 79da 213e
00000100: d370 bbbd ce9e e8bd ae71 f13d 586f 843d
00000110: 0373 a53d 5453 00be 51e3 033e c58b f4bc
00000120: d309 363d ddcd db3d f48f bbbd 4c25 a63d
00000130: d006 d63d 8aa3 eb3d 5d17 65bd f007 e6bd
00000140: 4c99 29be 6957 e43d 5fb5 ecbd 8a47 13bd
00000150: 5e26 303c f2f9 11be f3c1 8d3d 5fdc 013e
00000160: 30d3 aa3b 5d80 2c3d 0530 743d 1edd 1e3c
00000170: 5223 af3c bb44 2a3c f531 703d 4609 f1bd
00000180: db3f 16bd 27da ccbc 533c d63d ad48 b7bd
00000190: 45c7 b9bc ee2d f13d 7ff3 fd3d 2fa6 85bd
000001a0: c1ef ee3c 04fd f9bb 21b3 05be 1ac8 f3bd
000001b0: 1fe2 903d 2c7e b8bd a6db 773c ae00 0abe
000001c0: e9a1 493d c818 dabc df2b 06be 6058 d33d
000001d0: a7b2 023e f7db 6e3c 4c58 253d 82a4 bbbd
000001e0: 5a34 f5bc ae58 8b3c 87dc 08bc 34b4 4b3d
000001f0: 66f5 843d 9bc7 cc3c 2088 323c cbab 1b3e
00000200: 7eed 9abd 1655 fa39 89c7 d83d 347f cb3c
00000210: ae3c ddbd cb0a 42bc 0f9c 99bc 7ee5 cabc
00000220: 821e adbd 3716 acbd b4c6 3abd c002 08be
00000230: 939b 4e3d a2e4 89ba 60f0 a2bc 83b9 a1bd
00000240: 50d4 2d3d 2735 f53d bd1f 0a3e 9701 0a3e
00000250: f649 0a3e 1fb7 ab3c 0860 113e 8db6 963c
00000260: 0d50 d83c 724b ee3d 15dd 54bd 0a83 f63c
00000270: 7ac8 05be ae8e 92bc 3cee 97bd 53e6 e7bc
00000280: 90bc d43d f9db 7cbd c979 933d 620d 02bd
00000290: bd14 debd 7798 10bd ef75 07be 6a5b 013e
000002a0: 4e1f d5bd b96e f03d bda0 b23d 3283 0d3d
000002b0: 2b44 79bb 028a 443d 1bc7 073e a4d0 993d
000002c0: 54ce ecbd e971 223d 68f9 4e3d 32f1 b2bd
000002d0: 4f68 083d 7d19 a43c fb27 c73d 8ace 763b
000002e0: 8629 8ebc 65cc 023e dde0 053e 4356 9ebd
000002f0: f1ea 0abe 41a3 283d 66ff 85be 3390 90bc
00000300: 0771 0cbd d4f7 23bb e39e 353d 48cd 943d
00000310: 9d5a c8bd 234f db3b 947d 32be c00a 05be
00000320: f89e d8bc 084d 19be c51f 58bd a7df 163d
00000330: 25e7 da3d fbdc 083d 0aec c93d 31ab 063d
00000340: dbeb 753d 930e 163d fe26 073e 3dbc 9c3d
00000350: 2579 d43d 6f8d e1bc 3557 083c 8714 16be
00000360: c4c4 223e 630c 1cbe 4759 3cbd 3937 53bd
00000370: 98a2 0c3e 7bd1 3dbd 652a c0bc 3544 a23d
00000380: d2a8 a33d 87b1 083e 9eac c3bc e38c c7bc
00000390: 1e4e 283d 447e 19be 5df3 c4bd 7a88 68bd
000003a0: 5df6 033e c735 cd3d c024 4fbd f1b7 cebd
000003b0: 556c 5bbd d3cd c1bc 6776 dc3c 0e96 ce3d
000003c0: b89d c9bd 1f6e 813d c3c9 873d ba37 ce3c
000003d0: dace 9b3d efb7 2a3e d96a 0e3c e057 ab3d
000003e0: 8778 67bc c042 43bb 84e6 35bd 57da 6a3d
000003f0: 3720 203e 3d02 23be 157d e5bd 2f85 96bc
-0.12491062 0.048418477 -0.16073088 -0.12716989 0.0501879 0.05101352 -0.13383201 -0.03200015
-0.07129938 0.05203507 -0.08626407 -0.153022 0.002480122 0.17406957 -0.0085571 -0.059953194
-0.06385677 -0.06836114 -0.077140346 -0.042674784 0.14040053 -0.1903044 -0.0055771912 0.051402934
0.09301713 -0.07748857 -0.04317564 0.14933498 -0.091774546 0.056189355 -0.076924525 0.012847086
-0.2162392 -0.1357667 -0.031908777 0.08731238 -0.12269815 -0.14697525 0.105624415 -0.11408793
0.25840396 -0.19510974 -0.10189445 0.017405782 -0.0117913 0.077584855 0.11866151 0.0010110723
0.198406 0.11770885 0.08015996 -0.05519607 0.00014228818 -0.09452265 0.106016286 -0.043988246
0.05594779 -0.092541635 -0.036228046 -0.11476978 -0.07003391 -0.022285515 -0.09270988 0.15805997
-0.09152379 -0.113584146 0.11789261 0.0646655 0.08078577 -0.12531787 0.12879683 -0.029851804
0.044442963 0.10732625 -0.09158316 0.081125826 0.10450518 0.11505802 -0.055930484 -0.11231983
-0.16562384 0.11149485 -0.11558031 -0.035956897 0.010751335 -0.14255503 0.069217585 0.12681721
0.005213164 0.042114604 0.059616107 0.009696273 0.021379147 0.010392363 0.058641393 -0.11769347
-0.03668199 -0.025006367 0.10460725 -0.08949409 -0.022678027 0.117763385 0.12399959 -0.06525838
0.029167058 -0.0076290388 -0.13056614 -0.11903401 0.07074379 -0.090084404 0.015128052 -0.13476822
0.049226675 -0.026623145 -0.13102673 0.103195906 0.12763463 0.014578811 0.04036741 -0.09162237
-0.02993219 0.01701006 -0.008353359 0.049732402 0.064921185 0.024997523 0.010896713 0.15202253
-0.07564829 0.0004774711 0.10584933 0.024840929 -0.10802589 -0.011843394 -0.018751172 -0.024767634
-0.084530845 -0.08402675 -0.045599654 -0.13282299 0.050441336 -0.0010520408 -0.01989001 -0.07896712
0.042438805 0.11973029 0.1348867 0.13477169 0.13504776 0.020961342 0.1419679 0.018397594
0.026405359 0.11635484 -0.051968653 0.030091781 -0.13064757 -0.0178903 -0.074184865 -0.02830807
0.10387528 -0.06173322 0.07200963 -0.031751044 -0.10843799 -0.03530165 -0.13228582 0.12632528
-0.104063615 0.11739869 0.08722065 0.034548946 -0.0038035016 0.047983177 0.13259546 0.07510498
-0.115627915 0.039659414 0.05053082 -0.087374106 0.0333026 0.020031685 0.097244225 0.0037659728
-0.017353784 0.12773283 0.1307406 -0.07731297 -0.13566186 0.041171316 -0.26171416 -0.017646885
-0.03428748 -0.0025019543 0.04434098 0.07265717 -0.09782908 0.0066927834 -0.17430717 -0.12992382
-0.02644299 -0.14970791 -0.052764673 0.036834385 0.106886186 0.03341387 0.09859474 0.032878105
0.060039382 0.036634993 0.13198468 0.07653091 0.10374669 -0.027533261 0.008321573 -0.14656268
0.15895373 -0.152391 -0.04598358 -0.051566336 0.137339 -0.046342354 -0.023457715 0.07923166
0.07991184 0.13348971 -0.023886021 -0.024359172 0.041090123 -0.14989573 -0.0961673 -0.05677078
0.12886949 0.10020023 -0.050572157 -0.10093678 -0.05357011 -0.023657715 0.026911927 0.100872144
-0.098445356 0.06319832 0.0663028 0.025173057 0.07607813 0.16671728 0.008692467 0.0836637
-0.014127857 -0.0029794425 -0.04440929 0.05733713 0.15637289 -0.15918823 -0.11205498 -0.018374054

net.2.bias f4 [50]
00000000: ac80 26be 0918 74be 39c3 fa3d 50de 803e
00000010: 4ca6 13be 1852 953d fbb4 4c3c bcbd a5bd
00000020: 30a1 a9bd d491 163e 3353 0abe 1557 d0be
00000030: 9b3e 20be fce6 aabc 5320 71bd 211b 0fbe
00000040: 1838 823d cbed 1dbe ba77 113d d605 1e3d
00000050: 4cda 07be 3caa 563e 427b 4d3e 291c 583d
00000060: ce1c e1bd a808 afbe f8bc 183e 2be4 b13d
00000070: 2fb9 123e 553c 223e 953f 7ebc 7204 86bd
00000080: bdc2 883e d563 d93d d496 41bd 1906 103e
00000090: ed2d e4bd 8cef 9abc be05 c5bd 6afe 2f3e
000000a0: 50e0 c4bb 2683 2b3e f184 eabd f42b b1bd
000000b0: 80f0 8b3e f84d 80be 6f0c 08bc 14cb 1d3d
000000c0: ac3e f1bd 3e38 803e
-0.16260022 -0.23837294 0.12244267 0.2516961 -0.14418906 0.07291049 0.012494321 -0.080928296
-0.08282697 0.14704067 -0.135083 -0.40691438 -0.15648882 -0.020862095 -0.058868717 -0.13975193
0.06358355 -0.15422742 0.03551457 0.038579784 -0.13266867 0.20963377 0.2006655 0.05276123
-0.10991822 -0.34186292 0.14915836 0.08686098 0.14328454 0.15843327 -0.015518089 -0.065438166
0.26711074 0.106147446 -0.04726298 0.14064826 -0.11141572 -0.018913053 -0.09620236 0.17186895
-0.0060081854 0.16749248 -0.11451138 -0.086509615 0.27331924 -0.25059485 -0.008303746 0.03852375
-0.11779532 0.2504291

net.4.weight f4 [50, 50]
00000000: 7646 173e ad1e 363d 9841 d23d aee2 cbbd
00000010: 5fcf ba3d 0a8b 4e3d e483 483e 32c9 c8bd
00000020: 5ef3 52bd 799a 15be c01f 0e3e fc30 e43d
00000030: d8e1 383e 2192 f8bd a2f8 0ebc 762f c93d
00000040: b074 9cbd 150f 49bd 5c3c 01be cf22 21bc
00000050: 9d3a c83d 4a96 803b 56bc 97bd b3ce 433d
00000060: de4b 93bc a15d 25bc 25e7 bfbd ec9a 0abe
00000070: 4be8 1cbd b611 43be bd23 75bd 07ef f43c
00000080: fa48 02bd cff7 08bd 96ac c8bc e4d7 a93d
00000090: fa55 7dbd 2b6b 3e3e b3e9 2f3e 090f af3d
000000a0: 9730 fbbc 79aa 0ebe c079 8f3d 20f6 ed3d
000000b0: 30de 50be cf2b 1f3e 0b37 48bd 443a a4bd
000000c0: f3e8 d93c d444 3ebe cef9 6b3d a7c7 aebd
000000d0: dee8 a7bd 81d7 b4bd dfc3 6ebd f689 31bd
000000e0: 59a9 333d 7c91 9f3d 5891 333e 7d35 08be
000000f0: 5976 39bd 15e4 8e3e 5299 4c3e 5804 683d
00000100: 5c81 fd3c 7b4a 323d 8184 11be cd3f 9b3d
00000110: 707e 0d3d da2e 623c 4300 e83c 0f76 2bbe
00000120: 447f c6bc 36a0 e13d 91db b23c 9f87 f13d
00000130: b6b9 0bbe c7bf 7cbd 5d2c f7bd ab1f 8fbd
00000140: f605 c6bd 193d b2bd b5b3 17be a355 66bd
00000150: fc98 df3d c682 263b 1e66 6fbd 716c 853d
00000160: e4d2 47bd 20ef 69bd d2bd b5bd a2b3 b9bd
00000170: 3fdb d33d 4d81 393e b4e3 81bd 22c8 fa3d
00000180: b14d 413d 8119 f93d 4274 ddbd 055c 83b9
00000190: 4be8 043e 0965 ce3c 7d9a 7a3d 642f 09be
000001a0: 4575 13be 32d7 05be 5693 a8bd 4083 b2bd
000001b0: 2619 1abb 2291 26be 75fa b3bc 8ab5 493d
000001c0: 4a57 0b3e 3406 943d 11ba a6bd 2d78 c93d
000001d0: cba7 9e3d 9301 903d acd7 15be 6726 0cbe
000001e0: 7682 0f3d eac5 8cbc d203 073e 17f0 c0bd
000001f0: 40fb 33bc 8781 8cba eca5 d9bb 7187 d93d
00000200: 457e 1ebe 6890 293d d883 fe3c 96f3 333b
00000210: ae35 0dbe 1e34 a13d 1b80 eabc 4b90 debc
00000220: b602 da3c 885a 423e 4cb6 e93c 3bc7 afbd
00000230: de83 0abe c206 ebbd 6553 073e c827 893d
00000240: 8a52 553d f36b 063e f1dd e53d 56ce 6cbd
00000250: 076e cfbd c68f 0bbe 9283 1ebd 3abb 0ebd
00000260: 2876 d0ba 6d8a 02be bb7c b43d 0252 10be
00000270: 9e5c 0a3e 84db a0bd a81d e2bc 0c86 4c3b
00000280: 8082 453e 79f9 6f3d 57ed b63d 4007 44bd
00000290: 75c8 0bbe 4f37 48bb a3d7 e1bc 7a8d ac3d
000002a0: e5b3 e63d 986d bfbd b8e2 073e 15ea bbbc
000002b0: e76f 6fbe 284b 3dbd 7859 eabd edfd 2b3e
000002c0: e6fc 68be a19a 86bd 0846 07be 5f4e 48be
000002d0: 8deb ad3d e293 0dbe 3735 3ebe 9152 84bc
000002e0: 300b d4bd ba4c 9b3d 1b7f e63d e027 363e
000002f0: 52c7 e1bc 5829 33bc 2cc0 4d3d 3f75 bcbc
00000300: ce70 aa3d b8ee 893d 95b2 7bbe 6470 773e
00000310: e8b5 e13d 5cf1 81bd d783 293e 4f08 2dbe
00000320: ba4d 51bd 6a87 143e d4f6 eb3d 4c1f 22be
00000330: ff8a 143d 6e6e afbd d01c 643e e7f4 8f3d
00000340: 3f8a fa3d 7978 babd 139d 363e 763e 483e
00000350: 035b 213e b3b0 01be fcbf 28bc 21e5 3939
00000360: 8bfd 4dbd 6e44 c33d 24e3 12be b8ec 28be
00000370: 36d0 71bd 85f7 02be e0ae 06be 2b77 e83d
00000380: f0ff 013d 24d8 8fbd d69f 2dbc a330 43bd
00000390: 61f2 203d d799 41bd 6d05 f2bd d61c 343d
000003a0: 2feb 1dbe 562a fb3d 0248 253d c6a9 cbbc
000003b0: 5033 a4bd a55b 4b3e e214 013d 8540 cf3c
000003c0: 8164 a9bd 5ade 00be 3600 183e efdf 803c
000003d0: 2459 1cbe c016 033d 25d1 37bd a0ca 123e
000003e0: 0b88 fc3d eab1 1dbe e382 7ebc 413e abbd
000003f0: 2fb0 41bd 0930 39bd 211e 03be 3c96 193e
0.14772972 0.04446285 0.10266417 -0.09955345 0.09121584 0.050425567 0.19581562 -0.09804
-0.051501624 -0.14609708 0.13879299 0.111421555 0.18054903 -0.12137247 -0.008726271 0.098235056
-0.07639444 -0.04908665 -0.12620682 -0.009834959 0.097768046 0.003924166 -0.07408969 0.047804546
-0.017980512 -0.010093124 -0.09370259 -0.1353566 -0.03830747 -0.19049725 -0.059848536 0.029899133
-0.031807877 -0.033439454 -0.024496358 0.08293131 -0.06184957 0.18595569 0.17178993 0.085477896
-0.030662818 -0.13932218 0.07005644 0.1161921 -0.20397258 0.15544055 -0.048880618 -0.08018926
0.026600337 -0.18580943 0.05761128 -0.085341744 -0.08198713 -0.088301666 -0.058292266 -0.04334446
0.043862674 0.07791421 0.17535913 -0.13301654 -0.04527888 0.27908388 0.19980362 0.056644768
0.030945472 0.04352806 -0.14210702 0.075805284 0.03454441 0.013805116 0.028320437 -0.16744255
-0.024230607 0.11016886 0.021833213 0.11793446 -0.13645062 -0.06170633 -0.120690085 -0.06988462
-0.09669106 -0.0870306 -0.14814647 -0.056234013 0.10917851 0.0025407537 -0.058446996 0.06514824
-0.048785105 -0.057112813 -0.08874096 -0.09067465 0.10344552 0.1811573 -0.06342259 0.122452036
0.047193233 0.121630676 -0.1081319 -0.00025054827 0.12979238 0.025194662 0.061182488 -0.13396984
-0.14400204 -0.13070372 -0.08231227 -0.0871644 -0.0023513525 -0.16266301 -0.021970013 0.049245395
0.13607517 0.07227746 -0.08140958 0.09837375 0.07746848 0.0703155 -0.14633054 -0.13686524
0.035036527 -0.017184217 0.13185051 -0.094207935 -0.010985196 -0.0010719755 -0.006642094 0.106215365
-0.15477856 0.041397482 0.031068727 0.002745842 -0.13790008 0.07871269 -0.028625539 -0.027168414
0.02661262 0.18979847 0.028529309 -0.08582922 -0.13526866 -0.11475898 0.13215406 0.06697041
0.05208067 0.13127117 0.112239726 -0.057813965 -0.10128408 -0.13629064 -0.038699694 -0.034846522
-0.0015904354 -0.12748118 0.08812853 -0.14093783 0.13511893 -0.07854369 -0.027602032 0.0031207828
0.19288063 0.058587525 0.08931988 -0.047858477 -0.13650687 -0.0030550545 -0.027568644 0.08425422
0.11264781 -0.09347075 0.1327008 -0.022938767 -0.23382531 -0.046214253 -0.11442846 0.16796084
-0.22752723 -0.06572462 -0.13210309 -0.19561146 0.08492193 -0.13825944 -0.18574987 -0.016152652
-0.10353696 0.07582994 0.11254712 0.17788649 -0.027560864 -0.01093515 0.050232098 -0.023005126
0.08322297 0.06734985 -0.24579842 0.24163967 0.11021024 -0.06344864 0.16554199 -0.168977
-0.051099516 0.14504781 0.11521688 -0.15832251 0.03626537 -0.08565985 0.22276616 0.07029133
0.122333996 -0.091050096 0.17833357 0.19555077 0.15757374 -0.12665062 -0.010299679 0.00017728332
-0.050290626 0.09534536 -0.1434446 -0.16496551 -0.059036456 -0.12789734 -0.13152647 0.113508545
0.03173822 -0.070236474 -0.01059719 -0.047653805 0.03929365 -0.047265854 -0.11817441 0.043972813
-0.15421747 0.12263934 0.040351875 -0.024861228 -0.080175996 0.19859178 0.031514056 0.02529932
-0.08271123 -0.1258482 0.1484383 0.01573178 -0.1526838 0.032004118 -0.04487719 0.14335108
0.12330636 -0.153999 -0.0155341355 -0.08361483 -0.047287162 -0.045211826 -0.12804462 0.14998716

net.4.bias f4 [50]
00000000: 7d28 94be 27e2 03be 81f4 9c3d c11d 80be
00000010: 58c2 b63c df2e 4a3e 81bf 573d 2fcc 3e3e
00000020: 77b9 2abe f422 353d 3a8b ffbd 5e04 48be
00000030: c54f 2fbd 5d09 9fbd fea0 38be 18f5 8ebe
00000040: 23dd 05be edcc 373e e642 be3b afc1 3abe
00000050: df37 4dbe d86e 45be 9b6f 873e 5675 503e
00000060: bef2 b0be aa7d 03be b402 0f3e fb58 103d
00000070: 8388 583e ba61 1e3e 1337 5d3e 1032 3c3e
00000080: e072 863c 5d9b 78be d398 57bc 040c 06be
00000090: 136e 85be 1fb3 0bbd e8b4 483e 7ec6 373e
000000a0: 1a4a 6e3d 307d 903e 2c0b 7f3e f647 67be
000000b0: a602 cabd 907b 81be d3ac ab3d 7ad0 2b3e
000000c0: a1fe 14be 8750 923d
-0.2893714 -0.12879239 0.07663823 -0.250227 0.022309467 0.19744442 0.052672867 0.18632577
-0.16672312 0.044222787 -0.12477727 -0.19532916 -0.042800684 -0.07765458 -0.18030164 -0.27921367
-0.13072638 0.17949267 0.0058063148 -0.18237947 -0.20040844 -0.19280565 0.26452336 0.2035726
-0.34560198 -0.12840906 0.13965875 0.03524111 0.21145825 0.15466967 0.2160304 0.18378472
0.016412199 -0.24278016 -0.013158995 -0.13090521 -0.26060542 -0.03410637 0.1960026 0.17946813
0.058176138 0.2822051 0.24906605 -0.22586045 -0.098637864 -0.25289583 0.08382573 0.16778746
-0.14550258 0.071442656

net.6.weight f4 [1, 50]
00000000: 4f8b b2bf 903a 0fbf 4393 c9be f57a 9dbf
00000010: 533d 5dbf 2b8d 9b3f 7052 243f 5a8b 233f
00000020: ee26 0fbf 96d9 87bd 76a0 70bf 45d8 7fbf
00000030: c447 a1bf d068 a7bf 5913 89bf 66ae a8bf
00000040: 0081 74bf 64df 5f3f 581e dd3d d3d1 12bf
00000050: 310f 19bf bf1d 2cbf 36cd 8c3f ee45 6f3f
00000060: be49 9fbf 2df5 6abf cbd7 9e3f 434b a5be
00000070: c076 883f 91e6 423f af18 953f d1aa 1b3f
00000080: 2a35 1abf cb2b 62bf dba7 80bf 9e7c 2cbf
00000090: 2e5c 7ebf ec2e 8f3e 897d b13f c525 bd3f
000000a0: e92f 613f ca11 a33f 9bee 593f 273a 3ebf
000000b0: 6df4 53bf ab86 56bf a7f5 4a3f c1a8 b43e
000000c0: 4540 5ebf 2230 213f
-1.3948764 -0.55948734 -0.39370164 -1.2303149 -0.864217 1.2152456 0.6418829 0.6388451
-0.55918777 -0.06633298 -0.93994844 -0.99939376 -1.2600026 -1.3078861 -1.070903 -1.3178222
-0.9550934 0.8745024 0.10796803 -0.57351416 -0.59788805 -0.6723289 1.1000125 0.9346608
-1.2444379 -0.9178036 1.2409605 -0.32283983 1.066124 0.76133066 1.1648158 0.6080752
-0.6023737 -0.8834807 -1.0051225 -0.6737765 -0.99359405 0.27965486 1.3866435 1.4777151
0.8796373 1.2739804 0.8512971 -0.74307483 -0.8279484 -0.83799237 0.79281086 0.35285
-0.8681682 0.6296407
