gail/gail_output/200_expert/Pendulum-v1/discriminator.ckpt (torch, 24904 bytes, 7 tensors)

net.0.weight f4 [50, 4]
00000000: ca2a 54bc ba1c 383f 885b 8b3e f90e babe
00000010: ed91 2bbe 2c8f 36bf bc03 00bf 4c8e e63e
00000020: fb5a 843e 3060 083f 6047 0c3e 1c95 3abe
00000030: 5748 c53e ef87 aabe 050e d13e 42c8 febc
00000040: 2a98 a9be 231b cdbe 6773 6fbe 55e7 2f3e
00000050: 5190 c7be 3399 35bd f2e6 053e de02 453e
00000060: 13df d43e 6436 063f 25c5 e0be 6915 f2be
00000070: 6a66 f63e 9241 ad3e 39fe f1be b4c7 103f
00000080: 7152 c93e b005 f4be ab5c b9be 0429 06be
00000090: ac9c 133f 322f 2dbd bbc6 ad3c 8afb 543d
000000a0: 95c3 7ebe 28d3 72be a92a bcbc 6e35 e23d
000000b0: 2576 3e3e 6dbf 57bd 14f5 be3c ff3d aa3e
000000c0: b4d1 cbbe f439 033f bb6d dc3e def6 9a3d
000000d0: 9ffc c73e 0db9 a93d ae08 083f c38c b63e
000000e0: 3f94 03bf ea34 2c3e 6706 74be dc3e 03bf
000000f0: 8a96 d5bd be44 d13e aa96 823e 9204 da3d
00000100: 74fe ee3e e1f9 063e c216 d8be 5c08 9dbe
00000110: 5226 e13a 40b2 69bd adde 143f 9fb9 423b
00000120: edfa fdbe bf79 bf3e 0581 d23e cac3 a1be
00000130: 4f52 c23d b7c6 e53e d4a7 773e 7d87 36be
00000140: eebb e3bc 2b67 04bf 1a47 9d3e dda2 003e
00000150: a7f8 183d 22bf 343d 4a4f f1bc 5a16 92be
00000160: e2d4 47be 1837 c1be 7ff0 15bf fcb4 d6be
00000170: 5e0c c83e 9e56 ac3e 9c5f ae3e 3f7d 913d
00000180: ae45 a43e a16a abbd 99d9 c7bc 348a a83e
00000190: 612b c83d 9d34 a93e 9343 663e 99d5 c4be
000001a0: 539e fcbe 3db1 b7be 6ec3 06bf d40b 823e
000001b0: c4b1 57be 5193 89bd adcd 82be 65fb d23d
000001c0: ec40 033d 2131 0a3e 586a 343e 2301 e53e
000001d0: 54c6 fd3e c21c 5dbd 54ef 24be 9626 e13e
000001e0: 1a7b 713e 5deb 373e ffde 7d3d b201 12be
000001f0: 681c 06bf 2647 bbbe 2abc 1ebd 6d28 ceba
00000200: 8241 e1bd 4136 76bd eebd a13e ad67 52be
00000210: e7ee 14be 32c0 96be 5c37 d53e 4938 cf3e
00000220: d977 f93e da97 6b3e e315 183e c3c6 de3e
00000230: d1e9 153d bd1d d23e 59b7 a1bd e53c 263d
00000240: 5411 97be 0fa3 ce3d 2a1b 16bf 6ab7 d33d
00000250: f2dd d7be 07d3 11bf 74fd ebbd 4886 05bf
00000260: 5cfd 1fbd 32c5 ccbd 4ae3 eb3e f614 cebe
00000270: fdf8 73be 3c1a b33e bebc f5bd 835b 823d
00000280: 37b3 9f3e b47d a7be 0aae 94bd 96f9 8a3e
00000290: a3b0 f2bd 76e0 623e 9204 e33e 0c17 c93e
000002a0: b64a fc3e efc4 fabe d8e0 51be 5a07 873e
000002b0: dd7e c63e 7652 16be 59a3 b4bc c978 e1be
000002c0: 0437 39be b13c 1fbf 9675 84be 605c 4e3e
000002d0: 50ff 943e c59b e43d 6599 da3e 243f e63e
000002e0: 2279 e53e 7571 143f 752b 783d df61 0abf
000002f0: d674 173f 5e40 80be 52ef d03e 2317 ee3e
00000300: 9b9a 7bbe 4783 6c3e 0ba1 0d3f bdda 82be
00000310: 3c04 0cbf bb6b d83e 6ecc acbd d9c0 02bf
-0.012949655 0.71918833 0.2721827 -0.36339548 -0.16754885 -0.7131221 -0.500057 0.4503044
0.25850663 0.5327177 0.13699102 -0.18220943 0.38531753 -0.33306834 0.4083101 -0.03110135
-0.33123904 -0.40059766 -0.23383866 0.1717809 -0.38977292 -0.044335555 0.1307638 0.19239375
0.41576442 0.52426744 -0.4390041 -0.4728196 0.4812501 0.3383909 -0.4726427 0.5655472
0.3932071 -0.4766059 -0.36203513 -0.13101584 0.5766094 -0.042281337 0.021212926 0.0519977
-0.24879296 -0.23713362 -0.02296956 0.11045347 0.18599756 -0.052672792 0.023310222 0.33250424
-0.39808428 0.51260304 0.43052468 0.075666174 0.39059922 0.08287249 0.53138244 0.35654268
-0.5139808 0.1681706 -0.23830567 -0.5126779 -0.10429104 0.4087276 0.25505573 0.10645403
0.46678507 0.13181259 -0.42204863 -0.3067044 0.0017177558 -0.057054758 0.58152276 0.002971269
-0.49605504 0.37397572 0.4111406 -0.31594688 0.09488355 0.4487817 0.24185115 -0.17825122
-0.027799573 -0.5171992 0.3071831 0.12562127 0.03734651 0.04412759 -0.029456753 -0.28532678
-0.19514802 -0.37737346 -0.5857009 -0.41934955 0.39071935 0.33659834 0.3405732 0.07103967
0.3208441 -0.08369947 -0.02439575 0.3291794 0.09773899 0.33047953 0.22486715 -0.38444212
-0.49339542 -0.3587741 -0.5264195 0.2539965 -0.21063906 -0.067175515 -0.25547543 0.10301856
0.032044336 0.13495304 0.17618692 0.4472743 0.49565375 -0.053982504 -0.16106921 0.4397475
0.23582116 0.17960878 0.061980244 -0.14258459 -0.52387094 -0.3657772 -0.038753666 -0.00157286
-0.10998823 -0.060110334 0.31590217 -0.20547362 -0.14544259 -0.29443508 0.41643798 0.4047263
0.4872425 0.23007146 0.14852099 0.43511018 0.036599938 0.41038314 -0.07896299 0.040585417
-0.29505408 0.10089695 -0.586352 0.10337718 -0.42161518 -0.5696263 -0.11522952 -0.5215802
-0.03905998 -0.099985495 0.46071845 -0.40250367 -0.2382545 0.34980953 -0.1199889 0.06365111
0.31191418 -0.3271309 -0.07259758 0.27143544 -0.11850097 0.22155938 0.44339424 0.39275396
0.4927575 -0.48978373 -0.20495927 0.26372796 0.38768664 -0.14679894 -0.022050546 -0.44037464
-0.18087393 -0.6220198 -0.2587096 0.20152426 0.29101038 0.11162523 0.42695156 0.44970047
0.4481898 0.5798562 0.06058832 -0.5405559 0.5916265 -0.25049108 0.40807587 0.46502027
-0.24570696 0.23096953 0.5532386 -0.2555751 -0.5469396 0.42269692 -0.08437429 -0.5107551

net.0.bias f4 [50]
00000000: 05d5 913e fb01 55be 7d17 8c3e a597 26be
00000010: 6d1a 8a3c ba6c 073f f401 243d 5ace 0d3f
00000020: 8835 cabb a273 b03e bc6b 643e 55b1 01bf
00000030: bf1a cebd 5aac eabe 63dd 96be 762d 21be
00000040: 2d92 8f3e 0293 0cbf ee55 3abe 3b26 b23e
00000050: ce2c 793e 7c1c 8e3e e59f 8e3e 455d 4a3e
00000060: c32f 80be f17f 3a3e e5d9 273d e4eb c0be
00000070: 1a4c 0bbf bedb df3c a5c7 04bf 7c02 9fbe
00000080: b665 553e 5c1f 03be 506a 8dbd 0561 84bd
00000090: 239f 00be e9ac 0ebe 71a5 73be 29b0 cc3e
000000a0: 0593 ecbe faa5 64be 4fc8 c63d 253a d2be
000000b0: ae0a 25be 2325 67be b72a 1ebe d657 82be
000000c0: 5564 063f 90df 05bf
0.28482834 -0.20801537 0.2736167 -0.16268785 0.016858304 0.5290028 0.040040925 0.5539299
-0.006170932 0.3446322 0.22306722 -0.5066121 -0.10063695 -0.4583462 -0.2946578 -0.15739998
0.2804121 -0.54911816 -0.18196842 0.34794793 0.24333498 0.27756107 0.27856365 0.19762142
-0.2503644 0.18212868 0.040979285 -0.3767997 -0.54412997 0.02732646 -0.51867133 -0.31056583
0.20839581 -0.12804931 -0.06905043 -0.064638175 -0.12560706 -0.13933147 -0.2379358 0.3997815
-0.46205917 -0.2232894 0.097061746 -0.41059986 -0.16117355 -0.2257276 -0.15445982 -0.25457639
0.52496845 -0.52294254

net.2.weight f4 [50, 50]
00000000: 026e cf3c 1e6c fc3c d4ee 8e3d 3057 52bd
00000010: b95d 0c3e 39b7 b4bd e287 1abe 4008 a6bc
00000020: 97a3 16be cab9 1b3d 1c84 103e b52f 9abd
00000030: dc22 553d 252b a3bd 45d0 e93c 9340 8e3d
00000040: f890 f7bd 2500 b93d 3019 9cbd 2864 45bc
00000050: 3b47 2a3d 81b4 033e 1492 acbd fea3 22be
00000060: 7201 183c 369a 7c3d 309d 4dbd 517f ca3d
00000070: 9c5f afbd d5df be3d 420e d83c 213a 07bd
00000080: 49b9 fabd a694 8fbd dac1 a83d 701e 0d3e
00000090: ece7 6dbd b4d3 c6bd 1231 a43d 3b07 d3bd
000000a0: bed4 4ebd c4b7 f9bd e05e 0cbe 7a3b 8b3d
000000b0: 5be1 3dbb c7d4 4c3c 2948 1bbe 4b12 ca3d
000000c0: 3f36 0abe f567 07be fcfc 013e 4d4c 6a3d
000000d0: dd25 1e3b a584 16be 79f6 7bbd 2683 cdbc
000000e0: a733 ae3d d273 92bd e2a0 b8bd e5cb 2f3d
000000f0: acfc 403c ff84 df3d 15ca 3ebd 4dce a5bd
00000100: 3859 42bc 90b6 46bc 8c52 d93d 7db2 8dbd
00000110: 8bff 1bbe 26bf d83c 0886 003e d971 25bd
00000120: b943 da3d 3c7a d03d 7bc0 953d 4845 d23d
00000130: b64a 08be c4ea 043e 6601 8d38 3eb2 db3d
00000140: 2566 973d a421 e93d 6722 b43d 2b96 01be
00000150: 6886 9ebd a311 033e a9a4 ddbd 620c a8bd
00000160: 3eff 303d aed3 b13d 31bc 40be 815d 19be
00000170: 4f4a b53d 1c17 5ebd 506e 233d c5aa f5bd
00000180: 8117 f63d 33f4 a9bd 2410 6dbd 2b1d 86ba
00000190: 200b 823d ec25 0abe 904d 643d 0695 ca3d
000001a0: 4549 533d c937 acbd b2d8 363d acf4 cc3d
000001b0: de1d a53d 8370 4dbe 5432 50bd 1b7a 493e
000001c0: 599b ddbd f03c 01be 2345 ff3b 9046 8ebd
000001d0: e21e 45bd 432e 26be 4998 10bc e534 adbc
000001e0: 7078 bb3d 24f9 d8bd 0f2b eb3d b98e edbd
000001f0: 88ba 8dbd d238 1b3e e41e 92bd 6b84 1d3d
00000200: 9322 dd3d f159 e33d 38d2 943d d92d 63bc
00000210: ac13 163d 182e 29bd 4032 863d 47ad 87bb
00000220: 8688 0c3b 6c19 8839 21be 02be 619e dc3d
00000230: ac77 b33c 37e5 f53d 7673 d13c 640a 2a3e
00000240: 853a ffbd 72b1 8ebd ca1b a03b b00c d53d
00000250: 328c 04be 38db a53d 82fe 07be bcf2 043e
00000260: 7ec3 dfbd 4a05 5e3d 2a33 51bd a4c7 983d
00000270: f34f 0abe 71f4 6d3d 6903 14be b34c 073e
00000280: 2b6f 2f3e 7798 b13d 879f 893d e83e 0e3e
00000290: 9287 1cbd e493 02bd 5cfd 1abe bf31 da3d
000002a0: 6056 9e3d 9a13 a3bd 8f63 0c3e f2a1 863d
000002b0: c46f 843d 134c 7cbd d018 9dbd 2fe7 0bbe
000002c0: 3e32 c13d 8dc8 113d 27ec ff3d 8400 b73d
000002d0: a8f6 143d e9f8 c33d 4a1b b23c 8aed e8bc
000002e0: f0b9 633d b6a5 2f3d e4c4 ccbd 4c38 bcbd
000002f0: 19ca b23c c483 34bd 0968 0f3d b3c7 363e
00000300: 2c89 47bd c44f 88bd 1742 473b d237 5b3d
00000310: 95e7 e2bd 5659 743d 6923 a5bd d924 093e
00000320: 8e66 f93c 0c16 1c3e a732 f9bb ff7b 21be
00000330: 4f2c 3c3e f2cf 5dbd 375d febc 0a70 393e
00000340: 242f b03d 3bd0 47be e0de 243d 2d83 a43c
00000350: a6c2 163e d57c c8bd fad4 02be 80ee 4abd
00000360: 7814 c5bd 2cea 553d 1930 283d e4ba 9fbd
00000370: e435 a43d 13c4 6439 1edc 9dbb c96d 82bd
00000380: 1d59 c6bd 56f5 72bd f2d0 1f3e 4d64 9a3d
00000390: 0042 e2bd 797b 11bd 64b1 19be f67a 863e
000003a0: a433 b13d e625 be3d 7be0 6ebd 84df 213d
000003b0: a2dd a43c 3f83 bb3d 4f68 78bd cde8 773e
000003c0: 704d 3fbe e484 efbd 1dbc e3bd 37ff 5fbd
000003d0: 08b4 1d3e 4c1d cc3c 4ee8 ef3d 377b 543c
000003e0: bb18 cc3d db4f 0bbe 6d86 e63d 768a 7fbd
000003f0: a1a0 413d 514d debd b505 a0bd 5dd8 093e
0.02532101 0.030813273 0.069791466 -0.05135268 0.13707627 -0.088240094 -0.15090898 -0.020267606
-0.14710842 0.03801898 0.14112896 -0.07528631 0.052035198 -0.079672135 0.028541693 0.0694591
-0.120881975 0.09033231 -0.07621992 -0.012047805 0.041571837 0.12861826 -0.084263 -0.1588287
0.009277688 0.061670505 -0.050198734 0.09887565 -0.08563158 0.09320036 0.026373986 -0.03301442
-0.122423716 -0.07010774 0.08240099 0.13781142 -0.058082506 -0.09708348 0.08017172 -0.103041135
-0.050495856 -0.12193254 -0.13708067 0.06798454 -0.0028973434 0.012501902 -0.15164246 0.0986677
-0.13497256 -0.1322325 0.12694162 0.057201672 0.0024131455 -0.14699037 -0.06151435 -0.02508695
0.08505946 -0.07150997 -0.09015061 0.04291906 0.011778992 0.10914039 -0.04657944 -0.080959894
-0.011862092 -0.012128487 0.10611448 -0.069188096 -0.152342 0.026458334 0.12551129 -0.040391777
0.10657448 0.10179564 0.07312103 0.102671206 -0.1330975 0.12980181 6.7236644e-05 0.107273564
0.073925294 0.113833696 0.08795624 -0.12654941 -0.0774048 0.12799697 -0.10822422 -0.08205487
0.043212168 0.08682953 -0.1882179 -0.14977075 0.08852064 -0.054221258 0.039900124 -0.11995462
0.12016202 -0.082985304 -0.05787672 -0.0010232081 0.06349778 -0.13491029 0.055738032 0.09891705
0.051583547 -0.08409078 0.04464025 0.10007605 0.08062337 -0.20062451 -0.050829247 0.19675486
-0.10820646 -0.12620902 0.007790224 -0.069470525 -0.048125155 -0.16228585 -0.00882537 -0.021143386
0.09153831 -0.10594395 0.11482822 -0.11599488 -0.06920344 0.15158394 -0.07134798 0.03845636
0.1079761 0.11101139 0.072666585 -0.013865911 0.036639854 -0.041303724 0.06552553 -0.0041405293
0.002144368 0.00025958882 -0.12767841 0.10772396 0.02190765 0.1200661 0.025567751 0.16605526
-0.124623336 -0.06967439 0.004886125 0.104028106 -0.12944105 0.08098453 -0.13280681 0.12983221
-0.10925959 0.054204263 -0.051074184 0.074599534 -0.1350706 0.058094446 -0.14454426 0.13212852
0.17132251 0.086716585 0.067198806 0.13891184 -0.038215227 -0.03187932 -0.15135711 0.106540196
0.077313185 -0.07962723 0.13709854 0.06573857 0.0646663 -0.061595988 -0.07670748 -0.13662408
0.09433411 0.03559165 0.12496214 0.08935645 0.036368042 0.0956896 0.021741528 -0.02843358
0.055597246 0.042882644 -0.099984914 -0.09190425 0.021824883 -0.044070974 0.035011325 0.17849617
-0.0487148 -0.06655839 0.0030404383 0.05352003 -0.11079327 0.05965551 -0.080633946 0.13392963
0.03044441 0.15242785 -0.007604915 -0.15769957 0.18376277 -0.05415339 -0.031050308 0.18109146
0.08602741 -0.19513027 0.040251613 0.02008208 0.1472269 -0.09789435 -0.12776557 -0.049543858
-0.09623045 0.052225277 0.041061494 -0.077993184 0.08018091 0.00021816818 -0.0048175 -0.06368596
-0.09684966 -0.059316 0.1560705 0.07538662 -0.11047745 -0.035518143 -0.15009075 0.26265687
0.08652428 0.09284572 -0.05831955 0.0395198 0.020125214 0.091558926 -0.06064635 0.242099
-0.18681884 -0.11695269 -0.11119864 -0.05468675 0.15400708 0.024916314 0.117142305 0.01296883
0.099656545 -0.13604681 0.112561084 -0.062387906 0.04727233 -0.10854591 -0.078135885 0.13461442

net.2.bias f4 [50]
00000000: 7ae0 0d3e 98fa 19be 733b 1ebe c1a6 d13d
00000010: 9057 1a3c d37f 94bd 8741 00bd e7f3 ebbc
00000020: 694a 0ebe 2ed2 673e 14e1 d6bc bc1b 8aba
00000030: 705c 9c3d 3cac 87bd 6f25 c5bd 0b36 7a3c
00000040: 6d6a c43d be87 0fbe 578a 44be 569e aebd
00000050: efce 06be 017f 86bd ef0b 1cbe 9963 cc3d
00000060: d1bc eb3d 48af 99bd 9561 c3bd 90ea 6cbe
00000070: a228 093d e303 42be a290 933d 668e 5f3e
00000080: 3c03 2b3e 2084 623c 1c4f 083e ea3e 85bd
00000090: 30e3 103d 379b f83b 2bc4 16be 1d0e c73c
000000a0: 814f 34bd 48ff 16be 7d68 8abd ce2f 123e
000000b0: 1819 0bbe 972d eebb 99f4 6d3c 8dd1 743c
000000c0: d318 ea3d cfae 9f3c
0.13855162 -0.15037 -0.15452366 0.10236884 0.009420291 -0.07250943 -0.03131249 -0.028802825
-0.13895573 0.22638771 -0.026230372 -0.001053683 0.076348186 -0.06624648 -0.096262805 0.015271674
0.095906116 -0.14016625 -0.19193397 -0.08526294 -0.13164876 -0.06567193 -0.15238927 0.09979934
0.11510623 -0.07504135 -0.09540097 -0.23136353 0.033486016 -0.18946795 0.07205321 0.21831664
0.16700453 0.013825446 0.13311428 -0.065061405 0.035372913 0.0075868624 -0.1472327 0.024298722
-0.044021133 -0.1474582 -0.06758211 0.14276049 -0.13583791 -0.0072686183 0.014523649 0.014942539
0.11430516 0.019492535

net.4.weight f4 [50, 50]
00000000: 8cc1 25be 48b6 5e3d 71c5 01bc edb4 093e
00000010: 3983 d8bb 8219 2e3d 6b27 d63d 2151 49bd
00000020: a7d2 66bc 334f 55bd 7f61 83bd 2a51 8e3d
00000030: a846 5abb af75 b2bd 8c38 c83d 61d3 4dbe
00000040: 91bf 4a3d 8d25 443e 51f7 21bd 0ddc 0dbe
00000050: af4e 183d 3fcb fd3c 1dcf b43d 0597 f7bc
00000060: b59b da3d 12aa 0d3e b7ae bf3d 741a f93d
00000070: 4bb4 3abe 0bbc af3d 985a 843d 3fde 25bc
00000080: 7e89 ab3d 130d 0abd 8988 a4bd 35a6 0a3e
00000090: 09c3 0abe 66d6 7fbd f319 5fbb 6cb2 f3bb
000000a0: d4a5 8abd 617c 83bc 4c50 9cbd ed96 42bd
000000b0: 6a24 aabc 7003 273d 9ede f03b 0dae 9dbc
000000c0: 8915 a43d ccbc 0abe feaf f33d 88ef acbd
000000d0: 5a11 1abe 74fc 98bd af71 debc 8f92 f63d
000000e0: 8b4e b6bc fead 46be ece8 5abd 61ed 2a3d
000000f0: b740 1ebd 5a49 853d 3c18 55be 1546 6dbd
00000100: 9260 2abb a2bb 68bd c3cd 103e cb46 0ebe
00000110: 923a e93d 6463 ddbd 175e 5dbd f17d d93c
00000120: 1b1f 953d 3652 d9bb cfb0 ccbb c4f0 cb3d
00000130: 12e4 4abc b4bd bb3d 85fc 89bc 585e bfbd
00000140: 3a0c a13c 67f0 dcbd b08d 0d3c 7c42 c4bd
00000150: b5c4 27bd a140 043d a62e f9bc 8d6e 8b3d
00000160: febd 053c 78ab df3c 2cff 0e3d a556 3cbd
00000170: eaa9 9bbd 54e1 003e dd16 b5bd ee32 09bd
00000180: ac5e 26be 0a03 dfbd 0b7c 3abd 0152 f7bb
00000190: b18a 6a3d 781f 653d 315a 21bd 644e edbd
000001a0: edd9 e6bd 2a75 8e3b aedf e0bd 98e9 00be
000001b0: a56d ab3d 4659 60bd 4268 063e fde1 523d
000001c0: 8ef2 32be 9962 01be 804c b63d f375 023e
000001d0: 6a33 98bd 08f6 913d 2ea2 22be c970 dd3d
000001e0: 8500 e8bc a19f af3d d311 ca3d a004 2b3e
000001f0: 724e 9c3d 588f 94bb c899 7e3c 61c5 613d
00000200: c93a 98bd fa19 323d 755e 033e dcd9 f13d
00000210: d71b de3d 802b 083d 31da 8e3c 0135 dcbb
00000220: 8eaf 283e 212c 35bc 5dd6 453c 0988 a3bc
00000230: d2d4 9a3d c169 8cbd a7fe ffbd ba5b e43d
00000240: 1bab 9d3c d135 ab3d aca0 eabd f987 153e
00000250: febb df3c 6565 f43d c8c9 3fbe 29c8 af3d
00000260: 0967 b43a b847 fd3d d3ff e6bd 6fbe a9bd
00000270: 3cca a23d 552d 36be d7e8 5abd 928b 47be
00000280: c639 c8bd d099 1abd abff 1cbe 68a5 a4bd
00000290: 6b37 9bbd 58de 5d3c a839 1b3d 00bf 093e
000002a0: d8b9 e9bd 3571 e7bd 4a2e 3a3e 086b 403e
000002b0: 1b2e d7bc 227b b73d e9d3 e8bc 8366 013e
000002c0: 405f 843c 07a7 ec3d d531 a0be 3c15 663e
000002d0: 402d f43c 5987 d7bd ce48 4dbe 6051 64be
000002e0: df87 dc3c 457a cebb 7742 1d3e 301a 493e
000002f0: 8d8d a1bd a92f 71bd cf23 c33d 0bb5 563e
00000300: c2e3 153c 06e7 27be e62a 9cbd 80fb bfbc
00000310: 4b66 b1bd 5382 7a3e 6463 073d c802 cb3c
00000320: a384 613d 5367 c93d e26b bebd 9da0 06bd
00000330: 1301 58bd 48b4 05bd a03e 683d e77d f5bd
00000340: 3e95 0abe 0066 ed3d d5ce 173e 0424 f43d
00000350: c503 20bd e8e8 073d eac8 d93a a728 303d
00000360: 2381 b0bd b6dd 30be 4833 f73c e4ff a63b
00000370: 17a3 a7bd a3e6 7bbd 63ad ca3d f0e8 c2bd
00000380: 0fd6 983a b584 f8bc 1063 07bd cf97 1f3d
00000390: 9000 903d 26c3 9c3c 4924 373d 9c87 9cbd
000003a0: 3bf3 0d3e 9f3f c03d f7d5 8bbd 0bcb 073e
000003b0: 8e0b d83d db78 b53d 870a cf3d a98d 663d
000003c0: 658b 9dbd 49c7 31be 2cf9 583d 7463 a33d
000003d0: b423 a2bd 7ecc 2cbc 37a6 cabd aeab dc3d
000003e0: 4b6b 033e 78c9 fcbd 97bc 0e3e 6480 fe3d
000003f0: 264f eb3c 6b75 e83d e44a a6bd f997 00be
-0.16187114 0.054373056 -0.007920609 0.13447924 -0.00660744 0.042504795 0.10456737 -0.049149636
-0.014088309 -0.052077483 -0.0641508 0.069490746 -0.0033306275 -0.087138526 0.097764105 -0.20100166
0.0494991 0.1915495 -0.0395425 -0.13853474 0.037184414 0.030980704 0.08828566 -0.030223379
0.1067423 0.13834408 0.09359496 0.12163249 -0.18232839 0.08580788 0.06462592 -0.010123788
0.08375834 -0.033703875 -0.080338545 0.13539965 -0.13550963 -0.062460326 -0.0034042567 -0.007437041
-0.067699105 -0.01605052 -0.07632503 -0.047507215 -0.020769317 0.040774763 0.007350757 -0.019248033
0.0801192 -0.13548583 0.11898802 -0.084441245 -0.15045682 -0.074700266 -0.027153818 0.120396726
-0.02225425 -0.1940231 -0.053444788 0.04173029 -0.038635936 0.06508131 -0.20810026 -0.057928164
-0.0025997502 -0.056819566 0.14140992 -0.13894193 0.113881245 -0.10809973 -0.05404481 0.026549311
0.072813235 -0.0066321148 -0.006246663 0.09958032 -0.012383478 0.091670424 -0.016844044 -0.093441665
0.01965915 -0.107880406 0.008639738 -0.095829934 -0.04095908 0.032288197 -0.030417752 0.06808195
0.008162973 0.027303442 0.03491132 -0.04598107 -0.07600768 0.12585956 -0.088422514 -0.033495836
-0.16247052 -0.108892515 -0.045528453 -0.0075476174 0.057261173 0.055938214 -0.039392654 -0.115872175
-0.11272035 0.004347463 -0.109801635 -0.12589109 0.083705224 -0.054772638 0.13125709 0.05148505
-0.1747534 -0.12635268 0.0890131 0.12740307 -0.074316815 0.07127005 -0.15882179 0.10812528
-0.02832056 0.08575369 0.09866681 0.16700983 0.0763215 -0.0045336895 0.015539594 0.055119876
-0.074330874 0.043481804 0.12829001 0.118091315 0.10845154 0.03324461 0.017438026 -0.0067201857
0.16473219 -0.011057884 0.012075034 -0.019962328 0.075601235 -0.068561085 -0.12499743 0.11150308
0.019246629 0.08359874 -0.11456427 0.1460265 0.027311321 0.11933402 -0.18729317 0.085830994
0.0013763617 0.12367195 -0.11279263 -0.082882755 0.079487294 -0.1779073 -0.05344471 -0.19486836
-0.097766444 -0.037744343 -0.15331905 -0.08039361 -0.075789295 0.01354178 0.037896782 0.13451767
-0.114124 -0.113008894 0.1818172 0.18790829 -0.026267102 0.089590326 -0.02842136 0.12636761
0.0161587 0.115552954 -0.3128802 0.22469038 0.029806733 -0.105238624 -0.20047304 -0.22296667
0.026920257 -0.0063011968 0.15357386 0.19638896 -0.07888327 -0.058883343 0.09528314 0.209675
0.00914854 -0.16396722 -0.0762537 -0.023435354 -0.08662089 0.24463777 0.03305377 0.0247816
0.055058133 0.09834161 -0.09297921 -0.032868017 -0.0527354 -0.032642633 0.05670035 -0.119869046
-0.13533494 0.115917206 0.14824994 0.11920932 -0.039066095 0.0331811 0.0016615663 0.04300752
-0.08618381 -0.17272076 0.03017582 0.0050964225 -0.08185404 -0.06149925 0.09896352 -0.095170856
0.0011660474 -0.030336717 -0.033053458 0.038963135 0.07031357 0.019136023 0.04471234 -0.07643053
0.13862316 0.09387135 -0.0682792 0.13261048 0.10549079 0.08860942 0.1010943 0.05628744
-0.07692603 -0.17361178 0.052972004 0.079779536 -0.07916966 -0.010546802 -0.09894984 0.10774933
0.12833898 -0.123431146 0.13939129 0.12426832 0.028724264 0.11350521 -0.08119753 -0.12557973

net.4.bias f4 [50]
00000000: 144e f93b 23a8 2a3e 9e6d d93c 9901 133d
00000010: 0fb6 4e3e 4506 ecbd 0df3 153c 05cc bc3d
00000020: 37cd c7bc 56a5 e73c f006 babd 34b2 d5bb
00000030: 7d95 a13d fdb2 6e3e dfa5 e3bc bc2f 3a3e
00000040: b1a8 18be 0bba 00bd 3e58 c63d 25d5 3ebe
00000050: 9f69 683e 630d 213e d402 a13c c699 4abe
00000060: c93c 83bc 8771 a63d c88d 92bc 0e49 293e
00000070: d3a0 8c3b 1bd7 093e b0fa 16be aa75 36be
00000080: 5f91 b33c 6543 123e 3610 a0bc e45a 6a3e
00000090: 416a 4d3d 172b 08be 9fac fbbd ae08 5dbe
000000a0: 1bff c6bc d0f0 bf3d e7e8 d33b f6e3 a8bd
000000b0: 4691 d93c 2df1 59bc 5881 7bbb de05 803d
000000c0: ed6f c23d 5597 27be
0.0076081846 0.16665702 0.026541527 0.035890196 0.20186637 -0.11524633 0.009152186 0.09218601
-0.024389846 0.02827708 -0.090833545 -0.0065214876 0.07889841 0.23310466 -0.027789054 0.18182272
-0.149081 -0.031427424 0.096847996 -0.18635996 0.22696541 0.15727763 0.019654669 -0.19785222
-0.016020196 0.08127122 -0.017889872 0.16531774 0.0042916327 0.13460962 -0.14744067 -0.17818323
0.021919904 0.14283521 -0.01953898 0.22886235 0.05015016 -0.13297687 -0.12288784 -0.21585342
-0.024291566 0.09372103 0.006466973 -0.08246605 0.02655853 -0.01330213 -0.0038376655 0.06251119
0.094940044 -0.16366322

net.6.weight f4 [1, 50]
00000000: effb bd3c 3a87 083d 7755 ce3d 957a cb3d
00000010: 7b61 b63d ac06 30bc 5f83 c73c ac98 f33d
00000020: 472b 063e ece9 2ebd d643 edbd 174c cdbc
00000030: 731a 8a3d fe65 433d 48a7 da3d c1b8 9d3d
00000040: 64a2 bdbd 6c2d e5bd d19e 373d 2710 cabd
00000050: 65aa c83d 9595 2b3d 5ce2 e13b 53f1 1dbd
00000060: 9cd7 583c 5a1e 4d3d 8180 01bd 555c a43d
00000070: 07c6 7d3d 77e0 2f3a f822 f7bd 015b 8bbd
00000080: dc67 443d 2457 2e3e 41e2 e4bd 7522 0c3e
00000090: 9e3c 4d3d 6863 8cbc 6b20 00be 5a62 40bd
000000a0: 7a00 3ebb 58fd f13d 22d6 e8bd 42c3 10be
000000b0: df5f 7539 8694 50bb 38b5 06bd e8c4 1d3d
000000c0: 2e5d b33d f4d8 45bd
0.02319142 0.033332087 0.10074895 0.0993549 0.08905312 -0.010743778 0.024354635 0.11894354
0.13102446 -0.042703554 -0.11585204 -0.025060697 0.06743326 0.04770469 0.106764376 0.07701255
-0.09259489 -0.11190304 0.044829194 -0.09866362 0.09798125 0.0418907 0.006893439 -0.038560223
0.013234999 0.050077774 -0.03161669 0.080254234 0.06195643 0.0006709168 -0.12067217 -0.06804467
0.04795061 0.17025429 -0.11175967 0.1368502 0.050106637 -0.017137244 -0.12512366 -0.046968795
-0.0028991983 0.118158996 -0.113689676 -0.14136985 0.00023400736 -0.0031826808 -0.032887667 0.038517863
0.08758007 -0.048302606
