gail/gail_output/200_expert/Pendulum-v1/policy.ckpt (torch, 23383 bytes, 7 tensors)

net.0.weight f4 [50, 3]
00000000: 1379 71bd 379b 703e ba7a 923e a7e4 22be
00000010: 1aa9 1ebf 2e6e d0be a908 acbe c3c5 1cbe
00000020: 2435 94be d1e9 27bd f509 1abf cc87 bebe
00000030: e5fa 053e 95af 04be 84e4 a0be e62b d9be
00000040: 8dca f9be b1e9 97be 0134 9bbe 5d86 8f3e
00000050: 15d6 ab3e 47f1 b13e d8aa 81bd c58f 01bf
00000060: e90a 98be 2ada a93e fad0 9f3d defe c0be
00000070: 15c4 f1be f452 e13d 031a 0bbf 5a1b db3e
00000080: 9f37 ce3e 9214 f43e 5133 b63e b058 153e
00000090: dd33 c23d cb8a 39be ab9b 8dbe f2f2 dc3e
000000a0: 54c0 11bf 9b07 4c3e 09e2 163f eb4e ae3e
000000b0: 8117 a93e ded7 d0bb ab05 113f c507 1a3e
000000c0: 590f ad3d d177 64be b348 32be 2b68 b53d
000000d0: 03f3 0fbf bcd3 1e3e 464a e4be 0d64 c8be
000000e0: 445f a8be df61 8fb9 ee85 0b3e 7fcb 91be
000000f0: a0f9 1a3f 9856 4a3f 8940 893e 42b8 6ebf
00000100: ec74 b73d 9383 6dbd e7f2 bdbe 5aa5 fe3e
00000110: 707f 8dbe 2a86 cf3d b5ba 183f 6d16 4b3e
00000120: 49be ae3f 75fe 87bf 3105 aebe a14c fb3e
00000130: f0d6 973e 326c 8e3e 0b28 a1be 8c0b 16bf
00000140: c5d8 e6be 3785 9bbe b98f 823e 0f16 c03e
00000150: dde5 fc3e 9233 b5be 25f1 94bd 25b2 b63e
00000160: c71c e43e ade3 d03e 8288 743e 6993 b9bd
00000170: 0ddc bf3e 69dd 83bc 15d4 af3e 6cd9 cb3e
00000180: 4ef3 e0be bbaa b73b e1a4 853e 002f 9fbf
00000190: 0df9 a3bf b3b3 e2be b904 273d 22a4 09bf
000001a0: 8be4 933e 7504 f73e df15 133f 32ba ca3e
000001b0: 2528 373e bd16 5abe 4755 c9be 6b6d c23e
000001c0: 0bf6 853e 4c71 fc3d 5f09 5e3e 2c5f 8f3d
000001d0: 864d a53e 4485 b33d 1c56 3cbe 0f2d 5b3e
000001e0: d436 51be eeea 06bf c572 4fbe 20e3 783e
000001f0: c95a e8bd 1bd7 cdbe fdf0 be3d 623e 40bf
00000200: 2c29 e8be 2325 01bf 94ec 43be 6eec 85be
00000210: 4a5b f9be 6106 c23d 17a9 40bf 47f5 d13e
00000220: e6aa b63e b847 e2be 9091 09be 7b5a 23bc
00000230: 2d5d 71be ade2 f23e 7736 dfbe a285 48bf
00000240: f322 0c3d 5bf7 8ebe bd39 b83e 1b9a 033f
00000250: 9824 943e 9974 f6be
-0.058953356 0.2349671 0.28609258 -0.15907536 -0.6197678 -0.4070906 -0.33600357 -0.15309815
-0.28946793 -0.04099447 -0.60171443 -0.3721298 0.1308399 -0.12957604 -0.31424344 -0.42416304
-0.48787346 -0.2967048 -0.30313113 0.280322 0.3356177 0.34754393 -0.06331414 -0.5061
-0.29695824 0.33174258 0.07803531 -0.37694448 -0.4721991 0.1100215 -0.54336566 0.42794305
0.4027681 0.47671944 0.35586026 0.14584613 0.094825484 -0.18119352 -0.27657828 0.43154103
-0.56934094 0.19924776 0.5893865 0.34044585 0.33025745 -0.0063733896 0.56649274 0.15042026
0.08450193 -0.22311331 -0.17410545 0.08857759 -0.5623018 0.15510458 -0.44587916 -0.39138833
-0.32885182 -0.00027348005 0.13625309 -0.28475568 0.6053715 0.7903838 0.2680705 -0.93249905
0.08957848 -0.057986807 -0.37099382 0.49735528 -0.2763629 0.10133012 0.5965989 0.19832774
1.365182 -1.0624529 -0.33988336 0.490819 0.29656172 0.2781692 -0.31475863 -0.5861137
-0.45087257 -0.30375072 0.25500277 0.3751683 0.49394122 -0.35390908 -0.07272557 0.35682788
0.44553205 0.40798703 0.23880199 -0.090613194 0.37472573 -0.016096788 0.34341493 0.39814317
-0.43935627 0.0056050695 0.26102355 -1.2436218 -1.2810379 -0.44277725 0.04077599 -0.5376607
0.28885302 0.48245588 0.5745525 0.3959518 0.17886408 -0.21297736 -0.39322874 0.37974104
0.26164278 0.12326297 0.21683262 0.070005745 0.32285708 0.08765653 -0.18392223 0.21403907
-0.20431072 -0.52702224 -0.20258625 0.24305391 -0.11345441 -0.40203175 0.093233086 -0.7509519
-0.45343912 -0.5044729 -0.19133216 -0.26156944 -0.4870246 0.09473873 -0.7525801 0.41007444
0.3567726 -0.44195342 -0.13434434 -0.009970303 -0.235707 0.47438565 -0.4359624 -0.7832891
0.034213018 -0.27923092 0.3598155 0.5140702 0.2893417 -0.48135832

net.0.bias f4 [50]
00000000: 3d2a 21be d7dc e13e e20a 5c3d d769 253e
00000010: 548f fdba 2623 32be 5e01 fc3e abb6 a33e
00000020: 3401 ca3e 36fb 0f3f a708 50be 0489 0bbf
00000030: 5c09 c5be d146 4a3f 35e0 e5be 7178 85bd
00000040: 46cb 03bd 77a6 4a3e da12 e5be e4c2 173e
00000050: de8e 833e 6abe 43bf f801 543e 38f3 88be
00000060: 4dfd 92bf 3d27 123e eec7 8c3d a52b 9a3e
00000070: 636e 763e b926 223f 3e29 28be 829f e23e
00000080: bdad 58be eea5 a63f 5252 03bf a4ca 13bf
00000090: 4e28 03be 5119 d5be 4dc2 c6bd 75fc b83e
000000a0: f90e 043e c8d1 a73e 1eea 56be c02d dbbd
000000b0: 5f68 6fbe 82a6 783e 4479 c9be 6ca8 a03d
000000c0: c96a e5be 2b52 2c3d
-0.15738769 0.441138 0.053721316 0.16153656 -0.0019345083 -0.1739622 0.49219793 0.31975302
0.39454043 0.5624269 -0.203158 -0.54505944 -0.38483703 0.7901431 -0.4489762 -0.06517113
-0.03217628 0.19790064 -0.44740945 0.14820439 0.25694937 -0.76462424 0.20703876 -0.2674806
-1.1483551 0.1427278 0.06874071 0.30111423 0.24065547 0.63340336 -0.16421983 0.4426232
-0.21160026 1.3019388 -0.51297486 -0.5773108 -0.12808344 -0.41620877 -0.09705029 0.3613011
0.12896337 0.32777238 -0.20987746 -0.107020855 -0.23379658 0.24282268 -0.3935033 0.07844624
-0.44808033 0.04207055

net.2.weight f4 [50, 50]
00000000: 3853 ba3d 1ecd 003e 1b67 ecbd f9b8 f9bd
00000010: d0ce 573d 9beb 303c 193d 50bd a9bd 3c3d
00000020: 09c7 9fbd a8e2 6d3d bd2f a43d 4ab1 bf3d
00000030: bc47 0cbd 7b59 acbc c8ca f3bd a2b2 c4bd
00000040: 3daf c3bd 5639 393b 353f 053e 5fde a4bc
00000050: bca7 93bd 5ce9 853d 546e 2b3c d346 37bd
00000060: 36c2 abbd 6344 b5ba c559 c03b 39be 2c3d
00000070: a5c5 a73d f9cc 11be deb5 a63d 4dbb 893c
00000080: 0b2c dcbd a08f a8bd 79dc 78bd 9166 d23d
00000090: 91ce 3cbc 81fb 9cbd 2cce 11bd c7dc de3d
000000a0: f208 ce3d 4800 403d 5ffb 8e3c 1d6f cabd
000000b0: b43e c5bd 6bed 52bb 6008 f5bd 30df 893d
000000c0: 256d f43c 30ac 9d3d 5f17 f4bd 9371 773b
000000d0: f320 983c bdd8 2e3d e1a5 ebbd 5cdb edbc
000000e0: 5569 8c3d a3f3 c1bc 614b ef3b f83c a33d
000000f0: d97e 633d b842 173e dec2 02be 367b 25be
00000100: 8d8e 883d 6f84 aa3d b735 b83d 3739 123d
00000110: e798 5d3d 585c f3bc 3e04 123e cbdb 153c
00000120: 3c68 e63d 3ec1 1dbd 7965 523e 49d0 8abd
00000130: d10b 063d 8f68 febd df73 e8bd f037 043e
00000140: ef69 fcbd c9b3 d5bd e38e e4ba 8af7 3a3e
00000150: 37d4 4bbd 7e75 b0bd 0440 553c 12b3 d23b
00000160: 65e6 053e 0274 b73a 14ea 91bc 5e57 9cbd
00000170: 6af7 e6bd f908 06be 07bf 50bc 1267 c13c
00000180: d28c c83d 749f c43c b6a7 d2bb 3324 cfbc
00000190: cfc4 45bd 3500 cebd 37f9 db3d 2a54 063e
000001a0: 6dc9 823d d1f5 54bd 8db8 bb3d 739f 733d
000001b0: 92bc 0b3e a4e4 a1bd 9702 c43d d02d 54bd
000001c0: 2de5 f5bd fa3a 57be a0fd febd 7f29 213e
000001d0: fd0d 45bd 13ac 333e 0c86 ffbd 9be9 8d3d
000001e0: 1d23 4d3e 3c5b 523e 666d 853d 83ed 4c3e
000001f0: 88cc c53e dc7a 4dbd ada1 4e3b e406 e93d
00000200: 944a 0cbe 15a5 ee3d 4d7d 2bbc 9fba 7abd
00000210: a414 8d3d 3d69 4a3e fab4 6b3d 1019 43bd
00000220: 82f0 5a3d 7410 d7bc 7920 023d 2118 f2bd
00000230: a437 28be 29ce 9c3d 90b8 493c 2aec cdbd
00000240: c991 2cbd ad7c 1d3d 8eec d8bc 7e95 75be
00000250: 5418 0a3c 860d 933d fcbf 82bd 7d5d aabc
00000260: c921 b9bd 92bd e9bc e272 88bd d9cd 9bbd
00000270: bae3 c6bc 5922 11bd 283f 34bd 8a9c 173e
00000280: e4fd b1bd 5bbc bc3c 051a 653d 5f54 02be
00000290: 01d5 0cbe 0509 6b3d 8dcf 8d3d 30b0 7a3d
000002a0: 1a9e f6bd 0a76 a53d 3426 1c3e d7f0 f43b
000002b0: ab84 81bc cc15 f43d f015 e63d cf34 d0bd
000002c0: f8e2 fb3d 27ab 88bc 57ee fcbd 2d24 b73d
000002d0: 9ae8 c13d 89e1 31bd 658b ab3c a8c3 4d3e
000002e0: b531 15be 40a0 903b af73 e83d 0717 2a3d
000002f0: 6132 c9bd 3b37 27bc 8b71 243d ccd6 09be
00000300: 22c9 083e 3688 373d d20d 86bd 4708 bcbd
00000310: 6e4e e7bd 041d b3bd dd63 803d 9dcf 683d
00000320: 40e7 e5bd 5855 abbd e87e 07bd ec38 493c
00000330: f656 c7bd 426d e43d 2269 bb3b 0136 c83d
00000340: 8676 0dbe c950 8cbd 1326 54bd b7c0 50bd
00000350: ab3c 063e 3dd7 e93c fce0 35bd e8b2 fabc
00000360: 6c62 c63d 0585 f93c 2ac2 c9bd f0a8 db3c
00000370: 2443 223e 6f94 bd3d ae09 a53c ae06 f2bc
00000380: 8143 073e 687d 14bc 605d f63d ef9e 88bd
00000390: e678 77bc 20ce 313d 2b8a d13d 69c8 a6bd
000003a0: c83d 30bd f1ff 683d 3777 db3b 884b 013e
000003b0: f637 59bc d493 ef3d 060d 703d bfca 8fbd
000003c0: 9623 27bd f81e e3bd fcaa a63d 2a01 11be
000003d0: c185 023e 264d 0f3e 6a4e d4ba 4a2a 0fbd
000003e0: 7f52 27bb 0232 8fbd 5f57 86bd 12ce d23d
000003f0: e7e3 123c 8bf2 ecbc a4a7 d03d 1ac6 523d
0.09097904 0.12578246 -0.11543103 -0.12193484 0.052687466 0.01079836 -0.050839517 0.04607931
-0.07801635 0.058077484 0.08016918 0.09359987 -0.0342481 -0.021038761 -0.11903912 -0.09604384
-0.095549084 0.0028262935 0.13012393 -0.020125566 -0.07209727 0.065386504 0.010463316 -0.044745278
-0.08386652 -0.0013829585 0.0058700764 0.042173598 0.081919946 -0.14238347 0.08140157 0.016812945
-0.10750588 -0.08230519 -0.060757134 0.10273469 -0.011523859 -0.07665158 -0.03559701 0.10881954
0.100603 0.04687527 0.017453847 -0.098844744 -0.096311 -0.003218497 -0.11964488 0.06732023
0.0298372 0.07698858 -0.1191852 0.0037756904 0.018570399 0.042687166 -0.11506248 -0.029035263
0.06856028 -0.023675745 0.007302687 0.07970613 0.055540893 0.14771545 -0.12769648 -0.16160282
0.066678144 0.08326041 0.0899462 0.035699096 0.054100897 -0.029707119 0.14259431 0.009146641
0.1125035 -0.03851437 0.20546521 -0.067780085 0.032726113 -0.12422287 -0.11350226 0.12911963
-0.12324893 -0.10434682 -0.0017437603 0.18258491 -0.04976293 -0.0861616 0.013015751 0.0064300383
0.1307617 0.0013996365 -0.017811812 -0.076338515 -0.11277659 -0.1308936 -0.012740857 0.023608718
0.09792484 0.024001814 -0.006428684 -0.025285816 -0.048283394 -0.10058633 0.10740893 0.13118044
0.06386075 -0.05199224 0.0916606 0.059478234 0.13646153 -0.07904938 0.095708065 -0.051801503
-0.120066024 -0.21018592 -0.12450719 0.15738486 -0.048109043 0.1754611 -0.12476739 0.06929322
0.20032926 0.20542616 0.06515007 0.20012479 0.38632607 -0.050165996 0.0031529472 0.113782674
-0.13700324 0.11652581 -0.010466886 -0.061213132 0.068887025 0.19766708 0.05754564 -0.047631323
0.053452022 -0.026252963 0.03176925 -0.118210085 -0.16427475 0.076565094 0.01231207 -0.1005481
-0.04213122 0.03844898 -0.026479986 -0.23982808 0.008428652 0.07180314 -0.06384274 -0.020796532
-0.09039647 -0.028532777 -0.06662537 -0.07607622 -0.02427851 -0.035433147 -0.044005543 0.14805809
-0.08691004 0.023039034 0.055933017 -0.12727498 -0.1375313 0.05738165 0.06924353 0.06120318
-0.12041874 0.08079155 0.15248948 0.0074749994 -0.015810331 0.1191822 0.11234653 -0.101663224
0.1229915 -0.016683174 -0.12350147 0.08942447 0.09468193 -0.043427978 0.020940492 0.20094168
-0.14569743 0.0044136345 0.1135019 0.041525867 -0.09824062 -0.010206039 0.040147346 -0.13460845
0.13357976 0.044807635 -0.06545605 -0.09181266 -0.11294256 -0.08745769 0.062690474 0.05683862
-0.11225748 -0.083658874 -0.03308001 0.012281638 -0.09733383 0.11153652 0.00571932 0.097759254
-0.13814744 -0.06851346 -0.051794123 -0.050965037 0.1310908 0.028545016 -0.044404015 -0.030602887
0.09686741 0.030458936 -0.09851487 0.026813954 0.15845925 0.09256827 0.020146217 -0.0295442
0.13209344 -0.009063102 0.120295286 -0.06670939 -0.015104508 0.043409467 0.102314316 -0.08143694
-0.04302767 0.05688471 0.006697561 0.12626469 -0.013257971 0.11698118 0.05860617 -0.070210926
-0.04080542 -0.11089891 0.081380814 -0.141606 0.12746336 0.13994274 -0.0016197686 -0.03495244
-0.002553135 -0.0699196 -0.065596335 0.10293211 0.008965469 -0.028924247 0.10188225 0.051458456

net.2.bias f4 [50]
00000000: d682 043e a455 05bd 84b1 81bd d5d8 61bd
00000010: 4c11 aabc 228c 633d 36e8 a33d 1cb0 7dbd
00000020: 844f 433e e024 d03d 95f5 12be 13c0 9b3d
00000030: 3d1d c63b 7dd1 863d 1033 5eba 4c75 bb3c
00000040: b3a0 953c 62cd c33d b230 83bd 0d1e ebbd
00000050: b319 babd 7217 48bd e656 c4bd 164d dd3a
00000060: 7026 5e3d af66 91bc 84b6 61bc 60d8 623b
00000070: 67f6 b9be 2e57 d13b 154b 0d3c 02e4 12be
00000080: f1bb efbc ff73 6f3d cdae 0a3d 2160 d93d
00000090: 34af b9bb 9587 6a3d 4e1c 9d3d 25a5 733c
000000a0: 4f76 18be cd71 a33d 88f6 06be d459 f5bc
000000b0: c600 fbbd 72ea 16be 2a19 15bd ff64 f63d
000000c0: c871 10bd df2a adbd
0.12940535 -0.032552376 -0.063326865 -0.055138428 -0.0207602 0.055553563 0.08003275 -0.06193553
0.19073302 0.10163283 -0.14351495 0.076049946 0.006045966 0.065829255 -0.0008476237 0.02288308
0.018265104 0.09560658 -0.06405772 -0.11480341 -0.09086933 -0.048850484 -0.09586887 0.0016883935
0.054235876 -0.017749159 -0.013776425 0.0034613833 -0.36320803 0.0063885665 0.008623858 -0.1434479
-0.029264422 0.058460232 0.03385811 0.10614038 -0.005666638 0.057258207 0.07671414 0.0148709165
-0.14888881 0.0798069 -0.13179982 -0.02995006 -0.12256007 -0.14737871 -0.03640095 0.12030982
-0.03526476 -0.08455443

net.4.weight f4 [50, 50]
00000000: f291 013d 5705 383d 6fad 513e cd20 cf3d
00000010: d3c9 fe3d 62ac 2f3e 2d6e e53d ecbd 003e
00000020: 7986 43bd 257b 473c 178b 50bd 6976 b6bd
00000030: 7974 a23d d1e9 27be 75b9 05bd 8615 b43d
00000040: 3172 4f3d a712 4d3d e0d4 7b3c a85a 51bd
00000050: 541f 303e 5ffb 58bd d443 a9bd 93b3 20bd
00000060: 5ba5 e4bd 52eb e83d f696 883d b656 2f3e
00000070: cd57 11be c64a abbd 7401 f5bd c825 1a3d
00000080: d3e0 80bd 2907 c93d d1f8 2dbd fa07 163e
00000090: 12b6 a13d 42c3 ef3d 3914 f83d de3d 0cbd
000000a0: f6b6 fb3c e104 853e 714c cc3c b124 bebd
000000b0: fc52 d53d c0ca 0abe 107d fabd 7c22 53bd
000000c0: a9ce 953d ab32 16be 28bd 373c d4f3 82bc
000000d0: f863 31be 93a3 15bb 47ea 85bc 8777 d1bd
000000e0: e248 00be 9dbb bebd ca7e 46be e40b 853d
000000f0: cf36 483d dafa 3d3e 0bce 47be 6b08 583b
00000100: f5ee f7bd 3a4b 6ebd 4568 1bbc a5dd 003e
00000110: f507 5f3d de26 103e 1181 7b3d f126 aebd
00000120: 8961 e9bc 1e86 f73d 0b57 f63c 6f0b 68bd
00000130: d65e 2dbc 87d3 673d ac39 173e 63b6 093b
00000140: 736b c93c cd92 b83d da62 c8bd 6a88 eebc
00000150: 92e9 9a3d e437 adbd 1903 6ebd e82c ce3b
00000160: 5d6e 26be c43d e73d fe87 a4bd 1c4c e7bd
00000170: b405 0ebe b876 de3d f623 8d3d 97e5 473d
00000180: 1562 da3d d023 333d 981e be3d 0640 963d
00000190: 4064 22bd 7cb6 ee3d e31f 08bd 374b e83d
000001a0: e4e3 a8ba f431 5e3d 1866 743e 5302 ad3d
000001b0: 95ef 573d 440e 993c 3445 a2bd bb4c 13be
000001c0: 3a7d c63c a5af 2ebe 2473 17be a7cb 953d
000001d0: abf5 fc3d 0c6d c9bd 3706 01be c0d2 9a3c
000001e0: 4700 c33d 0b04 b03d f140 45bc f2b9 f0bd
000001f0: 9073 573d 3500 c63b 47f8 f93d 47b3 463e
00000200: aae1 1ebe 2baf 263d 2f32 79bd 027b b23d
00000210: b542 f73c e1ca 94bd 106d a43d 1cbe 97bd
00000220: e8a3 123e a3be dc3d 4897 2c3d 8f36 02be
00000230: 3913 003e b12c 983e e866 9d3c 11b7 833d
00000240: 73df cbbc 18b3 9dbd b782 1a3d 9d00 82bd
00000250: c76f 903b 09d6 2cbe 39f0 a3bd 291c 11be
00000260: 9c51 99bd 0b4d 34bd 48f9 05be 8713 fdbd
00000270: 7216 89bd deda 613d f2d0 2cbe d646 98bd
00000280: b524 e73d 11cf a5bc b1f9 363d 953a 0cbd
00000290: 6651 5c3d edf9 983d dc7e cebd 6dcc 49bd
000002a0: dfd0 a7bc c231 cd3b 549f cd3d 1c0a af3c
000002b0: 3f2a 613c 3dfb 9b3d 477e d8bd ed68 153d
000002c0: 7636 ea3d 7039 2dbe 5074 683d 0f9a 85bd
000002d0: 3f76 cb3a a3af 2ebd c42a 1e3d 3a3f b43d
000002e0: 3b3e 9e3d 9989 813d ef4a 1ebd 3aae ce3d
000002f0: 682d 4a3c b4e5 ac3d 19ff 853c 2a63 0abe
00000300: 37d3 a83d 0803 a13d cc45 a9bd 2b91 f43d
00000310: d502 aabd 6b08 a6bc 6066 c8bd 03fd ed3d
00000320: db62 52bc 1ea8 98bb 7fef 163e cf20 eb3d
00000330: 4ba0 543c 5750 e93d 24b9 a53c 572c ad3c
00000340: 5766 ef3d 93a4 fd3c 38df 803d 3f71 703c
00000350: 5911 083e 6bd1 23bd 6f83 e1bd 4683 5fbd
00000360: b9b3 97bd 4931 c53d 2c7b d1bd 4933 f5bd
00000370: 883e 103d 69a5 b33d f792 073e 400d e73d
00000380: c3d4 3b3c 41f1 d23d c83c 07be e999 4a3c
00000390: 33c3 05be d08e f5bd 9d62 1fbc f8f9 14bd
000003a0: eeb6 943d 58c4 c5bd c209 13be 825e dabc
000003b0: 75f5 323d f5ba a03d b459 6dbb 54c7 833d
000003c0: 7105 283e 46c2 b4bd cc80 d03d 758e 40bc
000003d0: 5258 d33c 34c3 03be 9dc7 b2bd 776c ccbd
000003e0: 4f89 073e c98f a43d 0e44 503d caa3 9ebb
000003f0: ff61 24be e188 20bc 5433 a3bd 96d0 a4bc
0.031633325 0.044926967 0.20476316 0.10113678 0.12440839 0.17155603 0.11202655 0.1257245
-0.047735665 0.012175356 -0.050913896 -0.08909304 0.07932372 -0.16397788 -0.03264757 0.08793168
0.05064601 0.050066616 0.015370578 -0.051111847 0.1719945 -0.0529741 -0.0826489 -0.039233755
-0.111643516 0.11373009 0.066694185 0.17122921 -0.1419365 -0.08363871 -0.11963168 0.037633687
-0.06292882 0.09815819 -0.042473618 0.1465148 0.07896055 0.11707164 0.12113232 -0.03423869
0.030726891 0.25980285 0.024938794 -0.09284342 0.10416219 -0.13553905 -0.12230885 -0.05154656
0.07314808 -0.14667766 0.011214532 -0.015985407 -0.17323291 -0.0022833094 -0.016347064 -0.10227876
-0.12527803 -0.09313128 -0.19384304 0.064964086 0.048880395 0.18552724 -0.19512193 0.0032964002
-0.12106124 -0.05817721 -0.009485309 0.1258455 0.054450948 0.14077327 0.061402384 -0.08503521
-0.028488891 0.12086128 0.030070802 -0.05665153 -0.010581693 0.056598213 0.14768094 0.0021013252
0.024587369 0.09012375 -0.097844794 -0.029117782 0.07564081 -0.08457926 -0.058108423 0.0062919743
-0.16253038 0.11291078 -0.08033751 -0.112938136 -0.13869363 0.108624876 0.06891625 0.04880294
0.10663239 0.043735325 0.09283179 0.0733643 -0.039646387 0.116559 -0.033233535 0.11342471
-0.00128853 0.054246858 0.2386707 0.08447709 0.052718718 0.01868356 -0.07923356 -0.14384739
0.024229635 -0.1705919 -0.14790016 0.07314234 0.12351545 -0.09835252 -0.12600027 0.018899322
0.09521537 0.08594521 -0.012039409 -0.11754216 0.052600443 0.006042505 0.12205558 0.19404326
-0.15515772 0.040694397 -0.060838874 0.08714868 0.030183176 -0.072652586 0.080286145 -0.07409307
0.14320338 0.107785486 0.04213646 -0.12716125 0.12507333 0.29721597 0.019214109 0.064314015
-0.024886822 -0.07700175 0.037722316 -0.06347773 0.004407856 -0.16878523 -0.08004803 -0.14170898
-0.07486269 -0.044018786 -0.13083375 -0.1235724 -0.06693734 0.05514037 -0.16876581 -0.07435386
0.11286298 -0.020240339 0.044671718 -0.034235556 0.053788565 0.074695446 -0.1008279 -0.04926722
-0.02048534 0.006262035 0.10040155 0.021367125 0.013742982 0.07616279 -0.105709605 0.03647702
0.11436169 -0.16916442 0.05675155 -0.06523525 0.0015522911 -0.04264797 0.038615003 0.08801122
0.07726713 0.06325073 -0.03864568 0.10091825 0.012339927 0.0844225 0.016356992 -0.1351439
0.08243411 0.07861906 -0.08265266 0.11941751 -0.083013214 -0.020267686 -0.097851515 0.11620524
-0.012840952 -0.004658713 0.14739798 0.11480867 0.01297767 0.11392277 0.020229883 0.021139307
0.11689442 0.030962264 0.062925756 0.0146754375 0.13287868 -0.03999464 -0.11011397 -0.05456855
-0.07407326 0.09628541 -0.10228571 -0.119726725 0.035215884 0.08771784 0.13239656 0.11281824
0.011464301 0.10299922 -0.1320678 0.012365797 -0.13062744 -0.1199013 -0.009728101 -0.0363712
0.072614536 -0.0965659 -0.14359191 -0.026656393 0.043691117 0.07848159 -0.0036216797 0.06434503
0.16408326 -0.08826117 0.10180816 -0.011752714 0.02579895 -0.12867433 -0.087294795 -0.099816255
0.13235973 0.08035237 0.050846152 -0.0048413025 -0.16053008 -0.0097982595 -0.079687744 -0.020118993

net.4.bias f4 [50]
00000000: 429e 803b 52ea eebd 97f4 373d cfb3 6a3d
00000010: 4b3a 6bbc fcdc 1bbe 6e7a 6a3d 4e69 bcbd
00000020: aa5c b43d e0ed 7a3d efac f33c 1fa4 d33d
00000030: 0fbd a33b 65f5 6bbd d20a c13d 274b 33be
00000040: 0cb7 fe3b 1fda e9bd 9c84 5f3d 01ba 1c3d
00000050: 6123 d93c e1d9 84bd 9fae cd3c 4f6b cdbd
00000060: f34c fd3d 62b4 a63c cdf7 663d b096 13be
00000070: 491c 23be b13c 1a3d 49e2 c73c 0b34 473d
00000080: 44ff abbd f717 023e 5f6a dd3d 9d12 edbd
00000090: 187e 0c3d 0020 49bd 3705 89bd 651c 81bd
000000a0: d5fa 09bd bce2 2d3c 9e33 8f3c 292a 633d
000000b0: ad23 82be 7442 05bd cc9d eabd 67b9 743d
000000c0: aa46 d2bd 85ef 0ebd
0.003925116 -0.11665787 0.044910993 0.057300385 -0.01435716 -0.15221018 0.057245664 -0.09199773
0.08806737 0.06126201 0.029745547 0.10334038 0.004996903 -0.057607073 0.09425892 -0.17509137
0.0077732857 -0.114185564 0.054569826 0.038263325 0.026506128 -0.064868696 0.02510768 -0.10030233
0.123681925 0.020349685 0.056388665 -0.14412951 -0.15928759 0.037655536 0.024399893 0.048633616
-0.083982974 0.12704454 0.10811304 -0.11575816 0.03429994 -0.049102783 -0.06690448 -0.06304244
-0.033686478 0.01061314 0.017480668 0.05546013 -0.25417843 -0.032534078 -0.114558786 0.059747126
-0.10267384 -0.034896392

net.6.weight f4 [1, 50]
00000000: 43f6 f63e 3dc3 dabe 8eca fe3e 0373 51be
00000010: 1084 1c3e d180 72be 0a4a 87be becb e63d
00000020: ed08 67be 53e6 28bf fbf8 493e b6f1 ad3e
00000030: e7ae 0e3e a842 c73d d3bf 313e 07e6 01bf
00000040: 9443 8a3c 2fb3 a9be ceba 163d 6cb3 c93e
00000050: 2edc f0bd 6f30 ebbd f267 8abd 4469 16be
00000060: ee06 503e 11ca 973d db4f 143e 95d0 08bf
00000070: ef5b 3abf 9842 36bd 77e5 f13c 4563 41bf
00000080: 4551 1ebf 927c ddbd 1e12 963e a1e1 2bbe
00000090: c7fd a03e 292e cebe 6383 953e 30e6 40be
000000a0: 9d06 f63d 0fac f7be a07f 523e 370c f53d
000000b0: 700a f0be d06f a33e 047a a53d 0f24 c83b
000000c0: 9202 c63d 78ed ecbe
0.48234758 -0.4272708 0.49763912 -0.2045403 0.15284753 -0.23681952 -0.26423675 0.112693295
-0.22561999 -0.65976447 0.19723885 0.33973473 0.13933907 0.097295105 0.17358331 -0.5074162
0.016877927 -0.3314452 0.036799245 0.393947 -0.11760746 -0.11483847 -0.06758107 -0.14688593
0.20315143 0.07411588 0.14483587 -0.5344327 -0.7279653 -0.044497102 0.029528363 -0.755421
-0.6184276 -0.108147755 0.29310697 -0.1678529 0.31443617 -0.40269592 0.29201803 -0.1883781
0.1201298 -0.48373458 0.20556498 0.119652204 -0.46882963 0.31921244 0.08079913 0.006107814
0.09668459 -0.46274924
