bc/outputs/bipedalWalker/bc_BipedalWalker-v3_200data_2000epochs/model.pth (torch, 29474 bytes, 9 tensors)

log_std f4 [4]
00000000: 0000 0000 0000 0000 0000 0000 0000 0000
0.0 0.0 0.0 0.0

net.0.weight f4 [50, 24]
00000000: 66f6 533d f8e9 d73d 41dc 203e a2fe 47be
00000010: 4631 4e3e d59b 90be db25 29be 30ac 9c3e
00000020: f3cc 2b3e f6fd a33d 9778 b33d 0ee2 703d
00000030: 42c3 f73b 0e2b cc3d 6e6a 083c c0f2 65be
00000040: de8e 103e 3c80 e83d 7569 50be fa73 67bd
00000050: 7a39 52be 975c 90be 1889 5ebe c822 b33d
00000060: e7b4 c43c e0de 0f3e c94b 8fbb 5879 c73d
00000070: 59de eb3d b922 893e d8eb 793e 449a e73c
00000080: 0ae8 35be 18c1 cd3d 3af5 76bc 92ad 2dbe
00000090: 3f57 9dbd 3437 b43d 7ccd eb3d 2f3f 5b3c
000000a0: 0b1c 3b3e 3521 dbbd 2237 953d 716a 913d
000000b0: 2e6d 473e 848f 3cbd ea5b 903d 9c75 d33d
000000c0: d660 d63d c99f e23d 93a2 43bd b507 553f
000000d0: 61cf 66be 2659 70be c975 7a3e c70f b9bc
000000e0: c0f0 8ebe fcd5 233d 0bfe 7c3d 0282 423e
000000f0: 3b8e e1bd e974 febd 6689 7bbd e193 09be
00000100: 5edf 32bd f543 853d 54af f3bd 85a9 b5bd
00000110: b6d3 d73d 2eb9 85be 913c d03d eb71 f83d
00000120: 48e4 afbe d0dd c33d ec7e 953d ed60 b2be
00000130: 9f02 fb3d a651 03be fbff 1c3d a13f 3cbe
00000140: 5843 80be d9ea 493e a8e2 8fbe 5fac b83c
00000150: 85a5 87be a134 053e dbf1 cdbc a9d5 d93d
00000160: c00d 973d 1cea e03c 4f86 69bd d9ff cabd
00000170: b497 54be e759 22be 2612 83bc d8dc d73c
00000180: cd34 d6be ad34 e0bd a9a0 0fbe f4be a7be
00000190: 54ad 92be 67ad 273e 9fce 9d3e de81 3dbe
000001a0: d5d7 06bc 8bba 6dbe fb34 863e 06e5 18be
000001b0: 5586 703e 8e69 843d 6aa7 1bbe e00f 25be
000001c0: 213a 14bd 9055 40be e630 58be cf06 e03c
000001d0: ca6c 3bbd bc66 753e a4bf 2a3e 9a02 203e
000001e0: 6aa1 ef3e 2127 3b3e aeac 233e 2bc0 ab3e
000001f0: 5ed4 98bd d632 8dbe e898 7639 f8c3 09be
00000200: bfe5 0b3e 4231 c9bb 19f8 b8bc c0d4 fdbd
00000210: cb2f f23c c2eb e2bd 2e43 333d dbf6 11bd
00000220: b193 1abe f9d3 91bd da6f 2bbe feeb 3e3d
00000230: 56cd 67be a2db 8dbe 7883 c53d f3a9 00be
00000240: a63b 253e a05f 9fbe d6df 4cbe 2c9f c53e
00000250: e5c4 2bbe 9b4e d8bd 535a 3fbd 3f5d 7cbd
00000260: bf79 aebe b931 e43d 4200 11be 5206 9f3e
00000270: ab91 793e e07e 4ebe fd2f 31be 897a bb3d
00000280: 35f4 e1bd c2dc c1bc 83fc 9bbd a3f4 8bbe
00000290: ca25 16be 420b 7cbe 6521 f5bb a5a2 2abe
000002a0: 1da3 193e 829f a73e 564a 32bd f8de 303e
000002b0: a0ff 1ebe 2a42 32be 1e62 80be 1dd7 2bbe
000002c0: 2c71 4b3e 10c3 ba3d c5f4 543e df0c 773e
000002d0: 5cb3 973d 16b1 22be cc17 d93d 1e79 54be
000002e0: 60f0 c5bd c416 8abd ea59 4a3d 2b26 283d
000002f0: a10b 4dbe 4294 963d 0fbb 80be 276b 27be
00000300: 9f0b 633e 805f 403d 0912 3cbd 33f5 9e3e
00000310: 2309 c7bc 45ca 92bd dd7f 853e d274 78be
00000320: 13da 18bd 9657 c83d f5cd b0bd fbb9 25be
00000330: 5eee 95be 801d c73e 27c8 ef3d 30da 95bd
00000340: 913d dcbc b271 ebbd 7ed3 fa3d 7425 203e
00000350: 52c6 493e 0973 863c e400 5c3e 33ec f1bd
00000360: 8107 83be 96bf 0ebe 708f 713d febf 91bf
00000370: 4274 613e f637 1b3e 6c46 993e 97cd bdbc
00000380: 7e10 b83e c833 31be 9435 06bf b29d 87be
00000390: 7853 3e3e 3d1d b23d 926e c03d dddf 6abd
000003a0: 7ae1 b9bd fd01 59be 5057 02be 3d43 c5bb
000003b0: 7bc1 6ebc c95f e8bd 2e8a 763d fc26 75be
000003c0: a0cf 5a3e 3049 cfbe f72f d4bc c814 89bf
000003d0: 3a8b c2bd ddda 793e b5b5 31bf 9eac 83be
000003e0: 0774 6ebe 1aac 073e 27f6 2bbe 6a78 c53e
000003f0: 0785 fa3d dfd9 50bf 90d7 e43d a151 19bd
0.051748656 0.10542673 0.1570902 -0.19530728 0.20135984 -0.2824389 -0.16518347 0.3060012
0.167774 0.080074236 0.08763235 0.058809333 0.0075611183 0.099691495 0.008326156 -0.22455883
0.14117 0.11352584 -0.20352729 -0.05650709 -0.20529738 -0.2819564 -0.21731985 0.08746868
0.024012042 0.14049864 -0.004373048 0.09739941 0.11517019 0.26784304 0.24406374 0.028271802
-0.17764297 0.10046595 -0.015073115 -0.16960743 -0.076826565 0.08799592 0.115138024 0.013381763
0.18272416 -0.10699693 0.072859064 0.0710038 0.19475242 -0.046035305 0.07048781 0.103251666
0.10467689 0.11065633 -0.047762465 0.83214885 -0.22540046 -0.23471507 0.24458994 -0.022590531
-0.27918053 0.039998993 0.06176571 0.18994907 -0.110134564 -0.124246426 -0.06141033 -0.13435318
-0.04367005 0.065071024 -0.118986756 -0.08870224 0.105384275 -0.26117843 0.10167802 0.12131103
-0.34353852 0.09563792 0.07299599 -0.34839574 0.12256359 -0.12824115 0.03833006 -0.18383648
-0.2505138 0.19718494 -0.28102612 0.02254313 -0.2649347 0.13008358 -0.02513974 0.106364556
0.073756695 0.027455382 -0.057012852 -0.0991208 -0.20760995 -0.15854608 -0.015999865 0.026350424
-0.4183716 -0.10947547 -0.1402613 -0.32762873 -0.28647864 0.16374741 0.30821702 -0.18506572
-0.008230169 -0.23215692 0.26212296 -0.14931116 0.23488744 0.064654455 -0.15200582 -0.16119337
-0.03618825 -0.1878264 -0.21112403 0.027346997 -0.045758046 0.23964971 0.16674668 0.15625992
0.46802837 0.18276645 0.15983841 0.3354505 -0.07462381 -0.27577847 0.0002351735 -0.13453662
0.1366186 -0.006139905 -0.02257924 -0.123940945 0.029563805 -0.110801235 0.04376524 -0.03563581
-0.15095402 -0.07120509 -0.16741887 0.04661178 -0.22636923 -0.2770663 0.09644216 -0.1256483
0.16136035 -0.31127644 -0.20007262 0.38598 -0.16774328 -0.10561868 -0.046717 -0.061612364
-0.3407726 0.11142296 -0.14160255 0.3105951 0.24371974 -0.20165586 -0.17303462 0.09154231
-0.11032907 -0.023664836 -0.07616522 -0.2733508 -0.14662853 -0.2461367 -0.0074807876 -0.16663606
0.15003629 0.32738882 -0.043527924 0.17272556 -0.155272 -0.17408052 -0.25074857 -0.16781278
0.1986739 0.091192365 0.20796497 0.24126004 0.07407257 -0.15887865 0.10600242 -0.20749328
-0.096649885 -0.067426234 0.049402155 0.041052025 -0.20023967 0.07352497 -0.25142714 -0.16349469
0.22172402 0.046966076 -0.045915637 0.31046447 -0.024296349 -0.07167486 0.26074114 -0.24263313
-0.037317347 0.09782331 -0.08633033 -0.16184227 -0.29283422 0.38889694 0.11708098 -0.073170066
-0.026884826 -0.11496295 0.1224737 0.15639287 0.1970456 0.016412275 0.21484715 -0.118126296
-0.25591663 -0.13940272 0.058974683 -1.1386716 0.22017005 0.15158066 0.2993654 -0.023169322
0.35950083 -0.17304909 -0.52425504 -0.264875 0.18586528 0.08696983 0.093960896 -0.0573424
-0.09076209 -0.21192165 -0.1272862 -0.0060199783 -0.0145724965 -0.113463946 0.060190372 -0.23940653
0.21368265 -0.40485525 -0.025901778 -1.0709467 -0.094992116 0.24399896 -0.6941789 -0.25717634
-0.23286448 0.13249245 -0.16793118 0.3856843 0.12232404 -0.81582445 0.11173928 -0.037431363

net.0.bias f4 [50]
00000000: 86b9 e23d d2dc 083c 36b6 533e 7e15 95bd
00000010: bb84 0e3e 9535 0a3e a8e4 453e 88ff c93d
00000020: a198 16bd 17c2 32be 5f85 15bd 5022 0f3e
00000030: f446 3f3e f758 1abe 00ad babd bbbb 8b3d
00000040: 979c bcbd c10b f9bd 3df4 82bd 911b 023e
00000050: bc76 4dbd ca17 03bd c0ba 303d 7b17 653e
00000060: 101a d6bd 9536 373e c379 22be 0959 673e
00000070: c9b4 97bd c8d5 203e ebf8 0b3d 8cef edbd
00000080: ecf9 17be c0f2 55be ee11 b23d a46a 01be
00000090: 690b 653d 1df3 503e b757 1b3e 08e7 cdbd
000000a0: 3a39 e1bd eae5 01be 7d77 7d3d cd13 d83d
000000b0: 792c fdbd 074f 82bd cf7a 03be dd0b db3d
000000c0: 71fc 613e 92e0 753d
0.11070542 0.008353429 0.20674977 -0.0727949 0.1391782 0.13497002 0.19325507 0.09863192
-0.036766652 -0.17456852 -0.036504146 0.13977933 0.1867941 -0.15073 -0.091150284 0.06822916
-0.09209555 -0.12160445 -0.06394241 0.12705828 -0.050162062 -0.03200511 0.04314685 0.22372238
-0.1045419 0.17891915 -0.15866761 0.22592558 -0.07407529 0.15706551 0.034172934 -0.116179556
-0.14841431 -0.20893383 0.08694826 -0.12638336 0.055919085 0.2040524 0.1517018 -0.10053831
-0.10997243 -0.12685362 0.06188153 0.10550652 -0.12361998 -0.063627295 -0.12839817 0.10695622
0.22068955 0.06002862

net.2.weight f4 [50, 50]
00000000: 4699 0ebe 1ed7 a9bd 7a58 b3be 1147 39bd
00000010: 4592 e6bd a741 71be 7e5c f2bd 3442 ebbc
00000020: 91d7 84bd 9b44 043e b92e d43e 0b1a 953e
00000030: 8a27 3b3c e129 1e3e 5b6f 16be b2d0 163e
00000040: 4c01 083e 159c 153e 7739 eb3d f116 c6be
00000050: addf f5bb 6903 75be cb60 a9bd 6685 a93d
00000060: 6278 77be 2e49 383e 4677 19be c1f6 c53e
00000070: a340 a03c 82d4 5fbd 578b ebbd 654a b53c
00000080: 66b0 d8bb 725c bd3e d131 f1bd 8c83 2e3e
00000090: 795c b63d 223d 6b3e b93f 013d de1e 4b3e
000000a0: fb35 963d e9d1 113a cb2a 653d 3c96 88be
000000b0: a6db 70bd 8aee 573d a9a4 a9be 80ad ce3d
000000c0: a7f7 383d e29a 31bd 6431 22be 5eb2 f4bd
000000d0: 6ff9 13be df00 3ebe f4f9 e93d 3718 09be
000000e0: 495d b3ba f4e2 843d c728 f7bd 2a15 a3bd
000000f0: 1e2d 87bd 6d90 cd3d f36e 87bd e846 633d
00000100: 3ff9 be3e 8c77 acbc 5361 f3bd 8b81 0bbc
00000110: a09b 173e 47c9 c1be 6ed4 493e 821f a6be
00000120: 69d1 86be b622 b2bd 2d4a 40be 8d03 123e
00000130: d04a 7fbd aa8e 83bc 1bb6 843d 9a50 d93c
00000140: 436a 893e 5937 50bd 8faf 25be 3f39 713e
00000150: d8b3 0f3e 6f1c 813e 1583 983d af22 ffbd
00000160: 0505 b53d 2ace 85be 22a8 ed3c 18db dfbc
00000170: bc1c 893e 6016 c53c 1ef1 133e 5c75 a7bd
00000180: 6c27 e43d 652b 503e 4066 1cbe 9938 81bd
00000190: 9107 de3d 2d3a 9ebd a0e2 87bd 3cea 0e3e
000001a0: c693 0ebc f44e 173d 71f9 613e dbe6 9d3d
000001b0: 9852 b2bd af4c 473d 4db8 183d fc21 2a3e
000001c0: b137 4b3d 2663 98bd 8658 fc3e aa8c 6abe
000001d0: ef1c 883e 9164 053e b992 88be 5de4 afbd
000001e0: cb24 b5be fb5f 993e 28ea eb3d f3ea 1ebe
000001f0: 6e13 b33e aeeb 64be 9660 1cbc def5 45be
00000200: a5cc f93d eb0f 283e d404 53bd 51b1 6b3e
00000210: 2a25 83be bf5d 243d d39e ae3d 8203 6cbd
00000220: 3615 09bf 8d83 54bc ea03 793c eb6d e53e
00000230: 29a8 143d 97a3 113d 130a 1d3d cae7 dc3d
00000240: 3363 273c ef96 7bbd 09f5 2e3e 6e97 2e3e
00000250: fcb4 843e 47ab 89bd 989c 4dbe 208a 3ebd
00000260: 6f22 09be 600a 17be 1c07 243e 5ad6 24bd
00000270: 46f1 40be 1e0a 00be 4c48 c53d 9f7a 82bd
00000280: 97ca 4abe b963 82be 9393 133d 5651 493e
00000290: 03aa 1d3e ac3c 323d a244 c8bc 44e6 8c3d
000002a0: 9cad 4fbd d371 14be f9b2 5d3d 42fb b2be
000002b0: 97cc d03d 3c7d babe ea9e 1c3c 5c08 babd
000002c0: ae42 d6bd b7f8 27bd 9010 43bd a780 3dbd
000002d0: 5c9d 14bd 1b8d 65be 8a93 4dbe 6ba2 dfbd
000002e0: cf4a 043d 3145 c83b cfd6 0d3d 33f4 ce3b
000002f0: 7e4c 753c 736e 8dbe 2f81 6e3e 5d58 05be
00000300: 49e4 003e 40f2 5f3d cd7f 0fbe f230 123e
00000310: 8716 7e3e 3961 053e 28ae 2cbe 1fe3 0d3e
00000320: db8b c0bd 90ea 463e ab7e f1bc b4e4 a43d
00000330: 0b33 4f3e 0c77 53be d46e 813d 9251 08bd
00000340: 7bde 213d b86b 87bd ae60 c93c 9684 373e
00000350: 5eab 3cbe 10a1 2bbe a6be 66bd 0f12 f53d
00000360: fff4 a43c b6cc f7bd bcfb 723d df90 16be
00000370: 4c61 4c3e 4ea1 c0bd 38fb 25be d7a8 733d
00000380: 0593 e1bd df66 ff3c ebbb e1bd 2c8e 093e
00000390: f98f 9c3e e8a4 67be 27ff 0e3e 1137 4cbe
000003a0: 58df cc3d 26e2 203e a963 213e b958 0a3e
000003b0: 4013 483d a815 cf3d 0577 34be e39f 46bd
000003c0: d945 d53d 23c2 893d b717 b33c 9a4b bb3c
000003d0: add0 6a3d 73a5 743d 7e1c 103e 9fdc 623d
000003e0: 36b0 8fbe 0c26 1abe da54 ebbd 2970 b8bd
000003f0: 6454 6e3d b500 bfbc fe59 ec3d d1f5 53bd
-0.13925657 -0.082929835 -0.3502844 -0.04523379 -0.112583674 -0.235602 -0.11834048 -0.028718092
-0.064864285 0.12916796 0.41441897 0.29121432 0.011423001 0.15445663 -0.14690916 0.14728048
0.13281745 0.14610322 0.1148557 -0.38689378 -0.007503471 -0.23927082 -0.08270415 0.08277397
-0.24167016 0.17996666 -0.14986905 0.3866482 0.019562071 -0.054646023 -0.11501186 0.0221302
-0.006612825 0.36984593 -0.1177708 0.17042369 0.089043565 0.22972539 0.03155491 0.19835994
0.07334515 0.000556259 0.055949014 -0.2667712 -0.058803223 0.052717723 -0.33133438 0.10091686
0.045158055 -0.0433606 -0.15839154 -0.11948083 -0.1445062 -0.1855502 0.11424628 -0.13388143
-0.0013684417 0.064886004 -0.120683245 -0.07963021 -0.06600402 0.10037313 -0.06612959 0.055487543
0.37299535 -0.021053098 -0.118837975 -0.008514772 0.1480546 -0.37848875 0.19709942 -0.32445914
-0.26331642 -0.08698027 -0.18778296 0.14259167 -0.062327206 -0.016059238 0.06480046 0.026527692
0.26838884 -0.050834034 -0.16180252 0.23556994 0.14033449 0.25217006 0.07446877 -0.12457787
0.08838848 -0.26133853 0.029010836 -0.027326152 0.26779735 0.02405852 0.14447448 -0.081766814
0.111403316 0.20329054 -0.1527338 -0.06309623 0.10841287 -0.0772594 -0.06635022 0.13956541
-0.008702224 0.03694053 0.2206781 0.07710048 -0.0870716 0.048657116 0.037285138 0.16614527
0.04961366 -0.07440786 0.49286288 -0.22905222 0.26584575 0.13026644 -0.2667444 -0.08588479
-0.35379633 0.2995604 0.11519271 -0.15519314 0.3497576 -0.2235553 -0.009544512 -0.19332072
0.12197236 0.16412322 -0.051518276 0.2301686 -0.2561429 0.040128466 0.08526387 -0.057620533
-0.5354799 -0.012970817 0.015198687 0.44810423 0.036293183 0.035556402 0.038339686 0.10786398
0.010216522 -0.06142324 0.17085661 0.17049953 0.2591933 -0.06722122 -0.20079267 -0.046518445
-0.13392042 -0.14750051 0.16018337 -0.040243484 -0.18842039 -0.1250386 0.0963293 -0.06371044
-0.19803844 -0.25466707 0.03602941 0.19659933 0.15396886 0.043514892 -0.02444679 0.06879857
-0.050702676 -0.14496545 0.05412576 -0.3495732 0.101952724 -0.3642367 0.009559372 -0.09083626
-0.10461937 -0.041008677 -0.047623217 -0.04626527 -0.036282882 -0.22417109 -0.20075813 -0.10919651
0.032297906 0.006111764 0.034628686 0.006315732 0.01497185 -0.2762333 0.23291467 -0.13021989
0.12587084 0.054674387 -0.14013596 0.14276484 0.24813281 0.13025369 -0.1686331 0.13856171
-0.09401675 0.19425416 -0.029479345 0.08051434 0.20234315 -0.20650882 0.06319967 -0.033280917
0.039518815 -0.066123426 0.024582233 0.17921671 -0.18424746 -0.16760659 -0.05633416 0.11966335
0.020136354 -0.120995924 0.059322104 -0.14703701 0.19958991 -0.094057664 -0.16209114 0.05948719
-0.1101437 0.031176982 -0.11022171 0.1343314 0.30578592 -0.226215 0.1396452 -0.19942881
0.10003537 0.15711269 0.15760674 0.13510408 0.048846483 0.101115525 -0.17623527 -0.048492324
0.10413713 0.06726482 0.021861894 0.022863198 0.057327915 0.059728097 0.14073369 0.055386182
-0.28064126 -0.15053576 -0.114907935 -0.09005768 0.05818595 -0.023315767 0.11540602 -0.0517481

net.2.bias f4 [50]
00000000: cb2e 65be 57ae 933d a9cd e83d 6888 b4bd
00000010: 5420 583d 3592 a33c 5799 643d 773e 513d
00000020: 8ea2 09be 2a31 2b3e 488c 8e3d b5b2 dcbd
00000030: 79c4 b83d 60b2 46bd 498f e23d b58d 203d
00000040: df0a 20bd 441e 183e cc30 7ebd 4366 dc3d
00000050: 7b9d b7bd fb9c 883c 4a91 1dbd 53ca e53d
00000060: 5533 f63c 4edc 933c d023 2c3e 2d44 cb3c
00000070: 4df3 51bc 0898 003b 3059 09be f76d f23d
00000080: c088 eb3c 327f b73d 8788 1abe 3cb4 bcbc
00000090: 09f4 a4bb 73ee 0b3e 4bf6 41bd 7137 8cbc
000000a0: 505d 68bd 8ba7 233e 0552 f23d c535 8fbb
000000b0: 0d3b 4dbd e966 c1bd dc10 5dbd 6f6c 5d3c
000000c0: da10 1cbe 2ace 053e
-0.22381131 0.07210987 0.113673516 -0.0881508 0.052765206 0.019967178 0.0558103 0.05108496
-0.13440916 0.16717973 0.0696035 -0.10776273 0.09021849 -0.048509955 0.11062486 0.039197642
-0.039072867 0.14855295 -0.062058255 0.107616924 -0.08965584 0.016676417 -0.038468637 0.11220231
0.030053774 0.018049385 0.16810536 0.024812782 -0.012814355 0.0019621868 -0.13412929 0.118373804
0.02875173 0.089598075 -0.15091144 -0.023035161 -0.005033974 0.1366518 -0.047354024 -0.01711628
-0.056729615 0.15981881 0.1183205 -0.0043704235 -0.050105143 -0.09443457 -0.053971156 0.013514622
-0.15240803 0.13066927

net.4.weight f4 [50, 50]
00000000: 3bca 61be bd48 a13e 6598 5fbd 6856 7b3e
00000010: 3e06 863e 1156 e73c 6bc5 8cbd 8729 71be
00000020: bfb4 0d3e 748d b43d 00f9 c93e b51b f13c
00000030: 6386 193e 41d9 a23d 555f 88bd 3099 12bf
00000040: ca6a 15be 7d18 52be 42f0 bcbd 0b59 643d
00000050: ea01 10be df3b 15be b985 aa3e 5de4 95bd
00000060: a989 0d3e bd51 2bbd d5f7 e23d 3107 ca3e
00000070: a097 2c3e b523 123e a85c 3bbf f4bc d23c
00000080: 5f17 1cbe 7184 10be d9dd 7cbd 69b6 72be
00000090: f9b0 583e 3363 183e 2117 d33e 15eb 313b
000000a0: 86d5 573e ddba 943e 69f1 3a3e 9897 b0be
000000b0: 56fe 663e 5307 66be 966d 0dbd 6c8b eebd
000000c0: 84ae 32bf 390d 403d 812d 523d bd5a cdbc
000000d0: a08e 14be 1e1e a3be 6622 e5bd a966 603d
000000e0: 1892 21be f747 aabd 6e25 8cbe ef2c 6b3e
000000f0: 7d28 32bd 2260 363c 0568 963e 41c0 d2bd
00000100: 2c49 463e cd50 5f3e f466 8fbc 8b08 d43b
00000110: c477 d03d 9957 96be ccbb 2f3e b941 36be
00000120: 1834 3f3d 093b cfbd 4322 26be eba8 d5bb
00000130: 25a9 9f3e af73 f63d d9d5 15be 0959 d63d
00000140: d155 88bd 4733 4fbd b6ab a23e 9649 85be
00000150: f46a 4bbe fad9 dc3d 20ce 38bd c819 513c
00000160: 350e 7f3c 4a1d 873d 2923 9dbc e6d1 ac3e
00000170: afe6 44bd c97d 91bd da03 3b3e 4b60 eabd
00000180: 6cb3 3c3e 5b97 803e 3cc7 16be 95bf d73d
00000190: 2e07 96bd 56d3 f83d bbf4 2cbe 99dd 073d
000001a0: 9ac9 e8bd 9042 f13d 394d 633d 6a1d 1d3e
000001b0: 2ca8 463c d927 e33d 0e81 653d bd18 bfbd
000001c0: aa3f 953c 4891 4abd 46a9 be3d 3a47 edbd
000001d0: 4c01 e3bc d8fd ef3d 014a 1bbd 9729 a6bc
000001e0: b4e0 243d ace3 7e3d 7e38 eebd 12d2 8b3d
000001f0: 4fc1 eebd 7d5e 60bc aff9 493d 49f8 103c
00000200: 16b9 e2be 3a8c d7bd 7b25 5d3e 6bfd 3d3e
00000210: c5df 4b3e 2483 5b3e 7bb6 91bd a132 153e
00000220: 8497 70bc 35aa 293e 259e 463e 753d 5cbe
00000230: a5b2 99bc 24ed cf3d c225 fabd e651 eabd
00000240: 352e b33a 1444 29be 28fd 993d 5f43 99bc
00000250: 1df2 f13d dfa5 3dbd eb77 10be 8b24 4abb
00000260: 1151 9ebe 92e5 77bd 0132 e93d d641 933c
00000270: 83a9 b03d 2bd5 1cbe 578f 3fbe 7647 b13e
00000280: 2e3c bfbd c64e 6c3d 4933 29bd bceb 09be
00000290: 7995 01be 47a3 883d d9d4 0a3e 0b6b 12bc
000002a0: c047 46bd fc4d cebd 4dce 3fbe a5ae 89be
000002b0: 9c4b e53d 9027 e8bd 155f a5bd 1ab4 f23d
000002c0: 2e70 083e f12a e03d 40c4 d33e 6f66 59bd
000002d0: 4d96 3dbe cc1e 043e 4388 6e3e c2bd 6bbe
000002e0: bce5 26be 150e 9d3c 4586 d0bc 531b f13d
000002f0: d50c 623e 1c65 4b3d 621c 9cbd 5454 033e
00000300: 973d b43b 3995 0d3d 426c 173e c149 433e
00000310: baa0 e13d cb2d a0bc b745 b2bd 27fb 2cbc
00000320: 2e53 dd3c ac54 4fbc 0c24 95bc 180c ab3d
00000330: c513 7cbd d536 6dbc 8ab4 bfbc 4dbd 643d
00000340: 8dd3 213e 0f17 f0bd f9c0 da3d 22f6 dbbd
00000350: 0fce 243d 05fb 79be 1619 84ba bc24 393d
00000360: 56bd 103d 0be8 afbd a144 783d 9abf 90bc
00000370: 900e 253d 36f3 d6bd de25 743d 58ef 13be
00000380: 2b94 37be 40a6 803d 0ecf 123d c8bf 1a3d
00000390: ef7e 49be b718 88bd ef4d c23d 6fc8 0c3e
000003a0: 11a0 a73d 8d14 19be 2940 7b3d aa6b f1bd
000003b0: 7d6a 82bc f45e 73bd c9a2 723b 3814 6d3d
000003c0: 4c84 f5bd 666e 063e 3b8a 48be d3ac ec3d
000003d0: 1103 2fbd 54d2 5fbe 856e ae3c 5a6e 363e
000003e0: fc89 20be b383 0e3e e8aa 193d d74d 983d
000003f0: bdfc c8bd e88a f53c a483 2f3e 5de9 083e
-0.22049801 0.31500807 -0.054588694 0.2454468 0.26176637 0.028239282 -0.06873592 -0.23550998
0.1383848 0.088160425 0.39447784 0.029432157 0.1499267 0.07951594 -0.06658808 -0.57264996
-0.14591518 -0.20517154 -0.09225513 0.05574898 -0.1406323 -0.1457362 0.33305147 -0.073189475
0.13822044 -0.041826 0.110824265 0.39458612 0.16854715 0.14271434 -0.7318826 0.025724865
-0.1524329 -0.14113022 -0.061735008 -0.23702396 0.2116126 0.14881591 0.41228583 0.0027148176
0.21077546 0.29048815 0.18256153 -0.34490657 0.22557959 -0.22463731 -0.034528337 -0.11647686
-0.6979754 0.04688761 0.051312927 -0.025067681 -0.14507532 -0.31858915 -0.111882016 0.054785404
-0.15778387 -0.083145075 -0.27372307 0.2296636 -0.043495644 0.011131318 0.29376236 -0.10290576
0.1936385 0.21808167 -0.017505147 0.006470745 0.101790935 -0.29363707 0.17161483 -0.17798509
0.04668054 -0.10118682 -0.16224007 -0.0065203807 0.31183735 0.12033784 -0.14632358 0.10466201
-0.06656993 -0.05058601 0.3177163 -0.26032704 -0.19865018 0.10783763 -0.04511845 0.012762494
0.015567352 0.06597383 -0.019181805 0.3375389 -0.04807156 -0.0710407 0.18263188 -0.11444148
0.18427819 0.25115475 -0.1472444 0.10534588 -0.07325588 0.12149684 -0.16890232 0.033170316
-0.113665774 0.11780274 0.055493567 0.15343252 0.012125056 0.11091585 0.05603128 -0.0933089
0.018218834 -0.049454957 0.0930963 -0.11585851 -0.02771058 0.11718339 -0.037912372 -0.020283503
0.040253356 0.062228844 -0.11631869 0.06827177 -0.116579644 -0.013694403 0.049310382 0.008848258
-0.44281834 -0.10524793 0.21596329 0.18553703 0.1990958 0.21436745 -0.071148835 0.14570095
-0.014684562 0.16568835 0.19396265 -0.21507819 -0.018761942 0.10152653 -0.12214233 -0.11441402
0.0013670387 -0.16529876 0.07518989 -0.018708883 0.118137576 -0.046300765 -0.14108245 -0.0030844535
-0.30921224 -0.06052167 0.113864906 0.017975729 0.08626082 -0.15315692 -0.18707024 0.34624833
-0.0933765 0.05769231 -0.041308675 -0.13468832 -0.12654676 0.06671768 0.13557757 -0.008936654
-0.04840827 -0.10073468 -0.18731041 -0.26891056 0.11196062 -0.11335671 -0.08074776 0.11850758
0.13324043 0.109456904 0.41360664 -0.053076204 -0.18514366 0.12902373 0.23294167 -0.23021606
-0.16298574 0.019171754 -0.02545465 0.1177279 0.22075208 0.049656972 -0.07622601 0.12825137
0.005500506 0.034566138 0.14787391 0.19071104 0.11016984 -0.019553086 -0.08704703 -0.010557926
0.027017202 -0.012654465 -0.018205665 0.08351916 -0.06154229 -0.014478405 -0.023401517 0.055844594
0.15803356 -0.11723148 0.10681338 -0.107403055 0.040235575 -0.24412163 -0.0010078277 0.04520105
0.035336815 -0.085891806 0.060612325 -0.017669488 0.04029709 -0.104956076 0.059606425 -0.14446771
-0.17927615 0.0628171 0.035841994 0.037780553 -0.19677328 -0.06645339 0.09487521 0.13748334
0.08184827 -0.14949246 0.061340485 -0.117881134 -0.015919918 -0.059416726 0.0037023297 0.05788061
-0.11988124 0.13128051 -0.1958398 0.11556401 -0.042727534 -0.21857578 0.021292934 0.17815533
-0.15677637 0.13917427 0.037516505 0.07436722 -0.09813831 0.029973462 0.1714006 0.13370271

net.4.bias f4 [50]
00000000: d63a ca3d 33a7 4dbd fea7 023e bae7 1a3e
00000010: ac4e 923d f9a3 3b3e b9c4 ba3d 9d1b 3d3d
00000020: 6d00 7a3d 2dbc c43c 0f03 793c 3548 7cbc
00000030: a92c 04be 7f82 ddbd 9a65 66bc c5dd 1d3e
00000040: a325 f13d fbfd 173e 404f bd3c bc88 03be
00000050: 0e26 aebd 5edc 4bbb 1da2 9dbd c1cb f23d
00000060: 0ae7 8fbd 2add 1e3d 70e2 11bd d135 95bd
00000070: 5901 19be 74ac a2bd 91d6 b63d fe51 a7bb
00000080: 7ca3 d5bd 18e1 33be 6c17 c93d a039 8c3c
00000090: fb10 66bd 0873 2ebe 4bac b73c 8012 aa3d
000000a0: 1446 4d3d cef2 1e3d b2da 25be 16e7 c3bd
000000b0: 649e 113e a13a c2bb 2491 8a3d 73fd f03d
000000c0: 7158 e53d 81db 9b3d
0.09874503 -0.05020828 0.12759396 0.15127459 0.07143912 0.1832427 0.09119553 0.046168912
0.061035562 0.02401551 0.015198483 -0.015398075 -0.12907661 -0.10815906 -0.01406231 0.1541663
0.11774757 0.1484298 0.023109078 -0.12845129 -0.08503352 -0.003110669 -0.07696936 0.11855269
-0.07026489 0.038785137 -0.03561634 -0.07285655 -0.1494192 -0.07943049 0.08927644 -0.00510621
-0.10431573 -0.17566335 0.098189205 0.017117321 -0.056168538 -0.17036068 0.022421023 0.0830431
0.05011566 0.038805775 -0.16196707 -0.095655605 0.14220577 -0.0059273993 0.067659646 0.117670916
0.111985095 0.076102264

net.6.weight f4 [4, 50]
00000000: 4f87 e3be 032d 5fbe 76f1 1b3e 3359 a2be
00000010: 0284 a7bd 7e68 dcbd 6870 833c 16cc c63e
00000020: 65c1 cb3b 7514 8b3d 6763 82bd 1216 163e
00000030: 4b2a c4be 2b4f 9b3e facd afbd c8a6 c2bd
00000040: bc69 c9bc a430 2c3e 5183 6c3e 8299 4ebc
00000050: acaf a5be 8d19 80be f500 ccbd f9cf 5abe
00000060: b00c 37be 0f12 4f3e bd0b 7bbe 8464 4ebc
00000070: a8e4 763d ca3e a33e f028 89be fa3b e23d
00000080: 9f1a 11bd 1ae0 b33e ea62 683e e1eb a5be
00000090: cdc7 223e 449d 11be 7f9f 16be f306 173e
000000a0: 8d43 80be ab94 853e 762e acbd dfda 1d3d
000000b0: 52f2 5bbe d4db eb3d 2494 633e df0f 153d
000000c0: a6f6 db3d b22e 493e 7d34 99bd b1a3 6f3d
000000d0: 18db 113e 8e06 b9bc 7dc8 183e 2d7e 033e
000000e0: 7058 903d db4e 843e ba62 023e e2d7 bb3d
000000f0: d76b 2e3e 53a1 e9bd e293 a6bd e851 0f3e
00000100: 2d20 733d 086e 013e e838 e43d 74cd 4c3e
00000110: 93ca 8dbd 44e9 603e 3835 40bd def7 333d
00000120: 3c78 0e3e 9da8 373d c082 163e a4c6 c7bd
00000130: dfdc 80be 6fb0 1fbd 36c7 3cbe f1f4 05bd
00000140: c492 e03d 0de7 b23c a3be 293e 3942 b4bd
00000150: 30e9 3abe 5fb3 79bc b2db 823e 7b3d 6fbe
00000160: 6e86 113d e7bf 30bd 5914 f03d c807 513d
00000170: a497 2ebe a422 943d ee72 8b3d 27e9 293e
00000180: 6cec 0dbe 1e88 003e 5c0f 473e 3371 68bd
00000190: e267 94be b689 a63e d05b 36be 94e1 2c3e
000001a0: 6506 3ebe ae96 f73d f537 d13d 0495 62be
000001b0: a96e 28bf dc2a 93be 75ea 73be 44bd 9bbc
000001c0: d3c5 90bd b3ac 9fbe d9ab bb3e 5ad7 ad3d
000001d0: 8a22 983d a2e0 f73d a171 bf3e 6919 573e
000001e0: c682 7b3e f3d0 15be b531 93be a92b b23d
000001f0: 746d 0ebd d4b5 9fbe aa4f f9be 8887 c03d
00000200: 54f7 0ebe f53b d23e 513c 3c3e 450c a6bd
00000210: 7424 653e 17ab bebe 2463 7a3e a4c5 393c
00000220: e096 c13d e6dc 83bd 33c7 67be 2147 683e
00000230: 4f3b 453e f9d5 1a3e b511 263d a33f 6e3e
00000240: 344b 4cbd 13d5 1d3e 9760 ee3d 0612 dabd
00000250: 774c bcbc ae77 273d 9ac6 67be bca4 57be
00000260: fc05 92be 16b8 09be 29fa e73d 8f6b 2fbe
00000270: 30b8 88be afa5 a4ba 848f 6abe fe35 7b3e
00000280: dfdc f73d 6d62 3d3e df4a 8b3e 43ec 843b
00000290: 7786 893e 6640 e63d 1323 043e f389 b13d
000002a0: 30b6 28be 1acc d8bd c242 823d eba6 753e
000002b0: 5cb7 a23d e317 503d 606b b73d d759 25be
000002c0: 3e76 adbe 6d48 9dbe 7d83 66bb 46fd 163e
000002d0: aeac fdbb 180c 0c3f a657 c1bd 2eca 493e
000002e0: a958 c63d 1f15 8d3e b005 c63e c5cb d23e
000002f0: 01c8 c1be 035c 1a3c 20ce 39bd 2653 6cbe
00000300: f32d 5e3d 2916 913e d77f b0bd 1fca 67bd
00000310: 5a64 763c 78f6 45be b3ad 82bd 0543 30be
-0.4443917 -0.21794514 0.15228829 -0.3170868 -0.08179475 -0.10762118 0.01604481 0.3882758
0.006218123 0.06791011 -0.06366616 0.14656857 -0.38313517 0.30333838 -0.08584209 -0.09504467
-0.02458655 0.1681543 0.23096968 -0.012609841 -0.3236059 -0.25019494 -0.0996112 -0.21368398
-0.17875934 0.20221733 -0.24516197 -0.012597207 0.060276657 0.31883842 -0.26789045 0.11046596
-0.03542578 0.35131913 0.22693983 -0.32406524 0.1589653 -0.14220148 -0.1470928 0.14748745
-0.25051537 0.26089987 -0.08407299 0.03853881 -0.21479157 0.11516538 0.2222448 0.03639209
0.10740404 0.19646719 -0.074807145 0.058505718 0.14243734 -0.022586133 0.1492023 0.12841101
0.07048118 0.25841412 0.12732974 0.09172036 0.17033325 -0.11407723 -0.08133675 0.13996089
0.059356857 0.1263963 0.111436665 0.20000249 -0.069234036 0.21963984 -0.046925753 0.043937556
0.13913053 0.044838537 0.14698315 -0.097546846 -0.2516851 -0.03898662 -0.18435368 -0.032704297
0.10965493 0.02183869 0.16576628 -0.088016935 -0.18253016 -0.015240519 0.2555824 -0.23363297
0.035528593 -0.043151762 0.11722631 0.05103281 -0.17050034 0.0723317 0.068090305 0.16592847
-0.13859719 0.12551925 0.19439453 -0.05674858 -0.28985506 0.3252694 -0.17808461 0.16882926
-0.18557127 0.12089287 0.10215751 -0.22127157 -0.65793854 -0.28743637 -0.23819907 -0.019011147
-0.07068982 -0.31186447 0.36654547 0.08488341 0.07428463 0.12103392 0.3739138 0.21005787
0.24561605 -0.14630489 -0.2874886 0.08699734 -0.03477235 -0.3119341 -0.4869359 0.094008505
-0.13961536 0.4106137 0.18382384 -0.08107809 0.22377187 -0.37239906 0.24451882 0.011338625
0.09452605 -0.064386174 -0.22634582 0.22683384 0.19260906 0.15120687 0.04054423 0.23266463
-0.049876407 0.15413313 0.11639517 -0.10647969 -0.02298568 0.04088562 -0.22634354 -0.21058935
-0.2852019 -0.1344913 0.11327011 -0.17130874 -0.26703024 -0.0012561585 -0.2290631 0.24532315
0.12102675 0.18494578 0.2720556 0.004056485 0.268604 0.11242752 0.12904005 0.0866889
-0.16475749 -0.10585804 0.06360389 0.23989455 0.07945129 0.05080403 0.08956027 -0.16147552
-0.33879274 -0.3071932 -0.0035173588 0.14745054 -0.0077415323 0.54705954 -0.09440546 0.19706032
0.09684879 0.27555177 0.38676214 0.4117109 -0.37847903 0.009421351 -0.04536259 -0.23078594
0.05424304 0.2833722 -0.086181335 -0.056589242 0.015038574 -0.19332302 -0.06380787 -0.17213066

net.6.bias f4 [4]
00000000: 0f36 793d 9de4 0dbd cad0 32bd f7b4 7ebd
0.06084257 -0.03464185 -0.043656148 -0.0621843
