pretrain_PPO/PPO-result/mask12-13-21-23/model.pt (torch, 57273 bytes, 16 tensors)

log_std f4 [4]
00000000: 908d 4640 3657 2440 6591 2f40 ff9d 1a40
3.1023903 2.567823 2.7432492 2.4158933

net.0.weight f4 [50, 24]
00000000: 9cc8 213f 9676 e43d c578 84bd 5e0b 1a3f
00000010: 6362 aebc 5228 4d3d e544 573d b249 c4bd
00000020: 40c1 923c 3b0e a63e d14c aabe cf21 013e
00000030: 0391 18be 20cd 1ebe 6edb 2fbe 1b2c 543e
00000040: e9b5 06be 121f f83d dc18 413e c0ed 1e3d
00000050: 7f16 7b3e f3d4 d3bc 41d2 bd3c ee29 08be
00000060: b175 ff3e 45e9 e93d 4ba9 c0bd efe2 acbe
00000070: 22d2 8abe 934f 453d d336 9dbe 6ec1 68bc
00000080: 5e1e 18be 19e6 e7bc 0494 343e 41d2 06bf
00000090: 7055 a939 d27a a83b c4b0 f7bc e3f3 503d
000000a0: 05ca 12bc c38b 2b3e f7ba 383d 05e2 b03b
000000b0: 0df5 1cbe cc35 23be 0b3e c8bd e62c 38be
000000c0: eff4 1b3f 415b 033e 8f22 74be fee4 8cbd
000000d0: ff38 6cbd f341 5f3e 496a 8ebe 0dbb ec3d
000000e0: c6c8 d03d aa5b ae3e ccfc 4a3d 91cb dcbe
000000f0: 7327 463e df7d 0abe 9d79 fa3d 6e62 993d
00000100: 0605 50be b14a 383c 5d9d 71be 0a0b 623c
00000110: 75fb 96bd c8ef c5bd 591b 0fbe 9c14 d0bd
00000120: c5fb b93e 440d 213c 26b2 d1bb 0822 c13e
00000130: a900 12be 104d 403d 0b37 a8be 9115 02be
00000140: d507 8bbe ba2c 5c3e 9550 1bbe 3151 00be
00000150: d2d0 db3d 85d7 453e a52e 213e 0a7e c7bd
00000160: 1bea 2bbd 95aa 0b3e d5f1 77bb a953 103e
00000170: af9c 253e 1cf0 31be 3251 203e 86da bc3d
00000180: c0f9 733e 1907 24bd 952e 4abc b0c8 a63e
00000190: 8aae 67be 0126 353e 6042 a1be 7818 1c3d
000001a0: 828d 8fbe dfef 2d3e a683 5a3e 3023 a2bd
000001b0: 7b2b 3c3e 7df3 90bd bcc6 053e 430a 3d3e
000001c0: a44c 03be 7930 6dbb 1e28 803e 831a 2c3e
000001d0: d742 7b3e d7f8 1dbe c6b5 c43d 2bf4 0f3e
000001e0: c12a 133f e5cd 59bc 1423 88bd c008 6a3d
000001f0: 45d9 cd3c 5b89 db3d bbe3 be3e 9650 9ebb
00000200: d259 4b3e 8b95 ca3d eeb6 a93d fc98 7bbe
00000210: 9f0d 9c3d c6c9 38bc 4646 23be 9480 dabd
00000220: 2499 0f3e be70 51be e0ea 32be d5b0 a6bd
00000230: 021f 69be f187 09be 2836 a9bd 58a9 e93d
00000240: 590a 3cbe 20b3 2fbe 0960 0fbe f8ff 533f
00000250: 1a2f 8abd 21cf dfbd 3608 70be 7b43 51be
00000260: c547 47be 9723 a63e 87bb 0fbe 6927 0b3f
00000270: 8234 cebd daee 00bd aa76 503e a7fb a5bd
00000280: 9a88 743e e526 1d3e bb34 ab3d c4f5 e5bc
00000290: 57f3 933e 00bf 71bd 6ba8 4cbd 9c8a 33bd
000002a0: 77a7 8abe a0ec efbe 774f 72bd f6c4 923e
000002b0: 70aa d4bc 2b85 babd fb3a b63e 9a45 babd
000002c0: a285 553e 3ac4 783d 719f 093e d850 ff3e
000002d0: 9dc0 0d3e ff1d a8bc 8134 a83d 6971 89bd
000002e0: 687d 09be 7b54 2a3e 63de 043d d09b 713e
000002f0: 6c11 5e3e 4ae1 dbbd ec30 c5bb a5b4 223e
00000300: adc8 173f 8ad6 6b3e 97c0 ce3d 302c b0be
00000310: 5191 e4bd 5f8f f23d 6b46 02bd 4e0e 41bd
00000320: e97a 64be 04b2 b13d 9732 19be 463c edbe
00000330: 503b 833d 1ab4 a0bd e81f 86be cf8b 27be
00000340: 4d21 94be 5fb4 26bc 2dad 72bc 814e d6bd
00000350: 4894 a23d 66f1 313e 0954 d2bd f46d 06be
00000360: e2d0 0b3f 53d8 be3e 199c 19be 1618 4fbe
00000370: c687 473d b46e b23b b3de c7be 579b 77bd
00000380: 68cd 78bc 528a b93d 2445 e7bc c00e f8be
00000390: 5818 283e fe6c 163d 9045 07be 7cbe 283e
000003a0: 8429 403d 1919 353e 3c76 cdbc 40bf 70bd
000003b0: 3ea7 e3bd 03b2 ccbd 77d5 2cbe a5ae c7bd
000003c0: e8f2 ecbd 0721 653e f474 cc3e 96db 58bf
000003d0: 572c a2bd b237 6f3c 8e1f 3c3e 3b24 59bd
000003e0: 5295 f43c 667f 8ebe fbfe 3f3d 101c aebe
000003f0: c7ad 903d a410 1cbe 8146 4ebe ce30 75be
0.6319673 0.11155431 -0.064683475 0.60173595 -0.021287149 0.05008728 0.052555937 -0.09584369
0.017914414 0.32432732 -0.3326173 0.12610553 -0.14899068 -0.15507936 -0.1717355 0.2071995
-0.1315533 0.12115301 0.1885714 0.038800955 0.245203 -0.025858378 0.023171546 -0.13297245
0.4989448 0.11421446 -0.0940729 -0.33766887 -0.27113444 0.04817159 -0.3070589 -0.0142062735
-0.14855334 -0.028307961 0.17634588 -0.5266457 0.00032297848 0.0051415944 -0.030235656 0.05101384
-0.008959298 0.16752534 0.04510018 0.0053980374 -0.15327854 -0.1593849 -0.09777459 -0.17985877
0.60920614 0.1282778 -0.23841308 -0.06879614 -0.057671543 0.21802501 -0.27815464 0.115591146
0.101945445 0.3405431 0.049557492 -0.4312406 0.19350986 -0.13524579 0.12230227 0.07489477
-0.20314416 0.011248277 -0.23595186 0.013796577 -0.0737218 -0.09664875 -0.13975276 -0.10160181
0.36324897 0.009829823 -0.006399411 0.37721276 -0.14258064 0.046948493 -0.32854494 -0.1270354
-0.27154413 0.21501437 -0.15167458 -0.12530972 0.10733189 0.19320495 0.1574045 -0.09740837
-0.041971307 0.1363929 -0.0037833352 0.14094414 0.16173051 -0.1737675 0.15655974 0.092213675
0.23825741 -0.04004583 -0.012340208 0.32574987 -0.22625175 0.17690279 -0.31495953 0.038109273
-0.2803765 0.16986035 0.21339282 -0.07916868 0.18375961 -0.07077692 0.13064092 0.18460946
-0.12822205 -0.0036192222 0.25030607 0.16806988 0.24537216 -0.15426956 0.09604983 0.14057986
0.5748711 -0.013293718 -0.066473156 0.05713725 0.025128016 0.10719558 0.3728312 -0.004831384
0.19858482 0.09891804 0.08286844 -0.24570078 0.076197855 -0.011278575 -0.15944776 -0.106690556
0.14023262 -0.20453164 -0.1747241 -0.08139197 -0.22765735 -0.13430764 -0.082622826 0.11409253
-0.18363322 -0.17158175 -0.14001478 0.8281245 -0.06747265 -0.109281786 -0.23440632 -0.20435898
-0.19460972 0.32449028 -0.1403638 0.5435701 -0.10068609 -0.031477787 0.20357767 -0.081046395
0.23880234 0.15346868 0.08359667 -0.028071292 0.2889659 -0.059020042 -0.049965303 -0.04383336
-0.2708089 -0.46860218 -0.059157815 0.28665894 -0.025960177 -0.09107431 0.35591874 -0.09095307
0.20851758 0.06073401 0.13439728 0.49866366 0.13843007 -0.020522116 0.08213139 -0.067110844
-0.13426745 0.16633789 0.032438647 0.23594594 0.21686333 -0.1073633 -0.006017795 0.15889223
0.5929058 0.23031059 0.10095327 -0.34408712 -0.111605294 0.11843752 -0.031805437 -0.047132783
-0.22312512 0.08676532 -0.14960705 -0.46335047 0.06407797 -0.07846852 -0.26196218 -0.16361926
-0.28931656 -0.01017484 -0.014811796 -0.10464192 0.07938439 0.17377242 -0.10269935 -0.13127881
0.54615605 0.37274417 -0.15000953 -0.20224032 0.048713468 0.0054453257 -0.39037094 -0.060450878
-0.015185691 0.09059586 -0.028231211 -0.48448753 0.16415536 0.036725037 -0.1321013 0.16478914
0.046914592 0.17685355 -0.025080793 -0.05877614 -0.11115883 -0.099948905 -0.16878305 -0.09750108
-0.11569768 0.2237588 0.39932978 -0.8471006 -0.079186134 0.014600681 0.18371412 -0.053013068
0.029856358 -0.27831572 0.046874028 -0.34005785 0.070643954 -0.15240723 -0.20144083 -0.23944399

net.0.bias f4 [50]
00000000: 122a 80bd cf15 f93d 2277 073e be9a 043e
00000010: 7bfe 0b3d fcc9 20be 6a9e 103e e7ba d0bc
00000020: 0420 833d 1422 e7bc 36f5 b53c e2ea 8ebc
00000030: 505f ffbd 306f 863d 084e 633e d704 20be
00000040: bf3b b63d bc26 8bbd ffe2 f73d f2ac 453e
00000050: 28d9 723e b425 c3bd 2306 133e 370b 18be
00000060: 8044 58bd b67f 29be 661a 443d 38ab 82be
00000070: c4b1 013e 29de 013d 55a3 e2bd 8ec4 143d
00000080: d29a ab3d 3baa 99bd 48df 4ebe 60c1 643c
00000090: 11c1 0c3d 83a0 09be 611a bf3d e7b2 8a3c
000000a0: aa23 833c 5252 3bbc 86fc 863d 0d5b ce3c
000000b0: 19b3 a93d 00d5 833e 532a e53d 88a5 07be
000000c0: 23e2 eabd 746f c1bd
-0.06258024 0.12162363 0.1322904 0.12949654 0.03417824 -0.15702051 0.1412293 -0.025479747
0.06402591 -0.028214492 0.022211652 -0.017445985 -0.12469351 0.06564176 0.22197735 -0.15626846
0.088981144 -0.06794497 0.12103843 0.19304255 0.23715651 -0.09528676 0.1435781 -0.14848028
-0.0527997 -0.16552624 0.047876738 -0.25521255 0.12665468 0.03170601 -0.11066309 0.03632026
0.08379139 -0.07503172 -0.20202363 0.01396212 0.03436381 -0.13440137 0.09331203 0.01693101
0.016008217 -0.011433201 0.06591134 0.0251899 0.08286113 0.25748444 0.11189713 -0.13246739
-0.114689134 -0.09445086

net.2.weight f4 [50, 50]
00000000: f520 8c3e 6cbd fdbd 6bc7 31bc c380 793c
00000010: 15a9 8cbe 2770 5e3e bd07 843e 430b ca3e
00000020: c151 953d 74ca 08bd bb48 fbbd b66a be3d
00000030: b716 1ebe a877 12be 164a 273e 19a1 c9bd
00000040: 64df 28be 8d47 123d ccca 6abe c413 94bd
00000050: 38f1 88bd 550b ff3d c593 76be 71e1 6d3e
00000060: 61d0 bebe e013 97be 6eea 783e 619a 18bf
00000070: 195a f9bc 72c4 ea3e b7d7 803d 558c f13d
00000080: 2391 983e 1b1c 233e 4bdf a7be 5c85 643e
00000090: 0fc5 2cbe 027f 29be faf5 d93c 31fa 1e3e
000000a0: 32cc 0fbe b331 283f 5cc4 5c3d 6261 ff3e
000000b0: 46c9 bf3b 99ca bf3c f8ef 683e 7cc3 b43c
000000c0: 7ac1 d4bd faeb d53d 2a95 973d bb0e 8ebe
000000d0: 8b90 d6be 4320 24bc eb76 403d 5b22 68be
000000e0: 6e8c a43e 1fd1 9b3e 67d1 8bbe ce3e 96be
000000f0: c394 92be 93e8 89be 194d 173e eff7 613e
00000100: de5f 92bc 25da 693e 566a bc3e 5548 863e
00000110: cef8 493e 7b87 a8bd 8fa7 31be 22e1 823d
00000120: ec04 62be 6a90 283e a42c 923c ead2 bfbd
00000130: b679 2a3e 498b 8ebc fcaa 38be 9484 9dbc
00000140: 155e 933e 7435 333e bcf0 9dbd 8860 88bd
00000150: 9347 833e 6e67 933d 8e04 86be 0d4a f1bd
00000160: 8510 2b3e 4db2 96bd f87b 71bd 6019 2f3c
00000170: e2e8 023e 28d8 a33e 6101 0c3e b882 41bd
00000180: 2499 fe3d 24a3 cc3d 23f6 753e d118 123f
00000190: 762b 9c3e a994 673e 3af8 0d3f 1c11 f63d
000001a0: 9975 12be 6c00 d63e f32f 973d 9cf8 a43d
000001b0: ffa1 bf3e 65af c63d 8c89 83bd 2ffa 1abe
000001c0: 91b9 bf3c cb4a 89be 3c15 54bc ddfd 9dbd
000001d0: 0d4f ddbc 90f3 dbbe c89a a7be cd5b 9bbe
000001e0: 4c11 6b3c 1c9e 4d3e 8be4 d4be 5bfa 923e
000001f0: 5d39 04bf 5787 92bd 1861 be3e 6a6c 6a3e
00000200: 0713 1f3e ec0c 46bd 8510 fcbe 0014 56be
00000210: 51e9 823d b6a7 a83e c526 d1be ab98 7c3e
00000220: b191 0a3f 5cfa cebe 001d 0ebe 699a b43e
00000230: be0d 5b3e 8041 8a3e fc4b 4dbd 961e c43c
00000240: 6db0 173c 9b4c 01bd d4a2 0c3e 61e0 423e
00000250: 4a8f 71be 97a0 00bf 1a3a 963e da3b da3e
00000260: f690 f83e 9abe 493e f057 c03d 3362 9c3e
00000270: ce7c 093e 4b3b e1bd f3a1 7a3e 2b32 df3e
00000280: 8e59 90be 2d55 81bc f817 9d3c 775e 19bf
00000290: e16f 8ebd 1c5a 32be 42c1 2bbe 0dee bebe
000002a0: 3a76 64bd d9ae b3bd db19 c73d 7686 de3c
000002b0: a0b5 3ebe 413d aa3e 2879 e1be 8956 96bc
000002c0: f433 e33e 062c 2b3d c13a e63d 08f2 8f3e
000002d0: eb4c 08bf f6ae 86bd abe5 453e 45ad 083f
000002e0: dce8 8bbd a0c5 1c3e 0b0b be3e ebb5 c3be
000002f0: bfbd 9ebe e3f3 723d b23b 7c3e 84d8 a73e
00000300: 09ed bcbd cdb1 c63c 93af 793c 12c7 4dbe
00000310: 2038 b33c ea5c 3c3e d888 86be c084 e4be
00000320: b230 22be bf54 963d fe9d adbb c465 033e
00000330: 6ce0 573e 2206 63be db8f f73c 228c 9dbe
00000340: 64d7 09bd 2348 133d 8a5b 1f3e 0a0d 33bc
00000350: fc4a 5f3d b148 5abe 89bc babe 4ece 4e3d
00000360: 3687 273e 30c3 90bd 8e8d 583d a47d 0abe
00000370: 4b9e e8bd 3468 05be 87e0 993e 8a83 c2bd
00000380: 77f5 b43e 744b 0a3f 7352 86be 5c3f 123f
00000390: eff1 023e d737 0abf 6344 f13b 70cb 0abd
000003a0: 20bf a9be 5ad0 40be 4f05 b53e f677 a8be
000003b0: 113d 333e d9ae 213d 187f 473c 842a 9ebd
000003c0: 613c d83d 7232 42bf d761 a6be 9abb c1be
000003d0: 2edf 38be 629a 0fbe f602 0bbe 5183 223d
000003e0: cffc 0a3e 8abe 0bbd 047b e53d 608a a9b8
000003f0: 25aa 0c3d f896 80bd c89a 563e a229 d5bc
0.27368894 -0.12389645 -0.010850768 0.015228453 -0.2747275 0.2172247 0.25787154 0.39461717
0.07290984 -0.0333962 -0.122697316 0.09297697 -0.15438353 -0.14303458 0.16336855 -0.0984518
-0.16491467 0.035712767 -0.22928923 -0.072303325 -0.06686634 0.12453333 -0.24079807 0.2323053
-0.37268355 -0.2950735 0.24308178 -0.59610564 -0.03043847 0.45853 0.06291144 0.11794344
0.2979823 0.1592869 -0.32787547 0.22316498 -0.16872047 -0.16552356 0.026606549 0.15525128
-0.14042738 0.65700835 0.0538982 0.49878985 0.005852851 0.023412036 0.22747791 0.02206587
-0.10388465 0.104453996 0.07401498 -0.27745613 -0.41907153 -0.010017457 0.04698841 -0.22669356
0.3213839 0.30432984 -0.273082 -0.2934479 -0.2862912 -0.26935253 0.14775504 0.22067235
-0.017867979 0.22837122 0.36799878 0.2622706 0.19723818 -0.08228966 -0.17349075 0.06390597
-0.2207219 0.1646134 0.017843552 -0.093664005 0.16647992 -0.0174004 -0.18033975 -0.019228257
0.28782716 0.1750086 -0.07711932 -0.06659037 0.25640544 0.07197462 -0.2617535 -0.11781702
0.1670552 -0.07358227 -0.058956116 0.010687202 0.1278415 0.32000852 0.13672401 -0.047243804
0.12431553 0.09992054 0.24019675 0.57069117 0.30501908 0.22615303 0.5545689 0.12014982
-0.14302672 0.41797197 0.073821925 0.08055231 0.3742828 0.097014226 -0.06422719 -0.151345
0.023403915 -0.26814875 -0.012944516 -0.07714436 -0.027015233 -0.4295926 -0.32735276 -0.30343476
0.014347386 0.20079845 -0.41580614 0.2870663 -0.5165003 -0.0715472 0.37183452 0.22892919
0.15534602 -0.048352167 -0.49231353 -0.20906067 0.06392158 0.32940453 -0.4084989 0.24667613
0.5412856 -0.40425384 -0.1387825 0.35274056 0.21391961 0.27003098 -0.050121292 0.023940366
0.009258372 -0.031567197 0.13733989 0.19030906 -0.23589817 -0.5024504 0.29341203 0.42623788
0.48548096 0.19701615 0.09391773 0.3054367 0.13426515 -0.10997637 0.24475841 0.43592963
-0.28193325 -0.015787685 0.019176468 -0.59909767 -0.06954933 -0.17417186 -0.16772941 -0.37290993
-0.055776812 -0.08773584 0.097217284 0.027163725 -0.18623972 0.33249858 -0.44037747 -0.01835181
0.44375575 0.04179003 0.11241675 0.28114343 -0.5324237 -0.0657634 0.19325893 0.5338939
-0.06831524 0.15309763 0.371178 -0.3822473 -0.3100414 0.05931462 0.24632147 0.32782376
-0.09224898 0.024254704 0.015239614 -0.2009547 0.021877348 0.18394819 -0.26276278 -0.4463253
-0.15838888 0.07340383 -0.005298375 0.1283179 0.21081704 -0.22170308 0.030219963 -0.30770975
-0.033652678 0.035957467 0.15562263 -0.010928402 0.05451487 -0.21316792 -0.36471966 0.050489716
0.16360173 -0.07068479 0.052869372 -0.1352449 -0.11358317 -0.13028032 0.30054113 -0.09497745
0.35343525 0.5402138 -0.2623478 0.5712793 0.12787603 -0.53991455 0.0073628887 -0.03388542
-0.3315363 -0.1882948 0.35355613 -0.32904023 0.17503764 0.03947339 0.012176298 -0.07722953
0.10558391 -0.75858223 -0.3249652 -0.3783844 -0.18053886 -0.14023736 -0.13575348 0.039676014
0.13573001 -0.03411726 0.11205104 -8.084322e-05 0.03434195 -0.06278795 0.20957482 -0.026020829

net.2.bias f4 [50]
00000000: 0eb3 a33d b20f ba3c 3ae3 ddbb 8853 383d
00000010: 7bfb b2bd 4ece e33d 4eb0 43be da04 94be
00000020: f246 9fbe bdd2 c23d d2a7 003e a324 7c3e
00000030: 1f59 0dbd 4b5f 323d 1ec2 6ebe 45b4 6d3e
00000040: bac9 c2bd 5442 a0bc ffbd f1bd a779 7c3d
00000050: 469f ad3d a2ad b7bd 5b01 b33d db11 c23b
00000060: 127b 4fbd 851c 9e3d 0f74 2abe cce8 4bbe
00000070: 72c3 593e 4ee0 3ebe e437 22be f30f c4bd
00000080: fe7b d5bd c0cf b3bd cd73 703d fb4c 833c
00000090: 056c 143e 7c5f 603d 3d8d 063d 35c6 2cbd
000000a0: 8c8e e9bd 52d3 87bc 682c c2bd 6605 4a3c
000000b0: aa9e 093d f2c8 c53d bece 3a3d 2f50 163e
000000c0: f44b 7abe bbab 8c3d
0.07993136 0.022712562 -0.0067714723 0.045001537 -0.08739372 0.11123334 -0.19110224 -0.2890995
-0.31108814 0.095128514 0.12564018 0.24623351 -0.03450882 0.04354791 -0.23316237 0.23213299
-0.095111325 -0.019562878 -0.11803817 0.061639454 0.084776446 -0.08968665 0.08740493 0.0059225387
-0.05065448 0.077202834 -0.16645835 -0.19913024 0.21265963 -0.18640253 -0.15841633 -0.095733546
-0.1042404 -0.087798595 0.058704186 0.016027918 0.14494331 0.05477856 0.03284954 -0.042181212
-0.11404142 -0.016580258 -0.09481126 0.012330389 0.03359858 0.09657468 0.04560732 0.14679025
-0.24443036 0.068686925

net.4.weight f4 [50, 50]
00000000: 70e1 d0be 80be 02bd 79d7 46bf d4e0 35be
00000010: b35b 8a3d e09c 913d 9a9b 1cbe 9a30 9abe
00000020: 1405 c4be a7ef 053f 686c 9dbe 3b2d ca3e
00000030: 425e adbe 3be7 f73e 9ce7 443f 1ea6 003e
00000040: 75c4 d23e 9575 ca3e 3e04 953e 0c87 89be
00000050: e74d ae3e b85b a4bc 3179 b3bd f921 3d3e
00000060: 5581 c3be 81fc 55be c9b4 a53e b4c4 2dbe
00000070: 1a69 0f3d d6b9 8d3e be82 dd3e 09fc e5bd
00000080: a9fc 5abd 85a5 a1be 4fd5 f3be a249 67bf
00000090: 9608 c53d f4fe 593c e38a 0dbb 0cb6 0c3f
000000a0: f5d2 b1be b044 70be 4a8a c83e a3f6 97be
000000b0: 5b83 15be 10d7 553c 4519 1f3f d07c b9be
000000c0: aa5c a7be 4fce 8f3e 252c ba3d a173 78be
000000d0: 4598 b23e 027f 16ba ec53 523e 725c 2cbe
000000e0: e434 693e fc52 28bd 085c 1f3f fe3e a7be
000000f0: fc89 cbbc 862c 0cbf 1fba 623e 6ef2 d93d
00000100: 9ab1 0fbe 9d11 63bd 1fed debd 5fb9 28be
00000110: 4b57 53be 0aa1 21be 81f9 05bf a73b 4bbd
00000120: a139 033f b863 5f3e ea04 243e cb46 b0ba
00000130: 3dbb 89be b48a b43d cf42 02bf 9696 233d
00000140: abd2 31be 4b61 a2bd 1063 02bf 5912 8abe
00000150: 7cf8 b53e a636 8d3e a99e 61be 57c4 cfbd
00000160: b411 cc3e 1ef7 59be 150b d03e 29ea e9bd
00000170: 38ee 173c 2768 073e caa0 6dbe c8fe 45be
00000180: b81e 72be f990 5c3d 8a6d 573f 6c32 1abd
00000190: ddf3 7f3d 8195 0c3f 76a2 9d3c 1f62 d8be
000001a0: be0e 6b3d 3e5e 85be 4500 023e 29bd 713e
000001b0: 86aa b7be a9bf 893d b98c babe 6020 973e
000001c0: 8355 48be 363b 07be 93ed adbc d386 00bf
000001d0: bdc1 553f f6f0 183f 3bb1 a43e 5d05 513d
000001e0: 1113 7c3d 2e4f c63e e35c eabe 8f38 2b3c
000001f0: 180f c9be 69b8 c6be ef73 b5bc 40db 8f3e
00000200: 0342 203f bc76 303e 57fc e7bd c2de c73e
00000210: 0513 223f b1fd a63e 4f97 73be dc4e 6fbe
00000220: 467e 27bd 86cd ebbd 72ac 26be 008c 073f
00000230: b308 4ebe cdb2 5bbc f53b 8a3e a13b fbba
00000240: 5708 f33e 57af 4f3e 6430 e33d a5cf f4be
00000250: ff11 0ebe e936 eb3e 501b 5fbe eb70 05bd
00000260: 2801 24bf ebf0 ccbe fedf 013e 26b7 4e3c
00000270: 8dd1 8cbe 2b24 febd 824c 1dbe bf10 113f
00000280: 05f5 c7be 3c54 8b3e 6f24 debe 3bf8 043f
00000290: 160b 593f 3b0f 163e 0c3b a03e d544 6f3e
000002a0: 306a 943e ec29 6cbe db7c c93e d4ed 0dbe
000002b0: 7e42 fd3b 2dbf 703e 5dd0 86be cd93 77be
000002c0: 3ba3 913e 5535 aabe 92e8 a83c a1cd 193e
000002d0: 5593 733e d7ad 5abe 4f5b 8fbc f2ba 86be
000002e0: b154 80be 8993 39bf 0d38 8dbc 5cd6 8e3c
000002f0: edce 61bd e1af 073f ff16 fabd 0899 74be
00000300: 53f7 023f 99e2 52be 5266 9fbd 92fa e23d
00000310: 2a19 5a3f 597b 0fbf ba78 98be 47a6 863e
00000320: ea47 8a3e 5d61 17be 97ce 6ebe c2db a2bd
00000330: 2557 acbe e314 933c ebaa dabe dd2d 0abc
00000340: 9606 77bc cd35 263e 677e 843e f08b 0abe
00000350: f707 b1be 8e63 babe 00b6 c83e 9ece d43d
00000360: f2b1 46be 9fde f5bc 8595 603d d022 01bd
00000370: e5b1 25be b30d e1be e967 b33e 616e 14bf
00000380: 7466 d3be 939e cebd 3082 cabe 011b 15bd
00000390: bf11 d23c e428 27bf 57ee a93f 564f d5bd
000003a0: 40cb aabe 3cbf eabd 54d0 fdbe 7df6 a2be
000003b0: c5fc 91be a1bf f0be fd76 d83e e510 933d
000003c0: 0668 bcbd 489e 01bf 4842 423e 557c 6bbf
000003d0: 67ae 463d 65c6 f03e c8ff 303e 42aa c9bd
000003e0: e838 8cbd af74 f73e afc9 ff3d 988f 5cbe
000003f0: a56b e63e 0eee c73d 42c1 4e3d 6bf0 2abe
-0.40796995 -0.031919956 -0.77672535 -0.17761546 0.067557715 0.0711 -0.15293732 -0.30115205
-0.38285124 0.52318805 -0.3074677 0.39487633 -0.33860976 0.48418602 0.7691591 0.12563369
0.4116551 0.39542833 0.291048 -0.26860845 0.3404381 -0.020063266 -0.0876335 0.18469991
-0.3818461 -0.20897104 0.3236449 -0.16969568 0.035012342 0.27680844 0.4326381 -0.112297125
-0.05346361 -0.31571594 -0.4762368 -0.9034673 0.09620778 0.0133054145 -0.0021597676 0.5496528
-0.3473126 -0.23463702 0.39168006 -0.29680356 -0.1460089 0.013051763 0.62147933 -0.36228037
-0.32687885 0.28087088 0.09090451 -0.24262859 0.34881797 -0.00057409715 0.20539826 -0.1683214
0.22774082 -0.041094765 0.62249804 -0.32665247 -0.02484607 -0.5475544 0.22141312 0.10641943
-0.14032593 -0.05543672 -0.10885071 -0.16476963 -0.20638768 -0.15784088 -0.5233384 -0.049617436
0.5125981 0.21815383 0.160175 -0.0013448832 -0.26900664 0.08815518 -0.5088319 0.03993853
-0.1736552 -0.079287134 -0.5093241 -0.26967123 0.3554114 0.27580756 -0.2203318 -0.10144871
0.39857256 -0.21285674 0.40633455 -0.11421616 0.009273104 0.13223325 -0.23205867 -0.19335473
-0.23644531 0.053849194 0.8415152 -0.037645742 0.062488426 0.54915625 0.019242506 -0.4226236
0.057387106 -0.26048464 0.12695415 0.23607315 -0.35872287 0.067260094 -0.36435488 0.29516888
-0.1956387 -0.13206181 -0.021231448 -0.50205725 0.83498746 0.5974268 0.32166466 0.051030505
0.06154162 0.38732284 -0.45773992 0.010450496 -0.39269328 -0.3881257 -0.022150008 0.28096962
0.62600726 0.17232794 -0.11327427 0.39037138 0.6331027 0.32615426 -0.23788188 -0.23369926
-0.040891908 -0.1151381 -0.1627672 0.52948 -0.20120506 -0.013409329 0.2699887 -0.0019167551
0.474673 0.2028173 0.11093214 -0.4781467 -0.13874052 0.4594033 -0.21787763 -0.03257839
-0.64064264 -0.40027556 0.12683102 0.012616908 -0.27503625 -0.12409242 -0.15361217 0.5666618
-0.39054123 0.27212703 -0.43387172 0.5194127 0.8478254 0.14654247 0.3129505 0.23366101
0.28987265 -0.23062867 0.3935307 -0.13860255 0.0077288738 0.23510428 -0.26330844 -0.24177475
0.28444847 -0.33243814 0.02061871 0.15019847 0.23786671 -0.21355377 -0.017499594 -0.26314503
-0.25064614 -0.72490746 -0.017238641 0.017436199 -0.05512898 0.53002745 -0.122114174 -0.23886502
0.51158637 -0.20594253 -0.07783188 0.11082949 0.8519465 -0.5604759 -0.29779607 0.26298735
0.2700799 -0.14783235 -0.23320995 -0.07952072 -0.33660236 0.017954296 -0.42708525 -0.008433786
-0.015077254 0.16231461 0.25877687 -0.13529944 -0.3457639 -0.3640408 0.39201355 0.103909716
-0.19403818 -0.03001338 0.054830093 -0.03152734 -0.16181143 -0.43955764 0.35040215 -0.57980925
-0.41289103 -0.100888394 -0.3955245 -0.036402706 0.025643228 -0.6529677 1.327586 -0.10415523
-0.33358192 -0.11462256 -0.49573004 -0.3182868 -0.2851316 -0.470212 0.4227828 0.07180957
-0.091995284 -0.50632143 0.18970597 -0.9198659 0.048506167 0.47026363 0.17285073 -0.09846927
-0.068467915 0.4833121 0.1248964 -0.21539152 0.45004 0.09762202 0.050477274 -0.16693275

net.4.bias f4 [50]
00000000: 68cd 703e ce92 c2be ef78 04bd ad49 8b3e
00000010: fada 1bbe e2b0 e9be 72d5 f2bd af37 433e
00000020: 566f aabe 445a 8dbd 2b6e 3d3e 4d4b 263e
00000030: 60d0 633d 5dfb d9bd b4e3 a4bd 0db0 7e3e
00000040: 403a 8bbe a2ab 82be 4bce 8a3d 42d0 dd3c
00000050: c317 15be d9b2 febc df18 223e b2f8 88bd
00000060: aec1 2a3d abfa 6d3d 308d 8dbd 8e6a 293e
00000070: 4df7 263d cec9 a83d 8d5c 6cbd 4db4 eebd
00000080: 00cf 09be b345 51be fdb8 2dbe 1605 71bb
00000090: 60cf d7bd 0b4a bf3d e8ce b13c 95d2 693c
000000a0: af06 dc3e 0699 d1be 774c 08bd 2391 5c3c
000000b0: 4160 bebd a1ad 923e 3ca3 853e 4846 3cbe
000000c0: 811c 403d 2ece b93d
0.23515856 -0.38002628 -0.032341894 0.27204648 -0.15220252 -0.45642763 -0.11857118 0.1906421
-0.33288068 -0.069019824 0.18499057 0.16239662 0.055618644 -0.10643647 -0.080512434 0.24871846
-0.2719288 -0.2552157 0.067776285 0.027076844 -0.14559846 -0.03109114 0.158298 -0.0668806
0.041688614 0.058100384 -0.06911695 0.16544554 0.04076319 0.08241616 -0.05770545 -0.116554834
-0.1345787 -0.20436744 -0.16965099 -0.0036776713 -0.105376005 0.093402945 0.021705106 0.014271398
0.4297385 -0.4093706 -0.033276048 0.013462338 -0.09295703 0.28648093 0.261011 -0.18386185
0.046902183 0.09072529

net.6.weight f4 [4, 50]
00000000: 7ddd c6bf 560b b43e 2dbd 00bf 7719 e0bf
00000010: 2732 c4bf 2ec2 1f3f 504a 373e c7e3 b3bf
00000020: dd92 5e3f 3dee 0a40 a2df d6bf 9b8f bebf
00000030: 3e65 0ec0 2bf6 0f3f 6436 aebf 3b8c 49bf
00000040: 8a81 093f 16f7 d23f 6c65 0f40 7aa1 0dc0
00000050: c570 0ebe a275 c5bf 0664 d5bf 109b bf3f
00000060: 1cc9 b8bf 3121 0440 c5d1 4cbf 2507 c63f
00000070: cff1 0ec0 08a2 65bf 1564 e03e a1ec e13e
00000080: e613 1040 d7d7 ba3f 487a 88bf c473 0e40
00000090: 50ea 113f 8402 c2bf 9feb 833f 6d83 d4bf
000000a0: 3d30 83be e7aa 303f c74c 07c0 9698 0bbf
000000b0: 1834 b2bf de57 62bf 4643 62bf ee9c 183f
000000c0: d5ef 00be a4f4 49bf 4784 92bc 4c16 6e3f
000000d0: 1526 4fbe f258 5d3e b9d2 babf 49da 913f
000000e0: c7b0 6fbe a3a1 dabf bfb3 0740 9f83 8e3d
000000f0: 6c63 06bf 9d9d b43e 30b2 42bf 2d35 dc3e
00000100: b7b5 bd3d d456 e9bf dca3 3d3f 510d a93e
00000110: 33db fd3e 6aa1 3abe df92 cfbd 090a a5bf
00000120: 97d1 c0be 0f01 0ebe b9ea 8f3e 3734 ab3e
00000130: f1a4 f2bc fc13 8f3f 9d53 0bbf 53a7 d1bf
00000140: 6b05 ac3f a0bc fb3f e35c 943e d65e cfbe
00000150: 8b3f f53e 7fab fd3e 3396 7e3e 0191 b4bf
00000160: 9b21 3c3d d375 a0bf 7eae 05bf 18bd 6f3f
00000170: b8e1 42be 20e2 b8be 60e9 343e a417 d4bf
00000180: e38f 3cbf cd40 543f 1969 e83f 5d6a d8bd
00000190: fae8 0140 b477 c7bf fd16 2d3f 0e2a e03f
000001a0: 075a 173f d4d2 e2bf bbed 82be 2f94 313f
000001b0: 5d30 6abe 936c 8fbf 238f d83f bffb e83f
000001c0: 9705 3e3f ef34 a3be b999 553f ed8c 6e3f
000001d0: 1efc e8bf af3c f2bf bc61 40bf ab0a 963f
000001e0: 4385 a03e 5432 313f 109b ea3f d926 fabf
000001f0: 2f10 f73f 41f7 0dbf e6b6 dd3d 2aec 31bf
00000200: 5f5d 493f 404a af3e 4d98 183f ea8f a2be
00000210: f2df 5dbf 40b7 f3bf b608 62bd 0e45 50bf
00000220: 55f5 60be de11 0c3f fe55 abbe 3833 383f
00000230: 61a0 ab3f f09c 9cbf 12b0 8a3f 00b7 143d
00000240: 586e 6f3f 410c 603f b064 2e3f 3f21 f2bf
00000250: 3e41 d83e 8781 993e 1493 86be bcdd 063f
00000260: 064f fbbf 11be c7bc f50d 183e 0eeb 933e
00000270: bc92 edbf 75ed 1ebe babf a23e 1cc0 373f
00000280: a138 9bbe 09bd c7be a96c 27bf 6a0b ea3f
00000290: cde0 b6bf c061 5ebb 8b54 3f3e 7f2c ae3e
000002a0: 06c4 a43e 30ef cfbe 952a f5bf e8a4 843e
000002b0: 4da1 6ebe 7362 143e ed6a 15be badc 273f
000002c0: a642 fcbf 390f 91be 27ce 06bf d097 bd3e
000002d0: 7a17 993f 771b 64be fbe8 913e a95f 2c3e
000002e0: fc7d afbf b60c 363f fca6 0140 2443 973d
000002f0: e075 f43f 547d 443e 777e 923f e6ac 823f
00000300: 290e 52bf b237 f8bf 9235 bfbf 04fe 17bf
00000310: 2978 d8bf fb63 133e 3c37 623e 9394 02c0
-1.5536343 0.351649 -0.5028866 -1.7507771 -1.5327805 0.6240567 0.17899442 -1.4053887
0.86942846 2.170791 -1.6786997 -1.4887575 -2.2249293 0.56235 -1.3610349 -0.787296
0.53713286 1.6481655 2.2405653 -2.2129807 -0.13910206 -1.5426524 -1.667115 1.4969196
-1.4436374 2.0645258 -0.8000758 1.547093 -2.2335088 -0.89700365 0.43826357 0.44125846
2.2512145 1.4597119 -1.0662317 2.2258158 0.5699816 -1.5157018 1.0306281 -1.6602608
-0.2562274 0.69010776 -2.114061 -0.545297 -1.3922148 -0.88415325 -0.883839 0.59614456
-0.12591489 -0.78888917 -0.01788534 0.9300277 -0.20229371 0.21615961 -1.4595557 1.139474
-0.23407279 -1.7080578 2.1203458 0.069586985 -0.52495456 0.352765 -0.7605314 0.4300932
0.09263175 -1.8229623 0.74078155 0.33017972 0.49581298 -0.18225637 -0.10135435 -1.2893687
-0.37659904 -0.13867591 0.28108767 0.33438274 -0.029619666 1.1177974 -0.5442446 -1.6379188
1.3439153 1.9666939 0.28977117 -0.40502042 0.47900042 0.49544904 0.24861984 -1.4106752
0.045930486 -1.2535957 -0.5221938 0.9364791 -0.19031417 -0.3611002 0.1766715 -1.6569715
-0.73657054 0.8291138 1.8157073 -0.10567162 2.0298448 -1.5583405 0.676132 1.7512834
0.59121746 -1.772059 -0.25572 0.69366735 -0.22870012 -1.1205009 1.6918682 1.8201827
0.7422728 -0.31876323 0.8343769 0.93183786 -1.820194 -1.8924769 -0.7514913 1.1722006
0.3135167 0.6921742 1.8328571 -1.9543105 1.9301814 -0.55455405 0.10825901 -0.6950098
0.786581 0.34236336 0.5960739 -0.31750423 -0.8666984 -1.9040298 -0.05518409 -0.8135537
-0.21968587 0.54714763 -0.33464044 0.71953154 1.3408319 -1.2235394 1.0834982 0.036307335
0.93527746 0.875187 0.68122387 -1.8916396 0.42237276 0.29981634 -0.26284087 0.5268209
-1.9633491 -0.024382623 0.14849074 0.2889027 -1.8560405 -0.1552027 0.317869 0.7177751
-0.30316642 -0.3901141 -0.6540018 1.8284733 -1.4287354 -0.0033932775 0.18684594 0.34018323
0.32180804 -0.40612173 -1.915362 0.25907063 -0.23303719 0.1449068 -0.1459157 0.65571177
-1.970784 -0.28331926 -0.52658314 0.37029886 1.196029 -0.22276102 0.28498062 0.16833366
-1.3710322 0.71113145 2.025817 0.07385853 1.9098473 0.19188434 1.1444844 1.0209014
-0.82052857 -1.9391997 -1.4938223 -0.5937197 -1.691167 0.14393608 0.22091383 -2.0403183

net.6.bias f4 [4]
00000000: b52b 2e3e 11c5 e4be 9ee3 753f 55d6 543f
0.1700886 -0.446816 0.9605044 0.83139545

net.0.weight f4 [50, 24]
00000000: d851 3b3e d041 953f a5eb 223f 0d7d 4abe
00000010: 4e1f cfbd 8a53 453d 106d c2be 0cfd cf3d
00000020: de18 29bd cf21 d03e 5616 82bd c170 57be
00000030: fa66 1dbe f310 87bc de3a 2fbe 672d 5abd
00000040: 0a35 a13c eda5 b5be 15c4 81be e439 6ebc
00000050: 4bcc 18be eab6 c23d f0b5 05bd 7cc0 ef3d
00000060: 7b0a 29bd 2110 bfbf ba9d ff3d 37b0 fd3e
00000070: 0f2c 8dbe cd8d 22bd 82ff 91bd b0a0 22bc
00000080: 67d8 f6bd b7da e83c 20e7 483c 3d81 923d
00000090: 6ca5 2bbd cc4c 3d3e 13d3 f5bd c880 613d
000000a0: 6c09 43bc 7b40 c7bb eddf 57bd f6ab 3e3e
000000b0: 19f7 753e d1ee a8bd 2c49 a73d 7655 d8bd
000000c0: 8995 b9bd 25ed 3abe cd79 1cbe 6374 4ebe
000000d0: e2a4 813d 1db2 393d cfde 193e bdea d33c
000000e0: ebc9 dc3c b59d 19be 3d61 9fbd 2b0f 47be
000000f0: eb3a 053e 004f d13c 1020 b53e 19e7 213e
00000100: a586 403e 964c 253e bfee 8e3e 44aa 05be
00000110: c3ba 953d 0bdb d4bc 7770 8b3d a974 febd
00000120: 19b6 f33e f856 d83f 5a34 7c3e 0cf7 583e
00000130: d129 4abe 557d 4dbd 2bfc 113e 1d6a 96bc
00000140: 385b e6be 6de9 3d3e da96 563e 3d0c 313f
00000150: 9736 143e 9b2a 8bbc 2206 ccba 86cc afbe
00000160: fd4c b2bd e80f 12be 8dce e93d 545a 08be
00000170: 8842 06be 21e5 e93d 0b60 d13c fe8d aebd
00000180: 6aae 86bf 4fc6 71bf b38a 833e 1b80 f0be
00000190: 822b 02bf 9449 0bbe 0d50 6bbe 700b b9bd
000001a0: 841f 373e 112f 623e efd7 be3d 2c97 47be
000001b0: 9c6d 383d bfc2 693d 4a8d 8b3d bcc6 0d3e
000001c0: bb4b 05be 051f 323c af13 183d 2244 93bc
000001d0: 8f7e debd 812d eebd 6e44 03be f7dd d9bc
000001e0: 44af 843d ca95 3d3e 2486 0ebe 3b3f 17bf
000001f0: 0c0d 113e ffac e93c 1ee4 05bd 2591 8bbd
00000200: 5a9c 833e bf07 a53c 9063 a23d 9fbc 91be
00000210: c365 6b3d 1177 b2ba 8f01 b63e c9bb 963e
00000220: 7d60 c33d 7fe5 853e fcaf ad3e e595 c83d
00000230: a711 3bbd a962 03bc d844 c83b 6ac9 3bbe
00000240: c51f fcbe e435 3dbf 3a9d 23bd a98c 6ebe
00000250: 0243 8dbe e9fb 553d f305 1c3d e908 c63d
00000260: 70fa 903b 0cc2 93be 0493 c1bd ef27 8fbc
00000270: 7d45 c53c 5268 57bd 64da b6bd 83e4 f13b
00000280: b2d5 513e 3f2c 0ebe 314a 0f3b cc6e 98be
00000290: 8a88 cfbe c2e1 133d 53d4 2cbe 23fe 4abe
000002a0: c1b9 cdbd 759b a6bf b029 0cbf b419 103e
000002b0: 6412 67be 2de4 3c3d d4fc bd3d 2adc 713d
000002c0: 4f1b 203d 1196 0bbf 4507 0fbc c868 c1bd
000002d0: f8df d83d aa7a d7bc 1477 b43c d61b 693e
000002e0: 346c 20be eb11 5bbd bc15 803c c019 7dbe
000002f0: dc5b e9be 6623 863d da48 7ebd 0d77 41bc
00000300: 78b1 5c3d a552 9c3e f3f2 67be d4d7 96be
00000310: 1a0c 993e 3906 fcbd 6f90 b13d acba 03be
00000320: 5f18 f03c 47aa 213d c794 e73d ea20 68be
00000330: 3285 873c 2a17 5cbb 94ba 743e ea3f d6bb
00000340: 0f08 b83d f81a 413e 34c5 643d 21aa 5d3e
00000350: b717 0ebe f3af 1b3e 9df0 84bd 118b 4fb9
00000360: 81df a6be 6104 58be eaf8 053f d087 a43e
00000370: d327 b0be e50d bebc 6fcc 19bd 15a3 8b3d
00000380: 7984 88be fbe0 9a3d 2a64 afbc 4aa4 5f3e
00000390: 16ef 323e 749e 9bbc 4b9b 12be a883 ad3d
000003a0: 7337 33be 2f04 943d 0e67 8fbe 09e5 72bd
000003b0: 2cac c93c 61bc 533d 8ad5 dbbd 21ab f33d
000003c0: bdd1 bebd 7658 29bf b3ea 02bf c5c4 1b3f
000003d0: 09e8 c43d 5afa 4d3b 9880 4ebe 91d1 213e
000003e0: 60de ebbd 3f58 d8bd 03e2 1abe a38b 9abd
000003f0: df0f 523d 803f 323e 9350 743e a6e2 313e
0.1829294 1.1660709 0.63640815 -0.19774266 -0.10113393 0.048175372 -0.37973833 0.10155687
-0.04128348 0.40650794 -0.063519165 -0.21039106 -0.15371314 -0.016487574 -0.171123 -0.053265955
0.019678611 -0.35478154 -0.2534491 -0.014540169 -0.14921682 0.09507544 -0.032644212 0.11706635
-0.04126976 -1.4926797 0.12481256 0.49548504 -0.27572677 -0.039686013 -0.071288124 -0.009926006
-0.12052994 0.028424604 0.012262136 0.071535565 -0.041905805 0.18486327 -0.1200315 0.055054456
-0.011904102 -0.0060806847 -0.052703787 0.18620285 0.24020042 -0.082486756 0.08168253 -0.105631754
-0.09061725 -0.18254526 -0.15280838 -0.20161586 0.06330277 0.045335878 0.15026401 0.025868768
0.02695175 -0.15001567 -0.077822186 -0.1943938 0.13010757 0.025550365 0.35376024 0.15810813
0.18801363 0.16142496 0.27916524 -0.13053232 0.073110126 -0.025983354 0.0680856 -0.12424595
0.47599867 1.6901541 0.24629346 0.21187991 -0.19742514 -0.050168354 0.1425635 -0.018361146
-0.4499147 0.18546076 0.20955983 0.691593 0.1447395 -0.01698809 -0.0015565793 -0.34335726
-0.087060906 -0.1426388 0.114163496 -0.13315707 -0.13111317 0.11420656 0.025558492 -0.085231766
-1.0521977 -0.9444322 0.25691757 -0.46972737 -0.5084764 -0.13602287 -0.22979756 -0.09035385
0.17883116 0.22088267 0.0931853 -0.19491261 0.045026407 0.05707049 0.06814058 0.13845342
-0.1301717 0.010871653 0.037128147 -0.017976824 -0.10863983 -0.11629773 -0.12819073 -0.026595099
0.06478742 0.18514171 -0.13918358 -0.5908086 0.14165133 0.028524874 -0.032688253 -0.068147935
0.25705224 0.020145295 0.07929146 -0.2846422 0.057470094 -0.0013615807 0.35548064 0.29440144
0.09539888 0.26151654 0.33923328 0.09794215 -0.04567113 -0.008019128 0.0061117224 -0.18338552
-0.49242988 -0.73910356 -0.039944865 -0.23295845 -0.27590185 0.052242193 0.03809161 0.09669668
0.0044243857 -0.28858984 -0.09451869 -0.017475097 0.024080986 -0.052589722 -0.089283735 0.007381977
0.20491675 -0.13884066 0.002186429 -0.2977203 -0.4053386 0.03610397 -0.1687787 -0.19823508
-0.10045195 -1.3016192 -0.5475111 0.14072305 -0.22565609 0.046116043 0.09276739 0.059047855
0.039088544 -0.5452586 -0.008729761 -0.094438136 0.10589594 -0.026303608 0.022029437 0.22764525
-0.15666276 -0.053483885 0.015635364 -0.24716854 -0.45577896 0.065497205 -0.062081195 -0.011808169
0.053880185 0.30531803 -0.22651272 -0.2946154 0.29892045 -0.123058744 0.08670127 -0.12864178
0.029308496 0.03946903 0.11307674 -0.22668806 0.016543005 -0.0033583143 0.23899299 -0.006538381
0.08985912 0.18857944 0.05585213 0.2164693 -0.13876234 0.15203838 -0.06491206 -0.00019792865
-0.32592395 -0.2109542 0.5233294 0.32134867 -0.34405383 -0.023199985 -0.03754848 0.06818215
-0.2666357 0.07562443 -0.021410067 0.21840015 0.17474017 -0.018996455 -0.14317052 0.08472377
-0.17501621 0.072273605 -0.28008312 -0.059300456 0.02461823 0.051693324 -0.10734089 0.118978746
-0.09317348 -0.66150606 -0.5113937 0.6084712 0.0961457 0.0031429739 -0.20166242 0.158026
-0.11517024 -0.105637066 -0.15125279 -0.07546165 0.051284667 0.17407036 0.23858862 0.17371616

net.0.bias f4 [50]
00000000: 0260 19bd 179e cf3d 3f35 9d3e 6b56 a3be
00000010: 0eb2 e0bc 6101 da3e cbc5 323e a77a e23e
00000020: c61d b73e 5667 91be b9f5 6d3d 98a7 513e
00000030: dc3d 5fbd 2269 103e 3808 903e 7bff 26be
00000040: 2df4 cc3e 501d b4be a44d ddbd a056 86be
00000050: 1b93 b13e 4b76 cc3d 13c5 ab3e 7698 bbbe
00000060: 3ca1 cabd 00de 2fbe 41be 9d3e 6b09 5a3e
00000070: 90a0 8cbe 495f 9fbe f301 adbe 1d37 4b3d
00000080: 8312 113c d1ee 89bd 7009 4e3e 03f7 db3b
00000090: 05e2 cbbd bb07 36be 0945 d63d 4e8f 35bc
000000a0: eda7 86be 3e9a 893e e53e 88be 95ea 16be
000000b0: a3b9 e3bd c6ce 23be a63e 793d e90f 56be
000000c0: 2d6a b73e f993 393e
-0.037445076 0.10137575 0.30704686 -0.3190187 -0.027428653 0.42579177 0.17458265 0.442342
0.35764903 -0.28399152 0.058095668 0.20474088 -0.054502353 0.14102605 0.2813127 -0.16308396
0.4003004 -0.35178614 -0.108058244 -0.26237965 0.34682545 0.099835 0.33548793 -0.36639756
-0.09894034 -0.1717453 0.30809215 0.21292655 -0.2746625 -0.31127384 -0.3379055 0.049613107
0.008854511 -0.06735004 0.20120788 0.0067127957 -0.09955219 -0.17776386 0.10462386 -0.01108153
-0.26299992 0.2687549 -0.26610485 -0.14737923 -0.11119392 -0.15996847 0.06085076 -0.20904507
0.35823193 0.18122853

net.2.weight f4 [50, 50]
00000000: 783f 88be 12e3 cc3d 0b13 9bbe 2680 5ebd
00000010: 1428 653f 20db 76be ac64 883f 5dea 943e
00000020: cd8d d5be 7c7d 5e3e d9c7 03be 699e 89bc
00000030: 76e3 b9bb 2359 dabe ab7a c23e 50d9 263f
00000040: 37a2 a8be 9c77 fe3e 8841 263f a189 0cbe
00000050: 9501 35be e222 debd a9ae d43b 5546 aebe
00000060: 1d17 d33c 0b7f 153e 7a06 b3bd 0ee5 9e3e
00000070: 81c7 2d3e 0f29 b33d 1276 873e ba4f b33e
00000080: 178a 89bd 31a8 123f e58c b63e 86c7 3dbf
00000090: bac8 db3d 177a a2be 7bd8 9abe aa27 79bf
000000a0: 829a c73d e81b 97be 741e 26bf 8113 a23e
000000b0: 82a0 0ebf 00cc e93e 7fd7 23be 75ce 5a3e
000000c0: 80eb 793d 1ee1 91be 3a5f b23d 66ac b43e
000000d0: 5382 eebd 0b57 7ebd 015d 203d b55f e23b
000000e0: ec93 62be 9744 e4be f145 34be 15c6 06be
000000f0: 8f58 5a3d 3485 4f3b 0295 c7bd fb67 95bd
00000100: e4a2 94be 44c9 5ebe 83ac 15be 9d5f 553e
00000110: ccad 07bd d881 5c3e 0df4 a5be ad40 973e
00000120: eaed bfbe 2065 7a3e 1613 3ebd 990b 4bbd
00000130: 0050 273d 5bd3 b23e ae0a 3a3d cb0d a0bd
00000140: 8341 203e 0845 99bd d833 bcbd 97d2 2ebe
00000150: 6572 9dbd acfb 7f3d 3411 ab3c 69be 9ebd
00000160: 9705 813e 086d 0c3e 3dca 40bd 7478 043c
00000170: b98d 29be 74b4 983e 0c64 d6bd 9903 62be
00000180: ecce d1be 2598 273e 46fd 75be 2d9f 013e
00000190: 7560 ce3d d173 12be 1d57 3c3d 581c 07bc
000001a0: 1ba2 e03c 5ed2 683b 1784 3a3e 7c55 8a3e
000001b0: 3d1a 033e 4bcb 263d 652d cebc ed33 8fbc
000001c0: 736b d13e 296c 583e fb07 9b3e 4988 cb3d
000001d0: 7a30 413e 7814 8ebe 6f61 6d3e fd73 ac3d
000001e0: e6d7 9a3e 40c3 debd 4fb7 5a3e d0d9 0cbd
000001f0: 81bc 283e f949 1cbd 2f56 bf3d 6f73 fcbd
00000200: 1804 a1bd 85d2 223c 9447 5dbd b4fe 5a3e
00000210: 5657 863e ad4b 6c3c d111 df3d 355a 06be
00000220: d2df 173e a634 6a3d 5eaf d7bd cb35 92ba
00000230: b7a2 35be 8f4b 5ebd 9f07 b3bd 27bb dfbd
00000240: d397 cd3c 5a06 123e a53d 553e dcb4 7bbd
00000250: 15ff 9a3e 1129 9f3d 4107 d7bd 0964 07bf
00000260: fedf 6bbe b035 653e b3ea 92bc c85c a2be
00000270: 763c 203d 966f 7ebd a7dc 58be ee77 133d
00000280: 7697 e0bd 8aa5 90be 7f19 3fbe 509a 84bd
00000290: b3fa 42be b955 243b aa60 fa3c 8878 00be
000002a0: d7d9 8e3d cc5b 5c3e 306e 8bbe 1f16 95bd
000002b0: bbf4 80bd 8550 0a3e 823c 0f3b bfa7 993e
000002c0: 14f2 2c3c dabc 42be 3ad3 7a3e 9c18 fe3d
000002d0: 27ce 903e 8367 71bd d4a2 21bd 4682 623c
000002e0: 108e bebd a59d 843c 1bad 1d3e 30bb ac3b
000002f0: b04d 153c 3f3f 2cbe 6cd2 f93d 9842 96be
00000300: c0aa 753e ab97 fe3d 955c 143e 64a9 7a3c
00000310: 96f2 39be b8f9 ebbc fc13 90bd 329c 90be
00000320: dcea 45be d48c a23e acdc 893e 45f0 1dbe
00000330: 067b da3d 0ddd 8b3e 1e82 193d 2feb 3cbd
00000340: fb8b 993c 6a2e 5fbe a12a 213e b2cf 383e
00000350: a75b 1e3d 6bb1 b33e 4d62 7e3e 8e55 64bd
00000360: 18e8 223e 28d2 d83c 639d b6bd 2a2a 18bc
00000370: 5873 6b3e d594 9a3d 26d3 c8bd 0c78 03be
00000380: bd16 85bd f2fa 36be 53de e2bc 543c 903d
00000390: 1097 23be b4d9 24be fd35 a0bd 4f94 8f3d
000003a0: 14df 4cbd de6f 843d e5f2 83bb 495e ea3d
000003b0: 70ac b9bd 4099 85be 53c0 6dbd 79ab c83d
000003c0: 53f3 42be 7f6f 803e 1bda 69bd 432a bfbd
000003d0: 6ce7 993d 02b6 c03d ec62 293e e2a7 9ebe
000003e0: 05ec f9bb e8ca c4ba c2ba 7e3d 41db 3e3f
000003f0: 799e b9bc c9e7 51be ed5f 6a3f 2efe 09be
-0.26610923 0.10004248 -0.30287966 -0.05432143 0.8951428 -0.24107027 1.0655723 0.29085055
-0.41709748 0.21727556 -0.12869205 -0.016799169 -0.0056728674 -0.4264613 0.37984213 0.6517534
-0.3293626 0.4970063 0.6494374 -0.13724376 -0.17676385 -0.10846497 0.0064905477 -0.34038034
0.025767857 0.14599244 -0.0874147 0.3103413 0.16970636 0.08748066 0.26457268 0.35021764
-0.06715792 0.5728789 0.3565437 -0.74132574 0.10731645 -0.31733772 -0.30243286 -0.9732615
0.09746267 -0.29513478 -0.6489022 0.31655505 -0.55713665 0.45663452 -0.16000174 0.2136782
0.061015606 -0.28492063 0.08709569 0.3528778 -0.11645951 -0.06209473 0.039151195 0.006908382
-0.2212674 -0.4458358 -0.17604806 -0.131615 0.053307112 0.0031665089 -0.09745218 -0.07295223
-0.29030526 -0.21756464 -0.14616589 0.20837255 -0.03312473 0.21533906 -0.32412758 0.2954153
-0.37486202 0.24452639 -0.04640492 -0.049571607 0.04084778 0.34926876 0.04542034 -0.07815131
0.1564999 -0.0748387 -0.09189576 -0.17072521 -0.07687835 0.062495872 0.020882227 -0.077511616
0.25199577 0.13713467 -0.04706787 0.008085359 -0.16557969 0.29825175 -0.10468301 -0.22071685
-0.4097818 0.16366632 -0.24022397 0.12658377 0.100769915 -0.14301993 0.045981515 -0.008246504
0.027421048 0.003552578 0.18214451 0.27018344 0.12802978 0.04072122 -0.02516813 -0.017480815
0.4090229 0.2113501 0.30279526 0.09938104 0.18866149 -0.2774999 0.23181699 0.084205605
0.30242842 -0.10877085 0.21358989 -0.03438741 0.16478159 -0.038156483 0.0934261 -0.12326705
-0.07862109 0.009937887 -0.05402334 0.21386224 0.26238507 0.014422339 0.1089207 -0.13120349
0.14831474 0.057179116 -0.105314955 -0.0011154948 -0.17737852 -0.054271277 -0.08741688 -0.10924368
0.02509681 0.14260235 0.20824297 -0.061451778 0.30272737 0.07771505 -0.104994304 -0.52887017
-0.23034665 0.22383761 -0.017934179 -0.3171141 0.03912016 -0.062118135 -0.21177922 0.036003046
-0.10966389 -0.28251296 -0.1866207 -0.06474745 -0.19040947 0.0025075509 0.030563671 -0.12545979
0.069751434 0.21519393 -0.27232504 -0.0727961 -0.06296679 0.13507278 0.0021856134 0.30010793
0.010555763 -0.19017354 0.24494639 0.124070376 0.28282282 -0.058936607 -0.039461926 0.013825005
-0.0930444 0.016188452 0.15398066 0.005271338 0.00911276 -0.16821001 0.12198338 -0.29347682
0.23990917 0.12431272 0.14488442 0.015299175 -0.18158945 -0.028805599 -0.07035062 -0.28244168
-0.19327873 0.31748068 0.26926172 -0.15423687 0.10667996 0.27317086 0.037477605 -0.046122726
0.018743506 -0.2179505 0.15738918 0.1804798 0.038661625 0.35096297 0.24842186 -0.055745654
0.15908849 0.026467398 -0.08916738 -0.009287396 0.22993219 0.07547919 -0.09805898 -0.12838763
-0.064984776 -0.17869166 -0.027693903 0.07042757 -0.15975595 -0.16098672 -0.078227974 0.070107095
-0.05001743 0.064666495 -0.004026758 0.11443765 -0.09066093 -0.26093483 -0.058044743 0.09798331
-0.19038133 0.25085065 -0.057092767 -0.09334233 0.07514843 0.09409715 0.16541642 -0.3098746
-0.0076270127 -0.0015014084 0.062189825 0.74553305 -0.022658573 -0.20498575 0.9155262 -0.13475868

net.2.bias f4 [50]
00000000: 20f6 cdbe 5296 7dbe 3c19 a23e d721 d7be
00000010: d397 923e f3d5 24bd 2515 a1bd b324 733d
00000020: d7ec 4d3c be24 f23d e97b d63d 4e7b 35bb
00000030: 7cd1 4b3e 46d5 7fbf 176b 633e 7f47 12be
00000040: ea67 053f 4340 973e 4e2d 79be 0bf4 a8be
00000050: 971b e8bd 7367 25be 64f3 943e dfa6 6a3e
00000060: 6769 d63d 7fc2 2ebe d7f1 08be 8f44 9e3c
00000070: 141a e4bd 0312 c5bd 10d5 18bd 2eb9 2d3e
00000080: 4b61 193e a1d8 ccbe 3d67 0e3e b169 8a3e
00000090: 94bc 53be f1be a53e 1718 bbbd ffc0 443f
000000a0: fcce 913d a726 7e3e 7b06 d6bd ff06 85be
000000b0: 48ba e8be ab0e 33be f0ff d5bd 0537 2cbe
000000c0: 4ff8 25be 1c62 dabe
-0.4022684 -0.24764374 0.31659877 -0.42018005 0.28631458 -0.0402431 -0.07865361 0.05936117
0.012568674 0.11823414 0.10472853 -0.0027691904 0.1990413 -0.99934804 0.2220882 -0.14285086
0.52111685 0.29541215 -0.24333689 -0.3299869 -0.11333387 -0.16152744 0.29091942 0.22915219
0.10469323 -0.17066382 -0.13373505 0.0193198 -0.111377865 -0.09622576 -0.037312567 0.16965172
0.1497852 -0.40009025 0.1390657 0.2703376 -0.20677406 0.3237224 -0.09135454 0.7685699
0.07119557 0.24819432 -0.10450455 -0.259819 -0.4545462 -0.17486064 -0.10449207 -0.16817863
-0.16208003 -0.42652977

net.4.weight f4 [50, 50]
00000000: 831d 1ebe fefd 07bf e001 c83d 2ecb 2dbf
00000010: a96e 163f 41bc b83c 15c0 d9bb 1b70 043f
00000020: 97b1 b4bc bf60 213f fadf c6be a5af 19bd
00000030: 25fd 47bd 8b0d 58bf a88c 123f babe bebe
00000040: 68b0 103f 4609 f63e bf84 0abf cfd2 66bf
00000050: 0e2e 81bd 3d70 fa3c 7c6f da3e 8c2c e43e
00000060: beaf b8bd ee6c 1fbc bd2c 2bbc 48d6 243f
00000070: 265b ae3c 5f70 0f3e 325c 9a3d 93ca 4f3f
00000080: fdd1 0e3b 4cdd 37bf d8d7 673d c2e8 1b3f
00000090: 499d c2be 1f7c 263f bf49 0abe 6889 0f3f
000000a0: e578 9bbe f64b ddbd 4c78 f0bd 60fc b3be
000000b0: a708 11bf be5e 8abe b8a8 113e 523a 21bf
000000c0: be1a b9be 888d 2ebf cc9c 2cbd fd0a 06bf
000000d0: c7e2 583e 7a67 0ebf b1dc db3e fdb4 a13d
000000e0: 8d8e ce3c 87a3 1e3f b86a 843d d18f b53e
000000f0: 02a2 2bbe 81f5 38be 67a6 22be 1127 00bf
00000100: 27bc 203f 7ad9 04bf 8ee8 353f ddcf 1c3f
00000110: b28b 50bf 2a80 34bf e6a3 f53c 2a1d 2cbd
00000120: af9d c13e 7843 943e 3203 9fbd cccf d4bd
00000130: a2d6 7cbc 6a91 083f d6b0 db3d c9f5 b23c
00000140: 6146 6e3d 0233 273f f022 9e3d bfaa 1ebf
00000150: 5382 b2bd 3186 393f 66fa 13bf 277d 3c3f
00000160: b11a 7ebd 37fb 4a3f ac85 78be 84bc e03d
00000170: 58a9 abbe 08d1 dbbe 738e 34bf abf9 59be
00000180: 4ee1 953d 2772 30bf d896 b2be 8170 08bf
00000190: 7fa0 07bf 62b9 023f 9507 d5be 11e0 b83b
000001a0: c927 393e 3d00 85be a570 0ebf 1af3 52be
000001b0: da6c 8e3e c8c2 993c 8043 c6be 8528 59bd
000001c0: c850 0abf acef d23d a172 fabc 4106 b53e
000001d0: 947d b7bd 22a4 8ebe 5b61 573e 0a9b 323d
000001e0: 0406 423d 5282 b23e f3e4 0e3e d4f7 b63c
000001f0: 9f05 d23e 0a34 1f3f 9355 013f 0051 a63d
00000200: 5af9 c5be d43e 553f c1c5 00bf f14b cfbd
00000210: e2bd bebe 0296 743c 0a85 c2be 515e eebd
00000220: d12e aa3d 5c76 363d 8eeb e6be c079 40be
00000230: 9e63 aebc 39fd f63e f556 a4be 4017 73bd
00000240: dde4 893c d521 a1bd 6ac4 823e dc7a 183b
00000250: 8b89 47be 3782 0b3c 7a60 a2bf 6239 003f
00000260: 1a65 f3be 28a2 acbd b109 3a3c 17ab 2dbf
00000270: 6b2d cbbf 12de b6bd 05f2 9f3e c801 aabe
00000280: a46e 97be 4d29 8abe b17f 7fbf 7a61 9c3c
00000290: 0924 253e c8fb 8e3e 9279 633e 5673 083e
000002a0: f26c 1abe be4b be3d 9c5f 873e 0727 703f
000002b0: 417b d93e de62 c73e 4966 853e 3a27 783f
000002c0: 53cf 4e3f 563a 04be fd0e c9be 10ed 183f
000002d0: 639a 1ebf 9914 01bf 8e87 08bf d57b 39bd
000002e0: 5047 32bf 3e39 2d3e 99a0 f33d 082d a73d
000002f0: a581 ecbe 7241 8f3c 0d78 24bf d5b4 a63f
00000300: 82f9 22bf 9449 afbe 5368 55be 2e22 153f
00000310: 650c c43e de4a 05be 2f2c 353c 4aa5 bbbd
00000320: 2b6f f1be f0fa db3c 9f04 d1be dd85 9c3e
00000330: 8d6b a3be fbd8 95bf a267 ef3c 3361 83bc
00000340: bf4d ca3d 4a67 b8bd a00b 85bc fd12 0fbe
00000350: 31d1 8c3d 736f d13e df2e debe 4bd7 f9bd
00000360: 4714 d8be a8cb c8be 7ca3 733e 3f0f 503e
00000370: 6d8a ad3e c744 133c e3cb 143f 653e 933e
00000380: 417f 913f 9161 be3c d825 1abe b61c 71bd
00000390: 0ab6 a1bf 4707 b83c aa1b 03bf 4545 ccbd
000003a0: 7244 8d3e ce23 843e d196 87ba b245 92be
000003b0: c99c cb3e 371e 8bbe 37e5 39bf 2677 c7be
000003c0: 6e32 b5be 8d01 a13e 2efd 5ebf 3c90 03bf
000003d0: 3880 5b3e 08f9 78be e57c a83f 423a 2b3e
000003e0: dcaa 52bf 4b3e 723e 1dae d5bd 7d05 313c
000003f0: 0ba2 6cbe 49b5 013e 00be babe 7814 1bbe
-0.15440945 -0.53121936 0.09765983 -0.6788815 0.58762604 0.022550704 -0.0066452124 0.5173356
-0.022057338 0.6303825 -0.38842756 -0.037521023 -0.0488254 -0.84395665 0.57245874 -0.37254888
0.56519175 0.4805395 -0.54108804 -0.9016542 -0.06307612 0.030571098 0.4266318 0.44565237
-0.09017895 -0.009730561 -0.010447678 0.6438947 0.021283697 0.1400771 0.07537116 0.8116848
0.0021792643 -0.7182205 0.05660233 0.60902035 -0.38010624 0.65033144 -0.13504694 0.5606904
-0.30365673 -0.10805504 -0.11741695 -0.35153484 -0.5665383 -0.27025408 0.14224517 -0.62979615
-0.36153215 -0.6818471 -0.04214172 -0.52360517 0.21180259 -0.5562664 0.42941812 0.07895849
0.025214458 0.6196827 0.064656675 0.35461286 -0.1676102 -0.18062402 -0.1588379 -0.5005961
0.627871 -0.5189434 0.71057975 0.61254674 -0.8146316 -0.7050806 0.02998538 -0.04202
0.37815616 0.28957725 -0.07764281 -0.103911966 -0.015432032 0.53346884 0.10727088 0.021845715
0.058172587 0.65312207 0.077215075 -0.6197929 -0.087162636 0.72470385 -0.5780395 0.7362847
-0.062037174 0.79289573 -0.24269742 0.109734565 -0.33527637 -0.42932916 -0.7052986 -0.21286647
0.07318364 -0.6892418 -0.3488071 -0.5329667 -0.5297927 0.5106412 -0.41607347 0.005641945
0.18081583 -0.25976744 -0.5564063 -0.20600548 0.27817422 0.018769637 -0.38723373 -0.053017158
-0.5402951 0.1029962 -0.030572237 0.35356334 -0.08959499 -0.27859598 0.21033232 0.043604888
0.04736902 0.34865052 0.13954525 0.02233497 0.41019914 0.6218878 0.505212 0.08120918
-0.38666803 0.83298993 -0.5030175 -0.101219065 -0.37254244 0.014928343 -0.37992126 -0.11639083
0.08309711 0.04454647 -0.4510159 -0.18796444 -0.021287736 0.4824007 -0.32097593 -0.059348345
0.016832763 -0.07867781 0.25540477 0.002326659 -0.19486062 0.008514932 -1.2685692 0.5008756
-0.47538072 -0.08429366 0.01135485 -0.6783919 -1.5873235 -0.08929075 0.31239334 -0.33204484
-0.295766 -0.26984635 -0.99804217 0.01908945 0.16127028 0.2792647 0.22214344 0.13325247
-0.15080622 0.092917904 0.26440132 0.9380955 0.42476848 0.38942617 0.260546 0.96934855
0.807851 -0.12912878 -0.39269248 0.5973673 -0.61954325 -0.50422055 -0.5333184 -0.04528411
-0.69640064 0.16916367 0.11895866 0.08162886 -0.4619266 0.017487261 -0.6424568 1.3023936
-0.6366197 -0.34235823 -0.20840578 0.5825528 0.38290706 -0.13016841 0.0110578975 -0.09162386
-0.47155127 0.026853055 -0.40823838 0.3057088 -0.31917992 -1.1706842 0.02922422 -0.01603756
0.0987811 -0.09004076 -0.016240895 -0.13972087 0.068758376 0.40905342 -0.43395135 -0.12199267
-0.4220297 -0.39217877 0.23792833 0.20318316 0.33894673 0.008988566 0.58123606 0.2875854
1.136696 0.023239883 -0.15053499 -0.05886527 -1.2633679 0.022464408 -0.51214087 -0.099741496
0.27591282 0.25808567 -0.0010344629 -0.28568798 0.39768055 -0.2717149 -0.7261538 -0.3895809
-0.35390037 0.31446496 -0.8710507 -0.5139196 0.2143563 -0.24313748 1.3163115 0.16721442
-0.8229196 0.23656575 -0.104336 0.010804531 -0.2310869 0.12666811 -0.36473083 -0.15144527

net.4.bias f4 [50]
00000000: 7dfe 483f 90b1 373f 7615 febd 9999 0c3e
00000010: 0717 03bf f2b5 81be 28f8 abbe cee5 3cbf
00000020: def2 a2be a0dd 233e a9b1 b93e 4ec0 503f
00000030: de18 8b3e 0355 53bf 262e 8b3e 0e51 9e3e
00000040: 854c 19bf 203f 43bf f266 c7be 815b 4dbf
00000050: 61b5 aa3e f596 523f cfa2 aebe 2d2a ffbe
00000060: e853 f13e f016 16bf a288 203f 8db7 393f
00000070: 540f 533f 957d 8cbe 531e 6abe aed4 ed3e
00000080: f6db 47bf f723 373f 0acb b83e 6bb7 3e3f
00000090: 14c1 973e 08b8 533f e80c 833e cfe9 b0be
000000a0: 36b2 0cbf de19 df3e acd8 34bf 7a43 9ebe
000000b0: b7e9 3abf 436b 3dbf 8dd0 68bd fe09 37bf
000000c0: cba5 883e 1df7 ccbd
0.7851332 0.71755314 -0.12406437 0.13730468 -0.5120701 -0.25334126 -0.33587766 -0.73788154
-0.31825918 0.16002512 0.36268356 0.81543434 0.2716741 -0.8255159 0.27183646 0.30921215
-0.59882385 -0.76268196 -0.3894573 -0.8021775 0.33341506 0.8226159 -0.34108588 -0.49836865
0.47134328 -0.5862875 0.62708485 0.725457 0.82445264 -0.2743956 -0.2286313 0.46451324
-0.7807001 0.71539253 0.36092407 0.74498624 0.29639494 0.82702684 0.25595784 -0.34553382
-0.5495943 0.43574423 -0.70643115 -0.30910856 -0.7301287 -0.73991793 -0.056839515 -0.7149962
0.2668899 -0.100080706
