pretrain_ckpt/gail/100_expert/BipedalWalker-v3/discriminator.ckpt (torch, 29259 bytes, 7 tensors)

net.0.weight f4 [50, 28]
0	0x3b035d15	0.0020044495
1	0x3eaaa761	0.33330825
2	0x3e9cd58e	0.3063168
3	0xbe4ff762	-0.20309213
4	0x3dc2c3c9	0.09509999
5	0xbdfba1ea	-0.12286742
6	0x3be3ce20	0.0069520622
7	0xba895ae0	-0.0010479353
8	0xbc4ac651	-0.012376384
9	0x3e627b27	0.22117291
10	0x3e3dc6b6	0.18532833
11	0x3e3c2fec	0.18377656
12	0xbccf7722	-0.025325362
13	0xbdeebda5	-0.116572656
14	0x3e1ca7dd	0.1529841
15	0x3e1b960e	0.1519396
16	0xbddfdd2c	-0.10930857
17	0x3e05715d	0.13031526
18	0xbe066629	-0.13124909
19	0x3e507eeb	0.20360915
20	0x3e65e342	0.22449973
21	0xbde389df	-0.11110281
22	0x3e1629a0	0.14664316
23	0xbdc459e6	-0.09587459
24	0x3d8bd514	0.06827751
25	0x3d8bba12	0.068225995
26	0xbe17a1d7	-0.14807831
27	0x3e4e2130	0.20129848
28	0xbd993ff5	-0.07482902
29	0xbda83275	-0.08212749
30	0xbe63eec9	-0.22259058
31	0x3e8290f4	0.25501215
32	0xbddff4f6	-0.109353945
33	0xbe295c1d	-0.16539045
34	0xbd664d4d	-0.056226064
35	0x3e20b0af	0.156924
36	0x3e225123	0.15851264
37	0xbdb69139	-0.08914418
38	0xbe54ca91	-0.20780398
39	0x3d5c3940	0.053765535
40	0x3d855583	0.06510451
41	0xb9ee4e46	-0.00045453216
42	0xbe7149ad	-0.23563261
43	0x3d94023f	0.07226991
44	0xbe0cf725	-0.13766153
45	0x3de7a5ac	0.11310896
46	0xbde7a864	-0.11311415
47	0xbe30bc60	-0.1725936
48	0xbe53dfe0	-0.2069087
49	0xbd16e260	-0.03683698
50	0xbd3b5698	-0.04573688
51	0x3d5d3a59	0.054010723
52	0xbd752080	-0.059845448
53	0x3db2714b	0.08713015
54	0xbd0d62c9	-0.034518037
55	0x3e1a2a7d	0.1505527
56	0x3e654c4a	0.22392383
57	0xbf13f035	-0.577884
58	0xbe1d6ee3	-0.15374331
59	0x3e905dc6	0.28196543
60	0x3da6be6f	0.08141791
61	0x3e956224	0.29176438
62	0xbdae1de2	-0.085017934
63	0x3e997093	0.299687
64	0xbbb8b8bc	-0.0056372564
65	0xbe95b8ba	-0.29242498
66	0xbdd21e87	-0.10259729
67	0x3e138d04	0.14409262
68	0x3dc5fff8	0.09667963
69	0xbda2dae6	-0.07951908
70	0xbc1d4a7c	-0.009600278
71	0xbd8efe7f	-0.06982135
72	0x3e05beaa	0.13061014
73	0xbde74529	-0.11292488
74	0xbda7e2e8	-0.08197576
75	0x3d7add41	0.06124616
76	0x3d954043	0.072876476
77	0x3cd8789d	0.0264247
78	0xbdd1006c	-0.102051586
79	0xbe6cbb17	-0.23118244
80	0x3e7db90c	0.24777621
81	0x3e8d8ee8	0.2764809
82	0x3e682202	0.22669223
83	0x3e4b4696	0.19851145
84	0x3cf1dc83	0.029524093
85	0x3e0b77b5	0.13619883
86	0xbe064494	-0.13112098
87	0x3f126de1	0.5719891
88	0x3e2532eb	0.16132705
89	0xbd5e67cd	-0.05429821
90	0xbdea9765	-0.114546575
91	0xbe7744d0	-0.24147344
92	0xbe2eac52	-0.17057922
93	0xbe5cc6b5	-0.21560176
94	0xbe2e2fdc	-0.17010444
95	0xbe4d129e	-0.20026633
96	0xbdc70eda	-0.097196296
97	0xbebfedce	-0.37486118
98	0xbdbc8bc7	-0.09206348
99	0xbdcde2e7	-0.10053044
100	0xbe053430	-0.13008189
101	0x3b86ce7b	0.00411397
102	0x3e40d781	0.18832208
103	0x3e61ebdf	0.22062634
104	0xbe190391	-0.14942767
105	0xbdea0783	-0.11427214
106	0xbdbab578	-0.09116644
107	0x3dd1cff9	0.10244746
108	0xbe0f13dc	-0.1397242
109	0x3cb54c3d	0.02213108
110	0xbe24963a	-0.16072932
111	0x3eaa7ce7	0.33298418
112	0x3d6cebe2	0.057842143
113	0x3ec71c13	0.38888606
114	0x3e8fb8a6	0.28070563
115	0xbe10f85f	-0.14157246
116	0xbc92d103	-0.01792193
117	0xbe22ec85	-0.15910538
118	0xbebcb1b2	-0.3685432
119	0xbd006a13	-0.03135116
120	0x3d1566d9	0.036475036
121	0x3df90c01	0.12160493
122	0xbdc035c8	-0.09385258
123	0xbe2ff5b8	-0.17183578
124	0xbdbecd80	-0.0931654
125	0x3e80ec39	0.25180224
126	0x3cc9da09	0.0246401
127	0x3e1d4d2d	0.15361471
128	0x3dc5ed32	0.09664382
129	0xbdbc0b3d	-0.09181831
130	0xbe12de28	-0.14342558
131	0xbd818ff6	-0.063262865
132	0x3cc7e3af	0.02440056
133	0xbdf3d1bc	-0.11905238
134	0xbddcaa7c	-0.10774705
135	0x3e0ac18d	0.13550396
136	0xbe47ec67	-0.19523774
137	0xbe17465d	-0.14772935
138	0xbd8110e8	-0.06302053
139	0x3e0e9cb5	0.13926966
140	0x3e04be91	0.1296332
141	0x3e5ce353	0.21571092
142	0xbe0e0f2b	-0.13872974
143	0xbef1a38b	-0.47195086
144	0x3e6558ac	0.22397107
145	0xbe7579cb	-0.23972242
146	0x3e622908	0.22085965
147	0x3d8c80a4	0.06860474
148	0x3ce3919a	0.02777939
149	0xbd886072	-0.066590205
150	0xbe907c96	-0.28220052
151	0x3de0d43c	0.109779805
152	0xbe126554	-0.14296466
153	0xbe53b2cd	-0.20673676
154	0x3e1d0b69	0.15336384
155	0xbdc40d5c	-0.095728606
156	0xbd16275f	-0.03665864
157	0x3df82b41	0.12117625
158	0x3e221f8a	0.15832344
159	0x3d3a8a87	0.045542266
160	0x3e25f472	0.1620653
161	0x3da45285	0.08023552
162	0xbce09374	-0.027414061
163	0x3c8a31e6	0.016869497
164	0xbebd0a5a	-0.3692196
165	0xbe952f78	-0.29137778
166	0x3d80fff4	0.06298819
167	0x3d73e2d0	0.059542477
168	0x3dc740b3	0.09729137
169	0x3d2d86c3	0.042364847
170	0xbd991672	-0.07474984
171	0xbec3ac46	-0.38217372
172	0x3d678e5d	0.056532253
173	0x3d9fbabf	0.07799291
174	0x3df12335	0.11774293
175	0x3d0f4fb8	0.034988135
176	0xbd1d981f	-0.038475152
177	0x3e0024b5	0.12514003
178	0xbd56ca3d	-0.052438963
179	0x3e2459f6	0.16049942
180	0xbc97068d	-0.01843574
181	0x3d016959	0.031594608
182	0xbe1d7156	-0.15375265
183	0x3da086f7	0.078382425
184	0xbe0fdf38	-0.14049995
185	0x3d564306	0.052310012
186	0x3e40b42f	0.18818735
187	0x3df87117	0.12130945
188	0x3d67d6f4	0.05660148
189	0x3e06d89d	0.13168569
190	0xbcd7d174	-0.026344992
191	0xbe24c3dc	-0.1609034
192	0x3e6992d9	0.22809924
193	0x3e56cb90	0.2097609
194	0x3e95068b	0.29106554
195	0x3d9a8b13	0.075460576
196	0x3d95bb97	0.073111705
197	0xbe9a8592	-0.3018003
198	0x3dbcfdb6	0.09228079
199	0x3e7bbe0e	0.24584219
200	0xbc40fa61	-0.011778445
201	0x3d804edc	0.06265041
202	0x3ddb8fe8	0.10720807
203	0xbe3f8ef0	-0.1870687
204	0xbea0eadf	-0.31429192
205	0x3de7233a	0.11286016
206	0xbec30d3f	-0.38096043
207	0x3e203a26	0.15647182
208	0xbe3c5a8c	-0.18393916
209	0xbc8f1dc3	-0.017470246
210	0x3bd5f827	0.006529826
211	0x3e57a5d8	0.21059358
212	0xbe05f49c	-0.13081592
213	0xbc4af531	-0.01238756
214	0x3dc81ace	0.097707376
215	0x3e6fecf1	0.2343023
216	0x3d43e9a5	0.047830243
217	0xbd0a817f	-0.033814903
218	0x3d517858	0.05114016
219	0xbd1bcb18	-0.038035482
220	0xbd1b3632	-0.03789348
221	0xbe61c9f3	-0.22049694
222	0x3dc7c3b9	0.09754128
223	0xbdea6cb5	-0.114465155
224	0x3d51fbc8	0.051265508
225	0xbe23eb2e	-0.16007683
226	0xbde55a5e	-0.11198877
227	0x3b1e3150	0.002413828
228	0x3d9a8092	0.07544054
229	0x3c8469f7	0.01616381
230	0x3e16d51c	0.14729732
231	0xbe014352	-0.12623337
232	0x3ee0aa20	0.43879795
233	0x3c7787c4	0.015108053
234	0xbdcbf5a0	-0.099589586
235	0x3dcd7655	0.10032336
236	0xbe06ccce	-0.13164064
237	0x3c6dbb15	0.014509936
238	0x3e217d76	0.15770516
239	0x3e854039	0.2602556
240	0x3e812207	0.25221273
241	0x3db1e297	0.08685797
242	0x3eb5a641	0.35478404
243	0x3e827211	0.2547765
244	0x3e999ca2	0.30002314
245	0x3e7624a5	0.24037416
246	0x3e0fe55c	0.14052337
247	0x3cf79ca9	0.030226069
248	0x3c7c5d41	0.015403093
249	0xbe111474	-0.14167958
250	0x3e2425a9	0.16029991
251	0xbd84ac33	-0.06478157
252	0xbd96c506	-0.07361798
253	0xbe5c0a27	-0.21488248
254	0x3e8217cc	0.2540878
255	0x3b99a2e8	0.0046886094

net.0.bias f4 [50]
0	0xbe349a61	-0.17637016
1	0x3e1b995e	0.15195224
2	0xbe6ed200	-0.23322296
3	0x3d441196	0.047868334
4	0xbd2606ae	-0.040533714
5	0x3d8a5134	0.067537695
6	0x3da6b816	0.0814058
7	0xbd33d37d	-0.043902863
8	0x3e22bc65	0.1589218
9	0xbcebdefb	-0.028792849
10	0x3dbd4aa9	0.09242756
11	0xbb1e817f	-0.0024186072
12	0x3d946917	0.07246607
13	0x3d9a3cda	0.07531138
14	0xbb527b99	-0.0032117127
15	0x3e412dd3	0.18865137
16	0xba4f20d8	-0.00079013174
17	0xbe8e4044	-0.27783406
18	0x3e0cb4be	0.13740823
19	0xbdac6e64	-0.08419493
20	0x3c477b70	0.012175426
21	0xbba920fc	-0.0051614027
22	0xbd4478a0	-0.0479666
23	0xbd827da1	-0.06371618
24	0xbe5d3581	-0.21602441
25	0x3d5a02f7	0.053225484
26	0x3cbe7e43	0.023253566
27	0x3e03b073	0.12860279
28	0xbd20abf2	-0.03922648
29	0x3dfc36dc	0.12315151
30	0xbe45b5f8	-0.19307697
31	0x3e217f62	0.15771249
32	0xbde4e1c5	-0.111758746
33	0x3dfbbb9f	0.12291645
34	0x3dcacdb5	0.09902517
35	0xbdc1e0b7	-0.09466689
36	0x3e6eb573	0.23311405
37	0xbcbc8021	-0.023010315
38	0x3e32c5ed	0.17458315
39	0x3cf0e167	0.029404355
40	0xbe278299	-0.16358413
41	0x3d87a3b9	0.066230245
42	0xbe85d87a	-0.2614172
43	0xbe5d227e	-0.21595189
44	0x3d9b0b9d	0.075705744
45	0xbd7d23af	-0.06180161
46	0xbd53e9d8	-0.051736683
47	0x3df86aab	0.1212972
48	0x3d938aa2	0.072041765
49	0x3d654e64	0.055982962

net.2.weight f4 [50, 50]
0	0x3bc9dc82	0.00616032
1	0x3d6206e6	0.05518236
2	0x3da832df	0.08212828
3	0x3d1e64ef	0.038670477
4	0x3d9b7dbc	0.07592341
5	0xbde2184c	-0.110397905
6	0xbd0a6cc3	-0.03379513
7	0x3b637411	0.0034706632
8	0x3acace8c	0.0015472933
9	0xbcaf9ab6	-0.021436077
10	0x3d72ba76	0.059259854
11	0xbd284fce	-0.041091733
12	0xbde5cd11	-0.11220754
13	0xbdf7b28d	-0.12094603
14	0x3dbe6d38	0.092981756
15	0x3df637cc	0.12022361
16	0xba918df8	-0.0011104932
17	0x3bdc545b	0.006723923
18	0xbd8bb199	-0.068209834
19	0xbd8ccacc	-0.06874618
20	0x3e798099	0.24365462
21	0xbdb8c2fc	-0.09021565
22	0x3d79fe67	0.061033633
23	0xbcc7de3e	-0.024397966
24	0x3d687a61	0.056757335
25	0xbe1223bc	-0.14271444
26	0xbd4ce0c6	-0.05001905
27	0xbd69d054	-0.057083443
28	0x3da410ad	0.08010993
29	0xbd7190bf	-0.05897593
30	0x3e7e84ce	0.24855348
31	0x3da7ea95	0.0819904
32	0x3d59b262	0.053148635
33	0x3d92760f	0.07151424
34	0x3e148b72	0.14506319
35	0x3e0225b4	0.12709695
36	0x3d9f7aba	0.0778708
37	0x3e109cd2	0.14122322
38	0x3debd2ed	0.1151484
39	0x3c80bd06	0.015715133
40	0xbc914d10	-0.017736942
41	0x3dff0be3	0.12453439
42	0x3dfbc951	0.122942574
43	0xbbd87758	-0.0066060238
44	0xbd7f922c	-0.06239526
45	0x3a988ff9	0.0011639587
46	0x3d25e077	0.04049727
47	0xbd9d5af7	-0.07683366
48	0xbd494ffc	-0.049148545
49	0xbc012cf4	-0.007884253
50	0x3dd6b57c	0.10483834
51	0x3de9227b	0.1138353
52	0xbdb6bdce	-0.08922921
53	0xbe19f43f	-0.15034579
54	0xbd92edc3	-0.07174256
55	0x3b934c8f	0.0044952105
56	0x3d9837a4	0.074324876
57	0x3e289050	0.16461301
58	0x3e0550cb	0.13019101
59	0x3da21ae9	0.07915289
60	0xbd4899fd	-0.04897498
61	0x3dc1b1a9	0.09457714
62	0x3e0656d1	0.13119055
63	0x3a6a3ed8	0.0008935756
64	0x3dfd383c	0.123642415
65	0xbdb7ff37	-0.08984225
66	0xbd53ea24	-0.051736966
67	0xbd9d9db0	-0.07696092
68	0x3d60385b	0.054741245
69	0x3be5afdd	0.00700949
70	0x3e337fa4	0.1752916
71	0xbdcc57b6	-0.09977667
72	0xbd99b2ec	-0.0750483
73	0xbd877463	-0.06613996
74	0xbdb82199	-0.08990783
75	0x3d812a68	0.063069165
76	0x3d9e7a23	0.077381395
77	0x3e41c9c9	0.18924631
78	0xbd78b858	-0.06072268
79	0xbd6591ca	-0.05604724
80	0x3d65de90	0.056120455
81	0xbdb1a0ae	-0.08673225
82	0xbdfeac5e	-0.1243522
83	0x3d718d27	0.058972504
84	0x3d6185f7	0.0550594
85	0x3d4f1c46	0.050564073
86	0x3db5b8ce	0.08873139
87	0xbb9af3c7	-0.0047287676
88	0xbda59fe3	-0.080871366
89	0x3d18b488	0.037281543
90	0xbe2d3530	-0.1691482
91	0x3e11ca87	0.14237414
92	0x3df359fb	0.11882397
93	0xbcbc0062	-0.022949401
94	0x3c93f5c2	0.018061522
95	0x3e17dc8d	0.14830227
96	0x3d861cda	0.06548472
97	0xbd48cd74	-0.04902406
98	0xbdb5cc79	-0.08876891
99	0x3d06a2d3	0.032870125
100	0xba5c1376	-0.0008395234
101	0xbd803f3a	-0.062620595
102	0xbdd4bd8c	-0.10387716
103	0xbd72e9a3	-0.059304845
104	0xbe3b7596	-0.18306574
105	0x3ca4d83c	0.02012264
106	0xbd1a88a1	-0.037727956
107	0xbe110f3d	-0.14165969
108	0xbdf468a9	-0.11934025
109	0xbc8c1e18	-0.017104194
110	0x3e004f9c	0.12530369
111	0xbc2d57dc	-0.010580029
112	0xbe10a3a6	-0.14124927
113	0xbd8c3779	-0.06846518
114	0x3a35774d	0.0006922379
115	0xbc276ae8	-0.0102183595
116	0xbcbbf53a	-0.022944082
117	0x3db807d2	0.089858666
118	0xbd80958a	-0.06278522
119	0x3dda9840	0.10673571
120	0xbe5d62fe	-0.21619794
121	0x3b3a72b7	0.0028449723
122	0x3d844ed8	0.06460351
123	0x3d146de3	0.03623761
124	0xbde9ac09	-0.11409766
125	0x3dab6b90	0.08370125
126	0x3cd1ef20	0.025626719
127	0xbdb1f770	-0.08689773
128	0xbcefa8c7	-0.029255284
129	0x3e042c12	0.12907436
130	0xbd9a81d6	-0.075442955
131	0xbdb48812	-0.08815016
132	0x3d65eeb6	0.056135856
133	0x3d3c347f	0.0459485
134	0x3ce06c8d	0.027395511
135	0xbd7010c1	-0.058609728
136	0x3e0b9807	0.13632213
137	0xbdf6d0cd	-0.12051544
138	0xbdfe6318	-0.124212444
139	0x3c2bae74	0.010478605
140	0x3daa43d5	0.08313719
141	0xbd5eb4d5	-0.054371674
142	0xbd2c475a	-0.042060234
143	0x3e82fcb8	0.25583434
144	0x3d28dea5	0.041227955
145	0x3c033a0c	0.008009445
146	0xbdd5408c	-0.10412702
147	0xbdf948d2	-0.121720925
148	0x3e3ca280	0.18421364
149	0xbdbdb6ec	-0.09263405
150	0xbe11b9a9	-0.1423098
151	0x3dfcd2f7	0.12344926
152	0x3e4c084d	0.19925041
153	0x3d252563	0.040318858
154	0x3e044ca5	0.12919863
155	0xbd177754	-0.036979035
156	0x3d5c3b6a	0.0537676
157	0x3e43562d	0.19075842
158	0x3c440a54	0.011965353
159	0xbde1b548	-0.11020905
160	0xbd8c02f1	-0.068364985
161	0x3c88bad0	0.016690642
162	0xbe10671c	-0.14101833
163	0xbe200f9d	-0.15630956
164	0x3d88bee7	0.06677037
165	0xbd909f22	-0.07061602
166	0xbe26281d	-0.1622624
167	0xbcea8571	-0.028628083
168	0x3e2bcfe9	0.1677853
169	0x3d9705af	0.07374131
170	0x3e0ba165	0.13635786
171	0xbe11fa14	-0.14255553
172	0xbdc7537d	-0.09732721
173	0xbd97cfe2	-0.074126974
174	0xbd0579ea	-0.03258697
175	0xbd3edee6	-0.04659929
176	0x3dc988c2	0.098405376
177	0x3e31e408	0.17372143
178	0x3d9f22fc	0.077703446
179	0xbdcde7e0	-0.10053992
180	0x3e054b1d	0.13016935
181	0xbe22372a	-0.15841356
182	0xbdf99459	-0.12186498
183	0xbe038d36	-0.12846836
184	0x3e2b7ca1	0.16746761
185	0x3e3a3dad	0.1818759
186	0xbd64779e	-0.05577814
187	0x3cfb523f	0.030678866
188	0xbe53cdbe	-0.20683953
189	0xbe1a4f6a	-0.15069357
190	0x3cec421f	0.028840123
191	0xbd79b80a	-0.06096653
192	0x3e2c55b8	0.16829574
193	0xbda029b6	-0.07820456
194	0x3cea0825	0.028568337
195	0x3c9f547d	0.019449467
196	0x383007f5	4.196908e-05
197	0xbde6333e	-0.112402424
198	0xbdd6b5f7	-0.10483926
199	0x3de34ecc	0.11099014
200	0xbd3db932	-0.046319194
201	0xbd53bfc7	-0.051696565
202	0x3e2e2fd7	0.17010437
203	0x3e03cace	0.12870333
204	0xba85800d	-0.0010185257
205	0xbe656b2c	-0.22404164
206	0xbd235c34	-0.039882854
207	0x3e699f1b	0.228146
208	0xbdc82c42	-0.097740665
209	0xbdf4dfc5	-0.11956743
210	0x3cf16d72	0.029471133
211	0xbe28e49c	-0.16493458
212	0x3d31e84b	0.043434422
213	0x3e2819cf	0.16416095
214	0xbd5cc392	-0.053897448
215	0x3d736b78	0.059428662
216	0xbddc6327	-0.10761099
217	0xbe2da61b	-0.16957895
218	0x3e569a35	0.20957263
219	0xbdff1743	-0.12455609
220	0x3d9d94ec	0.0769442
221	0x3d794e24	0.060865536
222	0xbcaaf501	-0.02086878
223	0xbe7308c6	-0.23733816
224	0xbe32aa7a	-0.17447844
225	0xbe3b57bd	-0.18295188
226	0x3d788970	0.060677946
227	0x3d35000b	0.044189494
228	0xbde9c945	-0.11415342
229	0xbe5beddf	-0.2147746
230	0x3e27cdfd	0.16387172
231	0xbd693a0b	-0.05694012
232	0x3df31fb7	0.118712835
233	0xbe172713	-0.14761
234	0x3c76fcb5	0.0150748985
235	0x3e2ac405	0.16676338
236	0xbdf94b78	-0.12172598
237	0xbe48ba53	-0.19602327
238	0xbdd954e8	-0.10611898
239	0xbc858ae9	-0.01630159
240	0x3d71159d	0.058858503
241	0x3d99ed2d	0.07515941
242	0x3dccc066	0.099976346
243	0xbdab0a36	-0.08351557
244	0xbc1074d7	-0.008816919
245	0xbe157e69	-0.14599003
246	0x3c6fd766	0.014638757
247	0x3dd5779f	0.104232065
248	0xbdd71967	-0.10502892
249	0xbccae66f	-0.024768082
250	0x3bf5ddb8	0.0075032376
251	0xbd2a6d8f	-0.04160839
252	0xbdebfb6f	-0.115225665
253	0x3bb43736	0.0054997457
254	0xbe0f1b0c	-0.13975161
255	0xbc797f40	-0.015228093

net.2.bias f4 [50]
0	0x3e5aa094	0.21350318
1	0x3e56194c	0.20908087
2	0xbe3a66ce	-0.1820328
3	0x3dc80b3d	0.097677685
4	0xbd5ea795	-0.054359037
5	0xbe373416	-0.17890963
6	0x3d32cbce	0.043651395
7	0x3ac129e3	0.0014737215
8	0x3e72c5ec	0.23708314
9	0xbe01a372	-0.12660006
10	0x3c5dbc29	0.01353363
11	0xbdf84263	-0.12122037
12	0x3d96a351	0.07355369
13	0xbdd9a6a2	-0.10627486
14	0xbd396159	-0.045258854
15	0xbc96319e	-0.018334206
16	0xbdef7a7e	-0.116932854
17	0x3e007dc8	0.12547982
18	0xbdc54101	-0.09631539
19	0xbe720462	-0.23634484
20	0x3d9ddaf1	0.077077754
21	0xbe0c0df7	-0.13677202
22	0xbda050ed	-0.07827935
23	0xbbc08626	-0.0058753667
24	0xbcafc1cc	-0.021454714
25	0xbe441405	-0.19148262
26	0xbc58e8c0	-0.013239086
27	0xbe45a7cd	-0.19302292
28	0x3e55be15	0.20873292
29	0x3e27ba89	0.16379751
30	0x3df8a363	0.121405385
31	0x3dcc416e	0.09973417
32	0xbcffe996	-0.031239312
33	0x3dd67ef8	0.10473436
34	0x3d668280	0.0562768
35	0x3e2c86f1	0.16848351
36	0x3e4bbd61	0.19896461
37	0xbd584386	-0.05279877
38	0xbbcfc6a4	-0.0063408185
39	0xbe404be4	-0.1877895
40	0xbe2b6a98	-0.16739881
41	0xbe4b1ca0	-0.19835138
42	0xbd38e044	-0.04513575
43	0x3df62a7c	0.12019822
44	0xbe608b49	-0.21928133
45	0xbd7fc2b3	-0.06244154
46	0x3da81218	0.08206576
47	0xbe4ca39a	-0.19984284
48	0xbe71a254	-0.2359708
49	0x3e0d5fa1	0.13806011

net.4.weight f4 [50, 50]
0	0xbe1f40bd	-0.1555204
1	0x3d0137ac	0.031547233
2	0xbd51ce34	-0.05122204
3	0xbd8e7ab4	-0.069569975
4	0x3c35fe46	0.011107987
5	0x3d7aa5f5	0.061193425
6	0xbe42bce0	-0.19017363
7	0x3e32d51f	0.17464112
8	0xbe576b6d	-0.21037073
9	0xbb9b7c2e	-0.004745028
10	0x3e266e1b	0.1625294
11	0xbd25fac3	-0.040522348
12	0xbd8a441b	-0.06751271
13	0x3df55169	0.119784184
14	0xbddc1611	-0.10746396
15	0x3c909a04	0.017651565
16	0x3e541dbe	0.2071447
17	0xbe0fc191	-0.14038683
18	0x3de8aa0c	0.11360559
19	0x3daf1a99	0.08549995
20	0xbe5e32dc	-0.21699089
21	0x3dbc834e	0.09204732
22	0x3e6f0fcb	0.23345868
23	0xbc495c60	-0.01229009
24	0x3dc108e6	0.09425525
25	0x3d9916f5	0.07475082
26	0xbdd6662a	-0.10468705
27	0xbd2d82c2	-0.04236103
28	0xbe7bb26d	-0.24579783
29	0xbde35fac	-0.11102232
30	0xbe1d6545	-0.15370663
31	0xbd8c20f3	-0.06842222
32	0x3e06b5a5	0.1315523
33	0xbe7a4d0d	-0.24443455
34	0x3e0610b3	0.13092308
35	0xbe53198c	-0.20615214
36	0xbba0f4dd	-0.0049120025
37	0x3e5cb01a	0.21551552
38	0x3e3f9a27	0.18711148
39	0x3e49f80e	0.19723532
40	0x3e0788fd	0.1323585
41	0x3e8a9c86	0.27072543
42	0xbe559dac	-0.20860928
43	0xbde4f476	-0.1117944
44	0x3e10639d	0.141005
45	0x3cb09f1a	0.02156024
46	0xbda74a98	-0.081685245
47	0x3e8ffd96	0.28123158
48	0x3e3b6efe	0.18304059
49	0xbe85f73d	-0.2616519
50	0xbd2f088a	-0.042732753
51	0xbcaa2975	-0.020771721
52	0x3daa0d82	0.08303358
53	0xbd8ede26	-0.06975965
54	0xbe054b74	-0.13017064
55	0xbdebd147	-0.11514526
56	0xbe3eeb94	-0.18644553
57	0x3cdc3f5b	0.026885679
58	0x3cdc67af	0.026904909
59	0x3d701443	0.058613073
60	0xbc09696a	-0.008386949
61	0x3e803581	0.2504082
62	0xbd83132d	-0.06400142
63	0x3d438297	0.047731962
64	0x3e27c2d7	0.16382919
65	0xbc81ab19	-0.015828656
66	0x3c1959de	0.009359805
67	0xbd213b47	-0.039363172
68	0xbde970d5	-0.11398474
69	0x3d9e03e9	0.077155896
70	0xbe493daf	-0.19652437
71	0xbdc56e9a	-0.09640236
72	0x3e77b0f9	0.24188603
73	0x3c95bd91	0.018278869
74	0x3e480ba7	0.19535695
75	0x3e18cd65	0.14922102
76	0x3d4f3b23	0.050593507
77	0x3d938539	0.072031446
78	0xbe117e17	-0.14208256
79	0x3da016d0	0.07816851
80	0x3d978dc6	0.07400088
81	0xbe150468	-0.14552462
82	0xbdd15c5e	-0.10222696
83	0xbcb267e6	-0.021778058
84	0x3e2311a8	0.15924704
85	0xbe321877	-0.17392145
86	0xbe3145c1	-0.17311765
87	0x3e107b4d	0.14109536
88	0x3df55550	0.11979163
89	0x3e5feff3	0.21868877
90	0x3e0d0a4f	0.13773464
91	0x3e0a170c	0.13485354
92	0x3c6237d2	0.013807254
93	0x3dc966c3	0.09834053
94	0x3e67b592	0.22627857
95	0x3d850e07	0.06496816
96	0x3deac6c7	0.11463695
97	0x3c82fc6d	0.015989507
98	0x3dfe8225	0.12427167
99	0xbda82a5a	-0.08211203
100	0x3e3f75d0	0.18697286
101	0x3e085f6c	0.1331765
102	0xbe32dcc6	-0.17467031
103	0xbc3ccd87	-0.011523611
104	0x3d54a0cb	0.051911157
105	0xbd9d07ba	-0.07667489
106	0x3df9fd02	0.122064605
107	0xbdc4aad3	-0.09602895
108	0x3e188c11	0.14897181
109	0xbe1153c6	-0.14192113
110	0x3d85fa12	0.06541838
111	0xbe412d7d	-0.18865009
112	0x3e4f8846	0.20266828
113	0xbdeaeef2	-0.114713565
114	0xbe06a139	-0.13147439
115	0xbd3cf68b	-0.04613356
116	0xbd5c93dd	-0.05385195
117	0x3dfdcf88	0.12393099
118	0xbdb4dfae	-0.08831726
119	0xbdead8c2	-0.114671245
120	0x3e88554d	0.2662758
121	0xbd34a95c	-0.044106826
122	0xbda6534d	-0.08121357
123	0xbe2b3f34	-0.16723329
124	0x3c993c1a	0.018705416
125	0xbccc5fd0	-0.02494803
126	0x3cb53b2f	0.022122947
127	0xbdc0bb53	-0.09410729
128	0x3d98dea9	0.07464344
129	0x3db793b0	0.08963716
130	0xbd7388fd	-0.059456814
131	0x3d8efac9	0.06981427
132	0x3db86b4d	0.09004841
133	0x3e6d9a19	0.23203315
134	0xbe42954d	-0.19002266
135	0x3c4cde74	0.012504209
136	0x3e0aba7e	0.13547704
137	0xbe451824	-0.1924749
138	0xbc568998	-0.013094328
139	0xbe4028f5	-0.18765624
140	0xbd642ff3	-0.05570979
141	0xbdd491ee	-0.103793964
142	0x3e153fd0	0.14575124
143	0xbdaa8895	-0.08326832
144	0xbe795574	-0.24349004
145	0xbd7c525e	-0.06160199
146	0xbd57e2b1	-0.052706424
147	0xbe85fdcf	-0.26170203
148	0xbda478dd	-0.08030865
149	0x3d0d0970	0.03443283
150	0xbe6b469b	-0.22976153
151	0xbdadb7b8	-0.08482307
152	0x3e5ee38a	0.21766487
153	0xbe55a510	-0.20863748
154	0xbcd501b7	-0.026001794
155	0x3dd937ac	0.10606322
156	0xbe7ec60d	-0.24880238
157	0x3e4f8bf9	0.20268239
158	0xbe27ac97	-0.16374432
159	0x3d8f6f9e	0.07003711
160	0x3dc9ca94	0.09853092
161	0xbb84bf1b	-0.004051102
162	0xbda80511	-0.08204091
163	0x3e7f5c5c	0.24937576
164	0xbba8eef6	-0.0051554395
165	0x3c869fee	0.016433682
166	0x3d10a6ef	0.03531545
167	0xbd834f1c	-0.06411573
168	0x3d855109	0.06509597
169	0x3d4dd03b	0.050247412
170	0xbe8de805	-0.2771608
171	0xbd4f71e4	-0.050645724
172	0x3e860628	0.26176572
173	0x3e0c51e2	0.13703111
174	0x3e1c4e36	0.1526421
175	0x3e0ce6e3	0.13759951
176	0x3d1c41b1	0.038148586
177	0x3d03d02d	0.032180954
178	0xbe58814b	-0.21143071
179	0x3d982cbd	0.07430408
180	0xbdc03cbb	-0.093865834
181	0x3c01fd02	0.007933857
182	0x3dd5dcfa	0.104425386
183	0xbdce94a2	-0.10086943
184	0x3e259d01	0.16173173
185	0xbe29913a	-0.16559306
186	0xbe1ff507	-0.15620814
187	0x3df1ab0f	0.11800205
188	0x3dd589ec	0.10426697
189	0x3e2d3775	0.16915686
190	0x3e621b1a	0.22080651
191	0x3e83918f	0.2569699
192	0xbe1d79cc	-0.15378493
193	0xbd93b564	-0.07212332
194	0x3e9f53cf	0.31118628
195	0x3d8a1653	0.06742539
196	0x3df57dfc	0.1198692
197	0x3e4fd614	0.20296508
198	0xbc94a0e3	-0.018143123
199	0xbe4511fd	-0.19245143
200	0x3dc60641	0.096691616
201	0xbd60c52f	-0.05487555
202	0xbe4a0db3	-0.19731788
203	0x3df04b7f	0.1173315
204	0xbd53c0ec	-0.051697657
205	0xbd28e1c0	-0.041230917
206	0x3da4a0ac	0.08038458
207	0x3ab9efa9	0.0014185804
208	0x3e13be00	0.14427948
209	0xbd681e86	-0.056669734
210	0xbdce836d	-0.10083661
211	0xbe16d8cf	-0.14731143
212	0xbc7cfe8c	-0.015441548
213	0xbe8eae2b	-0.27867255
214	0xbe1cf7fa	-0.1532897
215	0xbc69f263	-0.014278981
216	0xbe4eb539	-0.20186318
217	0x3dfbdbda	0.12297793
218	0xbcfe005c	-0.03100603
219	0xbb4dd613	-0.0031408116
220	0x3df67c9b	0.12035485
221	0x3e022a90	0.12711549
222	0xbe7da695	-0.24770577
223	0xbd2524e8	-0.0403184
224	0xbd96facc	-0.073720545
225	0xbe0b65b5	-0.13613017
226	0x3c76841c	0.015046146
227	0xbe45af7a	-0.1930522
228	0x3e0604d7	0.13087784
229	0xbc261de7	-0.010138965
230	0xbc8c7d69	-0.017149644
231	0x3d87506c	0.06607136
232	0x3c2eaec4	0.010661785
233	0x3e528a9b	0.20560686
234	0xbe923a47	-0.28560087
235	0x3e5a3ad7	0.21311508
236	0x3e10abcb	0.14128034
237	0xbe0660da	-0.13122883
238	0x3ceaee63	0.028678125
239	0xbe0e9ed7	-0.1392778
240	0xbe6c7aa8	-0.23093665
241	0xbdb30308	-0.087408125
242	0x3e4ea856	0.20181403
243	0x3e0d2c36	0.13786396
244	0xbdcc13fb	-0.099647485
245	0xbe04cbcb	-0.12968366
246	0xbcce1650	-0.025157124
247	0xbe57e701	-0.21084215
248	0xbda46349	-0.0802675
249	0xbd297e66	-0.04138031
250	0xbc8e7963	-0.017391866
251	0x3c1e504e	0.009662701
252	0xbe292582	-0.16518214
253	0x3d858584	0.06519607
254	0x3dd3b8e1	0.10337997
255	0xbe2183f5	-0.15772994

net.4.bias f4 [50]
0	0xbe792fa5	-0.24334581
1	0xbe6c23d0	-0.23060536
2	0x3d3d6b7e	0.04624509
3	0xbc5d1015	-0.013492604
4	0x3e01520a	0.12628952
5	0x3e4dedc7	0.20110236
6	0x3e6e523c	0.23273557
7	0xbd26e16a	-0.040742315
8	0xbdc0eabd	-0.09419773
9	0xbd856891	-0.06514085
10	0xbc8fcf71	-0.01755497
11	0x3e4a5b27	0.19761334
12	0xbdf277f9	-0.11839289
13	0xbe13eee5	-0.144466
14	0xbb4701d8	-0.003036609
15	0xbc8fdf2c	-0.017562471
16	0xbe81b9b3	-0.2533699
17	0x3cba89cd	0.022770787
18	0xbb778ff9	-0.0037775023
19	0x3e3d1160	0.1846366
20	0xbe4fdfa8	-0.20300162
21	0xbe6efb0d	-0.23337956
22	0xbdc88c36	-0.09792368
23	0xbe6ca01a	-0.23107949
24	0x3e823733	0.2543274
25	0xbdb89cbe	-0.09014271
26	0xbe0f085f	-0.13968037
27	0x3e4161c7	0.18884955
28	0x3db0e40d	0.08637247
29	0xbc6f89b0	-0.01462023
30	0x3e862c6a	0.2620576
31	0xbd653220	-0.055956006
32	0x3ca5ec1a	0.020254184
33	0xbe2f8bf8	-0.17143238
34	0x3b3d78d4	0.002891113
35	0x3c529a86	0.012854224
36	0xbe154804	-0.14578253
37	0x3e11d2db	0.14240591
38	0xbe405a02	-0.18784335
39	0x3e0f442b	0.13990848
40	0xbddd4a25	-0.108051576
41	0xbd142842	-0.036171205
42	0x3d370555	0.04468282
43	0xbd58eaeb	-0.05295841
44	0xbe15a757	-0.14614616
45	0xbb9724ce	-0.0046125418
46	0xbd3596b1	-0.044333164
47	0x3df7fed8	0.121091545
48	0xbd2c446b	-0.042057436
49	0xbd2d0918	-0.042245

net.6.weight f4 [1, 50]
0	0xbea2248c	-0.31668508
1	0xbe3e7255	-0.18598302
2	0x3e9d62e0	0.30739498
3	0xbe2f2a2f	-0.17105936
4	0x3eafec20	0.34359837
5	0x3e783724	0.24239784
6	0x3e8b26e5	0.27178112
7	0xbe554acf	-0.20829318
8	0xbe76befb	-0.24096291
9	0xbead8de4	-0.33897316
10	0x3e39a79b	0.18130343
11	0x3e65975b	0.22421019
12	0xbe8d2351	-0.27566007
13	0xbeaff9ad	-0.34370175
14	0x3e15082d	0.145539
15	0x3df0c807	0.11756902
16	0xbe0bbe29	-0.13646759
17	0x3e7a5d16	0.24449572
18	0x3e35aaac	0.17740887
19	0x3e920c31	0.28524926
20	0xbe7df957	-0.24802147
21	0xbe715f4b	-0.23571508
22	0xbe863297	-0.26210472
23	0xbe89ee0b	-0.26939425
24	0x3e9e65cc	0.3093704
25	0xbe40c4d4	-0.18825084
26	0xbe5376a1	-0.20650722
27	0x3ea2eeaa	0.3182271
28	0x3e34bf04	0.17650992
29	0xbe9f5ff5	-0.31127897
30	0x3e97ae85	0.29625335
31	0xbdc0d3d6	-0.094154045
32	0x3e82583c	0.25457942
33	0xbe700d84	-0.23442656
34	0xbe6b09b7	-0.22952925
35	0xbe312491	-0.17299105
36	0xbe9de68f	-0.30839965
37	0x3e5dc7a6	0.21658191
38	0xbe4aab48	-0.19791901
39	0x3e88a855	0.26690927
40	0xbdfa714f	-0.12228643
41	0xbe4a5d75	-0.19762214
42	0x3e8b86d1	0.27251294
43	0xbe9f4531	-0.31107476
44	0xbe2cde47	-0.16881667
45	0x3e9208d4	0.2852236
46	0xbd93d7c0	-0.072188854
47	0x3e543832	0.20724562
48	0xbe670a75	-0.22562583
49	0xbe819ec1	-0.25316432
