pretrain_ckpt/bc/Pendulum/bc_Pendulum-v1_50data_10000epochs/model.pth (torch, 24738 bytes, 7 tensors)

net.0.weight f4 [50, 3]
000000 00 ce ca 3e 61 da 94 bf cb 9a d4 3e f5 68 f7 be
       0.3961029 -1.1629144 0.41524348 -0.48322263
000010 66 39 1f bf e2 c0 95 be 83 29 20 3d 17 5a 82 bf
       -0.6219696 -0.2924872 0.03910209 -1.0183743
000020 98 3d cb be ac 54 c2 3d f4 2d d3 3e 1b 28 96 3e
       -0.3969543 0.09488806 0.41245997 0.29327473
000030 5f 2d d1 be 05 ad 81 3f 8d 3c 65 3e bd 3a 77 3e
       -0.40854928 1.0130926 0.2238638 0.241435
000040 59 47 2e 3f c7 5f 1b bf 5a f0 b1 be 96 87 41 be
       0.6807762 -0.6069302 -0.34753686 -0.18899378
000050 cf 5d 91 bd 75 3a 5e 3b f9 ce 81 bf 7d 15 85 3c
       -0.07097971 0.0033909355 -1.0141288 0.016245598
000060 e4 9c 84 be 54 28 4e bf 46 a0 e7 3d c7 ac 17 3f
       -0.25900948 -0.80530286 0.113098666 0.5924801
000070 3a 40 19 bf 0a 9d d9 3e 18 d9 c2 3e dc bc e9 3e
       -0.59863627 0.42502624 0.38056254 0.456519
000080 ba d8 dc be 94 36 0e 3f 1e 8b 05 3f 9b 6b 01 3e
       -0.431341 0.5555203 0.521654 0.12638704
000090 f9 25 07 bf c6 3b 1c 3f 73 df de 3d fb 6b 4f be
       -0.52792317 0.6102871 0.10882463 -0.20256035
0000a0 e7 9f 74 bf e0 4f 29 bf 7d aa 96 3e 49 b5 19 bf
       -0.9555649 -0.66137505 0.29426947 -0.60042244
0000b0 64 da 7f 3e 10 c3 07 bf 85 c3 25 bf ac 13 9f be
       0.24985653 -0.53032017 -0.64751464 -0.31069696
0000c0 42 76 d7 3e 75 2c 87 3f 0f 10 92 be 27 9b 8a 3e
       0.4208241 1.0560442 -0.28527877 0.27071497
0000d0 7d b0 3f be 3e 4f 65 bf 28 c6 86 3e c2 95 06 3f
       -0.18719669 -0.8957404 0.26323056 0.5257226
0000e0 8c d9 6a bf 9f 1b 94 be e4 90 cb 3e cb 4d 0e bf
       -0.917382 -0.28927323 0.3975898 -0.5558745
0000f0 dc 07 12 bf 65 4e 48 3f fc 19 a9 3e 34 95 c0 be
       -0.5704324 0.7824462 0.33027637 -0.37613833
000100 f2 a5 3b 3f db 44 2a bf 5f 81 b6 be 39 48 c2 be
       0.7330009 -0.66511315 -0.35645577 -0.37945727
000110 44 3b f4 3e 3f e3 bc 3d d0 14 52 3f 42 de 9d be
       0.47701466 0.09223031 0.8206301 -0.30833632
000120 8a e2 2e be 73 53 25 3f a9 f4 08 bf 38 5d 16 be
       -0.17078605 0.6458046 -0.5349832 -0.14683998
000130 7f 70 6e bf 2c eb 11 bf 6d 9f 57 3e 44 96 23 3e
       -0.93140405 -0.5699947 0.2105691 0.1597529
000140 9e 5b af 3f 82 1b 52 bf 28 7b 74 be 4c f6 46 bd
       1.3699834 -0.82073224 -0.23875105 -0.04857473
000150 8f 6a d9 bb 45 63 a3 3f aa 6e 50 be 4b 18 29 3f
       -0.006635017 1.276467 -0.20354715 0.66052693
000160 26 a5 c3 bd d5 02 8c bd a9 dd 13 3f 6c 88 57 3e
       -0.09552984 -0.06836478 0.577601 0.21048135
000170 f7 7e c4 be 3b d7 c7 be a1 bd a0 3d 53 42 4c bf
       -0.38378116 -0.39031395 0.07848669 -0.797887
000180 3e a9 79 be a7 c5 1f 3f 6b 5d 9f 3e d4 40 ae 3e
       -0.24380967 0.6241097 0.3112596 0.34033835
000190 ad 45 62 bf fc 9e 1e bc 39 10 29 bf 25 86 13 3f
       -0.88387567 -0.0096814595 -0.6604038 0.57626563
0001a0 d5 c1 c4 be 6a ec 8e be 4e 9d a1 3f 3a 15 0c bf
       -0.38429132 -0.27914745 1.262613 -0.5471989
0001b0 3a 04 ff be f0 60 11 3f 7b 8e 36 3e e3 95 11 bf
       -0.49807912 0.5678854 0.1782779 -0.56869334
0001c0 d9 1c 57 3e f2 9e f0 3c 06 f3 37 be f6 0f a5 bc
       0.21007098 0.029372666 -0.179638 -0.020149212
0001d0 19 2a ec 3d 0a 83 00 3f ed 44 2d 3f a4 33 aa be
       0.11531467 0.5019995 0.676833 -0.33242524
0001e0 0e 78 9f 3d 7b c2 68 bf 5c 6f 8f 3e df 0a e8 3e
       0.077865705 -0.90921754 0.28014648 0.45320794
0001f0 e3 d4 6c be 8b 62 d6 3e 2a 90 b7 3e d0 1b 55 3f
       -0.23128085 0.41872057 0.35852176 0.83245564
000200 ea 9a 88 be 81 4a 27 3f 7a ae 50 bf 47 71 c6 3e
       -0.2668069 0.6534806 -0.8151623 0.387583
000210 d0 e8 76 bf 44 33 44 bf 06 28 02 be b2 c9 c2 3e
       -0.96448994 -0.76640725 -0.1271058 0.38044506
000220 13 d5 ae bf 80 3d 94 3f 73 48 97 be 37 aa d3 be
       -1.3658775 1.1581268 -0.29547462 -0.413408
000230 88 3c 95 3c cf 22 31 3e b2 8a 8a 3e 4a 27 63 bd
       0.01821734 0.17298435 0.2705894 -0.05545739
000240 6b 5f 40 3d 52 e6 55 bf b3 6d 59 3e df 7d 25 bd
       0.046965998 -0.83554566 0.21233253 -0.040403243
000250 c7 5c 4e 3f b8 48 8d 3e
       0.80610317 0.27594543

net.0.bias f4 [50]
000000 81 4f b4 be b7 bd 79 3e 38 38 76 3e 92 69 e4 3e
       -0.35216907 0.24388777 0.24044883 0.44611794
000010 7e ba a6 3d 03 1a b5 3e 1b d4 92 be 53 6c 02 bd
       0.08141039 0.35371408 -0.2867745 -0.031841587
000020 cd 59 ee be 6d 94 24 3e 8e 10 db be d3 8e ec 3e
       -0.46552888 0.16072245 -0.42786068 0.46202716
000030 77 93 43 3e 29 90 a6 3e c0 ff d8 3e 13 b3 34 3e
       0.19099222 0.3253186 0.42382622 0.17646436
000040 6b 62 9f be b4 cb ef 3e 84 1d af be 9d 9a 1e bf
       -0.31129774 0.468351 -0.34202206 -0.6195467
000050 30 bc 2d 3f 2d be d4 be 99 8d d7 3e 8b d5 06 3f
       0.67865276 -0.41551343 0.42100218 0.5266959
000060 95 cc eb 3e 54 98 85 3e 7f 66 3e be ab d7 9e be
       0.4605452 0.2609278 -0.18593787 -0.31023917
000070 67 94 d4 bd 8b fd ba be b6 5a 3d 3f 5d 17 d5 bc
       -0.10379868 -0.36521563 0.7396654 -0.026012117
000080 77 da 13 3f 91 7d 84 3e 5c 95 16 bd 03 57 d3 3e
       0.57755226 0.2587705 -0.036763534 0.41277322
000090 8e 3c d4 3e 45 86 3c 3c cc 59 fc 3e d8 0f b2 be
       0.4145245 0.011506622 0.4928726 -0.34777713
0000a0 f1 88 d1 be 9a e5 04 bf 06 7d 87 be fb 39 01 be
       -0.4092479 -0.51912844 -0.26462573 -0.12619774
0000b0 c5 3c 8d be 61 a4 b3 3d 70 ad 89 3e 7a bd 24 bf
       -0.27585426 0.08771587 0.26890135 -0.6435162
0000c0 94 dc 3c be 00 42 b8 3d
       -0.18443519 0.089969635

net.2.weight f4 [50, 50]
000000 e1 ae 39 bd 1c e4 10 bb 83 da 20 3e 9c 7e 9d be
       -0.045332793 -0.002210862 0.15708356 -0.30760658
000010 92 19 c3 bd b2 d2 48 be fb c5 3c be 41 e2 94 3c
       -0.095263615 -0.19611624 -0.18434899 0.018174293
000020 57 d2 5b 3e 49 e0 f8 3d b7 b3 bb 3d 05 ae 88 3d
       0.21466957 0.12152154 0.09165137 0.066738166
000030 cb 19 af be 3f 75 4e 3d a5 b4 90 3d 2e ae c1 bc
       -0.34199366 0.050404783 0.07065705 -0.023642626
000040 66 16 73 bd f9 5f 42 be 1a fe ae 3b f1 e4 83 3c
       -0.059347533 -0.18981923 0.00534035 0.016100379
000050 68 a3 0b be 52 18 27 3e 8f 06 0c be 1c 0d fa bd
       -0.13636553 0.16317871 -0.13674377 -0.12209532
000060 55 14 b4 3d 7b 8a 12 3e 90 4b d4 3d 44 ef 91 be
       0.087929405 0.14310639 0.10365975 -0.28502858
000070 63 9f 5e be 0a e1 7c 3e 4c d9 96 bd 86 59 08 3d
       -0.21740489 0.2469522 -0.07365665 0.0332885
000080 c1 25 47 be 80 83 36 3e 05 a3 bc 3c 4f b7 ca bd
       -0.19447996 0.17823601 0.023026953 -0.098982446
000090 25 38 94 be bd 17 6f be 81 ab 6d be 09 8b 76 bd
       -0.28949085 -0.23348899 -0.23209955 -0.060191188
0000a0 bb 76 21 3d 29 0e d9 bd c8 e7 0e be 8e 26 d9 bc
       0.03941987 -0.10598404 -0.13955605 -0.026507642
0000b0 59 0d a2 be da db ec bb be 5c a5 be 1a 99 c7 3d
       -0.31650808 -0.007228357 -0.3229732 0.09745999
0000c0 c1 36 80 3c 7a ff 23 be 1b ec 35 3e 50 77 0e 3e
       0.015651109 -0.16015425 0.17765848 0.13912702
0000d0 64 f9 09 3d 01 b7 5e be 7f 7a fb bc 28 e2 58 3c
       0.033685103 -0.21749498 -0.03069806 0.013237514
0000e0 e8 c6 6b 3c bf 84 a0 bd 82 26 7c 3d 6d 06 6e 3e
       0.014390685 -0.07837819 0.06156016 0.23244639
0000f0 e0 5c 9d 3d c6 40 21 3e e1 b8 ee bd 77 93 8a 3c
       0.0768373 0.15747365 -0.116563566 0.01691602
000100 e1 9b 98 bd 58 7b f8 3d 5d 2a 11 3e 70 f6 4f 3d
       -0.074516065 0.12132901 0.14176317 0.05077213
000110 a9 51 11 be 46 4b 2d bd de 18 5b be 8e 9e 4e be
       -0.14191307 -0.042308114 -0.21396205 -0.20177671
000120 d9 09 c7 3c 75 3d e5 bd 77 42 45 3d fd 19 34 3e
       0.024296688 -0.111933626 0.04815909 0.17588039
000130 8a 44 90 3d 1d ca 39 be 88 bd f0 bc b2 91 0b 3e
       0.07044323 -0.18143506 -0.02938725 0.13629797
000140 25 89 04 be 7f 37 44 bc d8 03 89 be 37 57 22 bd
       -0.12942941 -0.011976122 -0.26760745 -0.039633956
000150 6d 80 d7 bd 64 94 2e bd 67 db 27 3c fc 5e 63 bc
       -0.10522542 -0.042621985 0.010245181 -0.0138776265
000160 aa 42 1e be 03 19 fb 3d 88 06 f2 bc e5 63 34 3e
       -0.15455118 0.1226063 -0.02954413 0.17616232
000170 97 31 5d 3e 92 32 ff 3d 16 2b 24 be 69 cd 20 3d
       0.21600948 0.124608174 -0.16032061 0.039258394
000180 f5 a4 bf be 55 78 7d 3e de 02 2e 3c f2 b4 1e be
       -0.3743054 0.24752934 0.010620801 -0.15498713
000190 81 b4 fa bc 84 aa 81 3d 01 5b f3 bd b7 c8 58 bf
       -0.03060365 0.063313514 -0.11882592 -0.84681267
0001a0 b3 72 96 3d 3d 4b 10 be 2e ec ff 3e 66 b7 42 be
       0.07346096 -0.14091201 0.49984878 -0.19015273
0001b0 1c dd 0b 3e 3f 94 87 be 51 2b a4 3d b0 e0 e0 be
       0.13658565 -0.2648029 0.080160744 -0.43921423
0001c0 b7 5b bb 3b 20 d0 6e 39 70 77 98 bf 6b 16 28 3e
       0.0057177204 0.00022774981 -1.191145 0.16414802
0001d0 84 22 18 bd e9 a9 3f be 03 d5 1f 3b e5 42 c1 3e
       -0.03714229 -0.1871716 0.002438844 0.3774635
0001e0 1b 66 a1 bd b3 b0 0b 3e 12 c1 8e bd 9d a7 46 3d
       -0.07880803 0.13641624 -0.06970419 0.048499692
0001f0 c7 d9 53 3d 83 1b a9 3d b0 1d 05 3e 1f 29 1a 3e
       0.05172136 0.082572006 0.12999606 0.15054749
000200 82 b4 19 3d e4 0e 8d be af 17 c4 bd 3b a4 f1 3d
       0.03752566 -0.27550423 -0.0957483 0.117989026
000210 c4 3c 04 bf 6f a6 20 be c1 c7 6c 3e 1c 29 14 bd
       -0.5165522 -0.1568849 0.23123075 -0.036172017
000220 ae 6b 87 3d a1 27 28 3e a2 c3 28 bf 5a fd d6 3d
       0.06612335 0.16421367 -0.6592351 0.10497542
000230 fd c5 37 3d 8e a6 ba bc 73 1a 4d 3e da 45 cf bd
       0.04486655 -0.022784498 0.20029621 -0.10120745
000240 5f fb ed 3e 34 9d b2 3d 23 b1 c0 3d dc 01 84 3e
       0.46480843 0.0872139 0.09408786 0.2578267
000250 c8 22 b2 3c 95 23 45 be 57 f2 b6 bd a6 d7 bc bd
       0.0217451 -0.19251855 -0.089329414 -0.09220819
000260 d6 b4 4a be 56 93 79 3e 90 fe 08 3e 2a 84 4c 3e
       -0.19795546 0.2437261 0.13378358 0.19972292
000270 7b 7b 32 3d c7 2b c2 bd ba a2 be bd 39 f5 6c be
       0.04357479 -0.09481006 -0.093083814 -0.2314042
000280 b6 4c df bd fe 7e 8e 3d 3b a8 23 3e a9 b8 82 bd
       -0.10903303 0.069578156 0.15982144 -0.063828774
000290 f2 0d 1a be cb f7 5c 3d e9 b9 e9 bd e2 25 1f 3e
       -0.15044382 0.05394725 -0.11412413 0.15541795
0002a0 70 46 67 bd a2 b5 92 3d 9e 86 b4 3e 12 2b 03 bd
       -0.05646366 0.0716355 0.35258955 -0.032023497
0002b0 1c 35 0f 3e 1f 6a 26 3e 80 8e 28 3e ee 57 ef bd
       0.13985103 0.1625142 0.1646061 -0.11686693
0002c0 c6 6d 7b 3d 13 14 34 3e 33 ad 19 3e ec 2b 3c be
       0.061383985 0.17585783 0.15007477 -0.1837613
0002d0 25 81 1e 3e c7 b8 2c bc f2 43 ce 3e 55 82 7e 3d
       0.15478952 -0.010542101 0.40286213 0.062136013
0002e0 bf 6b 4a 3e 24 fc 3f 3d 20 6b b4 3e 80 3d f4 3d
       0.19767664 0.04687132 0.3523798 0.11925793
0002f0 e1 98 4e 3e 88 53 86 bd 39 65 c5 bc 26 18 06 be
       0.20175506 -0.06558901 -0.024096118 -0.1309515
000300 b7 d3 b1 bc c1 b2 74 be d5 3b ab 3e 02 aa 3d 3e
       -0.021707399 -0.23896314 0.33444086 0.18521884
000310 3c f5 97 3e ae d0 df 3c 30 e0 22 3c 47 bd 44 3e
       0.29679286 0.027321186 0.009941146 0.19212829
000320 b4 83 34 3e 73 fd 2a 3c ee 7e 2d bb 43 45 0c 3b
       0.17628366 0.010436404 -0.002647336 0.0021403588
000330 b9 d8 ee bd 0a d0 ba bd b1 1c 22 be e7 c6 81 3d
       -0.1166243 -0.091217116 -0.15831257 0.06336766
000340 1f 4a 9b bd a3 f1 f4 3d a1 26 55 3d 73 e0 27 3e
       -0.07582497 0.11960151 0.052038793 0.16394214
000350 b1 fa 6e be c0 7f f4 bc 20 87 8f bc 14 03 c7 3d
       -0.23337819 -0.029846072 -0.017520487 0.09717384
000360 45 ea 37 3e 0f 48 f7 3c 79 a3 9b 3d c6 be bd 3d
       0.1796046 0.030185727 0.07599539 0.09264903
000370 36 1d 1e be e9 bd 10 3d f7 fc 27 be 9e 12 3f be
       -0.1544083 0.035337362 -0.16405092 -0.18659446
000380 49 2e 16 be aa b2 a9 3d a6 cc c4 3c 08 07 58 be
       -0.14666094 0.082860306 0.024023365 -0.21096432
000390 dd bb f3 3d 75 0f a6 3e 40 c0 b0 bd d0 b9 51 bd
       0.119010665 0.32433668 -0.08630419 -0.051202595
0003a0 11 c0 97 bd 04 5f fb 3c cf 15 53 3d a5 67 43 be
       -0.07409681 0.030684955 0.05153447 -0.19082506
0003b0 7a 04 c6 bd fe ce 50 be 8c d3 99 be 84 44 4b bd
       -0.096688226 -0.20391461 -0.3004421 -0.04962589
0003c0 d0 35 2b 3e d4 c5 16 3e 39 10 e3 3d 9d eb c8 bc
       0.16719747 0.14723903 0.110870786 -0.024526412
0003d0 51 6e 41 be 2d 71 da bd e4 ef c3 bd 9b 05 1d 3e
       -0.18889739 -0.10666118 -0.0956724 0.1533417
0003e0 86 18 cb bd 04 aa 25 be 81 9a 09 be 9e a1 3b be
       -0.09916787 -0.16178137 -0.13437845 -0.18323371
0003f0 9e de ba bd 8f ff 4e 3e e3 ea 68 bd e1 90 1f 3e
       -0.09124492 0.20214675 -0.05686463 0.1558261

net.2.bias f4 [50]
000000 0e 9b 4a bd 60 bb 56 3d 84 0b d4 bd 27 08 f0 3b
       -0.049464278 0.05242479 -0.10353759 0.0073251906
000010 12 fb 71 be 65 b7 2a 3e 06 c1 5a be 7a bf dc bd
       -0.23630932 0.16671522 -0.21362695 -0.10778709
000020 87 c6 1a be c5 35 dc bb c3 02 e8 3c c0 bd e3 3d
       -0.15114795 -0.006720277 0.02832163 0.11120176
000030 66 23 26 be 09 29 24 be 51 bf 08 3e ca 8a 1a 3e
       -0.16224441 -0.16031279 0.13354231 0.15092006
000040 db 18 88 bd c7 fe 0d 3d ab dd 1f be 26 bc eb 3d
       -0.06645366 0.034666803 -0.15611903 0.11510496
000050 1c 59 f7 3d f5 92 38 be b2 32 42 be 7b cb e9 bd
       0.12077543 -0.1802481 -0.18964651 -0.11415764
000060 1f fc a7 bc 61 83 44 3e 50 bd 0c 3d 09 ba f6 bb
       -0.020505963 0.19190742 0.03436023 -0.0075295013
000070 58 85 46 be 6a c6 5d be 6c 6e 41 3e 35 a2 84 3e
       -0.19386804 -0.2165772 0.18889779 0.25905004
000080 52 c3 81 be 9b 6a fe 3d 5d f7 ba 3d ef 25 d5 bd
       -0.2534433 0.12422677 0.09129212 -0.10407626
000090 19 33 6b 3e 01 d6 88 bd 16 c8 91 bb f3 a6 17 be
       0.22968711 -0.06681443 -0.004448901 -0.1480978
0000a0 5a ce 98 bd b3 d7 74 3d e4 60 12 bd 24 a9 14 bc
       -0.074612334 0.05977602 -0.035736933 -0.009073529
0000b0 8f 8e d1 bd 3a 2c 14 3d 36 63 27 3e 88 3b 59 3e
       -0.10232269 0.03617499 0.1634644 0.21214116
0000c0 0d d4 44 be 92 bd 0a 3a
       -0.19221516 0.00052925304

net.4.weight f4 [50, 50]
000000 9b d8 2a 3f 3b 57 04 3e d4 30 b5 3c 00 7d 26 bf
       0.66736764 0.12923901 0.02211801 -0.65034485
000010 06 d3 80 3e 68 c4 0b bf 0c 00 20 3f 97 cd 50 be
       0.25160998 -0.5459657 0.6250007 -0.20390926
000020 b0 ab b9 3e b5 9c c0 3e 91 12 3e be 1e 90 3c be
       0.362638 0.37619558 -0.1856177 -0.18414351
000030 2a 0a 3c 3e b7 14 e4 3e ac bf d0 be ef 9f 86 be
       0.18363252 0.44547054 -0.40771234 -0.26293895
000040 fe c4 90 be 54 77 de 3e b2 27 86 3d a3 d5 e3 be
       -0.28275293 0.43450415 0.0655054 -0.4449893
000050 af 69 83 be 6c 34 6f 3e 12 ea d6 3e 04 38 11 3f
       -0.25666568 0.23359841 0.41975456 0.567261
000060 b6 c3 7e be 72 3b c8 be 16 cb 9f be 8a bd 11 3f
       -0.24879345 -0.39107853 -0.3120963 0.5692984
000070 da a8 38 3e 5c 25 49 3e 36 f2 fd be 1f 8e b1 bf
       0.18033162 0.19643158 -0.49598855 -1.3871497
000080 e7 91 ed 3e 49 14 95 3d 64 8c cd be 18 a0 82 3e
       0.46400377 0.0727926 -0.40146172 0.25512767
000090 40 7a e6 be d1 87 ad 3e bf 90 8a be d2 49 d6 3d
       -0.45015144 0.33892682 -0.27063558 0.10463299
0000a0 bd 56 2f 3f d2 b4 5c 3e 40 04 c8 bd 8c 0f e4 be
       0.6849173 0.21553352 -0.097664356 -0.4454311
0000b0 79 be 21 3f 87 b7 e2 be c9 6f e9 be cc 8a 85 be
       0.63181263 -0.44280645 -0.45593098 -0.26082456
0000c0 65 49 40 3e 32 8c bb 3e 48 49 8d bd df 34 a4 3e
       0.18777998 0.36630398 -0.06898743 0.32071587
0000d0 1f 4d 3a be 5f 46 b2 bf ef 77 c7 3d 5b ea bd be
       -0.18193482 -1.3927726 0.097396724 -0.37092862
0000e0 05 8f aa 3f 5d 89 e8 3d 9c 62 85 3f 96 12 14 3f
       1.3324896 0.11354325 1.0420718 0.5784086
0000f0 73 ba d8 3d 5b c4 5b bf d7 57 e2 3e 71 4f b9 3e
       0.10582437 -0.8584649 0.4420764 0.3619342
000100 2b 23 42 bf 55 cc 6c be 95 29 10 bf 90 e9 39 3e
       -0.7583491 -0.23124821 -0.5631345 0.18155503
000110 f3 6e 8f bd a1 e5 bf be f8 9a 0e bf 16 cc 0f 3e
       -0.07003584 -0.3747988 -0.55705214 0.14042696
000120 b6 34 7a bd d6 df c8 3e 6f 7a 64 be 11 ed 99 be
       -0.061085425 0.39233273 -0.2231233 -0.3006368
000130 c2 4a 6a 3d 44 4b 35 be 08 b9 da 3e 9b b2 f7 bd
       0.0572002 -0.17704493 0.42719293 -0.12094613
000140 3a 73 d4 3d 81 c5 91 bf e6 ff 42 3e 40 a3 d6 3e
       0.1037354 -1.1388398 0.1904293 0.41921425
000150 53 16 ee be 6e ee 44 3e 25 11 8e 3e 6f f0 bd 3e
       -0.46501407 0.19231579 0.27747455 0.370975
000160 85 7e 20 3e 1c bd fe bb fc 35 4b 3f 7a 7c b2 3c
       0.15673263 -0.0077740084 0.7937925 0.02178787
000170 30 2f aa 3e b1 c1 47 bd 6f b7 09 3f 05 f8 40 bf
       0.33239126 -0.048768703 0.5379552 -0.7537845
000180 49 10 98 be 76 91 af 3e ba cf 22 be 9f e0 63 3e
       -0.29699925 0.34290665 -0.15899554 0.22253655
000190 1a bb cc bd 10 14 df be 1e 72 6a 3d 22 c9 a3 3e
       -0.09996624 -0.43569994 0.057237737 0.3198939
0001a0 ec c6 ab be 8e e4 65 3c 2d 0f 7a bd a0 93 13 3f
       -0.33550203 0.014031542 -0.06104963 0.5764713
0001b0 7b ec a0 bd 68 27 a9 bd 89 eb 32 be e0 0b df 3e
       -0.07857605 -0.08259469 -0.17472662 0.43563747
0001c0 e6 55 fc 3c 53 e3 0c be 61 51 19 3e 47 61 0d 3f
       0.030802678 -0.13758592 0.1497245 0.5522656
0001d0 7f bf 09 bd c4 40 04 bf 77 34 b9 bd de 89 17 3e
       -0.03362989 -0.51661325 -0.0904321 0.14798686
0001e0 1b 30 f4 3d ef 65 76 be b4 93 20 bf 19 43 ee be
       0.11923238 -0.24062322 -0.6272538 -0.46535566
0001f0 3b 41 10 3e 8e 40 bb bd 73 b5 f5 3e 03 ab 1b bf
       0.14087383 -0.09143172 0.47989997 -0.6080782
000200 c5 74 2f be b1 5c 69 be 64 1c 0e 3f 37 67 18 3f
       -0.17134388 -0.22789265 0.5551207 0.59532493
000210 0d 17 ee be 1d 08 b5 3d de d9 fa bb a1 ce a6 bd
       -0.4650196 0.08839438 -0.0076553663 -0.0814488
000220 06 cc 06 3f e0 7b fc bd 05 d2 00 3f 8d 1e 26 3d
       0.52655065 -0.12328315 0.50320464 0.04055648
000230 2f 66 e2 bd 64 38 27 be 70 75 6b 3e 6d ec 9b 3e
       -0.11054646 -0.16330105 0.22994018 0.30453816
000240 fe d8 8a bd b2 46 b8 3e 3b e4 fe 3e 5e d3 8d 3f
       -0.06779669 0.35991436 0.497835 1.1080129
000250 2a 94 10 3e c2 c4 ae be fb e2 57 be 2f 41 50 bd
       0.1411902 -0.3413449 -0.2108268 -0.050843414
000260 d1 49 1b be ac b6 66 3e 1d f1 0d 3d ff 7e 7e 3e
       -0.15164877 0.22530621 0.03465377 0.24853133
000270 ec e7 b3 be a4 a4 16 3e 0c 7c 24 bd 83 17 a4 be
       -0.3513788 0.14711243 -0.040157363 -0.32049188
000280 5f ed 10 bd aa 60 23 bc d8 c5 3b 3d 19 8f 71 be
       -0.035382625 -0.009971777 0.045842975 -0.23589744
000290 79 1c 76 3e 0d d1 29 3d 76 12 42 3e 32 bf 89 be
       0.24034299 0.041459132 0.18952355 -0.26903683
0002a0 a5 77 28 bd 4c 52 14 3e 86 71 86 3d de 3f ab bd
       -0.041129727 0.14484519 0.065646216 -0.08361791
0002b0 40 27 b9 be 98 ec 2c be ae 7e b6 3d a9 96 79 3e
       -0.36162758 -0.16887128 0.08910881 0.24373879
0002c0 1a 4a 6e 3e de 3d a3 be 25 56 04 be d6 5b a1 bb
       0.23270455 -0.31883138 -0.12923487 -0.004924278
0002d0 c1 cb 62 3e 51 90 75 3f ce d1 45 be 60 b1 63 be
       0.22148038 0.95923334 -0.19318315 -0.22235632
0002e0 0f dc 07 3e b3 0e 08 be 4b 53 49 3e 3e d3 7d bd
       0.1326754 -0.13286857 0.1966068 -0.061969034
0002f0 12 f2 d0 3d b0 68 8c 3d 00 a3 ea be b5 c8 e0 bc
       0.10202421 0.06855905 -0.45827484 -0.027439455
000300 f8 ed c1 3d ad 86 14 3e 17 a4 9f be 01 f7 ba 3d
       0.09469217 0.145045 -0.31179878 0.091291435
000310 96 94 11 3d 21 e9 81 3d 31 a4 0c be 69 ff 1c be
       0.035542093 0.06343294 -0.13734509 -0.15331806
000320 3f aa 86 be 0d 6e 33 3d 5b 8f 59 bd 04 03 af 3d
       -0.26301762 0.043806124 -0.05311523 0.08545497
000330 cb c2 14 be 5b 06 f7 3d ba 80 8c be 7f c4 ac 3e
       -0.14527433 0.12061759 -0.2744196 0.33743665
000340 82 2b 60 3b c0 3e bc bd 41 ed 08 3e fb 06 32 3d
       0.003420562 -0.09191656 0.13371755 0.04346369
000350 76 cf d2 3d e7 c4 36 3d 3a 53 1f 3d 4f a8 65 bc
       0.10293476 0.044621374 0.03889773 -0.014017179
000360 3b 1a ce bc 0c e0 b8 be 73 9b 8a bc df 2a 7d 3d
       -0.025158992 -0.36108434 -0.016919827 0.061808463
000370 d7 51 12 3e fe e6 ec bd 14 aa e0 be 5c 3e 92 be
       0.14289032 -0.11567496 -0.4387976 -0.285632
000380 07 26 14 3e df 16 d1 3d 56 6c ab 3e 54 6f d7 be
       0.14467631 0.102094404 0.3348109 -0.42077124
000390 99 8f 8d bd b5 46 00 bd ac 3d b4 3d 7a 35 22 3f
       -0.06912155 -0.03131743 0.088008255 0.6336285
0003a0 3e 58 60 bd 4b a5 30 be fc 42 05 3b c9 f0 f3 bd
       -0.054771654 -0.17250554 0.0020334115 -0.119111605
0003b0 1e 3c d8 3e bf 19 27 bd 70 72 6e 3d 47 fa 3c bd
       0.42233366 -0.040796038 0.058214605 -0.04613712
0003c0 6d 26 e6 bd 52 78 1e be 78 89 87 3e 2d d2 2f 3e
       -0.11237798 -0.15475586 0.26472068 0.1717002
0003d0 d3 5e 44 be 99 45 60 3d b4 94 0e 3c f7 ac e6 3e
       -0.19176798 0.054753873 0.008702446 0.45053837
0003e0 00 5e 58 bd 6c bc 83 be bb 9e 9f 3d 4f f1 d0 bd
       -0.05282402 -0.25729692 0.07793947 -0.10202276
0003f0 ea 65 b9 be 01 f1 73 3e 20 3a c1 be 76 78 44 3e
       -0.36210567 0.23822404 -0.37739658 0.19186577

net.4.bias f4 [50]
000000 00 7e 57 be 16 b5 0f 3e ec 61 18 3e c5 31 8d 3d
       -0.21044159 0.14033923 0.14881104 0.068942584
000010 4a 19 cb 3d b3 2c d6 3d 8f 00 61 3e 31 db ca 3d
       0.09916933 0.104577444 0.2197287 0.09905089
000020 ce dd 6f bd 85 f1 9e bd f9 98 22 3d 1b 8d 30 bd
       -0.05856114 -0.0776091 0.039696667 -0.04310332
000030 d3 7c 28 3e 45 ec 96 bd d3 b8 16 3e 8f 08 3d be
       0.16453867 -0.073692836 0.14718942 -0.18460296
000040 60 26 f5 bc ed aa 84 bd 9a a7 96 3c 7d 90 af 3d
       -0.029925525 -0.06477914 0.018390466 0.08572481
000050 3b 26 07 3d 9e 11 c3 bd 9e 32 f2 bd 5b 83 8f 3c
       0.032995444 -0.095248446 -0.11826061 0.01751869
000060 ec 96 2f 3e 14 5d e8 3a 03 c3 51 bd de 8c 0e 3d
       0.17147416 0.0017727935 -0.05121137 0.03480231
000070 a9 e7 59 3e 31 ca 42 3e 64 52 9f bc 32 70 59 3e
       0.21279778 0.19022442 -0.019448467 0.21234205
000080 d1 36 9c bd 5a 8c 04 be 2c 20 38 3d 46 81 83 bb
       -0.07627643 -0.12944165 0.044952556 -0.0040132133
000090 1d b5 08 3e b4 e6 b1 bc 3a ae e2 3d d6 f7 2c bd
       0.13350339 -0.021716453 0.11068387 -0.042228542
0000a0 34 df da bc 6f ef e8 bc 4f 75 f5 bd 9c a8 a0 bc
       -0.02671776 -0.028434483 -0.119852655 -0.01961165
0000b0 16 52 f9 bd 13 7b d6 bc ea c8 a0 3d 24 05 cc bc
       -0.1217386 -0.026181733 0.07850821 -0.024904795
0000c0 a9 80 1b 3e be 4f 59 3e
       0.15185799 0.21221825

net.6.weight f4 [1, 50]
000000 37 5f b6 3e 9d 40 58 bf a3 fa a1 be 25 fe 0c be
       0.35619518 -0.8447359 -0.31636533 -0.13768823
000010 9b c0 8a be 2a 6d f2 be 83 68 25 bf 79 3f 1b 3f
       -0.2710007 -0.4734891 -0.646126 0.60643727
000020 18 65 be 3d 7a da b0 3e 89 a2 d2 3d c3 d0 ab 3e
       0.09296626 0.34541684 0.10284907 0.3355771
000030 59 df 87 be 03 40 0b 3f 61 fb d2 be a6 40 21 3f
       -0.26537588 0.5439455 -0.41207412 0.6298927
000040 94 f4 b5 be fe ca 49 be 62 44 a8 3e ca d2 71 3e
       -0.3553816 -0.19706342 0.32864672 0.23615566
000050 8f 98 a7 be bf 67 d9 3e ca 9d b5 3e 69 cd 9e 3e
       -0.3273358 0.42461964 0.35471946 0.3101609
000060 56 5c d6 be 4c 6d ec 3e d0 92 10 3e 65 e7 ca be
       -0.41867322 0.46177137 0.14118505 -0.39629665
000070 bc c9 c0 be cd 2d c0 be 8c 42 e2 be 9d 1b 2d bf
       -0.3765391 -0.37534943 -0.44191396 -0.6762026
000080 98 77 c9 3e 83 5c 2c bf f3 b3 0f bf ce 16 9e be
       0.39349055 -0.6732866 -0.56133956 -0.30876774
000090 1c 7c cc be 6f cb 4b 3f 56 80 ae be d2 1a 93 be
       -0.39938438 0.7960729 -0.34082288 -0.287314
0000a0 8f 69 c2 3e 30 3e e8 bd 01 28 ea 3e 0c 4d df 3d
       0.3797116 -0.11339986 0.45733646 0.109033674
0000b0 ab 0a 8f 3f bb 6e b4 3e e7 11 62 3e 79 37 55 3e
       1.1175131 0.3524073 0.22077142 0.20821942
0000c0 0a 1f e5 be ac bc ee be
       -0.44750243 -0.4662832
