gail/gail_output/100_expert/BipedalWalker-v3/policy.ckpt (torch, 27752 bytes, 9 tensors)

log_std f4 [4]
0	0xbfd4f228	-1.66364
1	0xbfd32310	-1.6495075
2	0xc00c0cfd	-2.1882927
3	0xbfe70819	-1.8049346

net.0.weight f4 [50, 24]
0	0xbd074f63	-0.033034693
1	0x3bbd0626	0.005768555
2	0xbc9caff7	-0.019126875
3	0x3def6938	0.11689991
4	0xbdc6d1a8	-0.097079575
5	0xbde3ca0b	-0.11122521
6	0xbec77625	-0.38957325
7	0x3e5a8d1a	0.21342888
8	0x3c6405e2	0.013917418
9	0x3e37188b	0.17880456
10	0xbdfe63bb	-0.12421366
11	0xbe312ecc	-0.17303008
12	0xbe0d8cfc	-0.13823313
13	0xbdc1b2f8	-0.09457964
14	0x3d834ac1	0.064107426
15	0xbe0e6e68	-0.13909304
16	0xbe2a4332	-0.16627195
17	0x3da2c955	0.07948557
18	0x3dba51f3	0.09097662
19	0x3df67400	0.12033844
20	0x3b8d2a02	0.0043079862
21	0x3e020988	0.12698948
22	0xbd45117e	-0.048112385
23	0xbe01002b	-0.1259772
24	0xbe9712a2	-0.29506403
25	0x3da4a2fa	0.08038898
26	0x3e01b72e	0.12667534
27	0xbdb6b451	-0.089211114
28	0xbeb0d6fd	-0.34539023
29	0x3eb42cbf	0.3519039
30	0xbbfc99b2	-0.0077087516
31	0xbe1d0d33	-0.15337066
32	0xbe6cd74f	-0.23129009
33	0xbe4eade6	-0.20183524
34	0x3dd102fc	0.10205647
35	0x3eeeea6f	0.46663234
36	0xbe0ddc40	-0.1385355
37	0xbe261f20	-0.16222811
38	0x3dbbc128	0.09167701
39	0xbe24aa3e	-0.16080567
40	0xbd630ffb	-0.055435162
41	0xbcc71680	-0.024302721
42	0xbe5c2c51	-0.2150128
43	0xbe6c89b9	-0.23099412
44	0xbe7410e9	-0.23834576
45	0x3e12e6d5	0.14345868
46	0x3c424109	0.011856326
47	0x3cc22289	0.023698108
48	0x3e2381d4	0.15967494
49	0x3d87ddc9	0.06634099
50	0xbcef4cce	-0.029211428
51	0xbe4811bc	-0.19538015
52	0x3e65da4f	0.2244656
53	0xbe300d9e	-0.17192695
54	0x3da2f76d	0.07957349
55	0xbcfaf109	-0.030632513
56	0xbe0f0a9d	-0.13968892
57	0x3e2cb15f	0.16864537
58	0xbe98c376	-0.29836625
59	0xbc9caa5d	-0.019124204
60	0xbe06018e	-0.1308653
61	0x3e19b242	0.15009406
62	0x3d7cd626	0.061727665
63	0xbd8adf8d	-0.0678092
64	0x3c4f5fbb	0.012657101
65	0x3d8e3d6e	0.069453105
66	0x3e4b233f	0.19837664
67	0x3e6377ce	0.2221367
68	0x3e5b435a	0.21412411
69	0xbd08543b	-0.033283453
70	0x3d463b27	0.048396256
71	0x3e37a042	0.17932227
72	0xbd1c864f	-0.038214024
73	0xbdf5ccc4	-0.120019466
74	0xbe49871c	-0.19680446
75	0xbde4f008	-0.11178595
76	0xbe6a3a9b	-0.22873919
77	0x3cc0efaf	0.02355179
78	0xbe22153a	-0.1582841
79	0xbd30f653	-0.043203663
80	0xbd8ffbc8	-0.07030445
81	0x3cb40a02	0.021977428
82	0xbe0c5b12	-0.13706616
83	0xbe451c47	-0.19249068
84	0xbd3d7d26	-0.04626193
85	0x3e0b2682	0.13588908
86	0xbcc87401	-0.024469377
87	0xbe1eea0f	-0.15518974
88	0xbdecf275	-0.115696825
89	0xbd0d115e	-0.03444039
90	0xbe23f45c	-0.16011184
91	0x3e265508	0.16243374
92	0xbc1f1476	-0.009709468
93	0xbd9f0ab6	-0.07765715
94	0x3df0d6e6	0.117597386
95	0x3dcf2f81	0.101164825
96	0xbdae165c	-0.085003585
97	0xbc854b39	-0.01627122
98	0xbe23c118	-0.15991628
99	0x3e4565e7	0.19277154
100	0x3cae6e1f	0.021292744
101	0x3e8d1aa5	0.2755939
102	0x3e9b1d8d	0.30295983
103	0xbdf54095	-0.11975209
104	0xbe41b3ad	-0.18916197
105	0x3e113f67	0.14184342
106	0xbe63b575	-0.22237189
107	0xbed2ff70	-0.41210508
108	0xbde03dae	-0.109492645
109	0x3e076aa4	0.13224274
110	0xbd467cdf	-0.04845893
111	0xbdfbf86f	-0.12303244
112	0xbe4de46f	-0.20106672
113	0xbe62955c	-0.22127289
114	0x3cd587a0	0.026065648
115	0xbdf855ed	-0.12125764
116	0xbdea8440	-0.11451006
117	0xbe97a07e	-0.29614633
118	0xbdbcaa10	-0.09212124
119	0xbece02e4	-0.4023658
120	0x3deac9e0	0.11464286
121	0x3d294046	0.04132106
122	0x3e920c16	0.28524846
123	0xbdd2af10	-0.10287297
124	0x3e587f20	0.21142244
125	0x3e9d22b8	0.3069055
126	0x3e96f5d0	0.29484415
127	0xbdb912b6	-0.09036772
128	0xbe3d02c6	-0.18458089
129	0xbe377fd8	-0.17919862
130	0x3d71c91d	0.059029687
131	0x3c92b5bd	0.017908925
132	0xbe39507a	-0.18097106
133	0x3c0553d1	0.008137659
134	0xbd091a28	-0.03347221
135	0x3d7be087	0.061493423
136	0x3e161053	0.14654665
137	0xbe2d3a66	-0.16916808
138	0xbb576a52	-0.0032869768
139	0x3e259085	0.16168411
140	0x3e19002c	0.14941472
141	0xbe40ae62	-0.18816522
142	0x3de9c56c	0.11414608
143	0x3d91f351	0.07126487
144	0x3ce2366a	0.027613837
145	0x3d257bfd	0.040401448
146	0xbda9f06a	-0.082978085
147	0xbe305203	-0.17218785
148	0x3e7f8104	0.2495156
149	0x3dc5a7d0	0.09651148
150	0x3e9a5556	0.3014323
151	0x3da52dcd	0.080653764
152	0xbcc0b523	-0.023523873
153	0xbe27e4e6	-0.16395912
154	0xbcd916e9	-0.026500182
155	0x3e19f649	0.15035357
156	0x3deb9e69	0.11504824
157	0x3c02654b	0.00795872
158	0x3e2a3082	0.16620067
159	0xbd333fba	-0.043761946
160	0x3e2fbd70	0.17162108
161	0x3d3b3e10	0.045713484
162	0x3e211897	0.15732037
163	0x3d7ab29f	0.061205503
164	0x3e0c4cf6	0.13701233
165	0xbe004eeb	-0.12530105
166	0xbd229740	-0.039695024
167	0xbd2726bf	-0.040808436
168	0xbebb4d63	-0.3658248
169	0xbd90279d	-0.07038806
170	0xbb930c32	-0.004487538
171	0xbdf63191	-0.12021173
172	0xbe301b0c	-0.17197818
173	0x3eb354ca	0.35025626
174	0x3f066f44	0.5251353
175	0x3e43bf96	0.19116053
176	0xbd46c582	-0.048528202
177	0xbd01a41e	-0.031650655
178	0xbd9d1324	-0.076696664
179	0x3e0143b8	0.12623489
180	0xbd9a0ee9	-0.07522375
181	0x3ebbc198	0.36671138
182	0xbe1f107d	-0.15533634
183	0x3e13da15	0.1443866
184	0xbe73a00c	-0.23791522
185	0xbcceec1d	-0.025259072
186	0x3d4f55ca	0.050618924
187	0xbd6eaa20	-0.058267713
188	0x3e010ec1	0.12603284
189	0xbe16f7a9	-0.14742912
190	0xbe17b65a	-0.14815655
191	0xbe08c125	-0.13354929
192	0x3d65e0c4	0.056122556
193	0xbe12957b	-0.14314835
194	0xbe45a695	-0.19301827
195	0x3e7162a5	0.23572786
196	0x3c9a6455	0.01884667
197	0x3e58c10d	0.21167393
198	0xbe403f64	-0.18774182
199	0xbc0510b5	-0.008121659
200	0xbe3859cc	-0.18003005
201	0xbcc6d0c8	-0.024269477
202	0xbdb0ce85	-0.086331405
203	0xbda341c2	-0.07971527
204	0xbe18888f	-0.14895843
205	0x3dd7f4a3	0.105447076
206	0x3e126879	0.14297666
207	0x3d99ea8c	0.075154394
208	0x3bd43049	0.0064754826
209	0xbb99dc36	-0.0046954406
210	0x3e144d95	0.1448272
211	0xb91a74b4	-0.0001473006
212	0xbd535bd4	-0.051601246
213	0xbc92ba4e	-0.017911103
214	0x3d40aff6	0.04704281
215	0x3e160f20	0.14654207
216	0x3cdde5df	0.02708715
217	0xbd6ce35c	-0.057834014
218	0x3e499363	0.1968513
219	0xbe419348	-0.1890384
220	0xbcc5c8c3	-0.024143582
221	0x3db1cee8	0.08682042
222	0xbc425e33	-0.011863279
223	0xbd9dd96b	-0.07707485
224	0x3e2b8049	0.16748156
225	0xbd594454	-0.05304368
226	0x3e0ead2e	0.1393325
227	0x3e828279	0.25490168
228	0xbd9324e8	-0.07184774
229	0xbd8fd06d	-0.07022176
230	0x3df2f88b	0.11863812
231	0x3e47427b	0.19458954
232	0x3df3b8ee	0.11900507
233	0x3dfebc42	0.12438251
234	0x3d876572	0.06611146
235	0x3e15a149	0.14612307
236	0x3bd75bea	0.0065722363
237	0x3cce4d7b	0.02518343
238	0x3df53edf	0.11974882
239	0x3e4001d3	0.18750696
240	0x3dbe4d0b	0.092920385
241	0x3e388489	0.18019308
242	0x3da382ce	0.079839334
243	0x3dfc8a8b	0.123311125
244	0xbd82c94c	-0.063860506
245	0x3c91cf8b	0.01779916
246	0x3ed1dcbe	0.40988725
247	0x3e41178d	0.1885664
248	0x3e481e9a	0.19542924
249	0x3d428b77	0.047496285
250	0x3e20e667	0.15712892
251	0xbdbcc466	-0.092171475
252	0xbb89719d	-0.004194452
253	0xbe4de545	-0.2010699
254	0x3d1b4fd6	0.037917934
255	0xbd94c67a	-0.07264419

net.0.bias f4 [50]
0	0xbdd7e80d	-0.10542307
1	0x3e4f7267	0.20258485
2	0xbd8e6a53	-0.069538735
3	0xbdfb7e58	-0.122799575
4	0xbe23ea62	-0.16007379
5	0x3e5d79ab	0.21628444
6	0xbe1744b1	-0.14772297
7	0xbdb28f61	-0.087187536
8	0x3e62d5e7	0.2215191
9	0x3e048186	0.12940034
10	0xbdc8a25b	-0.09796592
11	0x3d1e29ad	0.038613964
12	0xbc9d6d1d	-0.019217068
13	0xbc856a3f	-0.016286014
14	0x3e277ee6	0.16357002
15	0xbe0b6178	-0.136114
16	0x3b8264b4	0.00397929
17	0xbe299c6c	-0.16563576
18	0xbc1e87e0	-0.00967595
19	0x3dbee6d3	0.0932137
20	0x3e7a8f6a	0.2446877
21	0x3c9ce0ed	0.019150222
22	0xbda510c3	-0.08059838
23	0x3dc8e6dc	0.09809658
24	0x3de22fe9	0.110442944
25	0xbe0b7ed7	-0.13622604
26	0xbdd362aa	-0.10321553
27	0x3e2bdcc7	0.16783439
28	0x3ba24637	0.004952218
29	0xbe2f227c	-0.17102998
30	0xbd54ce6f	-0.051954683
31	0xbdd98e38	-0.10622829
32	0xbe4cfc5c	-0.20018142
33	0x3dd5e450	0.10443938
34	0x3e135014	0.14386016
35	0xbeb884d3	-0.36038837
36	0xbdec6b8f	-0.11543953
37	0xbc9df791	-0.019283088
38	0x3d4332e8	0.04765597
39	0xbc761604	-0.015019897
40	0xbe181e97	-0.14855419
41	0xbe054ad0	-0.1301682
42	0xbe0a18f3	-0.1348608
43	0x3beb2ff5	0.007177348
44	0x3cc00d0c	0.023443721
45	0xbdf645b8	-0.120250165
46	0xbda6aafe	-0.08138083
47	0x3dc7e50b	0.09760483
48	0xbc5fa6e3	-0.013650629
49	0xbdf187f8	-0.11793512

net.2.weight f4 [50, 50]
0	0xbd4ba16a	-0.049714483
1	0x3e052d92	0.13005665
2	0xbd75f840	-0.060051203
3	0x3dc20a61	0.09474636
4	0xbdb33f16	-0.08752267
5	0xbcdefc2d	-0.027219856
6	0x3dc621b2	0.096743956
7	0xbd30aa4a	-0.04313115
8	0x3c8856e8	0.016643003
9	0xbdf8b555	-0.12143961
10	0x3d8650db	0.06558391
11	0x3d7effe6	0.062255763
12	0x3dd99802	0.10624696
13	0x3dbe0a84	0.092793494
14	0x3dbbf077	0.091767244
15	0x3deb6b65	0.11495093
16	0xbd6d5368	-0.05794087
17	0xbda10de2	-0.07863976
18	0xbe0227e5	-0.12710531
19	0xbde8bf8a	-0.11364658
20	0x3c40545a	0.011738861
21	0x3d65e64a	0.056127824
22	0x3d872f77	0.0660085
23	0x3cbde91f	0.02318245
24	0x3c8a6eb2	0.016898487
25	0xbd8dbf2b	-0.06921228
26	0x3d458bd6	0.04822906
27	0xbe0d122c	-0.13776463
28	0xbd4fe957	-0.05075964
29	0xbd2a4f9b	-0.041579824
30	0x3d9724f6	0.073800966
31	0x3de33965	0.110949315
32	0xbb8761fb	-0.004131553
33	0xbdd3fd32	-0.103510275
34	0x3d51f6e0	0.05126083
35	0xbce0adfa	-0.027426708
36	0xbdee8d91	-0.116480954
37	0x3dacb79c	0.08433458
38	0x3e25a1c0	0.16174984
39	0xbde647e0	-0.11244178
40	0x3da017b9	0.07817025
41	0xbbbc6e25	-0.005750435
42	0x3debd9b2	0.115161315
43	0x3d4c94c7	0.049946573
44	0x3d39d27f	0.04536676
45	0xbdbd30b1	-0.09237803
46	0x3d81324c	0.063084215
47	0xbde9a41b	-0.11408254
48	0xbd9e45c4	-0.077281505
49	0xbcb1aedb	-0.021689823
50	0x3d49c954	0.049264267
51	0x3dead810	0.11466992
52	0xbb718bed	-0.0036857084
53	0xbdecd9b5	-0.11564962
54	0x3d96ba10	0.07359707
55	0x3d53b5a8	0.051686913
56	0x3e00d752	0.12582138
57	0x3ba62a41	0.005070955
58	0x3d8a1d7f	0.06743907
59	0xbdb9c8ac	-0.09071478
60	0xbe0f62db	-0.14002554
61	0x3e22b189	0.15888037
62	0xbd5aa06f	-0.053375658
63	0xbc5f94e8	-0.013646342
64	0xbd2d2baf	-0.042277988
65	0x3cd76d5c	0.026297264
66	0x3ccf0213	0.025269544
67	0xbe1a95e8	-0.15096247
68	0xbe24e55b	-0.16103117
69	0xbe03d776	-0.1287516
70	0x3d745fc5	0.059661645
71	0xbdfbb44e	-0.1229025
72	0xbe09f7f5	-0.13473494
73	0x3df00b9d	0.11720965
74	0x3d6e8df1	0.058240835
75	0xbd76cdd2	-0.06025488
76	0xbde40832	-0.11134376
77	0x3e4651e2	0.19367173
78	0x3c0906ec	0.008363467
79	0xbd959fb2	-0.0730585
80	0x3d9bce36	0.07607691
81	0x3d3c36dc	0.045950755
82	0xbe1dbf4a	-0.15405002
83	0x3dfd8e65	0.12380675
84	0x3d902411	0.07038129
85	0x3ca54b60	0.020177543
86	0x3d8d14a0	0.068886995
87	0xbb2df24a	-0.002654212
88	0xbcedabb8	-0.029012546
89	0xbd1b2686	-0.037878536
90	0x3dbce81f	0.09223961
91	0x3d499c65	0.049221415
92	0x3ce9e834	0.028553106
93	0xbd89a596	-0.06721036
94	0xbc6e0b1f	-0.014529019
95	0xbd681594	-0.056661204
96	0x3c9c5cc6	0.019087207
97	0xbe33b413	-0.17549162
98	0x3c4e3cc8	0.012587734
99	0x3d44eda9	0.048078213
100	0x3cbf0d0a	0.023321647
101	0xbddb4491	-0.107064374
102	0xbbc2a18c	-0.005939668
103	0x3dfa07d5	0.12208525
104	0xbd7255c4	-0.059163824
105	0xbd95db4d	-0.07317219
106	0x3b901400	0.0043969154
107	0x3ce016ff	0.027354715
108	0x3d2092fb	0.03920267
109	0xbe2527f4	-0.16128522
110	0xbda55e2c	-0.080746025
111	0xbdaa1aff	-0.0830593
112	0x3d3bb74e	0.04582911
113	0x3d65f074	0.056137517
114	0xbe05f6db	-0.13082449
115	0x38e0dadd	0.00010721919
116	0xbcba8e3b	-0.022772899
117	0xbe08c143	-0.13354973
118	0xbd2fee61	-0.042951945
119	0xbde86568	-0.11347467
120	0x3c3e50d8	0.011615954
121	0xbdd17ba7	-0.10228663
122	0x3d9c9e95	0.076474346
123	0xbe4fed5b	-0.20305388
124	0x3d8d2d36	0.06893389
125	0xbdd16f76	-0.102263376
126	0xbd2f0fbd	-0.04273962
127	0x39c5ae5b	0.00037704673
128	0xbde0b953	-0.10972848
129	0x3dd93949	0.106066294
130	0x3d93fa39	0.072254606
131	0x3e03a83c	0.12857145
132	0xbc10e1f2	-0.008842932
133	0xbcec262b	-0.028826794
134	0xbd9af149	-0.07565553
135	0x3e251101	0.16119768
136	0x3c890610	0.016726524
137	0x3de309f4	0.11085883
138	0x3e15782d	0.14596625
139	0xbd401f35	-0.04690476
140	0x3d1578a4	0.036492005
141	0x3d51547c	0.05110596
142	0x3d4c8a87	0.049936797
143	0x3e420802	0.18948367
144	0x3deb2a25	0.11482648
145	0xbb670dd2	-0.003525604
146	0xbdbf1d68	-0.09331781
147	0x3e42e6be	0.19033334
148	0xbce6c822	-0.028171603
149	0xbd978dde	-0.07400106
150	0xbd88425f	-0.06653284
151	0xbbf8f4ec	-0.0075975563
152	0xbdf3f5d0	-0.119121194
153	0x3dd55708	0.104169905
154	0x3d8265fc	0.06367108
155	0xbccaa4d3	-0.024736797
156	0xbe28b674	-0.1647585
157	0xbda0353f	-0.07822656
158	0x3dbb17fb	0.09135433
159	0xbe24804f	-0.16064571
160	0x3d6589b6	0.056039535
161	0x3e3feb68	0.18742144
162	0xbc256f6c	-0.010097366
163	0x3d7044f4	0.05865951
164	0xbc7770ee	-0.015102608
165	0x3da7e00c	0.081970304
166	0x3ced6ebd	0.028983468
167	0x3d8e5f87	0.06951814
168	0x3e2df9ea	0.16989866
169	0xbd5c81a3	-0.05383457
170	0xbde63da3	-0.11242225
171	0x3d659fb7	0.05606052
172	0x3df3a14b	0.118959986
173	0x3c672097	0.014106891
174	0xbe0c873f	-0.13723467
175	0x3c9b717d	0.018975014
176	0xbc8f5070	-0.01749441
177	0xbe5b2958	-0.2140249
178	0x3e626c6f	0.22111677
179	0x3e067aee	0.13132831
180	0x3dc8b5fe	0.09800337
181	0xbd210934	-0.039315417
182	0x3d2adfb1	0.041717235
183	0xbd709916	-0.058739744
184	0x3d8f082e	0.06983982
185	0x3c67ce01	0.014148236
186	0xbd134117	-0.035950746
187	0x3d58d6ac	0.052939102
188	0x3d336c98	0.043804735
189	0xbe1122a1	-0.14173366
190	0x3db15139	0.0865807
191	0x3c1916ab	0.009343783
192	0x3c9e8b38	0.019353494
193	0x3c4159e4	0.011801217
194	0xbd9d3ef1	-0.07678021
195	0xbd48ec42	-0.049053438
196	0x3df0fb4f	0.11766683
197	0xbe397e61	-0.18114616
198	0xbd662ad0	-0.056193173
199	0xbd1b5a09	-0.03792766
200	0xbe17d038	-0.14825523
201	0x3e08ce65	0.13359983
202	0xbcb874fb	-0.022516718
203	0xbdf3ceda	-0.11904688
204	0x3df60b31	0.12013853
205	0x3e0df3f0	0.13862586
206	0xbd8087df	-0.06275915
207	0x3dde229a	0.108464435
208	0xbdfd9628	-0.12382156
209	0x3c07f3b1	0.008297847
210	0x3d7d65bf	0.06186461
211	0x3d7b98e2	0.061425097
212	0xbe03307c	-0.12811464
213	0x3e264137	0.16235815
214	0x3d157a3c	0.036493525
215	0x3dd697a5	0.10478143
216	0xbcc1c8a1	-0.023655238
217	0xbd76b520	-0.060231328
218	0x3cef5dbc	0.0292195
219	0x3db50584	0.08838943
220	0x3e104d5a	0.14092007
221	0x3e1eb9b1	0.15500523
222	0xbdc22d41	-0.09481288
223	0x3e0a691e	0.13516662
224	0xbdf5053d	-0.1196389
225	0xbdf49ea4	-0.11944321
226	0x3e466fe1	0.19378616
227	0x3d63864e	0.055548005
228	0xbdece7ae	-0.11567627
229	0xbe02ec95	-0.12785561
230	0x3db48a8a	0.08815487
231	0xbb6a6380	-0.0035764873
232	0xbc779637	-0.015111498
233	0xbd2bad8f	-0.041913565
234	0xbc04ed34	-0.008113194
235	0xbd5fa0e1	-0.054596785
236	0xbcd589ad	-0.026066625
237	0x3db17349	0.08664567
238	0xbe0f988c	-0.14023036
239	0x3de41d86	0.11138444
240	0x3de1d88b	0.110276304
241	0xbca28bca	-0.019842047
242	0xbdb87b74	-0.09007922
243	0xbd90863e	-0.07056855
244	0xbd299262	-0.041399367
245	0x3d4f900b	0.05067448
246	0xbcdcc46f	-0.026949136
247	0xbe683f2d	-0.2268035
248	0x3e171e09	0.14757551
249	0xbc2700ce	-0.010193063
250	0xbdb788bd	-0.08961628
251	0x3b9680ab	0.004592975
252	0x3dc562f1	0.09638012
253	0x3df43ce7	0.11925679
254	0x3cc9d3a1	0.024637045
255	0x3c20db30	0.009817883

net.2.bias f4 [50]
0	0xbdfab49a	-0.12241478
1	0x3dd83709	0.10557372
2	0xbd6480d8	-0.055786937
3	0xbc18e908	-0.009332903
4	0x3d2f2846	0.042763017
5	0x3bf46e91	0.0074594696
6	0xbd3752da	-0.044756748
7	0xbe36d01a	-0.17852822
8	0x3d34c279	0.044130776
9	0xbd40ef04	-0.047102943
10	0x3d501b0e	0.05080705
11	0xbdaa8b03	-0.08327296
12	0x3da17958	0.078844726
13	0x3d918785	0.071059264
14	0xbe07f3b6	-0.13276562
15	0xbd9e3426	-0.0772479
16	0xbb9e1c8d	-0.004825181
17	0x3d28c35b	0.04120193
18	0xbd8c1519	-0.068399616
19	0x3dc7d5cb	0.09757575
20	0x3a019a15	0.00049439195
21	0x3e52367c	0.20528597
22	0x3dd8495c	0.10560867
23	0x3c8c1c4d	0.017103339
24	0xbe037250	-0.12836576
25	0xbcbdd100	-0.023170948
26	0xbd96d21f	-0.07364296
27	0xbe42105d	-0.18951555
28	0x3d98695f	0.07441973
29	0x3e06db68	0.13169634
30	0xbc268a51	-0.010164813
31	0x3de29475	0.11063472
32	0xbd1927cd	-0.037391473
33	0xbd76b4db	-0.06023107
34	0x3d76adfd	0.060224522
35	0x3d946d5a	0.0724742
36	0xbd9cdb52	-0.076590195
37	0x3e8944bd	0.26810256
38	0x3e0cb5b5	0.1374119
39	0x3df007d5	0.11720244
40	0xba864435	-0.0010243716
41	0xbdb1108b	-0.086457334
42	0xbdcc8d66	-0.09987907
43	0xbe609724	-0.21932656
44	0xbce54ce6	-0.02799077
45	0xbd918933	-0.07106247
46	0xbe174630	-0.14772868
47	0x3d2497e4	0.040183917
48	0xbd21f8dc	-0.03954397
49	0x3e11ecc5	0.14250477

net.4.weight f4 [50, 50]
0	0xbde99bfb	-0.11406704
1	0xbd3ad897	-0.045616712
2	0xbd379f01	-0.044829372
3	0x3d6ff5ee	0.058584146
4	0xbe057bed	-0.13035555
5	0x3db851f8	0.09000009
6	0x3dc2bcbb	0.09508654
7	0xbca2b75a	-0.01986282
8	0x3ca81bd4	0.020521082
9	0x3e286c36	0.16447529
10	0xbda47deb	-0.080318294
11	0xbdc0cde8	-0.094142735
12	0x3c233af8	0.00996279
13	0xbcd7f07d	-0.026359791
14	0xbaad530b	-0.0013223601
15	0xbd648e7d	-0.05579995
16	0xbe25a2d5	-0.16175397
17	0xbdb1d0da	-0.086824134
18	0x3d73e8ea	0.059548296
19	0x3ddfe41e	0.10932182
20	0xbd74f8d8	-0.05980763
21	0x3e1b516a	0.15167776
22	0x3e2f96f4	0.17147428
23	0x3d40ce6d	0.047071863
24	0xbdddf60d	-0.10837946
25	0x3d8d5ab3	0.06902065
26	0xbde004be	-0.109384045
27	0x3de3df58	0.11126584
28	0x3c418e0c	0.011813652
29	0xbe02f9ff	-0.12790678
30	0xbb313a90	-0.0027042963
31	0x3ba69a5e	0.00508432
32	0x3d2a5439	0.041584227
33	0x3e3075cb	0.17232434
34	0xbd07454e	-0.03302508
35	0xbd01aea2	-0.031660683
36	0xbe175c68	-0.14781344
37	0xbd51c0e6	-0.051209353
38	0x3c481cee	0.012213929
39	0xbc3a88f5	-0.011385192
40	0xbcd8712a	-0.026421148
41	0x3da440a9	0.080201454
42	0x3d93a004	0.07208255
43	0x3e0dd2b4	0.13849908
44	0x3d65b1bc	0.056077704
45	0xbdc52b8a	-0.09627445
46	0xbd6be572	-0.057591863
47	0xb9f6d888	-0.00047082105
48	0xbd802977	-0.06257909
49	0xbd5084c8	-0.05090788
50	0xbbe4b101	-0.0069791083
51	0xbb0b647d	-0.0021269612
52	0x3dc726c0	0.09724188
53	0x3e06320c	0.13105029
54	0x3cf89295	0.030343333
55	0xbcdeb5af	-0.027186243
56	0x3dd29429	0.102821656
57	0xbc6408df	-0.013918131
58	0x3e0b9058	0.13629282
59	0xbdfe9443	-0.124306224
60	0xbde1a566	-0.110178754
61	0xbe0645f8	-0.13112628
62	0xbe05f219	-0.13080634
63	0x3d97d616	0.074138805
64	0xbdb661c9	-0.0890537
65	0x3e2d1bb3	0.16905098
66	0xbd98c560	-0.07459521
67	0x3d9ba879	0.07600493
68	0x3de3726c	0.111058086
69	0x3d8be9a7	0.06831675
70	0x3df2f6cb	0.11863478
71	0xbdd04c11	-0.101707585
72	0xbde8d71d	-0.113691546
73	0x3c34a692	0.011026042
74	0x3de03a09	0.10948569
75	0x3df40ecf	0.11916887
76	0x3c51cc2c	0.012805026
77	0x3df63f79	0.12023825
78	0x3db31cf7	0.08745759
79	0x3e20f551	0.15718581
80	0xbe09ad3a	-0.13444987
81	0xbdbaa54f	-0.09113561
82	0xbdd9fed0	-0.10644305
83	0x3c155fa9	0.009117045
84	0x3ddb4acc	0.10707626
85	0x3e195aba	0.14976016
86	0xbb9f483e	-0.004860907
87	0xbd19a3d2	-0.037509747
88	0x3dc8e87c	0.09809968
89	0x3d911e20	0.07085824
90	0x3bb8f242	0.0056441138
91	0xbc4f1ec3	-0.0126416115
92	0xbd1b1eb8	-0.037871093
93	0x3da8f2a3	0.08249404
94	0x3d76224e	0.06009131
95	0xbbe18eb0	-0.0068834648
96	0xbc8c9cc5	-0.017164597
97	0x3d9c0b64	0.0761936
98	0x3d6ddebc	0.058073744
99	0xbd8a71a5	-0.06759957
100	0xbc85b62a	-0.016322214
101	0xbd08fb2b	-0.033442657
102	0xbde16045	-0.1100469
103	0xbcafb433	-0.02144823
104	0x3e171630	0.14754558
105	0xbd9f68f2	-0.077836886
106	0xbbeb1366	-0.0071739433
107	0x3e37a1c9	0.1793281
108	0x3c897ff7	0.016784651
109	0xbc85bee3	-0.016326373
110	0x3de9abfb	0.11409756
111	0x3d35a5e2	0.04434765
112	0xbe14718a	-0.14496437
113	0xbe1cc6ca	-0.15310207
114	0x3ce186ab	0.027530035
115	0x3daf3d8a	0.085566595
116	0x3b809a80	0.003924668
117	0xbe485767	-0.19564591
118	0xbcaf1065	-0.021370122
119	0xbdb15964	-0.08659628
120	0x3da36d01	0.07979775
121	0xbcc62c85	-0.02419115
122	0x3d2979d5	0.041375954
123	0x3c8313ac	0.016000591
124	0xbbff4be4	-0.0077910293
125	0x3e000898	0.12503278
126	0x3dcb48e6	0.09926014
127	0xbddb8b46	-0.10719924
128	0xbd6a468a	-0.057196178
129	0x3b319ef4	0.00271028
130	0xbd480c48	-0.048839837
131	0x3d5074a9	0.050892506
132	0x3c8b39a3	0.016995257
133	0xbdfc9096	-0.12332265
134	0x3e4bf159	0.19916286
135	0x3c974395	0.018464843
136	0x3dae2f09	0.08505065
137	0xbc685d6d	-0.014182431
138	0xbd82c70f	-0.06385624
139	0x3d5c4b06	0.053782485
140	0x3dabcfee	0.08389269
141	0xbd794caa	-0.06086413
142	0xbdbebeb6	-0.09313719
143	0xbdbfb83a	-0.0936131
144	0xbd914c8c	-0.07094678
145	0x3d29abd8	0.04142365
146	0x3b8ecba1	0.0043577706
147	0xbd6f8c9d	-0.05848371
148	0x3e1bac57	0.15202461
149	0x3e1355ad	0.14388151
150	0x3e1fafe2	0.15594438
151	0x3c1741fa	0.009232039
152	0x3e29e0a0	0.16589594
153	0x3cfa76de	0.030574258
154	0xbe3f1030	-0.18658519
155	0xbc87feeb	-0.016601047
156	0x3b267084	0.0025396654
157	0xbe0c1a78	-0.13681972
158	0x3e088b63	0.13334422
159	0x3e0a02b7	0.13477598
160	0x3ccb43a8	0.024812534
161	0x3c5e5903	0.013571027
162	0xbdfcdc5e	-0.12346719
163	0xbd1c36da	-0.038138248
164	0xbdc9b2a8	-0.09848529
165	0xbc371a32	-0.011175679
166	0xbe11597d	-0.14194293
167	0x3ceee094	0.029159822
168	0x3dbfdde0	0.09368491
169	0x3d701563	0.058614146
170	0xbdfd108a	-0.1235667
171	0x3d807b0e	0.06273471
172	0x3e2fae2c	0.17156285
173	0xbccf8f0f	-0.02533677
174	0xbd98d33d	-0.074621655
175	0xbe214c5d	-0.15751787
176	0x3d8b9944	0.068163425
177	0x3dbcde78	0.0922212
178	0x3dd8590d	0.1056386
179	0xbde04fcf	-0.10952722
180	0x3be2e9b3	0.006924832
181	0x3e341ec5	0.17589863
182	0xbddd72a9	-0.10812885
183	0x3ca195e9	0.019724803
184	0xba3307e4	-0.0006829484
185	0xbe25af79	-0.16180219
186	0xbdc7d73c	-0.097578496
187	0x3bda3a0c	0.0066597518
188	0x3dc1755e	0.09446214
189	0xbe08aff3	-0.1334837
190	0xbd9a0656	-0.0752074
191	0x3d59a21b	0.05313311
192	0x3ca3a9c7	0.019978417
193	0x3e38364a	0.1798946
194	0xbdb60f0e	-0.0888959
195	0x3d8dfe30	0.06933248
196	0xbdc9a4e3	-0.09845903
197	0xbe1c2a8b	-0.15250604
198	0xbd4e9de4	-0.050443545
199	0x3e1d2622	0.15346578
200	0x3d5236e8	0.051321894
201	0x3e2a36d5	0.1662248
202	0x3c1b7d70	0.009490356
203	0xbde02a57	-0.10945576
204	0xbcb23416	-0.021753352
205	0x3dfc8def	0.12331759
206	0xbbab6f3e	-0.005231767
207	0xbc0e8d81	-0.008700729
208	0xbe005dcc	-0.1253578
209	0xbe31d7f2	-0.17367533
210	0xbdc347f2	-0.09535207
211	0x3dbc3b65	0.09191016
212	0xbd679bf8	-0.056545228
213	0xbe14dc33	-0.14537124
214	0xbd9ba681	-0.076001175
215	0xbd91c512	-0.07117666
216	0xbdaba576	-0.083811685
217	0xbd655e34	-0.055998042
218	0xbe16a680	-0.14711952
219	0xbdfdf35c	-0.12399933
220	0xbdb71109	-0.08938796
221	0xbda3848a	-0.07984264
222	0x3dd0fac8	0.10204083
223	0xbd7d9528	-0.061909825
224	0xbd789cf2	-0.06069655
225	0xbd951b86	-0.0728064
226	0x3e008501	0.12550737
227	0xbd9dc19e	-0.07702945
228	0x3dfc2ac0	0.123128414
229	0x3cff4d83	0.03116489
230	0xbd08186f	-0.033226427
231	0xbc79ceb5	-0.015247037
232	0x3ddd0fbd	0.107940175
233	0xbd436fda	-0.04771409
234	0xbdb88d8c	-0.09011373
235	0x3ddae8f4	0.106889635
236	0xbc3f5f38	-0.011680417
237	0x3c8fc59a	0.017550278
238	0xbe47fba2	-0.19529584
239	0x3da66135	0.081240095
240	0x3d9b4766	0.075819775
241	0xbddbf940	-0.107409
242	0xbd8ec20a	-0.06970604
243	0x3dbd7ddf	0.09252524
244	0x3d2c1329	0.04201046
245	0x3da0d5d0	0.078532815
246	0xbd9e9429	-0.07743103
247	0x3dae3793	0.08506694
248	0xbd8fa3ea	-0.07013686
249	0xbd307f30	-0.043090045
250	0x3da8c6b8	0.082410276
251	0x3b60a00f	0.003427509
252	0xbdb66c97	-0.089074306
253	0xbc8897b0	-0.016673893
254	0x3cfce5cc	0.030871294
255	0xbd086ada	-0.033305027

net.4.bias f4 [50]
0	0xbdba4bd7	-0.090964966
1	0xbc008a3c	-0.007845458
2	0xbd00bf20	-0.03143227
3	0xbd271fa4	-0.04080166
4	0xbdfbcd2a	-0.12294991
5	0x3e02e7e3	0.1278377
6	0xbc147460	-0.009060949
7	0x3dcdaf75	0.100432314
8	0x3cd31bf9	0.025770174
9	0x3d1adce2	0.037808307
10	0x3c278ef9	0.010226958
11	0xbded229e	-0.11578868
12	0xbd5fb258	-0.05461344
13	0xbd03a204	-0.032136932
14	0xbd81fad7	-0.06346672
15	0xbccf9ffb	-0.02534484
16	0x3dee1b99	0.116263576
17	0xbc0e9746	-0.008703059
18	0xbdace8d2	-0.084428445
19	0x3d303b13	0.043025088
20	0x3ba45d9c	0.005016042
21	0x3db83fdb	0.089965545
22	0x3e4071ed	0.18793459
23	0x3d68b66f	0.056814607
24	0x3b77a4c3	0.0037787415
25	0xbdc0fc36	-0.094231054
26	0xbd15f4e7	-0.03661051
27	0x3e5e0382	0.21681026
28	0x3e434f9a	0.19073334
29	0x3dffa461	0.12482525
30	0x3d3bc72e	0.04584425
31	0x3d088ef6	0.033339463
32	0x3e6bfd54	0.23045856
33	0xbd8d9fd7	-0.06915253
34	0xbc149519	-0.009068751
35	0xbdbf14f3	-0.093301676
36	0xbcdd5169	-0.027016358
37	0x3dc28f23	0.094999574
38	0x3d1a553e	0.03767895
39	0xbd874ea7	-0.066067986
40	0xbc3e8620	-0.011628658
41	0x3d65770e	0.056021743
42	0x3be7d208	0.007074598
43	0x3d3f3445	0.046680707
44	0x3da2c8ba	0.07948442
45	0xbdbb20c7	-0.09137111
46	0x3dc49e00	0.096004486
47	0xbdad9ed1	-0.084775575
48	0xbcb21524	-0.021738596
49	0xbd8dc74d	-0.06922779

net.6.weight f4 [4, 50]
0	0xbc1467bd	-0.009057936
1	0x3dfd05ee	0.123546466
2	0xbd8aa95b	-0.06770583
3	0x3dace30b	0.084417425
4	0xbe8c1563	-0.27360067
5	0x3ce9eef7	0.02855633
6	0x3cc12cab	0.02358087
7	0xbdf7c490	-0.12098038
8	0xbdf620fe	-0.120180115
9	0x3c0f6f87	0.008754618
10	0x3db235ff	0.08701705
11	0x3cb42f62	0.02199525
12	0x3c87813e	0.01654112
13	0xbe14da51	-0.14536406
14	0x3d988bb7	0.074485235
15	0x3e1f61e1	0.15564682
16	0x3d9d5b12	0.07683386
17	0x3dfcf735	0.123518385
18	0x3e99ca33	0.30037078
19	0xbd8437a7	-0.06455927
20	0x3e9bb684	0.30412686
21	0x3c6ba891	0.014383451
22	0xbdbf7e57	-0.09350269
23	0x3d279b93	0.04091985
24	0xbde70cfb	-0.11281773
25	0x3d519af6	0.051173173
26	0xbdcb7395	-0.09934155
27	0xbe65243e	-0.22377107
28	0x3d913234	0.070896536
29	0xbd0e8ef5	-0.034804303
30	0xbe828d25	-0.2549831
31	0xbe18cc18	-0.14921606
32	0x3d7f680c	0.062355086
33	0xbe3c8498	-0.18409956
34	0x3db51544	0.08841947
35	0x3dc05972	0.0939206
36	0x3e13a1e3	0.14417224
37	0xbe0624a0	-0.13099909
38	0x3cd94c3b	0.026525607
39	0x3e966257	0.29371902
40	0x3d045031	0.03230304
41	0xbda507a1	-0.08058096
42	0xbcf29c95	-0.02961568
43	0xbf011f96	-0.5043882
44	0x3dfbb350	0.122900605
45	0xbd096d0e	-0.03355127
46	0x3e8ffc93	0.28122386
47	0xbd477e25	-0.048704285
48	0x3d386634	0.045019343
49	0xbc4c8668	-0.012483217
50	0x3d8288c1	0.0637374
51	0x3cea4b01	0.028600218
52	0xbccc2b9f	-0.024923144
53	0x3ec4f151	0.3846536
54	0xbde100cc	-0.1098648
55	0x3e6ec013	0.23315458
56	0x3b87cfbf	0.0041446383
57	0x3d1cb0e4	0.038254634
58	0xbe6a3220	-0.22870684
59	0x3e0da198	0.13831174
60	0x3e8427b7	0.2581155
61	0xbdfa6102	-0.12225534
62	0xbeabef3c	-0.3358096
63	0x3eb9cf1f	0.36290833
64	0xbe8b55bb	-0.27213845
65	0xbe8e6410	-0.27810717
66	0x3e9b95a3	0.303876
67	0xbe85dd8f	-0.26145598
68	0x3d044991	0.03229672
69	0xbcab0216	-0.020875018
70	0xbd5c10fc	-0.053727135
71	0x3e0a4e39	0.13506402
72	0x3e1e7232	0.1547325
73	0xbcd40eb5	-0.02588592
74	0x3e8a55e5	0.27018657
75	0x3e45e355	0.19325002
76	0xbd997418	-0.07492846
77	0x3ea8ae19	0.32945326
78	0x3e8096d9	0.25115088
79	0xbe09a8d8	-0.13443315
80	0xbe3d809c	-0.18506092
81	0xbe1533fe	-0.14570615
82	0x3ddd5ca7	0.10808688
83	0xbde6d784	-0.11271575
84	0x3b20277f	0.0024437604
85	0x3e67e0a7	0.22644292
86	0x3ad77525	0.001643811
87	0xbe62c414	-0.2214511
88	0xbecf5533	-0.4049469
89	0xbe93b06c	-0.28845537
90	0x3e278f4a	0.16363254
91	0xbd332d5d	-0.043744434
92	0x3e2d1d0a	0.16905609
93	0xbe14a082	-0.14514354
94	0xbd833918	-0.06407374
95	0xbe91ec53	-0.28500614
96	0xbe15162b	-0.14559238
97	0xbe6f33da	-0.23359624
98	0x3d1ca4f4	0.03824325
99	0xbde3afdd	-0.11117528
100	0x3ca05054	0.019569553
101	0xbe35504d	-0.17706414
102	0x3e5aa2d9	0.21351184
103	0xbd2b137b	-0.041766625
104	0x3d0674c0	0.032826185
105	0xbc044692	-0.008073466
106	0x3e10423e	0.1408777
107	0x3d4113c7	0.047138
108	0xbe01e426	-0.12684688
109	0x3de15968	0.11003381
110	0x3d9a5dc6	0.07537417
111	0xbad31c33	-0.0016106426
112	0xbce438e7	-0.027859164
113	0x3e3dc848	0.18533432
114	0xbe95c0bb	-0.29248604
115	0x3d7437b4	0.059623435
116	0x3d3a7796	0.045524202
117	0x3c62003f	0.013794004
118	0xbc539971	-0.012915001
119	0xbdfd0f38	-0.12356418
120	0x3ce3f701	0.027827742
121	0xbdb1219c	-0.086489886
122	0x3e33146d	0.1748826
123	0xbd24a9bb	-0.04020093
124	0x3e22185a	0.15829602
125	0xbe022a7f	-0.12711523
126	0x3e20d63c	0.15706724
127	0x3e864fbf	0.26232716
128	0x3e093aea	0.1340138
129	0x3dbea25f	0.093083136
130	0x3e5b4413	0.21412687
131	0xbdb3ac9c	-0.08773157
132	0x3e69370e	0.22774908
133	0xbdb4501e	-0.08804344
134	0xbc370d59	-0.011172616
135	0xbe0c5de8	-0.13707697
136	0x3e2e47ae	0.17019531
137	0x3ccc0e0d	0.024909044
138	0x3e59ca23	0.21268515
139	0x3e2a0d15	0.16606553
140	0xbe8c716b	-0.2743028
141	0x3d49612f	0.049164947
142	0xbeb58a52	-0.35457093
143	0x3e63ebc8	0.22257912
144	0xbcc5109f	-0.024055777
145	0x3c788015	0.015167256
146	0xbd23162f	-0.039816078
147	0x3dafc2ce	0.08582078
148	0xbe450760	-0.19241095
149	0x3cf41ccc	0.029798888
150	0x3e23c0df	0.15991543
151	0xbe1682a0	-0.14698267
152	0xbe6602ca	-0.22462001
153	0x3e0dd6d7	0.13851486
154	0xbd14c961	-0.036324862
155	0x3cd97ba0	0.026548207
156	0xbda30d51	-0.07961524
157	0xbddf8e2f	-0.10915791
158	0x3deaba0e	0.11461268
159	0x3daf1cab	0.0855039
160	0xbe0ce5a8	-0.13759482
161	0xbdaf775e	-0.08567689
162	0xbc48e68b	-0.012261997
163	0x3d5c406f	0.053772386
164	0xbe38b814	-0.1803897
165	0x3e806b5c	0.2508191
166	0xbe189d8e	-0.14903852
167	0x3e8dcdfe	0.27696222
168	0x3dcba594	0.09943691
169	0x3d9748ce	0.07386933
170	0xbe5369cf	-0.20645832
171	0xbd6b2e03	-0.057416927
172	0xbdb29ce2	-0.08721329
173	0x3e50d44b	0.20393483
174	0x3e3969e8	0.18106806
175	0x3dd9fb50	0.10643637
176	0xbe73a777	-0.23794352
177	0x3e07f1c7	0.13275824
178	0x3d605dbf	0.054776903
179	0x3db97317	0.09055155
180	0x3e00de7b	0.1258487
181	0x3bcb0fb3	0.00619694
182	0x3dadccb2	0.08486308
183	0xbc234bfd	-0.0099668475
184	0x3c6212e2	0.013798447
185	0xbe981dc1	-0.297102
186	0x3e5be626	0.21474513
187	0x3c6e4376	0.014542451
188	0x3e3c75a2	0.18404248
189	0x3ce9bbce	0.028531935
190	0x3d2f91c6	0.04286363
191	0xbd7a23ce	-0.061069302
192	0xbdd0bec3	-0.10192635
193	0xbe2cf435	-0.16890033
194	0xbd411127	-0.0471355
195	0xbde2e104	-0.110780746
196	0xbe4af185	-0.19818695
197	0x3da38018	0.07983416
198	0x3e6b0771	0.22952057
199	0x3d288805	0.041145343

net.6.bias f4 [4]
0	0xbdcc2a36	-0.099689886
1	0x3e58ad32	0.21159819
2	0x3dbc5a7f	0.09196948
3	0x3dea6dc9	0.11446721
