bc/outputs/bipedalWalker/bc_BipedalWalker-v3_100data_2000epochs/model.pth (torch, 29474 bytes, 9 tensors)

log_std f4 [4]
0.0 0.0 0.0 0.0
00000000: 0000 0000 0000 0000 0000 0000 0000 0000

net.0.weight f4 [50, 24]
0.052503802 0.482471 -0.11498142 0.52191544 -0.47194073 -0.30004027 0.72254825 0.46864477
0.072165385 -0.1413758 -0.5079651 -0.16103913 0.22676308 0.091733195 -0.00017050336 -0.21361804
-0.064895935 -0.10024867 -0.01902096 0.114935465 0.10388574 0.07279885 -0.014344628 -0.05632598
0.047552492 -0.41930047 0.042953547 -0.09535653 0.070720464 0.13696106 0.10744636 -0.10608099
0.0018142255 0.080699325 -0.011931744 -0.30986974 -0.022372441 -0.16041337 0.20453909 0.21552514
-0.011695601 0.022818033 0.010084556 0.25736204 0.04479303 0.13984449 0.1609273 -0.14868726
0.13582449 0.033091273 0.04738567 0.11635697 -0.20475458 -0.14636102 -0.08249841 0.15488943
-0.2519071 0.14917488 -0.08607315 0.02866263 0.016975878 0.08283339 0.044448763 -0.058234263
0.040068667 -0.014574786 -0.075147815 -0.20101793 -0.16668631 -0.11882199 0.11948491 -0.0094631845
-0.07499494 -0.6304761 -0.14583318 -0.21037744 0.22110371 -0.14668518 -0.23970853 -0.01752419
0.19553602 -0.017567825 0.66025406 0.081313975 -0.39999577 0.07688004 -0.20741172 -0.022653863
0.15054514 0.02857449 0.083831616 -0.0170892 -0.064175874 -0.0030667959 0.11912214 0.05431802
-0.027421653 0.73301196 0.009181185 0.2366437 0.24286792 -0.08916292 -0.093658544 -0.077504724
0.18522058 0.084485 0.2708601 0.13396165 -0.11125753 0.18082201 -0.05854128 -0.058104444
0.12784958 -0.21842927 -0.025614783 -0.13742498 -0.0069595575 -0.13286883 0.07675656 -0.14648327
0.25158605 -0.31972957 -0.21713603 -0.2707712 -0.03914889 0.07724537 0.25122988 -0.0041021015
0.14242762 -0.18331698 0.039003108 0.15333594 0.39507952 0.25339872 0.23574713 -0.02870314
0.29189023 0.19740039 -0.061472017 -0.08643526 0.26510036 -0.023174921 0.09358243 -0.1810167
-0.19026531 -0.5014104 0.038609408 -0.3570418 0.15995549 0.045721337 0.24798939 0.28319508
-0.07070256 -0.00530618 -0.036945637 0.37973753 0.32165468 0.16240384 -0.016331816 0.17513135
0.09699178 0.031046283 -0.20609039 0.14960068 0.015842991 0.16510339 0.0079988735 0.16263351
0.22604735 0.33245778 0.3822611 -0.0701774 0.0709946 -0.0076217535 -0.38958064 0.1354516
0.046950966 -0.07818774 -0.114539616 0.21481238 -0.15746243 -0.18138678 -0.32003507 -0.1443057
0.06649193 0.034466166 0.050474178 -0.027902318 -0.01556853 0.04566784 -0.15449876 0.07555178
-0.040905233 0.25666812 0.22993174 0.29798624 0.19511093 -0.007104367 -0.39378902 0.06652221
-0.29366642 0.045707494 0.21147208 0.1800501 -0.15085247 0.2924055 -0.26476806 -0.007508634
-0.12869288 -0.09536163 -0.21445863 -0.21145278 -0.25827482 -0.25717643 -0.07865376 0.1220594
0.06714182 -0.4313435 -0.21054469 0.23609355 -0.23938268 0.30812567 -0.16288167 -0.35575715
0.13700874 0.21781297 0.11663633 0.11652136 0.11541035 -0.16547953 -0.009878952 0.073248215
0.0950989 0.062121708 -0.07041599 -0.09746167 -0.07784151 -0.11160328 -0.0971916 0.23821302
-0.38392687 -0.36206096 0.10992132 -0.12378276 -0.22585483 0.08777759 -0.07850834 0.3615863
-0.08088096 -0.07394595 -0.63008296 -0.32307544 -0.3380143 0.29400313 -0.27804294 -0.17892721
00000000: 3a0e 573d 7006 f73e 617b ebbd 409c 053f
00000010: 37a2 f1be e19e 99be ecf8 383f 35f2 ef3e
00000020: 72cb 933d d1c4 10be 000a 02bf 71e7 24be
00000030: 9534 683e 9dde bb3d 26c9 32b9 b0be 5abe
00000040: 29e8 84bd 2d4f cdbd d8d1 9bbc 4963 eb3d
00000050: 0cc2 d43d 9017 953d bb05 6bbc 12b6 66bd
00000060: 67c6 423d 8dae d6be 0ff0 2f3d 494a c3bd
00000070: e4d5 903d 853f 0c3e d60c dc3d fd40 d9bd
00000080: 4ecb ed3a b045 a53d 5d7d 43bc 3fa7 9ebe
00000090: 6946 b7bc 6743 24be b272 513e 9fb2 5c3e
000000a0: e89e 3fbc e2ec ba3c b239 253c f5c4 833e
000000b0: e578 373d 6533 0f3e 20ca 243e 7941 18be
000000c0: 9315 0b3e b78a 073d 7a17 423d 904c ee3d
000000d0: 2fab 51be aadf 15be edf4 a8bd 569b 1e3e
000000e0: f8f9 80be 4dc1 183e 1f47 b0bd e4cd ea3c
000000f0: ff10 8b3c 8da4 a93d e80f 363d 0d87 6ebd
00000100: 0b1f 243d 15cb 6ebc 19e7 99bd a5d7 4dbe
00000110: d1af 2abe f258 f3bd 81b4 f43d 790b 1bbc
00000120: f296 99bd e266 21bf 4b55 15be 2f6d 57be
00000130: 0369 623e a434 16be 2776 75be e48e 8fbc
00000140: 983a 483e 66ea 8fbc 6906 293f f187 a63d
00000150: 3fcc ccbe 4873 9d3d bd63 54be 9894 b9bc
00000160: 8128 1a3e 0d15 ea3c e9af ab3d a6fe 8bbc
00000170: a46e 83bd 4cfc 48bb 4ff6 f33d 927c 5e3d
00000180: 60a3 e0bc aca6 3b3f ae6c 163c ba52 723e
00000190: 5eb2 783e 0d9b b6bd 0dd0 bfbd ccba 9ebd
000001a0: 77aa 3d3e 7906 ad3d 2dae 8a3e 3e2d 093e
000001b0: fdda e3bd 6829 393e fbc8 6fbd edfe 6dbd
000001c0: 00eb 023e ecab 5fbe 18d6 d1bc 22b9 0cbe
000001d0: 000d e4bb c40e 08be 8b32 9d3d b6ff 15be
000001e0: e3cf 803e 98b3 a3be e858 5ebe 86a2 8abe
000001f0: 965a 20bd d232 9e3d 34a1 803e ec6a 86bb
00000200: 8cd8 113e 72b7 3bbe b9c1 1f3d 1904 1d3e
00000210: dd47 ca3e 7abd 813e b267 713e d922 ebbc
00000220: a372 953e 5423 4a3e 15ca 7bbd f804 b1bd
00000230: 3cbb 873e 55d9 bdbc 25a8 bf3d 715c 39be
00000240: e9d4 42be 6f5c 00bf e624 1e3d 2fce b6be
00000250: 5fcb 233e 4c46 3b3d eef0 7d3e f2fe 903e
00000260: 81cc 90bd 77df adbb 4f54 17bd f56c c23e
00000270: ecaf a43e 314d 263e 4dca 85bc a255 333e
00000280: a0a3 c63d c654 fe3c 5c09 53be ec30 193e
00000290: 29c9 813c dd10 293e b50d 033c 6689 263e
000002a0: f578 673e e837 aa3e bab7 c33e 2bb9 8fbd
000002b0: 9e65 913d e7bf f9bb 1d77 c7be d3b3 0a3e
000002c0: a84f 403d e520 a0bd bf93 eabd c7f7 5b3e
000002d0: d53d 21be 75bd 39be a3db a3be e0c4 13be
000002e0: ec2c 883d 652c 0d3d 03be 4e3d 6793 e4bc
000002f0: 2613 7fbc 330e 3b3d ec34 1ebe e4ba 9a3d
00000300: 3f8c 27bd 016a 833e 3a73 6b3e a791 983e
00000310: 29cb 473e c0cb e8bb b79e c9be cc3c 883d
00000320: 725b 96be c837 3b3d 238c 583e 0e5f 383e
00000330: 1279 1abe 2cb6 953e ae8f 87be fd0a f6bb
00000340: 11c8 03be f54c c3bd 0b9b 5bbe 1487 58be
00000350: 993c 84be a1ac 83be 3915 a1bd 47fa f93d
00000360: a781 893d 0ed9 dcbe 0799 57be 82c2 713e
00000370: bc20 75be a6c2 9d3e 74ca 26be cd25 b6be
00000380: 054c 0c3e 5d0a 5f3e 07df ee3d c0a2 ee3d
00000390: 435c ec3d 7773 29be 54db 21bc 2903 963d
000003a0: 36c3 c23d 5573 7e3d 4236 90bd fc99 c7bd
000003b0: 5f6b 9fbd 4390 e4bd 640c c7bd 1dee 733e
000003c0: 1092 c4be 0e60 b9be 6e1e e13d d181 fdbd
000003d0: 7d46 67be bdc4 b33d fbc8 a0bd d721 b93e
000003e0: eba4 a5bd f970 97bd 1e4d 21bf 256a a5be
000003f0: 3610 adbe 9487 963e a55b 8ebe b238 37be

net.0.bias f4 [50]
0.08192636 -0.1559197 0.14313464 -0.16739607 0.20738918 0.061133415 -0.1581136 0.01782278
-0.0054202974 0.21850863 0.0021605368 0.08969321 0.14019597 -0.009798705 0.10340328 0.088243514
0.16184726 0.0771807 -0.14161658 -0.018747644 0.05427256 0.2821207 -0.05071887 0.118333444
0.15618491 0.1995158 -0.14093776 0.15341887 0.006058082 0.030373225 0.06553298 -0.049662948
0.07524285 0.0441227 0.1621016 0.010496629 -0.1949179 0.12655847 -0.18125989 0.18709837
0.002141553 0.1270202 0.039726045 0.17536366 -0.21474464 -0.010662752 -0.044415932 -0.1608373
0.0069563584 0.04586844
00000000: 02c9 a73d 6aa9 1fbe e391 123e e069 2bbe
00000010: d45d 543e 0867 7a3d 88e8 21be 1401 923c
00000020: c09c b1bb bac0 5f3e cb97 0d3b 13b1 b73d
00000030: 888f 0f3e bf8a 20bc 19c5 d33d 04b9 b43d
00000040: 4abb 253e ea10 9e3d f003 11be a994 99bc
00000050: e74c 5e3d 2072 903e 97be 4fbd ce58 f23d
00000060: f0ee 1f3e df4d 4c3e fd51 10be d619 1d3e
00000070: e082 c63b 45d1 f83c 2836 863d 606b 4bbd
00000080: ec18 9a3d 01ba 343d f6fd 253e 0efa 2b3c
00000090: 8f98 47be 8b98 013e 319c 39be b796 3f3e
000000a0: 4c59 0c3b 9511 023e c7b7 223d 8892 333e
000000b0: 05e6 5bbe d3b2 2ebc 7bed 35bd 88b2 24be
000000c0: 2af2 e33b 8ce0 3b3d

net.2.weight f4 [50, 50]
-0.046013787 0.0020109667 -0.15210159 -0.18092224 -0.028609924 -0.0072560417 -0.04855975 -0.17342424
-0.13056341 0.1484158 -0.033426505 -0.07663829 0.08332845 0.15354292 0.07416281 0.20998658
0.07473057 -0.026694948 0.12004396 0.15229762 0.07937841 -0.14159147 -0.1822246 -0.12779604
0.051940266 0.020320475 0.14330564 0.1965567 -0.05311545 0.06335008 -0.14245635 0.07232221
-0.16945343 -0.07249638 -0.10019105 -0.1638157 -0.09849951 -0.2647943 -0.09375049 -0.03232341
0.074920036 -0.0036443297 0.10546908 0.0583926 0.13175912 0.009153959 -0.031471938 0.08604537
0.119909965 -0.054748945 -0.010958102 -0.11033941 -0.08209368 0.11202888 -0.10508343 -0.16621752
0.0042500603 -0.13431583 0.1479782 0.19751744 -0.030662047 -0.058502577 -0.0951247 -0.0678436
-0.14303955 0.10437545 0.067100465 0.23359011 -0.15822066 0.0047690384 -0.04510029 0.16801709
0.090453565 0.11933398 -0.07722943 0.13898127 -0.18256311 0.0040743905 -0.041542098 -0.1469582
0.0065511996 -0.0047989464 -0.1617852 0.17060412 0.09647974 -0.24288058 -0.047828168 -0.07699209
-0.2781846 -0.020127451 0.19872935 -0.035395443 0.10007551 -0.1352062 0.010159315 0.031661823
-0.053252894 0.19232456 -0.059385188 -0.18291146 0.059105188 0.11070477 0.008491895 -0.087653905
-0.076430194 0.009613035 -0.11598686 0.033882767 0.15728311 -0.07192955 -0.039965555 0.0635394
0.10204887 0.27149433 0.023393124 0.08692251 -0.09367921 0.019389013 0.06718099 0.04065923
0.031383265 -0.00039665346 -0.21646862 -0.01499682 -0.08610596 0.014361662 0.084853165 0.04885315
-0.03406097 0.24081317 0.086194 0.18686676 0.0710511 -0.018902058 -0.08352135 0.065032564
0.017651185 0.54416686 0.11373275 0.16105898 -0.014473272 -0.09093802 -0.117994286 -0.11118717
0.012587606 0.047738813 0.023599546 -0.13004126 -0.35986564 0.09360684 -0.038678594 -0.19155785
0.15810587 0.18712698 0.09458334 -0.0395399 0.029026812 0.050472807 0.05536904 -0.010953457
0.24212313 0.12428391 -0.20165657 -0.0027173478 -0.23488602 -0.035983477 0.022766612 0.21342993
-0.32349214 0.16913866 0.08257188 -0.09843952 -0.20108877 0.26750934 -0.082321465 -0.037166726
-0.25149396 0.089996085 -0.03423306 -0.14018805 0.09724327 -0.10160151 0.097121686 -0.056447912
-0.09554649 -0.1269703 -0.07406781 0.2710984 0.03164891 8.908177e-05 -0.10860268 0.18266918
0.18982962 -0.28234997 0.085379586 0.19108275 0.29967442 0.20120011 -0.27607554 -0.24435094
-0.34929523 0.08325448 0.10759475 -0.025281167 -0.14693414 -0.09357926 -0.118894786 0.13398366
0.063274615 -0.042641465 -0.031312723 -0.19089724 0.07000036 -0.056030285 0.0017106589 -0.024196893
-0.09816488 0.029306274 -0.2443811 -0.060332816 -0.124399126 0.03702825 -0.081978485 -0.09025014
0.04567176 -0.094781324 0.14000937 -0.018732889 0.086158164 0.08263634 0.09285946 -0.025632571
-0.14244494 0.07871605 -0.000772579 0.14182758 0.02766262 -0.018922066 -0.135494 -0.015132949
0.15298615 0.0480863 -0.0068871262 -0.0661251 0.20153445 0.08404759 0.023948371 0.016903909
0.087079965 0.17778522 0.20184247 0.062289473 -0.08265929 0.018173845 -0.0009053614 -0.110866755
00000000: f478 3cbd 6cca 033b 85c0 1bbe ae43 39be
00000010: 5c5f eabc 17c4 edbb 97e6 46bd 2096 31be
00000020: 6ab2 05be 50fa 173e 3bea 08bd 89f4 9cbd
00000030: 1ba8 aa3d 5b3a 1d3e ace2 973d b906 573e
00000040: 570c 993d 5daf dabc 9cd9 f53d e8f3 1b3e
00000050: 2691 a23d 5bfd 10be 1699 3abe f7dc 02be
00000060: 51bf 543d 2077 a63c b7be 123e 2946 493e
00000070: 968f 59bd b0bd 813d 14e0 11be ab1d 943d
00000080: 3385 2dbe fb78 94bd f730 cdbd 4ebf 27be
00000090: 1cba c9bd 1e93 87be 4200 c0bd 8d65 04bd
000000a0: ad6f 993d b5d5 6ebb 2c00 d83d 142d 6f3d
000000b0: ddeb 063e 7dfa 153c b8e8 00bd 8e38 b03d
000000c0: 5b93 f53d 6e40 60bd 9c89 33bc a1f9 e1bd
000000d0: bb20 a8bd 666f e53d fb35 d7bd ed34 2abe
000000e0: 1744 8b3b 178a 09be 9987 173e 0342 4a3e
000000f0: f92e fbbc 66a0 6fbd bdd0 c2bd 96f1 8abd
00000100: f678 12be ccc2 d53d f86b 893d 3f32 6f3e
00000110: 9904 22be 9845 9c3b 15bb 38bd ac0c 2c3e
00000120: b83f b93d 6065 f43d 772a 9ebd 1b51 0e3e
00000130: d3f1 3abe 7782 853b 0c28 2abd 367c 16be
00000140: 72ab d63b 7b40 9dbb 05ab 25be d9b2 2e3e
00000150: 2c97 c53d b0b5 78be 78e7 43bd 07ae 9dbd
00000160: 366e 8ebe 53e2 a4bc b57f 4b3e d0fa 10bd
00000170: 64f4 cc3d 7e73 0abe 4173 263c d4af 013d
00000180: b51f 5abd bbf0 443e e23d 73bd 244d 3bbe
00000190: 4818 723d 2fb9 e23d 9721 0b3c e483 b3bd
000001a0: 6f87 9cbd fe7f 1d3c 858a edbd a8c8 0a3d
000001b0: d30e 213e cd4f 93bd ecb2 23bd f220 823d
000001c0: fffe d03d 4e01 8b3e f0a2 bf3c 6e04 b23d
000001d0: e3da bfbd b5d5 9e3c 3096 893d 4b8a 263d
000001e0: bd8b 003d edf5 cfb9 f3a9 5dbe 39b5 75bc
000001f0: 5258 b0bd 2d4d 6b3c 7fc7 ad3d 3e1a 483d
00000200: 8483 0bbd ba97 763e 7b86 b03d 005a 3f3e
00000210: 3d83 913d 7dd8 9abc 3e0d abbd cb2f 853d
00000220: 3899 903c 854e 0b3f b7ec e83d a5ec 243e
00000230: 4d21 6dbc b63d babd fda6 f1bd 19b6 e3bd
00000240: 3f3c 4e3c c689 433d d653 c13c 8929 05be
00000250: 4f40 b8be f1b4 bf3d 726d 1ebd be27 44be
00000260: 81e6 213e 379e 3f3e e9b4 c13d 97f4 21bd
00000270: a3c9 ed3c 93bc 4e3d a6ca 623d 2176 33bc
00000280: 20ef 773e 9088 fe3d 0f7f 4ebe 8815 32bb
00000290: f685 70be 6963 13bd 0c81 ba3c 608d 5a3e
000002a0: c3a0 a5be af32 2d3e 721b a93d a99a c9bd
000002b0: 37ea 4dbe fcf6 883e 2898 a8bd 233c 18bd
000002c0: d1c3 80be de4f b83d f737 0cbd 758d 0fbe
000002d0: 7b27 c73d 7414 d0bd bce7 c63d ed35 67bd
000002e0: e1ad c3bd 8104 02be ddb0 97bd 69cd 8a3e
000002f0: 4aa2 013d 69d1 ba38 156b debd a10d 3b3e
00000300: b262 423e 2d90 90be 7edb ae3d 32ab 433e
00000310: ed6e 993e 6707 4e3e c659 8dbe 2237 7abe
00000320: d3d6 b2be 5381 aa3d a35a dc3d 731a cfbc
00000330: e775 16be 7ca6 bfbd 1c7f f3bd 0333 093e
00000340: 1f96 813d d1a8 2ebd c541 00bd 917a 43be
00000350: 595c 8f3d 0380 65bd 3038 e03a 9038 c6bc
00000360: ab0a c9bd b613 f03c 0a3f 7abe 8b1f 77bd
00000370: f8c4 febd efaa 173d 56e4 a7bd 11d5 b8bd
00000380: 5012 3b3d b61c c2bd 9e5e 0f3e b775 99bc
00000390: b173 b03d 3e3d a93d 1a2d be3d 66fb d1bc
000003a0: 16dd 11be e135 a13d e686 4aba 403b 113e
000003b0: b89c e23c 7302 9bbc f0be 0abe 30f0 77bc
000003c0: 67a8 1c3e 24f6 443d 67ad e1bb 996c 87bd
000003d0: 0c5f 4e3e 2521 ac3d 602f c43c 117a 8a3c
000003e0: fb56 b23d 540d 363e cbaf 4e3e 3f23 7f3d
000003f0: 4649 a9bd 51e1 943c c655 6dba 1c0e e3bd

net.2.bias f4 [50]
0.05309188 0.10103426 0.009530343 -0.0003659341 -0.027420444 0.10222358 0.10769005 0.008032155
0.11016178 -0.10540248 -0.037642304 -0.123767234 0.0053608194 0.04010406 0.037323717 0.15518656
-0.10326419 -0.006502335 -0.123595186 -0.1316554 -0.10152841 0.010123709 -0.07659922 0.1560433
0.09949383 -0.00572809 -0.047503415 0.008738535 0.006023352 0.055596236 -0.1848521 -0.059243247
-0.094894506 0.19517784 -0.14019504 -0.12868163 0.074182205 -0.14237711 -0.07726969 0.108655825
0.06241706 -0.10304406 -0.0412468 -0.103758566 -0.0047154524 -0.17943507 0.20670664 -0.035012163
-0.034463238 -0.026915753
00000000: df76 593d 0deb ce3d 2825 1c3c d8da bfb9
00000010: d7a0 e0bc 995a d13d 9a8c dc3d 4d99 033c
00000020: 809c e13d 41dd d7bd d12e 1abd ad79 fdbd
00000030: d0a9 af3b 2844 243d c1e0 183d 3ae9 1e3e
00000040: 2d7c d3bd 8a11 d5bb 791f fdbd acd0 06be
00000050: 21ee cfbd eadd 253c 0de0 9cbd d1c9 1f3e
00000060: 6cc3 cb3d b4b2 bbbb f192 42bd 132c 0f3c
00000070: 8a5f c53b e1b8 633d de49 3dbe 0ca9 72bd
00000080: 0d58 c2bd b3dc 473e 4a8f 0fbe 1ec5 03be
00000090: d7ec 973d 4ecb 11be 923f 9ebd f286 de3d
000000a0: 08a9 7f3d c408 d3bd 68f2 28bd 5f7f d4bd
000000b0: 1584 9abb d4bd 37be e8aa 533e ea68 0fbd
000000c0: 5329 0dbd 6d7e dcbc

net.4.weight f4 [50, 50]
0.06949237 0.10442464 0.0145043805 0.27806482 -0.051375475 -0.076943584 -0.051219553 0.15554935
0.014014756 0.07279879 0.13258271 -0.076700106 0.1598228 0.0076921466 0.027324103 0.06819489
-0.08078832 0.10243153 -0.063531205 0.07149478 -0.18274868 -0.2785869 -0.12081583 -0.063151985
-0.11370473 0.058332585 0.09089594 0.014822553 0.080489464 0.0069759698 -0.084304936 0.12540068
-0.07917749 -0.05085296 -0.21213678 -0.17193335 0.1123646 0.051111884 0.05450947 -0.154957
0.12348789 0.046172265 0.119861394 -0.21231653 -0.12539561 -0.028134149 0.029295249 0.13250081
0.056534696 -0.036299963 -0.15017 -0.070651814 0.23338716 -0.12050297 -0.09091521 -0.027143931
0.15126891 -0.07343644 0.22585493 -0.20682143 0.16141996 0.011818734 -0.15987223 -0.09752082
-0.01225806 0.07274316 0.002358015 0.0424068 -0.13614063 0.004153371 0.14149505 -0.021695683
0.027412882 0.15646446 -0.05654985 -0.10878695 -0.078336604 -0.07610455 -0.16096814 0.05677708
-0.076480344 0.04737016 -0.16626102 0.22341684 -0.027365332 0.028343685 -0.022059442 -0.15074924
-0.012851225 0.14251296 -0.16676702 -0.09139334 0.018877076 0.1540739 0.06602485 0.1785531
0.027187636 0.0131462095 -0.13928512 0.013433309 0.013078658 0.15623789 0.1492103 -0.045449715
0.027707564 0.07917879 -0.010904977 -0.057268605 0.021021495 -0.21260989 -0.12170183 -0.10709259
-0.054681096 -0.06898815 0.07096653 -0.07454481 0.021743922 -0.07184002 0.035615407 0.04147221
0.075252324 0.14931305 -0.055510588 0.055720713 0.005010577 -0.014795969 -0.15420014 -0.031392474
-0.034076717 -0.13187802 0.052646663 -0.074956745 -0.03995518 0.11087693 0.03012653 0.0060519576
-0.105124235 -0.14620125 0.023650065 -0.021316912 0.06208945 0.0128930155 -0.15430526 -0.03449423
0.064578176 0.009128816 0.016351366 -0.11282621 -0.10760957 -0.042465925 0.04225577 0.058323402
-0.045808863 0.10476205 -0.14042056 -0.052967142 -0.2514724 -0.01394674 -0.107357636 -0.10017993
0.06903055 0.03735656 0.00506535 0.07023318 -0.05859424 0.051668745 -0.14802918 0.09772581
-0.031703435 0.044928968 0.05853963 -0.11370653 -0.04322853 -0.05063782 0.020493578 -0.048754264
0.011707656 0.041355707 -0.025064409 0.081326835 -0.14551917 -0.12436492 0.08681976 0.016965503
-0.07743879 0.04449404 0.1252432 -0.061379734 -0.10839242 -0.096479975 0.08593192 -0.06615748
0.015147779 -0.07025777 -0.14007634 0.11699955 -0.02206995 0.06745598 0.12436086 0.008703232
-0.18276593 -0.06223958 -0.034748033 0.33542684 -0.13830209 0.02037811 0.15720797 0.5470969
-0.2737486 0.0087948525 0.13733087 0.097456016 -0.14074317 -0.12227635 0.22852986 0.3767887
-0.074061684 -0.030889818 -0.21691929 0.11591597 0.22251005 -0.0018915879 -0.099817775 -0.064871654
0.1686536 0.363068 0.24531639 0.031055273 0.20446943 -0.094897546 -0.09862975 0.20110445
-0.14855178 0.041767154 0.03924344 -0.020126572 0.15770137 -0.048270002 -0.0018596792 -0.19572116
0.10932875 -0.035830818 -0.15492283 -0.21690978 0.20971166 -0.15239958 -0.3030992 0.1468879
-0.15945028 -0.11178644 0.030295476 -0.06886673 0.17956004 -0.058945898 -0.13757208 -0.12784778
00000000: 0452 8e3d 96dc d53d c8a3 6d3c 835e 8e3e
00000010: 176f 52bd 9994 9dbd 98cb 51bd 5448 1f3e
00000020: 269e 653c 8817 953d c3c3 073e f214 9dbd
00000030: 97a8 233e 670e fc3b ccd6 df3c c3a9 8b3d
00000040: 5974 a5bd 9fc7 d13d a61c 82bd db6b 923d
00000050: 7822 3bbe f1a2 8ebe 4a6e f7bd d455 81bd
00000060: 07de e8bd 26ee 6e3d a727 ba3d 4bda 723c
00000070: a9d7 a43d ad96 e43b 11a8 acbd 0969 003e
00000080: cf27 a2bd 324b 50bd 623a 59be 4c0f 30be
00000090: 691f e63d b25a 513d 5245 5f3d 0cad 1ebe
000000a0: 38e7 fc3d 211f 3d3d e479 f53d 8169 59be
000000b0: b567 00be 9679 e6bc 97fc ef3c 4bae 073e
000000c0: ed90 673d 45af 14bd 2ac6 19be e6b1 90bd
000000d0: 0bfd 6e3e 43ca f6bd c131 babd f35c debc
000000e0: 3de6 1a3e d865 96bd 8446 673e ffc8 53be
000000f0: 464b 253e 5da3 413c 8cb5 23be ffb8 c7bd
00000100: 08d6 48bc 5efa 943d ed88 1a3b c1b2 2d3d
00000110: 7368 0bbe 0019 883b 14e4 103e 25bb b1bc
00000120: fb90 e03c 3838 203e d1a0 67bd b1cb debd
00000130: f16e a0bd b4dc 9bbd d5d4 24be 158f 683d
00000140: baa1 9cbd 3707 423d 5440 2abe 62c7 643e
00000150: 432d e0bc 0431 e83c 01b6 b4bc 025e 1abe
00000160: f28d 52bc ebee 113e f9c4 2abe 6e2c bbbd
00000170: 19a4 9a3c 8cc5 1d3e 0938 873d a0d6 363e
00000180: 9bb8 de3c 3363 573c c2a0 0ebe 6217 5c3c
00000190: de47 563c d3fc 1f3e 96ca 183e 7b29 3abd
000001a0: f9fa e23c 7d28 a23d caaa 32bc 7c92 6abd
000001b0: 4535 ac3c 68b6 59be cf3e f9bd 5c53 dbbd
000001c0: 49f9 5fbd a949 8dbd e656 913d f3aa 98bd
000001d0: 4f20 b23c dc20 93bd 76e1 113d c4de 293d
000001e0: e41d 9a3d 85e5 183e 125f 63bd 673b 643d
000001f0: c42f a43b cb6a 72bc a4e6 1dbe 6595 00bd
00000200: 0794 0bbd 080b 07be 07a4 573d ec82 99bd
00000210: 0ba8 23bd 7213 e33d eacb f63c 804f c63b
00000220: 604b d7bd c8b5 15be c8bd c13c cea0 aebc
00000230: 8251 7e3d 3a3d 533c 3302 1ebe d249 0dbd
00000240: 9041 843d 0891 153c 4df3 853c 6e11 e7bd
00000250: 6862 dcbd c0f0 2dbd 6314 2d3d 85e4 6e3d
00000260: 13a2 3bbd 7c8d d63d 68ca 0fbe 13f4 58bd
00000270: fec0 80be de80 64bc 52de dbbd 232b cdbd
00000280: e45f 8d3d 3103 193d 3cfb a53b 6ad6 8f3d
00000290: 8400 70bd 9ba2 533d f694 17be 7824 c83d
000002a0: 76db 01bd 7007 383d 40c7 6f3d f8de e8bd
000002b0: 6610 31bd 9a69 4fbd 26e2 a73c 8db2 47bd
000002c0: 78d1 3f3c 9a64 293d e053 cdbc af8e a63d
000002d0: fa02 15be 09b3 febd 8fce b13d 3dfb 8a3c
000002e0: 3a98 9ebd 623f 363d c13f 003e 5169 7bbd
000002f0: d8fc ddbd 4b97 c5bd 13fd af3d 937d 87bd
00000300: 642e 783c 4ee3 8fbd 2c70 0fbe 769d ef3d
00000310: 0acc b4bc 5c26 8a3d e8b0 fe3d 0098 0e3c
00000320: fe26 3bbe eeee 7ebd f453 0ebd 11bd ab3e
00000330: 109f 0dbe ffef a63c 20fb 203e 8b0e 0c3f
00000340: c728 8cbe 4918 103c 77a0 0c3e 0597 c73d
00000350: fa1e 10be 066c fabd bb03 6a3e 73ea c03e
00000360: a7ad 97bd a50c fdbc 1720 5ebe 5a65 ed3d
00000370: add9 633e 28ef f7ba 436d ccbd 6edb 84bd
00000380: 88b3 2c3e 0de4 b93e 3834 7b3e a167 fe3c
00000390: 6f60 513e a559 c2bd 65fe c9bd 53ee 4d3e
000003a0: f51d 18be 0914 2b3d bbbd 203d 7be0 a4bc
000003b0: 787c 213e c4b6 45bd 7bc0 f3ba 216b 48be
000003c0: c0e7 df3d 56c3 12bd 17a4 1ebe 991d 5ebe
000003d0: a7be 563e a30e 1cbe d12f 9bbe c869 163e
000003e0: ef46 23be 4af0 e4bd 382e f83c 000a 8dbd
000003f0: 96de 373e 4171 71bd b2df 0cbe 87ea 02be

net.4.bias f4 [50]
-0.03937698 0.04169288 0.01452669 0.07364282 -0.106221594 0.11551923 0.1167166 0.07637963
-0.057285994 -0.057221543 0.034459442 0.028500373 0.14337407 0.023564948 -0.069308944 -0.09971349
-0.15640876 -0.08889675 0.0842049 -0.02800074 -0.097305 -0.16816844 -0.10316874 -0.037268464
0.057836443 -0.102643445 -0.115750186 0.13274522 -0.056205995 -0.23138793 0.16560864 0.04172474
0.10683509 -0.12733024 0.017206788 -0.023729216 0.014009591 -0.14672644 -0.094865285 -0.012981136
0.14064714 0.009168387 -0.06189937 -0.03523812 0.011896358 0.040197026 0.12940241 0.039509688
0.029435115 -0.041574284
00000000: c249 21bd 27c6 2a3d 5b01 6e3c 0cd2 963d
00000010: b58a d9bd 5995 ec3d 1d09 ef3d ec6c 9c3d
00000020: b8a4 6abd 2361 6abd 5825 0d3d 9d79 e93c
00000030: a7d0 123e 470b c13c d9f1 8dbd 9636 ccbd
00000040: 9e29 20be 800f b6bd 9e73 ac3d cf61 e5bc
00000050: d847 c7bd 5934 2cbe 224a d3bd d1a6 18bd
00000060: e8e5 6c3d ba36 d2bd 6f0e edbd 5dee 073e
00000070: 4238 66bd f5f0 6cbe 5095 293e 90e7 2a3d
00000080: 5bcc da3d dc62 02be 40f5 8c3c c663 c2bc
00000090: 7c88 653c 753f 16be bb48 c2bd d5ae 54bc
000000a0: ce05 103e 0137 163c 328a 7dbd d955 10bd
000000b0: f1e8 423c a3a5 243d 1182 043e e9d4 213d
000000c0: e921 f13c cc49 2abd

net.6.weight f4 [4, 50]
0.3463046 -0.22496563 -0.15916945 0.0076849693 -0.087881185 -0.08990388 -0.11701046 -0.0863938
0.2583633 -0.091894224 0.13751866 0.0082550235 -0.05620523 -0.27469885 0.12357918 0.2658703
0.07591477 -0.114676796 -0.02452755 -0.14452428 -0.24392098 0.2495783 0.040636517 0.1386622
-0.07177714 0.36857623 0.3389136 0.2503261 0.034185674 -0.37661493 0.2041401 0.0011016185
-0.22996952 0.3153605 -0.22489846 0.35391966 0.040782273 -0.5410301 0.24987383 -0.4031488
0.1058744 0.21464492 -0.08743138 -0.43926394 0.31300333 0.22892739 0.17723362 -0.20132051
-0.14101021 -0.119812444 -0.008762966 0.10398064 0.10676212 -0.077382796 0.2672001 0.19141072
0.14470068 -0.08929838 0.008980579 0.16801536 -0.07267698 -0.19846444 0.20550317 -0.21218236
-0.1568401 -0.07887204 -0.16579121 0.12345078 0.16810445 -0.1919467 0.045660686 -0.0062931925
-0.11988249 -0.13596565 0.15640254 0.045757648 0.0010747684 0.20705043 0.07409045 0.041971963
0.14352775 0.033569712 -0.2750913 -0.123966284 0.14081822 0.0715373 0.24177909 -0.015418786
-0.035183363 -0.17275684 0.1664171 -0.04034702 0.11412629 0.003149508 -0.059120353 -0.036389172
0.047485515 0.18876916 -0.21947613 -0.1955397 -0.084755 0.07445707 0.07277131 -0.08026429
0.10594307 -0.047088034 0.12807363 0.22130771 -0.33206168 0.50826985 0.4024886 -0.024375496
-0.060293578 -0.005098254 0.38377315 0.06739003 -0.12140871 0.060497195 -0.085936725 -0.32845747
0.06902464 -0.39901546 -0.19791763 -0.039321303 0.33200362 -0.16602123 -0.20635276 -0.10859349
-0.06722034 -0.23205039 0.16951036 0.4671743 0.294343 0.3412528 -0.5489489 -0.3153628
-0.08884169 -0.0917987 0.13487287 -0.100490645 0.3427036 0.17853807 -0.021142589 -0.3177524
-0.1476454 -0.29766455 0.28699094 0.23370744 0.34570083 -0.15810011 -0.19353016 -0.08877626
0.026809517 -0.20459533 0.33299646 0.07075057 0.006375644 -0.22279084 -0.024585502 -0.18392049
0.26877514 0.07331052 -0.16083732 0.091856934 0.25265887 0.2843679 0.32266843 -0.22866878
-0.451816 -0.004319665 0.03923002 -0.018435337 -0.18615319 0.06659588 0.13473207 -0.21348391
-0.040536944 -0.26388577 -0.41185725 -0.25997004 -0.3354232 0.1893016 -0.11234739 -0.018008871
0.2512522 -0.16606314 -0.089310534 0.2798825 0.02299949 -0.45570537 -0.096145384 0.38725418
-0.072838776 -0.12593845 0.31692111 -0.23417467 0.25975394 -0.2566008 0.045252517 0.084390566
00000000: d64e b13e 645d 66be 51fd 22be 32d2 fb3b
00000010: 0dfb b3bd 871f b8bd 2ea3 efbd 3cef b0bd
00000020: 3248 843e 0a33 bcbd b1d1 0c3e 1440 073c
00000030: 7537 66bd 54a5 8cbe 1517 fd3d 2720 883e
00000040: 3479 9b3d abdb eabd 00ee c8bc 2cfe 13be
00000050: 6cc6 79be 7491 7f3e 7a72 263d 77fd 0d3e
00000060: e5ff 92bd 06b6 bc3e 1586 ad3e be2a 803e
00000070: 4706 0c3d acd3 c0be 1a0a 513e 2f64 903a
00000080: 217d 6bbe ee76 a13e c84b 66be f534 b53e
00000090: 500b 273d f380 0abf edde 7f3e 8569 cebe
000000a0: add4 d83d e1cb 5b3e 390f b3bd 34e7 e0be
000000b0: f941 a03e f16b 6a3e bb7c 353e f726 4ebe
000000c0: fb64 10be 3a60 f5bd 8b92 0fbc cdf3 d43d
000000d0: 19a6 da3d df7a 9ebd 74ce 883e 2c01 443e
000000e0: 6a2c 143e 12e2 b6bd 4723 133c 380c 2c3e
000000f0: abd7 94bd 433a 4bbe 6c6f 523e 5546 59be
00000100: b19a 20be aa87 a1bd 2cc5 29be c3d3 fc3d
00000110: 9323 2c3e ad8d 44be b306 3b3d 2037 cebb
00000120: f384 f5bd 943a 0bbe fd27 203e 5f6c 3b3d
00000130: 3edf 8c3a 0705 543e bcbc 973d cbea 2b3d
00000140: f0f8 123e 6580 093d c4d8 8cbe 09e2 fdbd
00000150: a732 103e 2682 923d f094 773e 139f 7cbc
00000160: 6e1c 10bd 2be7 30be 3f69 2a3e eb42 25bd
00000170: 0bbb e93d fa67 4e3b 2f28 72bd d00c 15bd
00000180: 2c80 423d b44c 413e 5abe 60be 8f3b 48be
00000190: 0894 adbd f37c 983d 2009 953d 9b61 a4bd
000001a0: aef8 d83d 62df 40bd bc25 033e 7d9e 623e
000001b0: fd03 aabe f91d 023f fc12 ce3e 1faf c7bc
000001c0: 66f6 76bd 410f a7bb ea7d c43e c903 8a3d
000001d0: 21a5 f8bd e8cb 773d 98ff afbd 942b a8be
000001e0: ca5c 8d3d c14b ccbe ebaa 4abe 600f 21bd
000001f0: 61fc a93e 7801 2abe 234e 53be 4466 debd
00000200: d1aa 89bd 9e9e 6dbe 2094 2d3e 7831 ef3e
00000210: 20b4 963e b0b8 ae3e ea87 0cbf 3c77 a1be
00000220: a2f2 b5bd f500 bcbd 1d1c 0a3e 0ace cdbd
00000230: d976 af3e afd2 363e 3933 adbc 71b0 a2be
00000240: 5b30 17be 7d67 98be 7af0 923e 0151 6f3e
00000250: b3ff b03e ffe4 21be c52c 46be 54d0 b5bd
00000260: a29f db3c 7081 51be 837e aa3e ade5 903d
00000270: c7ea d03b 4823 64be 8967 c9bc a755 3cbe
00000280: e59c 893e d323 963d 8ab2 24be 7d1f bc3d
00000290: 815c 813e ab98 913e cc34 a53e 2628 6abe
000002a0: 6d54 e7be fa8b 8dbb a8af 203d b405 97bc
000002b0: f19e 3ebe 6c63 883d 34f7 093e 879b 5abe
000002c0: 110a 26bd 091c 87be f4de d2be cb1a 85be
000002d0: 97bc abbe 47d8 413e 6316 e6bd 5787 93bc
000002e0: 21a4 803e 750c 2abe 71e8 b6bd c24c 8f3e
000002f0: 6d69 bc3c 3752 e9be dfe7 c4bd 2e46 c63e
00000300: 7f2c 95bd 02f6 00be 7c43 a23e 7ccb 6fbe
00000310: 78fe 843e 2e61 83be b45a 393d f6d4 ac3d

net.6.bias f4 [4]
-0.13719568 -0.084855236 0.11581385 -0.14279002
00000000: 067d 0cbe 95c8 adbd d02f ed3d 8c37 12be
