PPO/checkpoints/ppo_checkpoint.pth (torch, 57590 bytes, 16 tensors)

log_std f4 [4]
00000000: 0000 0000 0000 0000 0000 0000 0000 0000
0.0 0.0 0.0 0.0

net.0.weight f4 [50, 24]
00000000: dcc7 0bbe 0114 27be 8cff 693e 45cd 3fbc
00000010: 5136 0ebe cefd cf3d 7858 13be 0c0a 2a3c
00000020: b5b6 65be e1c5 8cbd 1135 623e 2a03 283d
00000030: 29fe 1dbd 8c1d 5d3e 6eeb 1d3e 40a1 233e
00000040: 255c 0a3e 618b c7bd 16cc 81be a1aa 2cbe
00000050: f750 2dbe cc65 a23d bad4 693e c7c4 863e
00000060: e47c 693e 3f7e 253d face 483e 7823 6a3c
00000070: 306d 073e 3b07 41be 2b6e 8c3e f8cb 063e
00000080: 4d8a db39 1e86 e7bd 0046 4c3d 345c 06bd
00000090: eaba 3cbe 54a7 34be f89d e8bd 58de 853d
000000a0: 3b02 3cbe deb0 203e e596 20be 0a4e 2f3e
000000b0: f6ee 203c f664 003a b982 1d3d 85bc 0cbb
000000c0: a21d 103e 0e8c babc 79e3 cdbd 532d f33c
000000d0: f2ba 2abe 256c e93d 2da4 ea3c 6816 133e
000000e0: 3e87 4cbd 94d7 d2ba a3d7 0abe b7e5 02be
000000f0: 15cd e63b 0543 153e 50a3 dcbd 5026 653e
00000100: 11e3 c4bd 13c5 6fbd aca5 693e deb2 53bd
00000110: b894 1e3e 6aae e5bc 7e50 2d3e edb0 173d
00000120: 9e65 09be 0d13 40be ee16 2d3e d64e 8f3d
00000130: ee24 35bd bad4 5ebd 9c11 f2bd 25f6 49be
00000140: 135f 813d eeec 77be 0c9b 77bb d15d 503e
00000150: 1508 053e f987 1d3e b594 573d 6c18 23be
00000160: 9da3 143e a589 633e 71b0 ee3d bb18 4b3e
00000170: 936f 6bbe 9fb9 7dbe 870e 87bd e572 993d
00000180: 9d57 3b3e d535 abbd 4513 01be f90e 3c3e
00000190: b7f9 0ebc 8c34 9e3c e819 8bbe f0ab d8bc
000001a0: c974 0d3e e8c9 8c3e 3658 d93c d535 393e
000001b0: dc1e 223d e81c 66be a036 1dbc 8e48 c7bd
000001c0: 2463 1ebd 00d5 e2bd 4ef9 593e 0907 6ebe
000001d0: 7d43 2fbe a613 b5bd 4e4a 743e f6aa 6ebd
000001e0: 9bf7 ed3d a4f4 0e3e ec91 793e 7dfd 85bd
000001f0: 6de0 593d 5a50 0ebe a84e b1bc 37e1 79be
00000200: d4e9 6dbe 9e9d 9e3d a278 5fbe 7b65 183e
00000210: a282 573e 609f cc3d f23c df3d 5275 84be
00000220: 81d6 06be dd87 52be d43d 8abe 87ea f73d
00000230: 7287 853d 7eb7 8a3e 08ab a0bd 3a0e 41be
00000240: 0200 7bbe 6ba5 8f3c 85cc 1fbe 47ea 4e3d
00000250: 16e0 403e e14e 793e 5c38 3ebd ba9a 3dbe
00000260: a254 1ebe 542c 393e 19ea 963d d3b2 933c
00000270: e1a5 8dbe fe0d 1d3e 8375 383e bcbb f03c
00000280: fd29 52bd c25d 0abe ef6a 183b d0c4 673c
00000290: 7281 a43d 68ba 45bc 7e38 8a3e 3bf4 3b3e
000002a0: e8a8 833d cf6e 81be 4139 0bbe 5230 e43d
000002b0: 0270 3cbe 0795 a23d d935 8f3d 7a51 37be
000002c0: a35b 673d c4d8 16bd ad2d 593e f3a7 80bd
000002d0: 2276 7e3e d155 7d3e 1c58 c1bd 73b4 433d
000002e0: 8d69 9fbd 847d 693e 88cc 0b3e 219e 4c3a
000002f0: dc55 303e cb1f 6abe f421 95bd 9414 6e3d
00000300: 931f 8abe a4da 7e3e c3a5 bf3c 1bcc 803e
00000310: 83ba a9bd c4e3 8a3c a2d6 a0bd d217 efbd
00000320: 3a18 d8bd 83a9 493e 29fe 823e aecf a73d
00000330: 57d1 223e ebab fd3d 581d bb39 5609 59be
00000340: 224b 923d b462 c8bd 9148 df3d fab9 3dbe
00000350: 648c 9ebc 9439 e5bd abde 86be 5ac8 86be
00000360: 6e82 863e ad69 a2b9 1c5b 7bbe 773f 3f3d
00000370: 0765 92bc b335 703e 9d66 893e 19e4 95bd
00000380: d6f6 2ebe 0a19 27be b20e 9bbd f20e 20be
00000390: 5a68 833e b3e7 debd dc39 163e b4f4 033e
000003a0: 3159 883d 4425 0e3e 19e9 763e 0220 f83d
000003b0: 984d 003e 36a7 74be 3ab9 cebc 0271 d73b
000003c0: 065b 643e e32f f93d 41c3 623e aa88 613e
000003d0: 9002 08be 7476 253d 1a04 8b3e 3829 ce3d
000003e0: e2dc 243e 490a ed3d be0f b7bd 6a41 8b3d
000003f0: 5e78 49be 3080 863e 7b77 853c 3cf4 613e
-0.13650459 -0.16316225 0.2285139 -0.011706655 -0.13887908 0.10155831 -0.14389217 0.010378372
-0.22432978 -0.0687368 0.22090556 0.041018642 -0.038572464 0.21593302 0.1542184 0.1597948
0.13511713 -0.09743381 -0.25351018 -0.16861965 -0.16925417 0.079295725 0.22835055 0.26322004
0.22801548 0.0404036 0.19610205 0.014290683 0.13225245 -0.18850414 0.274278 0.13163745
0.00041873977 -0.11304878 0.049871445 -0.032802776 -0.18430677 -0.17641956 -0.11358255 0.06536549
-0.18360226 0.1569247 -0.15682562 0.17119613 0.009822598 0.0004897857 0.038454745 -0.002147467
0.14073804 -0.022771861 -0.100531526 0.029684698 -0.16672876 0.1139758 0.028642738 0.14364016
-0.049933665 -0.0016085976 -0.13558821 -0.12782942 0.0070434907 0.14576347 -0.10773337 0.22377896
-0.09613622 -0.058537554 0.22817105 -0.051684253 0.15486419 -0.028037269 0.16925237 0.037033964
-0.1341767 -0.18757267 0.16903278 0.06997459 -0.044224672 -0.05440209 -0.11819765 -0.19722803
0.06316962 -0.24211475 -0.0037781624 0.20348288 0.12991364 0.153839 0.052632052 -0.15927285
0.14515539 0.22220476 0.11654747 0.19833653 -0.22991781 -0.2477784 -0.06594568 0.074926175
0.1829514 -0.08359877 -0.12605007 0.18365087 -0.008726529 0.019312166 -0.27168202 -0.026449174
0.13814081 0.27497792 0.02653132 0.18086942 0.03958021 -0.22471964 -0.009595543 -0.097306356
-0.038668767 -0.11075783 0.21286508 -0.23244871 -0.17115588 -0.08841638 0.2385647 -0.05826851
0.116194926 0.1396051 0.24372071 -0.0654249 0.053192545 -0.13897839 -0.021643952 -0.24402319
-0.2323373 0.07744907 -0.21823362 0.14882462 0.21045926 0.09991336 0.10900296 -0.25870758
-0.13167764 -0.2055964 -0.27000296 0.121052794 0.06519975 0.27093118 -0.078451216 -0.18853083
-0.24511722 0.017534932 -0.15605362 0.050516393 0.18835482 0.24346496 -0.046440467 -0.18516055
-0.15461972 0.18083316 0.07368869 0.018029606 -0.27665618 0.15337369 0.18013577 0.029386394
-0.051309574 -0.13512328 0.0023257097 0.014146045 0.08032502 -0.0120683685 0.26996225 0.18354885
0.06428701 -0.25279853 -0.1359606 0.11142029 -0.18402103 0.07938581 0.069926925 -0.17902175
0.056483876 -0.036827818 0.2120883 -0.06282034 0.24849752 0.24739768 -0.09440634 0.04777951
-0.07783804 0.22801787 0.13652241 0.00078055455 0.17220253 -0.2286369 -0.07281867 0.058125094
-0.26977214 0.24888092 0.023394471 0.2515572 -0.082875274 0.01695431 -0.07853438 -0.11674465
-0.10551496 0.1969357 0.25584534 0.08193909 0.1590017 0.123863064 0.00035689282 -0.21194968
0.07143237 -0.09784451 0.10902513 -0.18527976 -0.019354053 -0.11192623 -0.26341757 -0.2632473
0.26271385 -0.00030977782 -0.24546474 0.046691384 -0.01787044 0.23457985 0.268361 -0.07318897
-0.17086348 -0.16318145 -0.07571162 -0.15630701 0.2566555 -0.10884037 0.14670509 0.12886316
0.06657637 0.13881403 0.24112357 0.1211548 0.125296 -0.23891911 -0.025234807 0.006574751
0.22300348 0.12167337 0.22144796 0.2202479 -0.13282228 0.04039617 0.27151567 0.100664556
0.16099885 0.11574227 -0.089385495 0.06799586 -0.19674823 0.26269674 0.016292324 0.22065824

net.0.bias f4 [50]
00000000: 0000 0000 0000 0000 0000 0000 0000 0000
00000010: 0000 0000 0000 0000 0000 0000 0000 0000
00000020: 0000 0000 0000 0000 0000 0000 0000 0000
00000030: 0000 0000 0000 0000 0000 0000 0000 0000
00000040: 0000 0000 0000 0000 0000 0000 0000 0000
00000050: 0000 0000 0000 0000 0000 0000 0000 0000
00000060: 0000 0000 0000 0000 0000 0000 0000 0000
00000070: 0000 0000 0000 0000 0000 0000 0000 0000
00000080: 0000 0000 0000 0000 0000 0000 0000 0000
00000090: 0000 0000 0000 0000 0000 0000 0000 0000
000000a0: 0000 0000 0000 0000 0000 0000 0000 0000
000000b0: 0000 0000 0000 0000 0000 0000 0000 0000
000000c0: 0000 0000 0000 0000
0.0 0.0 0.0 0.0 0.0 0.0 0.0 0.0
0.0 0.0 0.0 0.0 0.0 0.0 0.0 0.0
0.0 0.0 0.0 0.0 0.0 0.0 0.0 0.0
0.0 0.0 0.0 0.0 0.0 0.0 0.0 0.0
0.0 0.0 0.0 0.0 0.0 0.0 0.0 0.0
0.0 0.0 0.0 0.0 0.0 0.0 0.0 0.0
0.0 0.0

net.2.weight f4 [50, 50]
00000000: e4f4 2f3e 8f05 0d3c 7392 16be f3fe 78be
00000010: 7efe c4bd 1cac 503e 7f9e 7a3e 9740 383e
00000020: 3949 31be f1a9 103e 19aa 0a3e 025d 623e
00000030: 4a9b 13be 39c2 4f3e 411f 03bd 6c68 c83d
00000040: 5c66 56be 9078 1bbd 05ba 1ebe f1ab 8ebd
00000050: 8008 d0bc 00bb b3bd 2695 de3d 4f6f 683e
00000060: dafe 683d 1941 ddbd 42d0 5fbd bd3b 9bbd
00000070: 3ed6 943c b48f b2bc 30ae 123e 3b96 993c
00000080: cef1 60be f875 b3bd 0503 f3bd ac3a b03d
00000090: e0d6 603e ddd9 4b3e 4679 6d3d 86ef 21be
000000a0: a274 09bc 0fae 1c3d 8165 a13b a953 0a3e
000000b0: 613a f23d c320 9abd 75e7 b9bd e572 e93c
000000c0: d245 c03c 6a8b a33b 66d8 71be 1757 6bbe
000000d0: 02b1 613e 2cbe 743e c2dc 5bbe 29b8 2fbe
000000e0: e1d9 11bd 12fa 0dbe f8ec 75be 9440 9b3d
000000f0: e574 20be 5ce6 a03d b606 22be 2189 51bc
00000100: a74c 9fbd 6cf0 3dbd aa3c d9bd 6835 52be
00000110: 1228 4b3e ba1e a7bc 9814 07be e246 6a3e
00000120: 8b12 003d 7866 6cbd 28c0 913d 9d69 75bc
00000130: 289a 7b3d ae9e 523e 9a49 b93d bbcd 303e
00000140: a6a1 043e db07 cabd 3401 a5bc f816 3dbd
00000150: df59 793e c10d bebd 4e4e 333e 603c 91bd
00000160: eec5 513e 3ff3 d53d bc45 0a3e f55d 33be
00000170: d5ac edbb 25d1 693e c132 47be 4b53 5bbd
00000180: 2f51 77be 3ecc 67be dbf1 383e 4e1a 14be
00000190: 3132 bf3c 9bda 55be 81ed 3dbe 936b 623e
000001a0: 7e42 443d 789c 89bd b115 85bd 37ff 713e
000001b0: 03bd 323e 428d 313e 4f99 613e 250a 183c
000001c0: b1a6 153d 65cc 6a3c 537c c8bd d8b8 59be
000001d0: 2cd8 5f3e 9b27 503e 3835 bc3c 1837 b2bd
000001e0: c4ef 593e 8309 dfbd 696a 18bc d8ff abbd
000001f0: 0f56 12be 723d 3fbe 0bca 743e 4a35 5c3e
00000200: 9896 f63d ed55 b8bd 95d9 a3bd 88f9 123e
00000210: 3b32 3e3e 0ec0 7a3e 7568 ea3d 41fd bebd
00000220: 799c dbbd 91f1 6e3e 85e1 30be 761f 53be
00000230: 2493 d0bc 8012 24bd b9c8 f93d 5579 2abe
00000240: 1b71 64bd 6704 42be 4321 2b3e aaf3 633d
00000250: e78e fabd 49ec 86bd 2715 1e3e ede6 463e
00000260: 40ba 66be 85dc 11be 0a45 2c3d 2015 7e3d
00000270: 7103 1fbe 728e bf3d 3f43 3e3c e83a 0bbe
00000280: 3bd8 3fbe 654d 1cbb 526f 9c3d 37b6 e43d
00000290: 32e2 bc3d 9d63 303e 40ba 5f3e 3b16 17be
000002a0: 1101 b2bd 59a3 52be c826 433e d3bb 6ebe
000002b0: c5bf f2bd 4b28 63be be86 1cbd 6854 c5bd
000002c0: 0912 133e 37f3 4abe 5500 173e b0c5 bbbd
000002d0: a03b 403d f145 21be de19 8a3d 5881 443e
000002e0: 45ce aa3d 311d 983d 97a9 82bd c857 6cbe
000002f0: 8995 903d c914 333e 5418 0d3e 889b 573e
00000300: d973 04be 5445 0f3e e4de 2b3e 00df 393e
00000310: 19bb 00be 0171 3a3e 23a9 59be 9067 06be
00000320: 2f2c 033e 064d 463e ee88 253e a06a 83bd
00000330: 9056 3cbe a57a 1a3e f33d fabd d45f 2e3e
00000340: 45ed 16bb a82d ca3d 74c9 343d 4555 05bd
00000350: eb4e d5bd ab4f 55bd e28d 84bd 4f18 4ebe
00000360: 9a61 aa3d eb1b c63d a27f 7abe 462c f0bd
00000370: 424b 47be df2e 10bb 4b36 0cbe 94c7 473e
00000380: ad48 3fbe 8c94 a8bd dd82 5d3e c008 1e3c
00000390: aa13 493e dbfc edbd f4e8 583e fcd5 29be
000003a0: 776f c7bd ffea 5cbe ed90 6d3e 2046 bf3d
000003b0: 0747 a3bd b086 e23c 3e1c cdbb 3e7e 36be
000003c0: 87d2 25be dd56 ce3d 7503 363e e19c a93b
000003d0: 9e7a 723e 1d84 7cbc 7ec3 163e cbf4 c03d
000003e0: 0c3f 793e 4900 d33d 7406 20be 1886 243e
000003f0: 2c75 efbd 7945 48be cc0a 4abe b303 793e
0.17183262 0.008607282 -0.14704303 -0.24316005 -0.09618853 0.20378155 0.24474524 0.17993389
-0.17313088 0.14127328 0.1354145 0.22105792 -0.14414707 0.20288934 -0.032012228 0.09785542
-0.20937485 -0.037956774 -0.15500648 -0.06966389 -0.025394678 -0.08775902 0.108682916 0.22698711
0.05688367 -0.10803432 -0.05464197 -0.075797535 0.018168565 -0.021797039 0.1432426 0.018748393
-0.21967241 -0.08762735 -0.1186581 0.08604941 0.21956968 0.19907327 0.057976983 -0.15814027
-0.008389624 0.038251933 0.0049254303 0.13508476 0.11827541 -0.0752578 -0.0907735 0.028497169
0.023470793 0.0049909847 -0.23617706 -0.22982441 0.2204018 0.2390067 -0.21470931 -0.17160095
-0.035608176 -0.13864926 -0.24016178 0.07580677 -0.15669592 0.078564376 -0.15822873 -0.012789042
-0.07778292 -0.046371862 -0.10607274 -0.20528185 0.19839504 -0.020400394 -0.1319145 0.22878602
0.031267684 -0.05771491 0.07116729 -0.014978793 0.06142631 0.20568344 0.090472415 0.1726598
0.12952289 -0.098647796 -0.020142175 -0.046164483 0.2435069 -0.09279967 0.1751034 -0.07091594
0.2048566 0.10446786 0.13503164 -0.1751631 -0.007253269 0.22833689 -0.19452955 -0.05354623
-0.24152063 -0.22636506 0.1806101 -0.1446316 0.023339363 -0.20884173 -0.18547632 0.22111349
0.047914974 -0.06719297 -0.06498278 0.23632513 0.17454915 0.17339042 0.22031139 0.009279762
0.036535922 0.014330958 -0.09789338 -0.21261919 0.21859807 0.20327608 0.022974595 -0.087019145
0.2128287 -0.10890486 -0.009302714 -0.08398408 -0.14290641 -0.18675783 0.23905198 0.21504703
0.12040442 -0.09000764 -0.08000485 0.14353001 0.18573849 0.24487326 0.11445705 -0.09325648
-0.10723204 0.23334338 -0.17273529 -0.2061747 -0.025460787 -0.040056705 0.12196488 -0.16647847
-0.05577193 -0.18946992 0.16711907 0.055652298 -0.12234288 -0.065880366 0.15437756 0.19424029
-0.22531986 -0.14244278 0.04205803 0.062031865 -0.15528657 0.09353341 0.011612712 -0.1359669
-0.18734829 -0.0023849842 0.0763842 0.11167567 0.09222831 0.172255 0.21848392 -0.14754574
-0.0869161 -0.20570125 0.19057763 -0.23313837 -0.118529834 -0.2218334 -0.038214438 -0.0963524
0.14362349 -0.19819342 0.1474622 -0.09168565 0.046931863 -0.15749337 0.06743215 0.19189966
0.08340124 0.07427443 -0.06380003 -0.23080361 0.070597716 0.17488398 0.13778812 0.21055424
-0.12934817 0.1399129 0.16784245 0.18151474 -0.12571372 0.1820717 -0.21255927 -0.13125443
0.12809823 0.1936532 0.16165516 -0.064168215 -0.18392396 0.15085848 -0.12218847 0.17028743
-0.0023029607 0.098719895 0.044137433 -0.032552022 -0.10415443 -0.05207793 -0.064723745 -0.2012646
0.08319397 0.09673294 -0.2446275 -0.117271945 -0.19462302 -0.0022000594 -0.13692586 0.19509727
-0.18680067 -0.08231458 0.21631952 0.009645641 0.19636407 -0.11620494 0.21182615 -0.16585535
-0.09738057 -0.21574019 0.23199816 0.09339547 -0.07972532 0.027652115 -0.0062594702 -0.17821595
-0.16193591 0.100751616 0.17774756 0.005176172 0.23679587 -0.015412358 0.14723012 0.094216906
0.24340457 0.10302789 -0.15627462 0.16066778 -0.11692271 -0.19557752 -0.19730681 0.24317817

net.2.bias f4 [50]
00000000: 0000 0000 0000 0000 0000 0000 0000 0000
00000010: 0000 0000 0000 0000 0000 0000 0000 0000
00000020: 0000 0000 0000 0000 0000 0000 0000 0000
00000030: 0000 0000 0000 0000 0000 0000 0000 0000
00000040: 0000 0000 0000 0000 0000 0000 0000 0000
00000050: 0000 0000 0000 0000 0000 0000 0000 0000
00000060: 0000 0000 0000 0000 0000 0000 0000 0000
00000070: 0000 0000 0000 0000 0000 0000 0000 0000
00000080: 0000 0000 0000 0000 0000 0000 0000 0000
00000090: 0000 0000 0000 0000 0000 0000 0000 0000
000000a0: 0000 0000 0000 0000 0000 0000 0000 0000
000000b0: 0000 0000 0000 0000 0000 0000 0000 0000
000000c0: 0000 0000 0000 0000
0.0 0.0 0.0 0.0 0.0 0.0 0.0 0.0
0.0 0.0 0.0 0.0 0.0 0.0 0.0 0.0
0.0 0.0 0.0 0.0 0.0 0.0 0.0 0.0
0.0 0.0 0.0 0.0 0.0 0.0 0.0 0.0
0.0 0.0 0.0 0.0 0.0 0.0 0.0 0.0
0.0 0.0 0.0 0.0 0.0 0.0 0.0 0.0
0.0 0.0

net.4.weight f4 [50, 50]
00000000: 2028 77be bae8 00be be66 aebd a24f 593e
00000010: b338 2bbd 81d1 e93c 036d 9dbd 9264 1c3d
00000020: 7ffb ee3d f84e 2f3d 01f9 f6bc b9fa a83c
00000030: dfaf 6c3e b210 27be 7a12 763e b2d7 5ebd
00000040: e2d9 323e 1043 423e ef99 0b3c 7eb8 b43b
00000050: 4ade 2d3e a064 0bbd 900c 8a3d 8dfd 6f3e
00000060: aea0 46bd 98b1 b0bd 8c83 423e bb59 613e
00000070: 9c87 703e fda8 6cbe b22b 253e 5cec f63d
00000080: 670d 20be 1cd2 233e a1b5 06be e0ab 043e
00000090: 548d ab3c df25 9e3d eb34 1abe 9efc 41bd
000000a0: a05b 08be 2e76 083e e640 47be fb80 8c3c
000000b0: bdcd c13d dbc2 babb 00ef 96bd 29dd 643d
000000c0: 6e82 9e3c 7947 0abe c737 88bd 9b71 5bbd
000000d0: 215d 0dbe 05aa c63b 58d7 9bbd e9cc 0dbe
000000e0: 1538 4bbe c48e 23be af6d 5abd 5c9e 483e
000000f0: ef17 ecbc 82ad 06be c149 3fbe a713 2b3d
00000100: 0b48 553e 4809 62be 246b 413e f20c 603e
00000110: 31fe 623d a245 fa3d ddf6 943d 5e49 5bbe
00000120: 2319 c8bd 76e1 6abd 6193 15be bd53 fcbb
00000130: 6bad 533d 1840 093c fdd4 083e fbd0 13be
00000140: d7fc 523e cd04 ccbd d91e 493e 9e84 633e
00000150: deea 4cbe 9c5e 70be 1e23 3a3e 68f2 3e3e
00000160: 11d4 d6bc 970e 503d f2e8 133d 322c 99bd
00000170: ecfa 033e fe43 a93d c5f8 71be 0463 8abd
00000180: d5f8 14be dd57 d73d de70 7abe dd8f 57be
00000190: a719 5dbe df4e acbd 936f 41be 0afe 47bd
000001a0: 9dbc 0ebe e440 213e d812 5c3e 3e10 c23d
000001b0: 20a5 c2bd 4fad cc3d 6060 57be 4ae9 fabd
000001c0: 3154 52bd 4884 6abe 9635 6b3e 0d5d 243e
000001d0: 8765 e83d 0bc6 eb3d b1d5 763e 1abe bebd
000001e0: e4ab 703d 1eb1 a8bd 8f51 2abd 1ca1 4dbe
000001f0: 23fa 153e 2ead 34be ca32 e0bd a79a 5f3e
00000200: bc34 13be c1f7 003d 2234 66be 4ba9 11be
00000210: 9391 633e f2e5 063e 350c 2a3c cb1b fabd
00000220: 724b 3f3e 7618 6c3e d50f 493d 76b2 21be
00000230: a841 0a3c 3d64 f43d 637f 923d fab5 613e
00000240: 1de2 613e 7219 fe3d ac73 2ebe a6f1 58bc
00000250: 0d4a 423d 0154 a7bd d10d 963d 73b7 233e
00000260: 8384 07be 1fed 98bd 97cb 3ebe e4d8 1b3d
00000270: 7324 163e 72dd 623e ab6d 523c 2b56 233e
00000280: 1c3d 72be a071 aebb 6d49 3dbd ea03 e7bd
00000290: ae33 683e 30a0 1c3e 0a07 51be aec7 63be
000002a0: ba02 ebbd c849 aa3d 2600 ee3d 3cd8 013e
000002b0: 21e6 413e 118a 20be 9728 a93c 0e8f dfbd
000002c0: 5f5b f3bd bf49 1b3b 469b b0bc 3539 4bbe
000002d0: 7d7a 69bb d339 f13d cff3 603e 4c92 87bd
000002e0: 579e 293e 3b69 60bd 5882 38be d4f3 583e
000002f0: 4e24 6dbd 6b1e 69bd 24bf 29bd 6d13 623e
00000300: f53d d6bd de36 85bd 13c5 693c 4e39 24be
00000310: e2a1 c33d 9a2d 533e 6f60 b53d 3646 71bd
00000320: 3cf8 3fbd 08d5 75be 97ba 45be 0686 89bd
00000330: 960b 0b3e 624e 693e 609e 8cbc 0a87 c0bc
00000340: 779d 2b3e 0b69 52bd 831d 2bbe 8109 0e3e
00000350: 84e6 d8bd 59a1 32be f033 0a3b 73e1 26be
00000360: 7b9f 43be 1c43 0abe bb1a aebc 8ff8 a63d
00000370: c9da cfbd fae1 6fbe 58bf aabd 424e 693e
00000380: 74b2 67bd d91e 37be 63c4 bbbd 6ce5 613e
00000390: a704 203d 46a6 0cbd 5463 753e 27ed ce3c
000003a0: 8ea1 183d 7f34 773e e6fd cdbc a3bb 30bd
000003b0: 4bb2 483e 3507 9f3d 04f6 2fbe 838d 203e
000003c0: 3a47 d2bd 51ca 55be 35b1 5d3e 4649 39be
000003d0: 3597 d5bd 87ef 1fbd bf4a bdba bf8e e5bc
000003e0: 32a0 3a3e 46ac 3b3e 012c 5fbe 18b7 68be
000003f0: 1e77 75be a3bd 503e d05f f3bc 5050 f8bd
-0.241364 -0.12588778 -0.0851569 0.21221784 -0.04180212 0.028542282 -0.07686808 0.03818185
0.11669063 0.04279992 -0.030148031 0.020627366 0.23113964 -0.16314963 0.24030486 -0.05440492
0.17465928 0.18970895 0.008520587 0.0055151572 0.16979328 -0.03403151 0.06740677 0.23436566
-0.04849308 -0.08627623 0.18995494 0.22006886 0.23489231 -0.23111339 0.1612995 0.12056801
-0.15630113 0.15998119 -0.13155223 0.1295619 0.020941414 0.07722067 -0.15059249 -0.047360055
-0.13316202 0.13326332 -0.1945835 0.017151346 0.094630696 -0.005699498 -0.073698044 0.055874977
0.019349303 -0.13503827 -0.06651264 -0.05357514 -0.13805057 0.0060627484 -0.07609433 -0.13847698
-0.19845612 -0.1597243 -0.05332726 0.1959166 -0.028820006 -0.13152125 -0.18680479 0.04176679
0.20828263 -0.22073853 0.18888527 0.21879938 0.055418197 0.12220313 0.07273648 -0.21414706
-0.097704194 -0.057343923 -0.14607002 -0.007700412 0.051679056 0.008377098 0.13362499 -0.14435188
0.20604263 -0.09961853 0.19640674 0.22218558 -0.2001147 -0.2347359 0.18177459 0.18647158
-0.026224168 0.050795164 0.036110826 -0.07479133 0.12888688 0.082649216 -0.23630054 -0.06757167
-0.14548047 0.105148055 -0.24457118 -0.21050973 -0.21591817 -0.08413481 -0.18890218 -0.048826255
-0.13939138 0.1574741 0.21491563 0.09475754 -0.09504151 0.099939935 -0.21032858 -0.122515276
-0.051349822 -0.22902024 0.2296966 0.16051121 0.1134749 0.11512383 0.24104954 -0.09313603
0.058757678 -0.082369074 -0.041581687 -0.2008099 0.14646201 -0.17644188 -0.10947187 0.21836339
-0.14375585 0.031486277 -0.22480825 -0.14224736 0.22223501 0.13173655 0.010378887 -0.12212332
0.18681124 0.23056206 0.049087364 -0.15790734 0.008438505 0.119331814 0.07153203 0.22042075
0.22058912 0.12407197 -0.17036313 -0.013241207 0.0474339 -0.08170319 0.07326854 0.15987949
-0.13234143 -0.07467102 -0.18632351 0.03804864 0.14662342 0.22154787 0.01284353 0.15950839
-0.23656124 -0.0053236037 -0.046212602 -0.112800434 0.22675964 0.15295482 -0.20412841 -0.2224414
-0.114751294 0.08314854 0.11621122 0.12680143 0.18935443 -0.15677668 0.020649238 -0.109159574
-0.11882662 0.002369508 -0.021558415 -0.19846042 -0.0035625987 0.11778607 0.21968006 -0.06619701
0.16564308 -0.054787856 -0.18018472 0.21186763 -0.05789595 -0.056913774 -0.04144205 0.22077723
-0.10461036 -0.06504606 0.014268178 -0.16037485 0.09552361 0.20622864 0.08856284 -0.05890485
-0.046867594 -0.24007046 -0.1930946 -0.06715016 0.13578638 0.22783807 -0.017165363 -0.023501892
0.16759287 -0.051369708 -0.16710477 0.13870813 -0.10590842 -0.17444362 0.0021088086 -0.1629694
-0.19103806 -0.13502163 -0.02125298 0.081528775 -0.10149152 -0.23426047 -0.08337277 0.22783759
-0.05656667 -0.17882861 -0.09168317 0.22060174 0.039066937 -0.03433826 0.23963672 0.025259567
0.037263446 0.2414112 -0.025145482 -0.043147694 0.19599263 0.077650465 -0.17183691 0.15678982
-0.10267492 -0.20877959 0.2164963 -0.18094358 -0.10429231 -0.03904679 -0.0014441832 -0.028022168
0.18225172 0.18327436 -0.2179413 -0.22726095 -0.23971221 0.2038484 -0.029708773 -0.121246934

net.4.bias f4 [50]
00000000: 0000 0000 0000 0000 0000 0000 0000 0000
00000010: 0000 0000 0000 0000 0000 0000 0000 0000
00000020: 0000 0000 0000 0000 0000 0000 0000 0000
00000030: 0000 0000 0000 0000 0000 0000 0000 0000
00000040: 0000 0000 0000 0000 0000 0000 0000 0000
00000050: 0000 0000 0000 0000 0000 0000 0000 0000
00000060: 0000 0000 0000 0000 0000 0000 0000 0000
00000070: 0000 0000 0000 0000 0000 0000 0000 0000
00000080: 0000 0000 0000 0000 0000 0000 0000 0000
00000090: 0000 0000 0000 0000 0000 0000 0000 0000
000000a0: 0000 0000 0000 0000 0000 0000 0000 0000
000000b0: 0000 0000 0000 0000 0000 0000 0000 0000
000000c0: 0000 0000 0000 0000
0.0 0.0 0.0 0.0 0.0 0.0 0.0 0.0
0.0 0.0 0.0 0.0 0.0 0.0 0.0 0.0
0.0 0.0 0.0 0.0 0.0 0.0 0.0 0.0
0.0 0.0 0.0 0.0 0.0 0.0 0.0 0.0
0.0 0.0 0.0 0.0 0.0 0.0 0.0 0.0
0.0 0.0 0.0 0.0 0.0 0.0 0.0 0.0
0.0 0.0

net.6.weight f4 [4, 50]
00000000: 36e1 5c3d f44f a4be 7ef1 87be 30d9 923d
00000010: 52e8 973e 7644 45be 287a 413e 4889 54be
00000020: a06e eabd 3644 a93e e058 b93d 2013 10be
00000030: 36ab 19be 5b20 963d 9828 543e 9c52 803e
00000040: eb84 c83c 6e44 2cbe f02a 2a3e 64e5 8ebe
00000050: 2b4a 2fbc 8f46 9dbe db4c 8fbd 563b 01bb
00000060: e6c5 8b3e db56 9c3d a864 66be beb1 1c3e
00000070: d680 0f3c 2e1c 59be ea5b 90be ab11 8d3d
00000080: 9e21 44be 36a8 02be 1be3 2ebe 8831 7ebe
00000090: 08dd 5cbe 4bf0 4abd ab3c 06bc 4e73 663e
000000a0: 9f10 8cbe 9f0c 923e 8e98 9d3e 4607 a5be
000000b0: 73cb 5b3e b65a 8b3e fcde 81be bb1d 313e
000000c0: e852 113e 4bc9 323e 3b08 ebbd a8c7 31be
000000d0: 00bc 0abb 1614 d1bd 169f 173e 4b31 7ebe
000000e0: 68c4 903e a619 dabd b3be 433e 4bb4 dcbd
000000f0: e03d 50bd 0bc5 4a3d 2387 96be 4335 1d3e
00000100: b46a 9a3e 80f1 7ebe 208b 023e 8c33 9bbe
00000110: 56d7 56bc 6362 1bbe b898 93be 1b91 153e
00000120: 9b75 553e ab32 3a3d 06fe e53d 80cc 3cbe
00000130: 608e 613e 04d5 87be 1094 bbbd 90cc f5bd
00000140: 6842 13be 4b83 8c3e 7419 843e 6670 2f3e
00000150: b886 03be cb47 52be 101e bdbd 3046 05be
00000160: 6b2f 183d 7e3c 2c3e a010 a03e 2030 6f3e
00000170: 7b35 8cbe 039a 923e 8258 9ebe c006 173d
00000180: c020 223d 20da 72bd 5b5c d2bd c835 13be
00000190: d6b8 433e 6691 59be 109c 863d eb58 f63d
000001a0: df6f 823e 565b d23b 5400 933e d004 a7be
000001b0: a89c 3cbe 4350 94be 804a 1dbc 3b17 53be
000001c0: 76d0 633e 7044 22be 1626 e83c 5848 903e
000001d0: fb32 a8be 5bcd 0c3e 7a60 91be 7667 253e
000001e0: d0e1 b2bd 3e70 92be 4bfc 603d 1664 c73c
000001f0: 0b7e ed3d 93ad 4c3e b6f1 0cbd 804a 1ebe
00000200: 34cc a63e 26d1 d2bd 0205 923e 739c 633e
00000210: 8e60 a7be e6af c5bd 6b65 b03c 90c4 88be
00000220: eb64 693d c316 0dbe 502a 2fbe 800e 7e3e
00000230: 4bc0 123e 5ed9 a93e 16a6 8bbd 9629 c2bd
00000240: f600 5abe 4076 1a3d 2be7 853e b66f 15bd
00000250: 707e ecbd ce2f 5a3e 8072 3e3c 0beb 413d
00000260: 13d5 a03e f075 a33e 1f2c a33e 342c 9abe
00000270: 96dc 673d e2c3 8a3e 9b4f 973e 071c 94be
00000280: 10c3 7b3e 68b5 1dbe a6f0 2abe fe41 40be
00000290: f36f 35be 2b7f 55bd 00e8 c3bb 938c 15be
000002a0: 5e60 5b3e 6605 44be 030a 983e 2004 9abe
000002b0: d0f9 e03d c815 51be 2bd0 3dbe 9bd9 a13d
000002c0: f698 7fbd e000 65be c051 a1bc bb09 76be
000002d0: 0001 4bbe f3bd 493e 1627 a93c c0c8 c0bd
000002e0: c3a7 883e c0f8 273d 0eda 763e 2055 0d3e
000002f0: 8031 e03c 6b8e fbbd bbfa 15be cc6e 953e
00000300: 70f4 913d 1b80 913e b3f7 4b3e 1636 9abc
00000310: aa44 9dbe 26a7 093e 1b73 97bd f0dd 883d
0.053925715 -0.3209225 -0.2655143 0.071703315 0.29669434 -0.19264397 0.18894255 -0.20755494
-0.11446881 0.33059853 0.09050155 -0.14069796 -0.15006718 0.0733039 0.2071861 0.25063026
0.024477443 -0.16822979 0.16617942 -0.27909386 -0.010698835 -0.30717894 -0.06997081 -0.0019719205
0.27299422 0.07633754 -0.22499335 0.15302178 0.008758744 -0.21202156 -0.28195125 0.068881355
-0.19153449 -0.1275948 -0.17078821 -0.24823582 -0.21568692 -0.049545567 -0.008193175 0.22504923
-0.2735643 0.28525254 0.30780452 -0.32232112 0.21464328 0.27217644 -0.25365436 0.17296498
0.14191782 0.174596 -0.11476179 -0.17361319 -0.0021169186 -0.10208909 0.1480678 -0.24823491
0.28274846 -0.10649423 0.19115715 -0.10776576 -0.05084026 0.04950432 -0.29399976 0.15352349
0.30159533 -0.24896812 0.12748384 -0.30312765 -0.0131128635 -0.1517425 -0.28827453 0.14606135
0.20845644 0.045458477 0.11230092 -0.18437386 0.22026968 -0.26529706 -0.091591 -0.12001908
-0.143808 0.2744392 0.2580067 0.1713272 -0.1284436 -0.205352 -0.092342496 -0.13015056
0.037154596 0.16819951 0.31262684 0.23358202 -0.27384552 0.28633127 -0.309269 0.03687167
0.039582014 -0.05929005 -0.10271522 -0.14375985 0.19113478 -0.21246871 0.06572735 0.120286785
0.25475976 0.0064195795 0.28711188 -0.3262086 -0.18419135 -0.28967485 -0.009600282 -0.2061433
0.2224749 -0.1584642 0.028338473 0.28180194 -0.32851395 0.13750212 -0.28393918 0.16152748
-0.087344766 -0.2860126 0.054928105 0.024339717 0.115963064 0.19988088 -0.0344102 -0.15458107
0.3257767 -0.10293798 0.28519446 0.2222765 -0.32690853 -0.096526906 0.021532735 -0.26712465
0.05698101 -0.13778214 -0.17105985 0.24810219 0.14331166 0.3317365 -0.06818788 -0.09480588
-0.21289429 0.03771043 0.2615293 -0.03648349 -0.115475535 0.21307299 0.011623979 0.047343295
0.31412563 0.31925917 0.318696 -0.3011185 0.05660685 0.27102572 0.29552922 -0.28927633
0.24586129 -0.15401232 -0.16693363 -0.18775174 -0.17718486 -0.05212323 -0.0059785843 -0.14604406
0.2142348 -0.19142684 0.29695138 -0.30081272 0.10985148 -0.20418465 -0.18536441 0.07902833
-0.062401734 -0.22363615 -0.019692302 -0.2402715 -0.198246 0.19701366 0.02064852 -0.0941329
0.26690492 0.04100871 0.24106619 0.13802004 0.027367353 -0.122830234 -0.14646427 0.29186094
0.07126701 0.2841805 0.19918709 -0.018824618 -0.3071645 0.13442668 -0.073950015 0.06682956

net.6.bias f4 [4]
00000000: 0000 0000 0000 0000 0000 0000 0000 0000
0.0 0.0 0.0 0.0

net.0.weight f4 [50, 24]
00000000: 6dab 6ebd 3c24 65be 7b68 823f 908c 22bf
00000010: 11f1 81be 2545 a7bd 1804 19bd a18e afbd
00000020: 882d 07bd 8bb8 1fbe 4f3c 0fbe 5db7 223e
00000030: 1bab 85bd 16f4 133e 6561 a1bd 02fa afbd
00000040: fabe 9fbd 1b85 6cbe 3360 a73d 7090 eabd
00000050: ef8f ae3d 4c72 78be 216f 363d eed2 6c3e
00000060: a1d6 e8bc a98c 8dbb f1e1 ec3d c27d ec3e
00000070: c269 043e 368c 363d 4763 d33d ff64 223e
00000080: 4246 0dbe 6ec0 8cbe e77e 303e 7e74 09be
00000090: e8b1 243d 9991 c0bd bd81 5f3e 3085 bebd
000000a0: 416b d9bd b05b 35be 4bbc 873d 40c6 61be
000000b0: 142a 7b3e aa5b 563e 54e9 5dbe 7cc5 85be
000000c0: 6a94 f83d 4b3c ae3e c060 a4bf d5ad 4f3f
000000d0: 1d49 d43d 44cf c6bc 3535 ab3d a3ef efbd
000000e0: 8c06 93bd 04ec b63c 61f3 31be 549f e3bd
000000f0: 80c0 debd cc23 d8bd fd17 903e b631 81be
00000100: 0cf0 79be 2dcd 52be 2a5a 253e bd34 78be
00000110: 9000 313e b983 8d3e 0dd5 883e ecde 873e
00000120: b49e 803d 187d b8be 7cf4 ea3e fee4 c83e
00000130: dcde edbd 8a0a d5bd e768 2e3e 2307 8f3d
00000140: 1df1 5b3e 0e91 7fbc 6e4e 7bbe f66b 883e
00000150: a1a4 31be 454f 12be 1f34 853e bfd6 a7bd
00000160: bb54 1e3e 099c 323e 43f7 08bd 4786 6abd
00000170: de8e 013e 5eae 6cbd 4604 f13d 5cc6 b8bd
00000180: 9be1 7fbd 2a09 98bd d679 f3be 0ce3 80be
00000190: 981c 8dbc dddb c23c 5ba6 35bd 230c f6bd
000001a0: 1817 e6bc f57c c73d a0fe ba3d 5d24 9e3d
000001b0: 66f9 123d 6395 cbbd 3613 03be 5a9b 20bd
000001c0: 1d03 f33d 21c3 85be 43e4 f73d a3c8 233e
000001d0: da0d 90be 59c1 f43d 24ed 2f3d 892c e83d
000001e0: a376 c3be 6ba4 88bd 025c d4bd e2c6 debe
000001f0: 11fe 823e d9d8 49bc c6ca b63e e919 33bd
00000200: d8e0 9bbe 9d22 f7be 23b0 b0bc f111 7abe
00000210: f18e 233e 8f50 703e 1b89 2f3e f37b 5ebe
00000220: ea0e 86bd 0922 573e 8f86 6d3d e684 b73c
00000230: 3dfe b4bc eb09 20be 0486 b9bd 2af7 293e
00000240: a00a c1bd 9335 98be a162 183f 638a 25be
00000250: 8daf 24be 324b 2c3e 4f58 b0bd f01d f03d
00000260: 2531 bfbd f19d 2e3e 52cf 36be 8719 933e
00000270: e0a8 44bd 243e 2dbe c22b 7cbd 95c7 563e
00000280: fcc6 643e b0f1 a43c c6cf 4a3e 6f92 c2bd
00000290: bc61 e6bc 1475 563e 729c 4abb 1a25 763d
000002a0: 0ddb d43e 6b61 a93e a072 f0be 5ec2 9fbc
000002b0: 2f8d 253c cbc7 0c3d be26 633e a25b a63d
000002c0: c12d 90be 0b00 093e da81 46bc d777 5f3e
000002d0: b62f 4ebc 0093 ff3c cd22 97bd 12a8 35be
000002e0: 7b7c 7abe 44bb 67be e255 5d3d 5aef 073e
000002f0: 5fb2 95bc b43c 863e 20a7 4abd f939 593e
00000300: b7f1 4bbc b623 15be 75f4 60be e081 25bf
00000310: 3f61 813e b92b a33d 63d2 423e 4e82 893d
00000320: d451 923e 09c0 84be 1fa6 6cbe 681c 87bc
00000330: 3670 03be 315e 083c 91a3 7c3e 56d9 f73c
00000340: 7526 0c3d 7b93 72be d76b c33a 38cf 69be
00000350: 47f1 91bd a08b 483e 9832 bebc 9d5f f53d
00000360: 7c03 6a3d d25e 0e3e 2b1c b73e 2f27 833d
00000370: 6c73 65be 87f9 29bd 962c 75be c31e 42be
00000380: ec6b 3ebe 4a52 993e 948b cebc c795 8bbc
00000390: 7ccf 323d 9124 2f3e 5a9d 163e 588a 023e
000003a0: d409 843e fe58 563d 0f94 00be 3bea 033e
000003b0: 7800 e2bc 7995 8f3e 097c 61be dd00 2abe
000003c0: 4667 473e 8b03 e3bd ef53 1abe 5483 d9be
000003d0: 4b96 8c3e ca23 403e 392f 803e 79c2 ddbd
000003e0: 0875 123e 66a6 fdbd 4c1a 7dbd ebe7 7bbe
000003f0: 3c75 2ebe 865a 9fbd 8665 593e 3159 48be
-0.058268953 -0.22377104 1.0188135 -0.6349573 -0.25379232 -0.08167485 -0.03735742 -0.08572126
-0.033002406 -0.15597741 -0.1398785 0.1589026 -0.065267764 0.1444858 -0.07879905 -0.08592607
-0.07800098 -0.2309765 0.081726454 -0.114533305 0.08523547 -0.24262351 0.044539575 0.23127338
-0.028422656 -0.0043197465 0.115665324 0.46189696 0.12930968 0.04456731 0.1032167 0.1585884
-0.13796332 -0.27490562 0.1723591 -0.13423344 0.040208727 -0.094027705 0.21826835 -0.09302747
-0.1061616 -0.17710757 0.06627711 -0.22048283 0.2452777 0.20933405 -0.21671039 -0.2612723
0.12137683 0.34030375 -1.2842026 0.8112462 0.10365508 -0.024268754 0.08359758 -0.11715629
-0.07178983 0.022329338 -0.17377998 -0.11114374 -0.1087656 -0.10553703 0.28143302 -0.2523324
-0.24407977 -0.20586081 0.16147676 -0.24238868 0.17285371 0.2763956 0.26725045 0.26537263
0.0628027 -0.3603294 0.45889652 0.39237207 -0.11614773 -0.10402401 0.17032205 0.06983783
0.21478696 -0.015598549 -0.24541637 0.26644868 -0.17347957 -0.14288051 0.26016328 -0.081952564
0.1546201 0.17442335 -0.033438932 -0.057256963 0.12652156 -0.057783477 0.11768393 -0.09022209
-0.062471014 -0.07423623 -0.4755389 -0.25173223 -0.017225549 0.02378648 -0.044348102 -0.12014034
-0.028087184 0.097406305 0.09130597 0.077217795 0.035882376 -0.09940603 -0.12800297 -0.039210655
0.11865828 -0.26125434 0.12104084 0.15994506 -0.28135568 0.11950941 0.042950764 0.113366194
-0.3817645 -0.06671985 -0.103691116 -0.4351111 0.25584462 -0.012319767 0.3570158 -0.04372588
-0.3044498 -0.48268595 -0.021568364 -0.24420907 0.15972497 0.2346823 0.17142145 -0.2172697
-0.065458134 0.21009077 0.057989653 0.022402238 -0.022093887 -0.15628783 -0.090587646 0.16598192
-0.09425855 -0.29728374 0.59525496 -0.16166072 -0.16082592 0.1682556 -0.086105935 0.1172446
-0.093355455 0.17052437 -0.17852524 0.28730413 -0.048012614 -0.16918236 -0.06156517 0.20974572
0.22341532 0.020134777 0.19805822 -0.09500586 -0.028122775 0.209431 -0.0030916003 0.060093977
0.41573372 0.33082137 -0.46962452 -0.019501861 0.010104462 0.034370225 0.22182748 0.08122946
-0.28159907 0.13378923 -0.01211592 0.21823059 -0.012584617 0.031198025 -0.073796846 -0.17739895
-0.24461548 -0.2263003 0.054036982 0.13274899 -0.01827353 0.26218188 -0.04947579 0.21213521
-0.012447766 -0.14564404 -0.21968253 -0.646513 0.25269505 0.07967324 0.19025569 0.06714307
0.28578055 -0.2592776 -0.23110245 -0.016493037 -0.12835774 0.008323238 0.2467177 0.030255001
0.034216363 -0.23689072 0.0014909458 -0.22832954 -0.07126098 0.19584513 -0.023217484 0.119811274
0.05713223 0.13903359 0.35763678 0.06403958 -0.22407311 -0.041497733 -0.2394279 -0.18957047
-0.18595856 0.29945594 -0.02521304 -0.017039193 0.043654904 0.17103793 0.14708462 0.12748086
0.25788748 0.052330963 -0.1255648 0.1288232 -0.027588114 0.28043726 -0.22019972 -0.16601892
0.1947299 -0.1108466 -0.1507108 -0.42483008 0.27458414 0.18763652 0.25036028 -0.10828108
0.14302456 -0.123852536 -0.061792657 -0.24600188 -0.17036909 -0.07780938 0.21230134 -0.19565274

net.0.bias f4 [50]
00000000: 5599 b0bd 6432 a7be f292 c53c 746e 6ebe
00000010: 36da bcbe 2397 2b3e 230d 6fbe f612 aabe
00000020: 0899 753e 2c0d 45be ba29 443e 5057 55be
00000030: 5a4b 4dbe 0c6a 09be ebf2 75be 5ca6 4fbe
00000040: 0de9 6e3e 4e05 30be bb1c a33e 5262 793e
00000050: 1f02 8f3d 4c7c 523e e661 7c3e 278c 0fbe
00000060: 2e8d 3a3e bb9d 5bbe 5469 fb3d e626 cebb
00000070: 4ef3 7dbe 031e aabe f0d1 d8bd 77bd 1d3e
00000080: 1b7e 063d 8a21 b3be 0770 44be b0d7 3d3e
00000090: dd29 8dbe a7c3 7cbe 54a0 7d3e 65d9 5dbe
000000a0: 4c93 a63e 79e3 53be 78d2 9e3e 06d6 85bc
000000b0: b025 a2bd 1689 613e a89a eb3d aa98 45be
000000c0: 69b7 1dbe 19ea 143e
-0.08622996 -0.32655632 0.02411792 -0.23284322 -0.36885232 0.16756873 -0.23344855 -0.3321759
0.23984158 -0.19243306 0.19156542 -0.20834088 -0.20048276 -0.1341936 -0.24018447 -0.20278305
0.2333109 -0.17189524 0.31857857 0.24353912 0.069828264 0.20555228 0.2464672 -0.14018308
0.18217918 -0.21446888 0.12275949 -0.006291258 -0.24799845 -0.33226022 -0.105869174 0.15404306
0.032835107 -0.34986526 -0.1918336 0.1853931 -0.27571002 -0.2468401 0.24768192 -0.2166496
0.32534254 -0.20692243 0.3101995 -0.016337406 -0.079173446 0.2202495 0.11504108 -0.19296518
-0.15401997 0.14542426

net.2.weight f4 [50, 50]
00000000: 405c 22be 4766 25be 27f0 dd3e f7b9 83be
00000010: 3824 e93d 5f92 ce3e a8c5 87be bca1 213e
00000020: ef31 5d3e bb32 b43d 2296 033e c02f 7fbe
00000030: 5325 183d 11ce 033e d64b 80ba 7c96 d73d
00000040: e96f 023e 4c51 10bd fed6 b33e 4dcc 0c3c
00000050: cc02 433e 1b2b 883d 1ae1 b13e b566 d93d
00000060: a9ef 2fbe ec62 083d 9140 90bc 091b 3a3e
00000070: ddae b4be b530 cbbe 58d7 8f3d e2fc d7bd
00000080: 3254 363e 5402 463e 5bf8 68be 68d3 f4bd
00000090: 4a27 0ebe 8e3a 68bc cb96 debd ce14 e33d
000000a0: 50a9 153e 7b88 64bc 877b 6dbd 612b 41be
000000b0: 9e8f 37be 1cf9 48bd 36e0 a5bc 1a66 77bd
000000c0: 7e1e 00bd 768e 183e 9a8d 2dbc 7138 e6bc
000000d0: 1c19 99bc a303 69be e024 a93e 090b 8a3e
000000e0: 46c5 b83e 33de 4b3e abdf bf3e 85dd ccbd
000000f0: a73d 54be 7ab7 573e 0f5a 97be 17c6 ccbe
00000100: 6c70 093f ef2a d73e 643e 4dbe 03d0 c5be
00000110: eaf2 013e 9384 80be da69 a33a 8cf9 cd3d
00000120: 1eaf ff3d f7da 253e cf17 233e 83a6 7ebd
00000130: d90e 9cbd f347 d23c 29ed b3be 0ecc 0dbe
00000140: 36a6 eebc 2282 c83d 1feb 1ebd 94b7 953e
00000150: 6fd8 a5bd cc7a af3e ecf2 ae3e d149 973d
00000160: 9739 833e 087f 02be 73ab cbbe cbd2 27be
00000170: b636 03be 926c b5be 6a16 12bd 0647 c6bd
00000180: eb9e 5cbe 4509 2ebe 0793 133f bbf2 d93c
00000190: 6e73 853e fcdd 1e3e 10f0 993e 93f4 2ebc
000001a0: b6d1 a7bc 5b4c bfbe 6f42 f4bd 02b3 05bd
000001b0: c22a b9be d58f 8e3e f796 4cbe fd2c f53d
000001c0: 1372 4c3e f4e7 303e 48e5 a23d b199 a6bd
000001d0: 9f4f 4d3d 758a 56be 42c2 6f3c ee8a 6fbd
000001e0: acef 003e f07e 8c3c 500a 65bd 6bc1 9e3e
000001f0: 94b3 e5be fbd3 0e3e 1164 c9bc 5ff6 5e3e
00000200: 7405 ea3e b208 2c3d 05d6 913d bc17 e13c
00000210: bcec 5cbe e477 423e fa02 6d3e 539f 6fbe
00000220: 8115 903d d3f0 863e 177d babe 9dc1 043d
00000230: 5a23 97be c19b 163c 61ee 273e 6d03 a93e
00000240: feac 80bd ac78 e9be d342 1ebd 5434 8e3d
00000250: 24e5 683e db2b 01be 8e0a d03e f3dd 95bd
00000260: ad3b e9be b5f5 ea3d 04e7 54be 161e 50be
00000270: 4265 b23d 362c abbd 0294 65be f302 fe3c
00000280: 8ac0 863e 3fc4 6c3e d77e b5bd a635 d5bd
00000290: 9ac6 ca3e 858d a6bd fe39 1cbd b124 83bd
000002a0: 54a8 9c3c 303a 67be 91b4 c6be 2539 4bbe
000002b0: 1606 a7be 1e8f de3c c655 a43d 782f 77bd
000002c0: 3108 bb3d 593b 993d 76d6 133e 2a7c 6e3e
000002d0: 85cc b43d f087 a53e d64d c53d 701e 55be
000002e0: e32b 613e 44b9 ab3d f87a 903d 0745 b73d
000002f0: 9484 44be aa64 633e 2c75 ba3d c475 7d3e
00000300: fadc 8bba 69f4 8b3d bdfa fcbd 5d12 f3bd
00000310: c63a 6cbe b580 10be 27e5 ef3d a83b 8bbd
00000320: 8125 27be f4a4 22be e702 c53c d06c a33d
00000330: 33e9 71bc 6440 e73e 3d1a 8b3d 62f0 3bbe
00000340: bbfa da3e 78eb 95be 7a1c 6dbb f01b 3e3d
00000350: a155 763c 54da 093c 687d b43d 0f3e d23d
00000360: 8492 e0bc 2879 fabd a571 403d 32c5 b23e
00000370: 79ab c9bd 069e 1dbd d017 623e ed2f 25bd
00000380: 573e e43e d51a b9ba 6cd3 c9bd 3eb1 7b3d
00000390: e1de c0be 158e 14be ef50 17bd aa7d de3c
000003a0: 649d a03e 0c65 98be 630a c8bc 8c2d a13e
000003b0: 7d46 4dbe fa5c 13be 74fc fb3d f714 763d
000003c0: cd35 b53d fb41 163c 6ead 73bb d3ee 253d
000003d0: a3fc 5abe 239b e73e 01d0 28be 7dad 8ebd
000003e0: ef9b 213e dadd b93d 9e51 d3bd 2b5b e3be
000003f0: a77b b1be ebaa acbe 2735 44be 23f4 fdbb
-0.15855503 -0.16152297 0.43347284 -0.25727817 0.11383861 0.40346047 -0.26517987 0.15784353
0.2160108 0.087987386 0.1285024 -0.24920559 0.03714497 0.12871577 -0.0009788226 0.105267495
0.12738003 -0.03523378 0.35124964 0.008593631 0.19044036 0.06648847 0.3474205 0.10615293
-0.17181267 0.033297464 -0.017608913 0.18174376 -0.3528966 -0.39685598 0.070234954 -0.105462804
0.17805555 0.19336826 -0.2275099 -0.11954385 -0.13882175 -0.014174117 -0.10868605 0.110879526
0.14615369 -0.013948555 -0.057979133 -0.18864204 -0.1792588 -0.049065694 -0.020248514 -0.060400106
-0.03127908 0.14898095 -0.0105928425 -0.028103085 -0.01868873 -0.22755294 0.33035946 0.26961544
0.36088008 0.19908981 0.37475333 -0.10003189 -0.20726644 0.21066085 -0.29560897 -0.3999488
0.5368717 0.42024943 -0.20043331 -0.38635263 0.1269032 -0.25101146 0.0012467459 0.10057363
0.12484573 0.1619681 0.15927051 -0.062170517 -0.076200195 0.025669074 -0.35141876 -0.13847372
-0.02913199 0.09790446 -0.038798448 0.29241621 -0.08097922 0.34273374 0.3416971 0.07387126
0.25629875 -0.12743771 -0.39779243 -0.16389005 -0.1281384 -0.35434395 -0.035665907 -0.096815154
-0.21544997 -0.16995724 0.5764622 0.026605 0.26064628 0.15514368 0.30065966 -0.010678428
-0.02048574 -0.37362942 -0.11926734 -0.03264142 -0.36165434 0.2784411 -0.19979464 0.119714715
0.19965391 0.17275983 0.07953888 -0.08134783 0.05012476 -0.20951255 0.014633717 -0.058482103
0.12591428 0.017150372 -0.055918038 0.3100694 -0.4486357 0.13948052 -0.024583848 0.2177367
0.45707285 0.04200048 0.07120899 0.027477138 -0.21574682 0.18991047 0.23145667 -0.23400621
0.070353515 0.2635561 -0.3642356 0.032411207 -0.2951916 0.009192408 0.16399528 0.33010426
-0.06282996 -0.45599878 -0.038637947 0.069435745 0.2274366 -0.12614386 0.40633053 -0.07317724
-0.45553342 0.11472646 -0.2079125 -0.20323977 0.0871072 -0.08358042 -0.22419742 0.031007266
0.2631877 0.23121737 -0.088620834 -0.10410623 0.39604646 -0.081324615 -0.038141243 -0.06403483
0.019123234 -0.2258079 -0.38809636 -0.19846018 -0.3262183 0.027167853 0.080241725 -0.060348004
0.09132422 0.07482023 0.14437279 0.23289552 0.088280715 0.32330275 0.09633987 -0.20812392
0.21989398 0.08384946 0.070547044 0.08948713 -0.191912 0.22206369 0.0910438 0.24751955
-0.0010670715 0.06833727 -0.12352512 -0.11868737 -0.23069295 -0.14111598 0.11713629 -0.06798488
-0.163229 -0.15883237 0.024049236 0.07979739 -0.014765072 0.45166314 0.06792114 -0.18353418
0.42769417 -0.2928121 -0.0036180303 0.046413362 0.015035064 0.00841387 0.08812982 0.10265743
-0.027413614 -0.1223014 0.04698338 0.34916073 -0.09847159 -0.03848078 0.22079396 -0.04032891
0.44578812 -0.0014122376 -0.09854779 0.06144833 -0.37670043 -0.14507325 -0.03694242 0.02715953
0.3137008 -0.29764593 -0.024419015 0.31480062 -0.2004642 -0.14390936 0.12304011 0.060078587
0.08848152 0.009171004 -0.003718223 0.040510964 -0.21385436 0.45235547 -0.16485597 -0.06966684
0.1578214 0.09075518 -0.103183016 -0.44405493 -0.34664652 -0.3372415 -0.19160901 -0.0077500506

net.2.bias f4 [50]
00000000: b11c 693e 2a33 243d 5540 36be bfeb 4abe
00000010: 5b71 7e3e b339 af3e 69ba 8fbe 0f5e 253e
00000020: b5f7 2abe f645 653e b7ae 60be ead0 19be
00000030: e0b3 5dbe 68d7 df3c 3963 e93e 820d dfbd
00000040: d4ff a53e d7ef 223e 3897 a63e a3f2 9bbe
00000050: fd72 903e 1d13 42be aaa7 1dbe 567d 47be
00000060: 1084 78be c4a4 1f3e 7331 99bd 213c d03d
00000070: 7631 04be 4f5c a33e b891 2e3e 8fa4 443e
00000080: d9e3 3abe 9d9f 1ebe b54c 0abe fa5e be3e
00000090: 49a2 5abd 010e a4be 028b 5d3e afe0 10be
000000a0: 77fa 60be 604f b13e 38a8 943e c693 6cbe
000000b0: f6ca 3b3e 0d60 713e 7465 91be bff6 2bbe
000000c0: 492e 41be fd7f 8e3e
0.22764851 0.040087856 -0.17797978 -0.19816492 0.24847929 0.3422371 -0.28071907 0.16149162
-0.16696055 0.22389969 -0.21941648 -0.150211 -0.21650648 0.027324393 0.45583513 -0.10891248
0.32421744 0.15911804 0.32537246 -0.30458555 0.2821273 -0.18952604 -0.1539599 -0.19481406
-0.24269128 0.15590197 -0.07480135 0.10167719 -0.12909493 0.31906363 0.17047775 0.19203399
-0.1825098 -0.15490575 -0.13505824 0.37181836 -0.053377423 -0.32041934 0.21635059 -0.1414821
-0.21970545 0.3463087 0.2903459 -0.23103246 0.18339142 0.23571797 -0.28397715 -0.16793345
-0.18865313 0.27832022

net.4.weight f4 [50, 50]
00000000: 6d65 503d e46f 97bd 1f73 743c 7bab a0bc
00000010: 961c 3b3d 7ddb 4e3f 08ee 04bf 8b5f f8bb
00000020: 7ce6 4fbd 9e68 933e d768 973c f2d4 06be
00000030: c5be 83be ecd2 ba3d 7b97 333f 0f8f 523e
00000040: e650 cb3e 06e7 c5bc d15e 5d3e fed8 14bf
00000050: f9aa 463f 1e58 99be 410c f8bd 7e53 c53d
00000060: dd56 3e3e 64bd 70bd 8483 46be 6071 55be
00000070: 3eb2 4abe a384 9c3d 3242 203e 8d60 533c
00000080: 4e52 f4bd 2a5d c8bd 9396 89be d99f 383f
00000090: ac3e 433e 3c00 15bf ec4d e6bd 9749 bfbe
000000a0: 28de acbd bf14 163f b681 0b3f e098 0ebf
000000b0: 95c7 873e a1d4 513e b716 17bf 2ff5 cdbd
000000c0: 3143 9dbd 9554 5c3f e8df dc3d 9eed 643e
000000d0: 4f0c a83d 8755 f8bd 34cb 2a3d bc0d 383f
000000e0: dafb 32bf 3723 84bd 9bfe 9dbd 5fa7 e13d
000000f0: 9928 3b3d a05e ddbd 0c53 fdbe 26c6 8bbd
00000100: 9dc3 653f 36a2 73be a456 e23e 2c2a c43e
00000110: 95d1 983e cec3 0cbf 24e9 133f 105a c6bc
00000120: 9255 443e c9a1 cd3e 62d0 08bc e302 1b3d
00000130: 72e5 9dbd 69c7 82be 0e43 59be 793f 903e
00000140: 0688 15be 9822 4c3e f2e8 dcbd 9722 4abe
00000150: cf1e e13d 96aa 433f ba9f c7bd 76e6 f5be
00000160: 583e 193d f673 17bf 35bb 573e 6f67 153f
00000170: 0e49 cb3e 9422 0bbf 8431 fa3c c1ee f13e
00000180: 6143 c0be 282c 2b3d 47ea 293c 4e56 4c3f
00000190: 5bf6 d3be 8536 d3be 0b78 483d 6f9b a03e
000001a0: 2c4f 2d3e 068c 403d b85c 0b3e 9a8a 34be
000001b0: 0b6c c43e cbd3 03bf 05db 103f a491 3c3b
000001c0: 34df ab3d 1e69 533e 5961 00be 61a2 973e
000001d0: 13e7 bcbd 0b7e b1be 091e a1bd fc19 dc3d
000001e0: 1e03 033d b4e5 8e3e 9d00 f83c 077b cf3e
000001f0: dbd8 363e a6b2 e7be 0a0a acbe 7ca8 cebe
00000200: 75c9 afbd f356 e5be ed40 f53c 5866 3fbe
00000210: ab70 8d3e 29a1 0c3d 9141 623e e806 b5be
00000220: 1d5a 843d 6cc4 ae3e b356 36bb 0127 30be
00000230: b300 ee3d 004a acbe c8d0 113e faf5 ea3e
00000240: 24e0 aebe a5ea 0cbe 7c63 79bd 83c7 eabd
00000250: 67ae 183e c704 94be dea3 58be 5eed 8ebd
00000260: f78b 92be 5006 cfbb c3e1 91bc 1971 5d3f
00000270: e9aa b2be 2f26 6a3e 4450 88be 49ac b83e
00000280: 23ac 503e 7a6d 973c 36ac c2be 21de 363e
00000290: 6de0 423f 5d84 bbbd 3df7 7c3e 3d40 b13d
000002a0: 645b ea3e 7d37 e2be f9ad 053f 75c3 89be
000002b0: bf3a e53d e1f8 093e 069f e83d 235e cabd
000002c0: 731a 26be 10c1 fabd f5a7 8e3d 3da7 383e
000002d0: 801c 843e 6f95 c23e 2662 53be ad17 ff3d
000002e0: 15ac 9bbe 7d5b 123f 8cef 033e 7c70 2dbf
000002f0: 2509 9e3e a7d1 dabe 4124 bc3d 0e31 493f
00000300: 887b 973e 6e43 acbe 49c7 bd3d c5f9 793e
00000310: 3a24 10bf cd6c a43d 927f 113e 5106 0f3f
00000320: db84 1d3e c9ed 193e 7a30 44be 3b8e 81be
00000330: cf61 d43d 7f5a 4a3f 1846 2abf f819 5bbe
00000340: 27bb 1e3e 3406 8c3d 2fbc fabd 772c bc3c
00000350: c4e4 d1bd de74 573e 3724 463f 2bb9 1b3d
00000360: 80e9 af3e df7f 0e3d 5774 cc3e 517d 05bf
00000370: b754 f83e 792a 5ebe 16c7 6bbe a8af 823e
00000380: 0a2c 1abc ae58 193d 7a80 9fbe 05ef 5bbe
00000390: 8960 03be 3be0 2f3c 857f b53d 2e0a 3fbc
000003a0: e32d 673e a4f7 5fbe 2bbf 7ebe 0b2e 3a3f
000003b0: cd39 22be ee9a 24bf 2453 4f3e fbba 1cbf
000003c0: 1e0a 2d3e cedd eb3e 5924 a73e edbf 9ebe
000003d0: 7e5d eb3b 785f 053f 6bf2 d8be dcff 063d
000003e0: 923b 35be 01de 553f 914d d739 53bd 253e
000003f0: ca65 5fbe d0e9 4d3d d529 8e3e 0768 2c3f
0.050877977 -0.07394388 0.014920025 -0.019613018 0.04568156 0.8080366 -0.51925707 -0.007579749
-0.050756916 0.28790754 0.018482609 -0.1316717 -0.25731483 0.091222614 0.70153016 0.20562385
0.39710158 -0.024158012 0.21618201 -0.58143604 0.77604634 -0.2995004 -0.12111712 0.096350655
0.18587823 -0.058774367 -0.19386107 -0.2084403 -0.19794556 0.07642486 0.15650252 0.0129014375
-0.11929761 -0.09783395 -0.26872692 0.7211891 0.19066876 -0.5820348 -0.11245331 -0.37360832
-0.084408104 0.58625406 0.544948 -0.5570202 0.26519457 0.20491268 -0.59019035 -0.10056531
-0.07678831 0.8606656 0.10784894 0.22356269 0.08205473 -0.12125688 0.041697696 0.71895957
-0.69915545 -0.06452029 -0.07714578 0.11018252 0.045693014 -0.10809064 -0.49477422 -0.06824903
0.8975161 -0.23792347 0.44206727 0.38313425 0.29847398 -0.54986274 0.5777762 -0.024212867
0.19173267 0.40162495 -0.008350464 0.03784455 -0.07709779 -0.25542763 -0.21216986 0.28173426
-0.1460267 0.19935071 -0.10786618 -0.19739757 0.109922044 0.7643217 -0.09747262 -0.4802739
0.03741297 -0.5916132 0.21067508 0.5836095 0.39704174 -0.5434964 0.030541189 0.47252467
-0.37551406 0.041790158 0.0103707975 0.7981919 -0.41398892 -0.41252533 0.048942607 0.31368586
0.16924733 0.047008537 0.13609588 -0.17630997 0.3836368 -0.51495045 0.565842 0.0028773332
0.08392182 0.20645568 -0.12537135 0.29616073 -0.092237614 -0.34666476 -0.07867057 0.107471436
0.031985395 0.27909625 0.03027373 0.4052355 0.17856161 -0.45253485 -0.3360141 -0.40362918
-0.08583347 -0.447929 0.029938186 -0.18691385 0.2762502 0.03433338 0.22095324 -0.35356832
0.064625 0.34134233 -0.0027822673 -0.17202379 0.11621227 -0.33650208 0.142398 0.4589079
-0.3415538 -0.13761385 -0.06088589 -0.11463835 0.14910279 -0.28909895 -0.2115626 -0.06978868
-0.2862241 -0.006317891 -0.017807847 0.865007 -0.3489602 0.22866128 -0.26623738 0.36068943
0.20378165 0.01848482 -0.38022012 0.17858173 0.76123697 -0.09156106 0.24703689 0.086548306
0.4577285 -0.4418296 0.52218586 -0.26906934 0.111928456 0.13473846 0.11358456 -0.098812364
-0.16221027 -0.12243855 0.06965629 0.18032546 0.25802994 0.38004634 -0.2064291 0.12455688
-0.30404726 0.5717085 0.12884349 -0.6774976 0.30866352 -0.42738077 0.091866024 0.78590477
0.29586434 -0.33645195 0.09266526 0.24411686 -0.5630528 0.080285646 0.1420882 0.55869013
0.15382712 0.15032114 -0.19159117 -0.25303826 0.10370218 0.79044336 -0.66513205 -0.21396625
0.1550108 0.06837121 -0.122429244 0.022970421 -0.10248712 0.21040675 0.7739901 0.038018387
0.34357834 0.034789916 0.3993251 -0.5214434 0.48502132 -0.2169589 -0.23025164 0.2552464
-0.009409914 0.037438087 -0.31152707 -0.21477897 -0.12829794 0.010734613 0.08862213 -0.011660142
0.22576098 -0.21871811 -0.24877612 0.72726506 -0.15842362 -0.64298904 0.2024656 -0.6122281
0.1689839 0.4606766 0.3264492 -0.31005803 0.007182776 0.520988 -0.4237245 0.03295885
-0.17698506 0.83541876 0.00041065787 0.16185503 -0.21816173 0.05027181 0.2776629 0.67346233

net.4.bias f4 [50]
00000000: 0664 153f 8a1a 0e3f d72c 25be 6c35 1e3f
00000010: 20b0 123f 15a4 083f 578c 12bf ed75 19bf
00000020: 6484 10bf ac6a 0fbf 3c9b 0e3f a885 303e
00000030: 73da ddbe a029 20bf 5632 2dbe be7c 28bf
00000040: c137 3dbe c29b 143f 2604 0dbf db6f 12bf
00000050: c9ff 653d 621e 933d bcbf 22be f62c 84be
00000060: 6225 413e c2f8 08be 8be1 aa3e 4f9d 10bf
00000070: d01f 1bbf b610 37be 88bd 22be df08 1dbf
00000080: ce56 eabe 65bd 40be 89b4 10bf 477c 15bf
00000090: 2ea0 17be f6bd 17bf 11ec 2fbf 0705 9a3d
000000a0: d28a 1cbe e178 2fbf 216c 09bf b9a7 1a3f
000000b0: 280b 2ebf b041 1b3e 7135 893e 8e7b 0fbf
000000c0: b061 0c3f d1c9 233e
0.5835575 0.55509245 -0.16130386 0.61800265 0.57299995 0.5337537 -0.5724539 -0.59945565
-0.5645201 -0.56022143 0.5570562 0.17238486 -0.43330726 -0.62563515 -0.16913733 -0.6581534
-0.184783 0.5805017 -0.55084455 -0.5720193 0.05615214 0.071835294 -0.15893453 -0.25815552
0.18861917 -0.13376144 0.333752 -0.56490034 -0.6059542 -0.17877468 -0.15892613 -0.6134166
-0.45769352 -0.18822248 -0.56525475 -0.5839276 -0.14807197 -0.5927423 -0.68719584 0.0752049
-0.15287331 -0.6854382 -0.53680617 0.60412174 -0.67985773 0.15161777 0.26798585 -0.56047904
0.5483656 0.15994956

net.6.weight f4 [1, 50]
00000000: 1b64 9fbf a2f8 a2bf fddb a23f 2712 a0bf
00000010: 416b a8bf 53df abbf f183 a83f 0e13 983f
00000020: b1c2 9b3f 8ccc a73f 7a79 afbf d85c aabf
00000030: e755 af3f e896 ab3f 1ee0 993f 56c4 8b3f
00000040: fc71 b33f 2218 98bf 517a ae3f 3949 ac3f
00000050: fafb 2bc0 2ceb 37c0 dcbf a83f 1588 b03f
00000060: 3140 90bf 4bc1 ad3f 3e12 a7bf 0241 923f
00000070: 9303 923f d888 933f 1c58 9f3f 7a27 913f
00000080: c7b4 9c3f f956 a63f 7735 a33f 5719 a43f
00000090: bda9 b33f 53ae aa3f 73d4 863f 1ef0 3ec0
000000a0: 7f71 9d3f a388 893f 1191 af3f a383 96bf
000000b0: fc27 8c3f e203 afbf b627 9dbf 1b00 a83f
000000c0: c0e7 a2bf 4ad9 9dbf
-1.2452425 -1.2732127 1.2723385 -1.250554 -1.3157731 -1.3427528 1.3165265 1.1880815
1.216879 1.3109298 -1.3708947 -1.3309584 1.369809 1.3405428 1.202152 1.0919292
1.401916 -1.1882365 1.3631078 1.3459846 -2.6872544 -2.8737288 1.3183551 1.3791529
-1.126959 1.3574613 -1.3052442 1.1426089 1.1407341 1.1526136 1.2448764 1.1340172
1.2242669 1.2995292 1.2750691 1.2820233 1.4036175 1.333445 1.0533584 -2.9834056
1.2300261 1.0744823 1.3716146 -1.1758922 1.0949702 -1.367306 -1.2277744 1.3125032
-1.2726974 -1.2331936
