gail/gail_output/500_expert/BipedalWalker-v3/discriminator.ckpt (torch, 29259 bytes, 7 tensors)

net.0.weight f4 [50, 28]
000000 ed d8 02 38 46 75 1e 3e 68 81 97 3e 5b e7 6a bc
       3.1196443e-05 0.15474424 0.29590917 -0.014337386
000010 89 b9 82 bd aa 8f 5c 3d 69 22 17 3e 9d d7 f1 3c
       -0.06383044 0.053847946 0.1475922 0.029521758
000020 d6 5d 87 3b f7 cc 56 3e 8c fa 32 3e 41 c0 34 3e
       0.004131059 0.20976625 0.17478389 0.17651464
000030 2d 0e 5d 3d 3d 93 bc bd d1 87 da 3d 84 08 61 be
       0.053968597 -0.09207771 0.10670436 -0.21975905
000040 bc ea e7 3d cf db ad 3d 01 35 80 3d 64 73 ff bd
       0.11324069 0.08489191 0.0626011 -0.12473181
000050 44 94 16 3e 37 40 7a 3d cc 38 f0 3c bd 43 31 be
       0.14704996 0.061096396 0.029323958 -0.17310996
000060 8e ae fc 3d 1f a2 99 3d 70 01 80 be 13 02 69 3e
       0.12337981 0.07501625 -0.25001097 0.22754698
000070 c0 4d 2a be 15 c5 00 be 09 c3 03 be 6d 2d 83 bd
       -0.16631222 -0.12575181 -0.12867369 -0.06405149
000080 2c e4 a8 3d 1e 7f e9 bd 7c 3f cb bd 81 61 cf ba
       0.08246645 -0.11401199 -0.09924218 -0.0015821905
000090 0a 92 3c bd c5 be e7 bd f8 37 3f bd 4d c0 7b 3d
       -0.04603771 -0.11315683 -0.046684235 0.06146269
0000a0 e6 70 b4 3d c5 77 97 bb a7 96 4a be 32 44 b3 3d
       0.08810596 -0.004622432 -0.19784032 0.087532416
0000b0 9d d4 68 be 7f 11 5a be 5b e5 a9 bd d1 79 01 be
       -0.22737356 -0.21295737 -0.08295699 -0.12644126
0000c0 75 42 a2 3c 06 5d b6 3d f4 27 20 be b6 00 f0 3c
       0.01980708 0.089044616 -0.15640241 0.029297214
0000d0 ae 93 4b be 15 3e 99 3e b4 a3 27 be 9e db 8a 3d
       -0.19880554 0.29930177 -0.16371042 0.0678017
0000e0 d5 4c ad 3d f4 99 50 bd 13 90 27 3e ab 81 26 3e
       0.0846192 -0.05092807 0.16363554 0.16260402
0000f0 db 66 af bd ba 0f 0c 3e 46 94 ff 3b a1 20 09 be
       -0.0856454 0.13677874 0.007799658 -0.13391353
000100 0e e8 19 be 8e a1 0b 3d 90 69 f8 3b 12 cf 71 bd
       -0.15029928 0.034089617 0.0075809434 -0.05903537
000110 ca 9c 5f 3e 0a d1 ac bd b5 18 a4 bd bf 6a e2 bc
       0.21837154 -0.084383085 -0.08012525 -0.027638791
000120 1e 5b 06 3e 5a a1 3a 3d 65 c2 a3 3d 05 60 6a bb
       0.13120696 0.045564033 0.07996062 -0.0035762799
000130 10 8d 27 bd c0 2b 1d 3d c7 c9 1a 3e b6 89 7e bd
       -0.040906012 0.0383718 0.15116034 -0.06214305
000140 27 69 d6 3d 03 a3 a3 bd 3c 50 17 bd b9 fa 6a 3c
       0.10469275 -0.079900764 -0.03694175 0.0143420035
000150 93 9c f7 3c b9 7b 4d 3e 82 21 df bd 47 50 9b 3e
       0.030226028 0.20066728 -0.10895063 0.30334684
000160 1e 65 f0 3d 79 93 2f bd 17 8b 22 bd 74 25 03 3c
       0.117380366 -0.04286525 -0.039683428 0.008004535
000170 75 69 0b bd 67 7b a1 3d 9a bb bf bd 50 3a 30 3d
       -0.03403612 0.07884865 -0.09361954 0.04302436
000180 89 6c c5 3c 43 57 8f 3e b4 64 d0 3d b8 86 01 be
       0.024099605 0.27996263 0.101754576 -0.12649047
000190 b7 7b b8 bd d2 47 ad bb 26 aa a6 3c c2 0f e8 bd
       -0.09007972 -0.0052881027 0.020344805 -0.113311306
0001a0 64 55 8b bd ec b5 de 3d f1 fb ad 3c 83 10 0f be
       -0.06803396 0.108745426 0.0212383 -0.13971142
0001b0 18 22 f1 3e 46 e7 fa 3c 1f 8d 55 bd b5 93 06 bf
       0.47096324 0.030627858 -0.052136537 -0.52569133
0001c0 1f 1c 10 3e b9 09 cc bd 0f 03 07 be eb ec f6 3e
       0.14073227 -0.09962792 -0.1318476 0.4822763
0001d0 b0 3d 93 3d d5 c0 da 3e f9 c3 fe bd c4 16 12 bd
       0.071895 0.42725244 -0.124397226 -0.035666242
0001e0 31 66 c6 bd 7f 08 f9 3d 64 87 ec 3d 8e 99 9c bd
       -0.0968746 0.121598236 0.11549261 -0.07646476
0001f0 99 40 9e 3d 19 4d 8f be 75 65 0f 3e d6 21 1d 3c
       0.07727165 -0.27988508 0.14003547 0.009590587
000200 d1 78 cc bc 52 d7 4b bc 9b 08 14 3e 0c 94 8e 3c
       -0.024959954 -0.012441473 0.14456408 0.017404579
000210 07 d0 1e be dc 64 4a be 9d 5e 21 be 13 13 bb bd
       -0.15509044 -0.19765037 -0.15758748 -0.091344975
000220 33 19 02 be fc 63 3c be 76 b4 3c 3e 58 ab 98 3d
       -0.12704925 -0.18397516 0.18428215 0.07454556
000230 f1 f2 50 3d 30 c1 de bc 56 14 9e 3c ba a4 7d bd
       0.051012937 -0.027191728 0.019296806 -0.061924674
000240 76 2e a4 3d 49 27 19 3e 12 9e a2 3e 4a a2 c2 bd
       0.08016674 0.14956392 0.31761223 -0.095036104
000250 b6 60 4d be 42 b8 8b 3c 6b eb 0d bc f6 d2 60 bd
       -0.20056424 0.017055634 -0.008662085 -0.054888688
000260 1f bd 99 be 50 a8 09 3e c6 26 a7 3d 2f 61 9e 39
       -0.300271 0.13443112 0.08161692 0.00030208516
000270 9f 17 5c be 9a 09 a8 bb 1b f2 1b be bf 8e a9 3c
       -0.21493386 -0.0051280977 -0.15229075 0.02069795
000280 0d a8 5e be c1 c8 08 3e 58 b7 c2 3d 0e 18 26 bc
       -0.21743794 0.13357832 0.09507626 -0.010137571
000290 1a d3 4c 3b 6c ae 2e be f8 68 36 bc 72 35 0c be
       0.0031253756 -0.17058724 -0.011133425 -0.13692263
0002a0 f7 d4 58 bc ae 69 f8 bd da de 4a be 1c 72 27 be
       -0.0132343685 -0.12129532 -0.19811574 -0.16352123
0002b0 88 b6 95 bd ea cb fd bc f3 d6 e2 bd db 6a 2d be
       -0.07310206 -0.030981023 -0.110761546 -0.16935293
0002c0 3b 92 8c 3d f9 8d cb 3c aa e1 b2 3e 0e 00 1c 3e
       0.06863829 0.024847971 0.34937793 0.15234396
0002d0 27 b8 f7 3d b4 ea 92 3e 3a ab 4e 3e 17 95 8e 3b
       0.12095671 0.2869469 0.20182505 0.004351269
0002e0 97 36 85 3e 59 eb 85 3e 5c a5 3b 3e ac 93 54 3e
       0.2601821 0.2615612 0.18324798 0.20759457
0002f0 b0 3d 1d 3e 96 07 df bd d7 5d ab bb 8d 90 35 bc
       0.15355563 -0.10890119 -0.0052296924 -0.011081827
000300 3a 79 69 bd 25 6d df 3d a7 e8 0d 3e c8 f6 b8 3d
       -0.057000376 0.109094895 0.13858281 0.09031445
000310 02 15 69 bd 77 86 55 be 1a 9d fa 3c 9d 70 84 3e
       -0.0569048 -0.20852076 0.03059249 0.25867167
000320 3d 5d 31 3e a1 04 59 3d c7 87 27 3d 98 a4 1d be
       0.17320724 0.05298293 0.04090097 -0.15394819
000330 6c b2 fc bb ba e7 8c bd d0 cf 60 be 51 f7 ec bd
       -0.007711699 -0.06880136 -0.21954274 -0.11570609
000340 cd 1e 43 bc ef 34 c0 3d 23 27 92 3d 9c 7f 24 bc
       -0.011909199 0.09385096 0.07136371 -0.01004019
000350 6d 14 7d 3d 77 8b 1b be 2e 39 f8 bd cd 3b 1d 3c
       0.061787058 -0.1518992 -0.12120281 0.009596777
000360 0c 6c f8 3b 85 44 25 3e bb a1 0b 3e 74 42 fc bd
       0.0075812396 0.1613942 0.13635914 -0.123173624
000370 c9 f5 9c 3d 7c 57 2e 3e 34 3b 02 3e d9 44 70 3d
       0.07664067 0.1702556 0.12717897 0.05865941
000380 d2 07 72 3d 98 33 14 be 7f f3 6e 3d b0 21 2c 3e
       0.05908949 -0.14472806 0.058337685 0.16809726
000390 18 f0 b1 3d 0b 8c 91 be c2 e0 ec bd 5f 61 4c bd
       0.086883724 -0.28427157 -0.11566307 -0.049897548
0003a0 4b ed 1b be 7c af 05 bd c8 3b 12 3e 1c 23 9f 3e
       -0.15227239 -0.032638058 0.14280617 0.31081474
0003b0 eb d4 e0 3d 71 6f 56 bc 7f 8d df bd 62 be 59 bd
       0.10978111 -0.013088093 -0.1091566 -0.05316008
0003c0 32 93 c9 bd 08 0b 13 be e5 7f ee bd ac 21 aa 3c
       -0.098425284 -0.14359677 -0.11645488 0.02076801
0003d0 d2 85 63 be d7 bb 49 be 49 93 8b 3c 64 95 ec 3b
       -0.22219017 -0.19700561 0.017038004 0.007219957
0003e0 a2 48 71 bd 71 44 95 be bb 53 ba be 3c 32 a7 3d
       -0.05890716 -0.2915378 -0.36392006 0.08163878
0003f0 d9 ea 56 3c 5c 24 e7 3d 29 bf 82 be ac 9f fe bd
       0.0131175155 0.11286232 -0.2553647 -0.12432799

net.0.bias f4 [50]
000000 03 d1 fc 3c a4 17 3b 3e ec 2d 81 3d 2f ad 55 bd
       0.030861383 0.18270737 0.06307587 -0.052167114
000010 00 e7 f4 3d d7 8f 15 be f0 02 17 3e 5d 6d 1f be
       0.11958122 -0.14605652 0.14747214 -0.15569063
000020 d0 2b 8a bd a7 36 3a be 7c 6a 8e bd 65 e5 47 be
       -0.06746638 -0.1818491 -0.06953904 -0.19521101
000030 10 77 ce 3d f9 88 19 be d3 a4 cb 3d bb dd 5d 3d
       0.10081303 -0.14993657 0.09943547 0.054166537
000040 52 60 04 be 91 e5 e4 3d 91 cd 12 3e 13 7b a5 bd
       -0.12927368 0.11176599 0.1433623 -0.08080115
000050 d0 f1 3f be d7 17 c8 3d b1 32 7d be bc 54 7c 3e
       -0.18744588 0.09770172 -0.24726368 0.24641699
000060 76 68 d6 3c d9 1e 76 3e 20 36 cb 3d 66 17 93 3c
       0.026172858 0.24035205 0.09922433 0.017955493
000070 f5 c1 80 bd 7b ea 6b 3e 2c 7e 98 3d 91 0a 84 bc
       -0.06286994 0.23038666 0.074459404 -0.01611832
000080 dc 47 17 3e 4f 0c f3 bd bb 4a aa bd 7d 48 02 bd
       0.14773506 -0.11867582 -0.08315035 -0.03180741
000090 ee 1a 8b bd 95 8e 08 bc 7c b0 29 be b9 c7 16 bc
       -0.06792246 -0.008334775 -0.1657123 -0.009202891
0000a0 de 36 95 be 2e 9a 12 3e a5 b2 76 3c 78 ff 5d bd
       -0.29143423 0.14316627 0.015057241 -0.054198712
0000b0 c3 7b 7f be 72 0b 55 be b6 aa 71 be 1f 7f 8a 3e
       -0.24949555 -0.20805147 -0.23600277 0.2705011
0000c0 b8 95 52 bc db dd 69 3c
       -0.012853079 0.014274086

net.2.weight f4 [50, 50]
000000 b5 9d a8 bd 86 e3 21 3d 76 55 a8 bb b9 08 5a 3e
       -0.08233205 0.039523624 -0.005137141 0.2129239
000010 74 33 98 3d f4 49 37 be f1 72 db 3d 95 7c 67 3d
       0.07431689 -0.17899305 0.10715283 0.056515295
000020 41 50 a7 bd ee 5d 6c bd 5a 73 83 bc be 81 15 3e
       -0.08169604 -0.057706766 -0.016046215 0.14600274
000030 0b 64 4f be 09 a5 eb 3d 88 f9 d4 bd a5 6f 96 3b
       -0.20253007 0.11506087 -0.10399157 0.004590946
000040 91 07 8a bd 6e c5 d6 3d e4 4d dd 3c 57 90 f7 3d
       -0.067397244 0.104868755 0.02701468 0.120880775
000050 c8 0d 92 3c 6d 43 12 3e 0e 9b c5 bc 14 05 1b 3e
       0.017828837 0.14283533 -0.024121787 0.15138656
000060 9c f8 4d 3d 15 01 06 3d 5d 83 b4 bd e5 9e 10 bb
       0.05028592 0.032715876 -0.08814118 -0.0022067365
000070 b9 60 2a 3d b8 c8 95 3c 0d 36 e4 3d 57 45 b2 bd
       0.04159615 0.018284187 0.11143122 -0.08704632
000080 b9 ac 5f be 55 2b 8c bd 0d f5 65 bd 29 f4 0c be
       -0.21843232 -0.068442024 -0.0561419 -0.13765015
000090 f9 ed b2 3d c2 05 08 be 14 35 3a 3d 19 18 a2 bd
       0.08736796 -0.13283446 0.045460775 -0.079147525
0000a0 f6 50 10 bc 2b f1 04 be 46 db 60 3e 89 7b 2d 3e
       -0.008808365 -0.12982623 0.21958646 0.16941656
0000b0 5a 9c ad bd 9a 3e 60 3d f2 a4 36 3d 3a d1 93 bc
       -0.08477087 0.0547472 0.044590898 -0.018044103
0000c0 e6 2d 9c 3b cd 3e ed 3d 05 eb 6f 3d 81 cd 8a 3c
       0.0047662137 0.11584244 0.05857374 0.016943695
0000d0 60 b2 50 3e 84 40 f9 3c 92 62 a0 3d 59 e1 e1 3c
       0.20380545 0.030426271 0.07831301 0.027573274
0000e0 10 90 02 3d 57 e5 59 3d f8 9c 53 3c 15 9e 0d 3e
       0.03187567 0.05319723 0.012915842 0.13829835
0000f0 68 2c bf 3d 58 2a e7 ba e2 94 3a bd 45 1b 1e 3e
       0.09334642 -0.0017636521 -0.045552142 0.1544009
000100 be fb 9c bd c9 50 e1 3d 42 33 01 bd 5d 32 f3 bb
       -0.076652035 0.11001737 -0.031543024 -0.0074217753
000110 d7 a9 31 bd e8 9a 9c bd ec e3 85 bb fe 75 17 bc
       -0.043374863 -0.076467335 -0.0040860083 -0.00924444
000120 8b a4 99 bb cb 58 30 3e 55 c3 f3 bc 16 c2 5a 3c
       -0.0046888045 0.17221372 -0.029756228 0.013351938
000130 66 76 10 3d db 01 84 bd 9c a9 dd bc 71 f3 58 bd
       0.035269164 -0.064456664 -0.027058415 -0.05296654
000140 db f7 6b 3e b1 22 36 3c d2 93 7f be 34 2a 58 3e
       0.23043768 0.0111166695 -0.24958733 0.21109849
000150 61 bf 96 3b 89 21 10 bd 65 66 fb 3c 97 20 c4 3d
       0.004600451 -0.03518823 0.030688474 0.095765285
000160 66 54 01 3d 9d bd ef bc 1a e6 12 be bf 58 1f 3d
       0.03157463 -0.02926522 -0.1434559 0.038902994
000170 e4 8f 38 3e 22 bc 0e 3d 34 f7 23 3d d1 68 da 3c
       0.1802364 0.034847386 0.040030673 0.026661308
000180 43 a3 0d 3e 45 4e b0 3d 89 08 9b bd 26 17 b7 3c
       0.1383181 0.08608679 -0.07569987 0.022349905
000190 1f a6 b8 bd e8 a4 04 3e bf 52 9f bd e2 a7 3f 3e
       -0.0901606 0.12953532 -0.077794544 0.18716386
0001a0 67 58 1a 3e b4 f8 92 bd 8c 07 b7 bd ad fb cf bd
       0.15072785 -0.071763426 -0.08936986 -0.10155425
0001b0 30 64 85 3e 76 83 81 3e 45 52 b7 bd a1 07 4b 3e
       0.26053 0.2529561 -0.089512385 0.19827129
0001c0 e5 66 49 be 6a 71 47 bd b3 fd a0 bd 00 f8 a5 38
       -0.19668157 -0.048692144 -0.07860889 7.914007e-05
0001d0 1b 30 27 be d3 18 47 be c7 d3 55 3d be d1 28 3e
       -0.16326945 -0.19443063 0.05220392 0.1648626
0001e0 e0 6a 23 3e d9 be a1 3d b5 cf 92 bd e9 54 14 3d
       0.15958738 0.078977294 -0.07168523 0.03621379
0001f0 51 0b ab bd ba 9b 9a bd de e2 2e be 97 63 d5 3c
       -0.08351768 -0.07549234 -0.1707873 0.026048465
000200 86 70 03 3e 88 a3 87 bd f2 b5 c2 3c aa 6f 1b 3e
       0.12835893 -0.06622988 0.023768399 0.15179315
000210 2c d8 96 3c 42 7a e2 bd f5 ca ba 3d 00 3e c8 3c
       0.018413626 -0.11058475 0.09120742 0.024443626
000220 a9 9e 19 3e 2c c6 d6 3d c8 3e dd bd 32 4f 62 bd
       0.1500193 0.10487017 -0.1080299 -0.055251308
000230 2b 07 89 bd 57 fd 38 be 9f 7a 18 3e 9d 5a 03 3d
       -0.0669082 -0.18065391 0.14890526 0.032068837
000240 60 31 9d bd f6 19 f5 bc 8b 32 dd 3d e8 a8 c7 3d
       -0.07675433 -0.029919606 0.10800656 0.09749013
000250 79 2e 55 bd 2b c3 62 3e 40 1a 4c 3d 18 9a 42 be
       -0.052046273 0.22144763 0.04982972 -0.19004095
000260 8e bc 40 bc f5 9a 47 3e ec 36 93 bc 61 2f 38 be
       -0.011763705 0.19492705 -0.017970525 -0.17986824
000270 3e 33 b9 bb 7f 50 a3 bd f4 f6 62 3e 46 8a aa 3d
       -0.0056518605 -0.07974338 0.22164518 0.08327155
000280 ad 47 ca 3d 01 d7 ce 3d 29 80 4f be 22 b3 25 3d
       0.09876952 0.100996025 -0.20263733 0.040454037
000290 0b cf cc 3d e3 0e 13 3e a1 ec 67 bd 35 d8 73 3c
       0.10000428 0.14361148 -0.05662215 0.014883091
0002a0 cf 99 85 bd 12 b3 1f bd 4d 30 11 3e b2 fd fb 3c
       -0.06523477 -0.038989134 0.14178582 0.03076062
0002b0 25 a8 04 be 02 79 2a bd 59 50 26 3c 4f b8 ea 3d
       -0.12954767 -0.04161931 0.010150992 0.11460935
0002c0 aa 57 08 3c 86 84 72 bb 49 6c 1a bd 15 82 d5 bd
       0.008321682 -0.003700526 -0.037700925 -0.10425202
0002d0 ce 4c 16 3e 27 88 fc 3d ef a7 0b be 39 a1 2e 3e
       0.14677736 0.123306565 -0.1363828 0.17053689
0002e0 7b 43 0a be 5f c8 01 be 20 63 be 3c 63 0e 0c 3e
       -0.13502304 -0.12674092 0.023240626 0.13677363
0002f0 3b cd 7b bc a2 0f df 3c a4 5a 2c be fd 64 c4 3d
       -0.015368755 0.027229134 -0.16831452 0.095895745
000300 a9 8c 2c 3e 00 cc 1e 3e 0b d1 44 3d e9 ae be 3d
       0.16850533 0.15507507 0.04805092 0.09310705
000310 2d bc 76 bb b2 42 db 3d 9f f9 7a bd 82 ec ff 3d
       -0.0037648783 0.107060805 -0.061273213 0.12496282
000320 65 fd b6 3b bb e8 7e bc da c6 82 bd aa e3 34 3d
       0.005584406 -0.015558417 -0.06385584 0.04416243
000330 2b 22 c0 bd e4 ad f9 3d c6 3f b4 3d 59 69 a4 3d
       -0.09381517 0.1219137 0.08801226 0.08027906
000340 2e 46 79 3d b3 07 f1 3d 2b d9 2a 3d ca 33 e6 39
       0.060857944 0.11769047 0.041711014 0.00043907604
000350 83 e4 a4 3c 16 f1 c8 3d 1a 09 9a 3d 59 98 c8 3c
       0.020128494 0.098116085 0.07521267 0.024486708
000360 c3 94 82 bd 03 fa fa 3d 1f c2 25 3e cc d2 e4 3d
       -0.0637603 0.12254717 0.16187333 0.11173019
000370 46 40 00 bd ce 3c 97 bd ef ee ce bc 79 a1 b0 3b
       -0.031311296 -0.073846444 -0.025260417 0.005390343
000380 e5 fd 87 bc 16 94 d6 bc 48 ae 01 3e 8e f8 25 be
       -0.016600559 -0.02619366 0.1266414 -0.16208097
000390 a2 5c 02 3e 72 be 5d bd b1 ee ea bd c4 cf 0b 3d
       0.12730649 -0.0541367 -0.11471308 0.034133688
0003a0 42 d4 2b be 88 fe 16 3e 28 b9 6e bd e0 ac 56 3d
       -0.16780189 0.14745533 -0.058282048 0.05241096
0003b0 d3 74 dd 3d bc ac c7 bc 80 4b 3e 3d c0 a3 b7 3d
       0.10813298 -0.024374358 0.04645872 0.0896678
0003c0 44 29 9d bd a1 de 43 be 92 08 f4 3c bc 8b 80 bd
       -0.076738864 -0.19127895 0.029789243 -0.06276652
0003d0 ca 72 0e be ac 5c c9 bd 7a fa a4 3d cb d5 70 bd
       -0.13910976 -0.09832129 0.08055587 -0.05879764
0003e0 fd d0 a5 bd 83 b3 16 3e f3 0c 54 3d d3 e3 05 3d
       -0.08096502 0.14716916 0.05177016 0.032687973
0003f0 94 e4 24 3e 54 32 62 3d 77 ba d3 3d 38 a7 b8 3d
       0.1610282 0.055223778 0.103383 0.090162694

net.2.bias f4 [50]
000000 ec 67 80 bd 17 1c 20 3e 09 d4 43 3e ea 02 6b 3c
       -0.062698215 0.15635715 0.19123854 0.0143439565
000010 bd c2 a2 3d 76 75 f7 3d a3 e0 46 3e c0 b7 8a 3e
       0.079473 0.12082951 0.1942163 0.27093315
000020 b9 f4 7a 3d d7 f5 1b be 46 eb 11 bc a8 25 0a 3c
       0.061268542 -0.15230499 -0.008906191 0.0084318295
000030 eb 55 fd 3c 23 b5 bb bc 99 3c 7b be f2 53 9a 3c
       0.030924758 -0.022913521 -0.24534835 0.018838856
000040 90 6f 6b 3d a5 39 25 bd 25 ce e8 bd 38 0d fb bd
       0.05747944 -0.040338177 -0.11367444 -0.12258381
000050 9e c1 38 bd de ac 02 be 01 ca ba bc 54 db 4d be
       -0.045106523 -0.12761256 -0.022801401 -0.20103198
000060 35 88 6c bc 86 02 0b be 8a 12 0e 3e 5b 1f 1e bb
       -0.014436771 -0.13575181 0.1387426 -0.0024127576
000070 7a 2a 75 bd cb 02 a4 bd d7 5c 0d 3b 66 1c b6 3d
       -0.059854962 -0.08008345 0.002157023 0.08892135
000080 c6 58 57 be b0 c6 39 3e 15 ba 43 be 9f c4 99 3d
       -0.21029958 0.181422 -0.19113953 0.075082056
000090 32 95 41 be fc 86 2f be 89 05 71 bd e3 ca ca bc
       -0.1890457 -0.17141336 -0.05884317 -0.024754947
0000a0 27 e3 db 3d de 0e 0c be 91 8b 62 be fa 44 22 be
       0.10736685 -0.13677546 -0.22123553 -0.15846625
0000b0 27 4e 0f be e2 37 6e 3e 31 fd 95 bd bb d2 94 3c
       -0.13994657 0.23263505 -0.07323683 0.01816689
0000c0 42 99 09 be 20 a1 2f be
       -0.1343737 -0.17151308

net.4.weight f4 [50, 50]
000000 b1 b9 8f 3d 1c 9d d6 3c cd 02 25 bd 68 f6 90 bc
       0.0701784 0.026197962 -0.040285874 -0.01769562
000010 64 fb 16 3d 82 c0 30 bc 2d 4c f4 bd ff 48 41 bc
       0.03686084 -0.010788085 -0.11928592 -0.011797189
000020 47 2a c3 bb 39 0b 0b 3d aa cc ba bd 8e 41 12 3e
       -0.0059559676 0.03394625 -0.09121068 0.1428282
000030 cf 03 d2 bd 70 de 86 be 6e ac 89 bc dd 2b 12 3e
       -0.10254633 -0.2634158 -0.016805854 0.14274545
000040 22 d8 c1 bd fd e1 c9 bb 8a 1e 0c 3e f3 6c ad 3d
       -0.09465052 -0.006160973 0.13683525 0.08468046
000050 43 cf 1c bd a4 79 f8 bc 08 6c 39 bd 3d ec 18 3e
       -0.038283598 -0.03033144 -0.045269042 0.14933868
000060 30 84 7b 3d 0d 9a 16 3e a2 e3 83 bd 80 bc 4c bd
       0.06140536 0.14707203 -0.06439902 -0.049984455
000070 8d 30 09 3e ca 3f 18 3e 9d bb b7 3c 82 67 3f be
       0.13397427 0.14868084 0.022428328 -0.18691829
000080 ba b8 4c 3e 9a 18 b9 bd 29 63 5a 3e d2 27 22 be
       0.19992343 -0.090378955 0.21326889 -0.15835503
000090 9e 7d 8e bd 3a 2b 2a 3e 41 c0 6a 3e 5d a4 65 bc
       -0.06957553 0.16618052 0.22924902 -0.014016238
0000a0 7c ad 48 bd f2 e9 34 3e 49 b9 0e 3e 54 a0 4d 3e
       -0.048993573 0.17667368 0.13937868 0.20080692
0000b0 38 76 34 3e 8c 8f c1 3c a8 92 8c 3d b2 43 bd bd
       0.17623222 0.023628019 0.0686391 -0.092414275
0000c0 c3 3f d2 3d 30 e4 c2 3d 67 33 08 be 2d ba 25 be
       0.10266068 0.095161796 -0.13300858 -0.16184302
0000d0 8b 36 56 be 12 1d 69 bd 38 d6 db bd 41 28 0b be
       -0.20919244 -0.05691249 -0.10734218 -0.13589574
0000e0 de 22 85 be b3 95 4a be 5d 4c ea bd a0 f1 2b 3e
       -0.26003164 -0.19783668 -0.114403464 0.16791391
0000f0 15 17 fa bd 97 d4 76 3b ec db 40 be 93 25 f0 3b
       -0.12211434 0.0037663335 -0.18833894 0.007328698
000100 ff 10 6a 3d 97 40 2e 3e 46 81 62 bd 74 e1 b7 bd
       0.057145115 0.17016827 -0.055299066 -0.08978549
000110 fb 94 7e bd 3b b7 5a 3c b9 45 f5 3d 16 bb 31 bc
       -0.062153798 0.01334935 0.11976189 -0.010847827
000120 1a 6f ef bc 97 24 50 3c 5a 8e f9 bd 7e d7 0a 3e
       -0.029227782 0.012704036 -0.121853545 0.13558766
000130 2f 62 bd bd ff 95 d7 3d 03 8a d6 bd a8 80 a0 3d
       -0.09247243 0.10526656 -0.104755424 0.07837039
000140 cd b6 85 bc 2a 09 21 be 3e 2a 93 3d b2 08 89 3c
       -0.016322518 -0.15726152 0.071857914 0.016727779
000150 61 42 4f 3e 31 18 21 3d c4 2e 69 bd 46 25 39 3e
       0.20240165 0.03932971 -0.056929365 0.18080625
000160 55 aa a6 3c 9a 63 1a be 51 c9 c9 3c aa 37 47 3b
       0.020344893 -0.15077057 0.024632128 0.0030398169
000170 97 97 11 3e 13 83 5b 3e 78 7a 0c 3e 34 9a 1a be
       0.14217983 0.2143672 0.13718593 -0.15097886
000180 14 31 a3 3d 1b 97 f6 bd ef 9a 3d bd a7 6b ce bd
       0.07968345 -0.1204054 -0.046290334 -0.10079127
000190 c9 ec d9 bc dc b3 13 bd 6c f8 47 3e fb 85 2c 3d
       -0.026602166 -0.0360602 0.19528359 0.04211996
0001a0 10 04 b8 3d 11 cd 7a bc 30 dd 05 3e 2c 5a 44 3d
       0.0898515 -0.015307681 0.13072658 0.047937557
0001b0 36 f2 a7 3d 1d 4e 96 3c fa f6 de bd bf 73 0a bd
       0.08200495 0.018347794 -0.10886951 -0.03380179
0001c0 27 41 17 3d ad c2 24 3e 75 35 df bc ca d3 07 be
       0.03692737 0.16089888 -0.02724717 -0.13264385
0001d0 c7 81 14 3e 48 66 3f 3e 77 97 50 bb 97 e0 1a be
       0.14502631 0.18691361 -0.0031828561 -0.15124737
0001e0 aa ba e1 bd f9 e4 b1 bd 6b cf ed bd 9d 0b 28 3d
       -0.110219315 -0.08686251 -0.116118275 0.0410267
0001f0 f1 1e 0a 3e 3c b1 99 bc 5a b7 84 3d 73 ef b7 bd
       0.13488366 -0.01876127 0.06480284 -0.08981218
000200 77 16 80 bd b0 8f 9f 3c 59 44 56 3d 42 b8 08 3d
       -0.06254285 0.019477695 0.052311275 0.033378847
000210 b4 cd 29 be 3c 01 b7 bc 03 bc f1 bd 86 da 0f 3c
       -0.16582376 -0.022339456 -0.118034385 0.008780127
000220 f8 75 38 be 07 f8 92 3d 0b 68 68 be 20 7a 02 3e
       -0.18013752 0.07176214 -0.22695939 0.127419
000230 4b e8 b1 3d 8f af 38 bd 80 b8 f4 bd da 35 48 be
       0.086868845 -0.0450893 -0.11949253 -0.19551793
000240 42 fb 31 be 73 7e 3f 3d 4e 19 c0 3d 36 99 03 3d
       -0.17381003 0.04675145 0.093798265 0.032128535
000250 a7 63 25 bd cb a4 94 3d 8b 61 0f bc ab 1a 5a 3d
       -0.04037824 0.07257994 -0.008751283 0.05324809
000260 0e 74 00 3e d6 b5 09 bd 39 f5 c0 3d bb 53 1a 3e
       0.12544271 -0.033620678 0.094217725 0.15071003
000270 51 1d 39 3c 16 8e 63 3e dd 2f 5f bd 16 af fc bd
       0.0112984935 0.2222217 -0.054489005 -0.123380825
000280 0a f7 37 be 4d 96 19 bd d2 8a 52 3e f8 69 d1 3d
       -0.17965332 -0.037496854 0.20560768 0.1022529
000290 f5 ea aa bd 1c 43 b3 3d 1e 64 22 3e c9 50 13 3d
       -0.08345596 0.087530345 0.15858504 0.035965715
0002a0 1b 85 dd bd 05 17 2f be 3a 2a 09 3e 2f ed 48 be
       -0.108164035 -0.17098625 0.13395014 -0.19621728
0002b0 25 17 69 3d bc 17 5b be aa d1 16 bd a7 7a b5 bd
       0.056906838 -0.21395773 -0.036821045 -0.08861285
0002c0 fd 9d 82 3c 00 17 06 be d4 43 47 bd 0b 39 4f be
       0.015944475 -0.13094711 -0.04864867 -0.20236604
0002d0 f8 0b 2c bd 28 48 88 3c 2d 03 09 3d af a7 87 bd
       -0.0420036 0.01663597 0.033450294 -0.0662378
0002e0 93 ee 9d bd 73 4f 99 3d d3 53 e5 bc 87 5a 8d bc
       -0.0771152 0.07485857 -0.027994072 -0.01725508
0002f0 91 0e ac bd 64 89 db 3c ea c6 0b bd 9a cd 95 3d
       -0.08401216 0.026798911 -0.034125246 0.07314606
000300 31 58 37 be 48 c3 fe bd 8b fd 23 be 42 bf 36 3e
       -0.17904736 -0.12439591 -0.16014688 0.17846397
000310 2a e1 18 be f8 42 a9 3c 6a af 50 be 1c 55 c4 3d
       -0.14929643 0.020661816 -0.20379415 0.09586546
000320 d3 00 4c bc af 20 86 bd 55 7a 83 bb 3c d0 10 be
       -0.012451368 -0.06549203 -0.004012386 -0.14141935
000330 5b d4 ef bd f4 69 8e bd 53 04 f2 bd 0f d8 5f be
       -0.117104255 -0.06953803 -0.11817231 -0.21859764
000340 74 dd a2 3d 74 d7 63 3e 0e ec 00 be 30 88 ac 3d
       0.07952395 0.22250158 -0.12590048 0.08424413
000350 ab b4 82 bd 2f ee c9 bd 3e 81 0f 3e 9e 54 3d bd
       -0.06382116 -0.09859883 0.14014146 -0.046223275
000360 52 0e 52 bd 9c d2 51 be 48 23 1e 3e a5 f2 3b 3e
       -0.05128319 -0.20490497 0.15443146 0.1835428
000370 c0 7c 9c bd b9 81 20 3e 09 22 a4 ba ad 53 12 bd
       -0.07640982 0.15674485 -0.001252235 -0.03572433
000380 d0 37 73 bd 32 33 e4 3d 4a d6 16 be 6b ae 07 3c
       -0.0593794 0.11142577 -0.14730182 0.008281331
000390 fc 21 4a 3c bd 7a 2b 3e f7 26 c5 3d 03 af 0d bd
       0.012337204 0.1674604 0.096265726 -0.034590732
0003a0 0a 00 25 3d ec f7 20 be 23 5e de 3d 91 f8 39 bd
       0.04028324 -0.15719575 0.10857799 -0.045403067
0003b0 5e 14 d2 3d 7c 37 f1 3d fb fb 62 3e 05 ad d4 bc
       0.10257791 0.11778161 0.22166435 -0.025961408
0003c0 ed 48 07 be 0a 72 1b 3e 6e e8 85 3c 70 30 a6 3d
       -0.13211413 0.15180221 0.016346183 0.081147075
0003d0 28 ca 1d 3e ac 97 d3 bd c0 77 29 3d fb 0b 17 3e
       0.15409148 -0.103316635 0.041373968 0.14750664
0003e0 62 95 fd 3c 33 03 80 bb 52 3a 93 3d 70 7f 8a 3c
       0.03095502 -0.0039066314 0.07188858 0.01690647
0003f0 0a fd da 3d fb 3a 43 bd 64 c9 f8 bd 1c bd da 3d
       0.106927946 -0.04766367 -0.12147787 0.10680601

net.4.bias f4 [50]
000000 33 3e 3d be 83 8c ac 3c 63 07 f4 bc 6d e8 cb bc
       -0.18480758 0.021063095 -0.029788679 -0.024891103
000010 3c 49 8e 3c 9c 82 65 bb fb 7f cc bd f0 47 a6 bd
       0.017368905 -0.0035020476 -0.09985348 -0.0811919
000020 2f 44 03 be 0f 87 2d 3d 0e 80 f4 bc 49 b2 d5 3c
       -0.12818979 0.04236513 -0.029846217 0.02608599
000030 b0 c7 cc 3d 50 ca 73 3d 62 2c d0 bd f1 bf 32 be
       0.09999025 0.059519112 -0.10164715 -0.17456032
000040 17 7c 3d bc dd 7c 7e 3d 31 71 13 be 10 bd 22 3e
       -0.01156523 0.062130798 -0.14398648 0.15892434
000050 44 f2 c9 3c ba 97 0b be 84 84 ab bc 6e 17 b3 3d
       0.024651654 -0.13632098 -0.020937212 0.08744703
000060 85 59 ce bd c8 24 9b 3d 78 24 5a be 48 73 5c 3e
       -0.10075668 0.07575375 -0.21302974 0.21528351
000070 14 1c 9d bd 4a 3a 89 3c a7 26 58 bd 4b c6 ef 3d
       -0.07671371 0.016751427 -0.052771237 0.11707743
000080 99 23 f1 3c 8e a9 a5 3b a2 57 09 3e 9b 6f 98 bb
       0.02943592 0.005055613 0.13412336 -0.0046519763
000090 17 4d df bd ea cd 5a be 1b e8 a9 bc 18 fc fe 3a
       -0.109033756 -0.21367612 -0.02074056 0.0019453792
0000a0 22 7d 32 be cd 62 87 bc 2c 2d d1 3c 15 6b e4 3d
       -0.17430547 -0.016526604 0.025534235 0.11153237
0000b0 6c af 7a 3d 27 2d 29 be 72 78 e2 bd bd 3a 3e be
       0.06120245 -0.1652113 -0.11058129 -0.18577094
0000c0 2f b2 fb 3c 91 cf 9d 3d
       0.030724613 0.07705606

net.6.weight f4 [1, 50]
000000 e9 c1 26 be 62 f5 9a bd 68 51 27 3e 66 51 e8 3d
       -0.16284908 -0.07566334 0.16339648 0.113436505
000010 8d 49 0d be c1 9a 3c 3d 20 ed 13 be 1e 60 53 be
       -0.13797589 0.046046022 -0.14445925 -0.20642135
000020 5d d5 2a bd ad f8 81 be 6f 83 3a 3e 07 5d a7 bd
       -0.041707385 -0.25385037 0.182142 -0.081720404
000030 1a 62 0b 3e a0 bc 3b 3e 73 b1 32 be 38 a8 24 be
       0.13611642 0.18333673 -0.17450504 -0.16079795
000040 cb 20 27 be 70 59 1e 3e e0 ea 14 be bc a7 12 3e
       -0.16321103 0.15463805 -0.14542723 0.14321798
000050 58 54 e8 3d a8 4a 34 be 05 87 2e 3e b6 c3 a4 3d
       0.11344212 -0.17606604 0.17043693 0.080451414
000060 03 83 17 be 43 91 1f 3e 4b 6a 26 be 0e b3 27 3e
       -0.14796071 0.15582757 -0.16251485 0.16376898
000070 31 bd 00 be af 02 3f be 99 af 3c be d3 65 33 3e
       -0.12572171 -0.18653367 -0.1842636 0.17519312
000080 8b 02 ff bd 95 ed 21 3d 27 94 03 3e fb ad 4a bd
       -0.12451657 0.039533217 0.12849484 -0.049482327
000090 58 f2 41 be 3f ef 63 be 5a 9e 2a be e8 73 1e 3e
       -0.18940103 -0.22259234 -0.16661969 0.15473902
0000a0 44 42 33 be ff ba bd bd 1a 93 22 be a1 23 29 3e
       -0.17505747 -0.09264182 -0.15876427 0.16517498
0000b0 f0 15 92 3d 9e ae 32 be df a4 eb bd 15 db 64 be
       0.071330905 -0.17449424 -0.11506056 -0.22349198
0000c0 cf 09 15 3e ca 3c e1 3d
       0.14554523 0.10997923
