pretrain_ckpt/gail/25_expert/Pendulum-v1/discriminator.ckpt (torch, 24904 bytes, 7 tensors)

net.0.weight f4 [50, 4]
00000000: 9282 dbbe df70 cfbe eb51 943c ed45 95be
00000010: 0f31 103f 3776 c7be 3e69 0b3f 0e2f e0be
00000020: 78db 31bc 65b2 263f a56c 333e 60b5 03bd
00000030: 4b02 fd3e 5f6f 4a3e 4002 df3e ed42 87bd
00000040: d4b7 243e 79c0 e73d aefb f43e fe4e 43bd
00000050: bdb8 d03e 2122 183f e3e6 013f 2c9f 743d
00000060: c406 b7be f97a fbbe faf9 6abc 327b b3be
00000070: 2175 413e c5b5 13bf fac7 54be 8d99 f93b
00000080: 71eb a2be 476e 9ebe ade7 603e 00c5 003e
00000090: a073 163f 8c4f 36bf 0c32 d13d 17d2 e5bd
000000a0: 3e8d bf3e bc97 013f aeca 043f 2ac5 7cbe
000000b0: 6081 4d3c 7d2c 8ebe b4d1 8ebe fc3a e0bd
000000c0: ad81 de3e f91b 743e 3461 95be ebba 273e
000000d0: c86e 1cbf 0835 b6be 3bb8 d6be 8fbe 053f
000000e0: c8f5 01bf 6a8e 1a3c 3e71 abbe ef41 dc3e
000000f0: e8a6 45bc 646f 193e feff 15bf 3088 9c3d
00000100: 8073 d3be c8b9 d03e 08b0 063f 8226 f43e
00000110: 3239 37be 18dd 3a3e e4fa 02bd 987a 44bd
00000120: f42d 30be bec4 a0be b62e 023e a5c5 45bd
00000130: f9c3 adbe 4c06 073f 198c 873e 5d05 debe
00000140: 6c9e 9cbe 95d0 1bbf 690d dbbe e9b9 043f
00000150: efe3 c43e dd17 c03e 51f4 9abe a458 223d
00000160: 6f8d 0f3f 2a36 093f 28a7 853e 2e89 683d
00000170: 0cd8 b33e 3007 313e 3b37 d73c 2f57 c83c
00000180: 90b1 ddbd d3be d0be 86dc 11bf c3b7 a1be
00000190: 16a6 5ebe e78b 903e 9d53 18be b88b 73bd
000001a0: d4df 6bbe 5e7b dfbe c698 6b3e 48bb a23e
000001b0: bb00 013e 0724 c8be 1146 42bd a891 c43e
000001c0: 04ba 3f3e 57af 2b3e 5702 423d 770e 07be
000001d0: 1944 27bf b274 c4be 3a31 bebe a19e 4b3e
000001e0: 3d8e 063e 9539 1c3e af3b dcbe 77c8 ff3d
000001f0: 4ccc 173f e251 b33e ee10 e33d df76 febe
00000200: 6983 87be 1f4d 53be a74e 83bd f91d 4dbd
00000210: 2756 d73e 9f99 513e e7ee 143f fd4f 80be
00000220: 2c06 d3be df95 2d3f 50bb b43d 6ea3 3fbe
00000230: 47f9 babe a9f2 3d3e 0e7b 21be 67cc 11bf
00000240: 66da babe 1b3e 9ebe 7170 dfbc 9dc5 8fbe
00000250: e65c 25be e336 b4be d399 953d 48ea 9dbe
00000260: b58f c23e 639c 9fbe 0785 d0be eb63 6fbe
00000270: e8df e0be 3c9d b03e 67ff 923e 6bb5 be3e
00000280: 9065 203e 7b69 983e 1395 513e 0c31 033e
00000290: e9ee 1b3e 3872 f5be 7057 f43e 66a7 8bbe
000002a0: 8676 2fbe 7f10 053e dcab 243e f4b3 e53e
000002b0: 7869 a8bd 7e94 433c 326f 91bc 0475 68be
000002c0: 5a13 063e b73f a63e e34f b33e 7e14 ab3e
000002d0: 9a4b 0cbf f47a f8bd 1ea4 e9be 1dcf 02bd
000002e0: 434a 0d3f 36e8 1b3f ca96 c93e ab25 e5be
000002f0: fffb 0bbf 424e 97be 0187 96be 845f 0c3f
00000300: ab9d 5fbe 5f49 8f3e b0d9 3b3e c078 12be
00000310: 555f 81be c922 fa3e e58d 103f 998f d03e
-0.42873055 -0.405158 0.018105468 -0.29154912 0.5632486 -0.38957378 0.5445746 -0.437859
-0.010855548 0.6511596 0.17521913 -0.032155395 0.49415812 0.19769047 0.43556404 -0.06604562
0.1608575 0.11316008 0.47848266 -0.047682755 0.40765944 0.59427077 0.5074293 0.05972211
-0.3574735 -0.49117258 -0.014341826 -0.35054928 0.18892337 -0.57699233 -0.2077941 0.0076171816
-0.31820253 -0.3094351 0.21963377 0.1257515 0.5877018 -0.7121513 0.10214624 -0.11221712
0.37412447 0.50622153 0.51871765 -0.24684587 0.012543052 -0.27768317 -0.27894366 -0.109487504
0.4345831 0.23838796 -0.29175723 0.16379897 -0.6110654 -0.35587335 -0.41937432 0.52243894
-0.5076566 0.009433368 -0.33484834 0.43019053 -0.012063719 0.14983898 -0.5859374 0.07643163
-0.41299057 0.4076674 0.5261235 0.4768563 -0.17892912 0.18248403 -0.03197755 -0.047968477
-0.1720503 -0.31400102 0.12713131 -0.04828419 -0.33938578 0.52743983 0.26474074 -0.43363467
-0.30589616 -0.60865146 -0.4278367 0.51846176 0.3845515 0.37518206 -0.30264524 0.039635316
0.56075186 0.5359827 0.26104093 0.05677145 0.35125768 0.17287898 0.026271453 0.024455635
-0.10824883 -0.40770587 -0.5697712 -0.31585512 -0.21743044 0.28231737 -0.14875646 -0.059459418
-0.23034602 -0.4364881 0.23007497 0.3178351 0.12597935 -0.39089987 -0.0474301 0.38392377
0.18723303 0.16766106 0.047365513 -0.13189112 -0.65338284 -0.3837028 -0.37146932 0.19884731
0.13140197 0.15256341 -0.43014285 0.124894075 0.5929611 0.3502341 0.110872135 -0.49700066
-0.26467445 -0.20634888 -0.06411486 -0.050077412 0.42057917 0.20468758 0.58177036 -0.25061026
-0.41215646 0.6780681 0.088247895 -0.18714687 -0.3651831 0.18549599 -0.15769598 -0.5695252
-0.3649475 -0.30906758 -0.027275296 -0.28080454 -0.16148719 -0.35198125 0.0730473 -0.30842805
0.38000265 -0.31174 -0.40726492 -0.2337796 -0.43920827 0.3449496 0.28710482 0.37247786
0.15663743 0.29767975 0.20467024 0.12811679 0.15227856 -0.47938704 0.4772296 -0.27276152
-0.17135057 0.12994574 0.16081184 0.44863856 -0.082232416 0.011937259 -0.017753217 -0.22700888
0.1309332 0.32470486 0.35021886 0.33414072 -0.5480286 -0.121328264 -0.45633024 -0.0319358
0.5519144 0.609012 0.39372855 -0.447553 -0.5468139 -0.29551893 -0.29399875 0.54833245
-0.2183749 0.27985665 0.1834476 -0.14303875 -0.25268045 0.48854664 0.56466514 0.40734556

net.0.bias f4 [50]
00000000: f70d ae3e f02e cebe c24a db3d 16bc c6be
00000010: 8694 c8bd 5637 74bd 2676 dd3e fcec 733e
00000020: 2c3d 9c3e d4c3 ea3e 0849 c9be 67d8 dc3e
00000030: 0268 1ebd 3eea 0a3e be36 ed3e a414 84be
00000040: 679e c8be e42f f33e 315a 213f 7eb1 1dbf
00000050: 9a3b 813e 209d 21be b8e6 c5be 7ab3 9a3d
00000060: 0ec7 90be cb49 c53e 05a0 b5bd bfa9 87bd
00000070: 7ecc 413e 7ca4 afbd c6a0 9bbe 043e ffbe
00000080: b4e1 e7bd d7e8 853e 55b4 f23e c02a 8439
00000090: c2ee 65be 94a1 203e 92b1 423e 28b1 bcbd
000000a0: ed34 8fbe d5d5 bfbe d98d 043f 020b e13e
000000b0: 7b61 023e a65e babc 62aa 95be 80b7 97be
000000c0: 46ed b1be bb91 e73e
0.3399503 -0.40270185 0.10707618 -0.38815373 -0.097939536 -0.059623085 0.43254203 0.23820871
0.3051542 0.4585253 -0.3931353 0.43133852 -0.03867341 0.13565919 0.46330827 -0.25796998
-0.3918335 0.47497475 0.63028246 -0.61598957 0.25240785 -0.15782595 -0.38652587 0.07553764
-0.28276867 0.38532862 -0.08868412 -0.066241734 0.18925664 -0.08576295 -0.30396098 -0.49852002
-0.11322346 0.26154205 0.47403207 0.00025208853 -0.2245436 0.15686637 0.1901305 -0.092134774
-0.27970067 -0.37467828 0.5177894 0.4395371 0.12732498 -0.02275021 -0.29231554 -0.29632187
-0.34751338 0.4522837

net.2.weight f4 [50, 50]
00000000: a967 c4bd 518d 36bd 989d 91bc 4695 d73d
00000010: b219 09be 7e65 dcbd 74a5 02bd fb57 e3bd
00000020: 4626 7d3d 61d4 ad3d 5703 f3bd 5303 b2bd
00000030: 7a4c 023d 540d 323d 9fbb e83d ca5a b63d
00000040: 7e02 19bd 7de9 a03d 88ca 113e 376f 0a3e
00000050: 4d71 0e3e 6ce1 383d 2ad0 f73d 2871 91bd
00000060: dcb9 57bd fe36 dbbd daae dbbd 42ac c3bd
00000070: 5e47 bd3d 83de 22bc b747 97bd 8105 523e
00000080: 043f 1c3d c776 08be 57b9 453e 95dd 903b
00000090: 1be5 f7bd 947c d73d 4687 68bd c773 1e3e
000000a0: 9fdc e4bd 9fd9 0d3d e68a 4c3d 4f07 dc3d
000000b0: 33e3 403d bd04 b7bb c145 a4bd f947 a03d
000000c0: 8a92 d73d 8ce5 bdbd e12e b0bd 3f13 66bd
000000d0: 924c 20be 9e37 3abe 0595 1abc edfd 10be
000000e0: 747c 473d 50e4 99bd 3818 32bd b25d fa3d
000000f0: c35a d1bd 71a9 213e f43d 7d3d 2c6a 363c
00000100: 7a1c 4a3e ed9c bebd b67b 3b3a 9654 6fbc
00000110: 0015 143d 33af d2bd 64d7 f73c 1909 bbbd
00000120: 2f17 62be 8330 cbbd 8526 873d 42f9 073e
00000130: f1d6 d83d f1a2 2a3e c15d 8f3d ece6 3a3e
00000140: 1826 623d 5ae5 d2bd e29a b73d 5c0f cdbd
00000150: 01bb cfbd abfa 9dbd 14c4 943d 3780 ca3d
00000160: 7f23 b53d 5b7e f2bc 5ecc 32bd 42df 733c
00000170: 7f22 f1bd c509 ca3d cd9c 933d e1e4 833c
00000180: 5b51 d8bd 6644 f2bc 70dd 9bbd 912d 2ebe
00000190: 0aa1 69bd 8e26 cebd e7ee bbbc 5d82 1d3d
000001a0: 57e5 c93d 5c4e 37bd bece 973d 3d8b 0e3d
000001b0: 644b 9d3c 26ac 18bd b690 7cbd 98c6 f3bd
000001c0: c8f5 b5bd 060a 49bd 46e1 bf3d 63a8 e73d
000001d0: a99a c93d df9f b5bd c3ab 0bbe b056 f8bd
000001e0: fccd 98bd 9a80 dc3d f99e f93d 530d f03c
000001f0: 831a aa3d 4e04 16bc 3fea 6b3d 4514 edbd
00000200: 56b0 f63c 537e 9f3c 1e47 b1bd a295 e3bd
00000210: 1a47 2c3c ca52 bdbd 55fa 753d 6c41 87ba
00000220: c969 1e3d 7c13 0e3e d6cc 193d 1070 b4bd
00000230: 502d cb3d c99f e53d 5995 173e bac7 de3d
00000240: 5bb4 0ebe bbe9 8b3d 7863 7d3d 626c b63d
00000250: 6320 eabc 5ad0 bd3c 2676 c2bc 2d9b 703d
00000260: 8f3e e63d b43d f5bd 6a36 efbd 883b e33c
00000270: 6ce3 af3b d787 1dbe 06ca f53d 963c 8c3e
00000280: 05e4 d9bd 659a 573d c4d2 e83c f43e e63d
00000290: 9cb6 e3bd 63d2 06bd f7f3 983c 5a45 0f3e
000002a0: fcfa 063d f6e4 1d3e cbbe 093e ae28 3fbd
000002b0: d0dc 04be f6d8 f0bd 58ba 083e 1c1f bdbc
000002c0: bd2d f13b e845 34bc b520 673d 729b e53d
000002d0: ca45 47bd 6a2f f23d 89b1 97bd 502b 903d
000002e0: 625d 063d 0f6f 9b3c 9263 d03d 2f87 1bbe
000002f0: d03e cfbd 8e4b dd3d 757e f73d 1fd3 81bd
00000300: 336a 2f3e 50e3 153c 2ae2 f8bd 3f0d a8bd
00000310: d039 19be 9a0b 453d ea56 b7bd c6c0 693d
00000320: c3dd a4bd 11d3 e73d 8da8 c93d 2eac 023d
00000330: 24cf f2bd 6b9c 26be a1b1 2bbc 193f 38be
00000340: 12dc 42be 3dbd 143e 28dd 15be 76f4 033d
00000350: b761 8c3b 3fd4 8abd 4816 933d 20d1 c2bd
00000360: 127a 0fbd 8070 bfbd 8740 e8bd 61d9 cf3d
00000370: 6c30 c63d 5622 473b 2153 4e3d 5f60 323e
00000380: 180e b9bd 3ccb d0bd 9fa2 04be 4627 18bd
00000390: 157b 2ebd a054 0a3d dde2 233e 5f8c 213e
000003a0: f290 2fbe 8a36 febc 830a 83bd bdbd 683c
000003b0: c8d9 afbd 6841 07be 5443 ec3b 4e2c bfbc
000003c0: 1495 c93d 75ad 1fbd e94f ac3d 488d e6bd
000003d0: 0a8c f5bd 37c4 123e f1fe c13d f186 6b3d
000003e0: 595e 403c eca4 0cbd 3fda 21bd c701 103e
000003f0: 3716 67bd 38f8 db3d 7bd4 a3bd 8249 c03c
-0.09590084 -0.044568364 -0.017775342 0.105265185 -0.13388708 -0.107615456 -0.03189607 -0.11100765
0.06180408 0.08487774 -0.118658714 -0.0869204 0.031811215 0.043469742 0.11363911 0.089040354
-0.037355892 0.07857034 0.14237416 0.13518988 0.13910408 0.045136854 0.12100251 -0.07101661
-0.052667484 -0.10703848 -0.1072671 -0.0955434 0.09242128 -0.009940746 -0.073867254 0.20509912
0.038146034 -0.1332656 0.19308983 0.004420946 -0.12104245 0.10521808 -0.05676963 0.15473853
-0.11174893 0.034631368 0.04993715 0.107435815 0.047091674 -0.0055852816 -0.08021117 0.07826228
0.10525997 -0.09272298 -0.086026914 -0.0561707 -0.1565421 -0.18185279 -0.009434943 -0.14159365
0.048702672 -0.0751425 -0.043480128 0.12224902 -0.102223895 0.15787293 0.06182666 0.011133712
0.19737425 -0.09307275 0.0007151918 -0.014607569 0.03615284 -0.10287323 0.030254073 -0.091325946
-0.22079156 -0.09921362 0.06599144 0.13278678 0.10587872 0.1666372 0.07000304 0.18252152
0.05521211 -0.102976516 0.089650884 -0.10012695 -0.1014309 -0.07713827 0.072639614 0.09887736
0.08844661 -0.029601267 -0.04365193 0.014884772 -0.11774158 0.09865145 0.07207642 0.016100349
-0.10562392 -0.02957363 -0.07610595 -0.1700957 -0.057038344 -0.100659475 -0.022941066 0.038454402
0.09858196 -0.044752464 0.0741248 0.034800757 0.019200988 -0.03727355 -0.061661445 -0.11903113
-0.0888477 -0.049081825 0.093691394 0.11311414 0.09843952 -0.088683836 -0.1363974 -0.12125909
-0.074611634 0.10766716 0.12188525 0.029303228 0.08305838 -0.0091563 0.05759644 -0.11576132
0.03011338 0.019469416 -0.08656143 -0.111125246 0.010514999 -0.092443064 0.06005319 -0.001031918
0.038675103 0.1387462 0.037548862 -0.08810437 0.09920752 0.11212117 0.14803065 0.108779386
-0.13935988 0.0683169 0.06186244 0.08907391 -0.028579896 0.023170639 -0.023737978 0.058741737
0.11242401 -0.119746596 -0.116803005 0.027738348 0.005367687 -0.1538385 0.120014235 0.27389973
-0.106391944 0.052637476 0.028420813 0.11242476 -0.11118814 -0.032915484 0.018671019 0.139913
0.0329542 0.15419373 0.13451688 -0.046669655 -0.12974858 -0.11760132 0.13352334 -0.023086123
0.0073601888 -0.011002995 0.056427676 0.112112895 -0.04865054 0.1182545 -0.07406909 0.07039511
0.0328039 0.018973855 0.101752415 -0.15188287 -0.101194024 0.108054265 0.12084667 -0.06339096
0.17130356 0.009148434 -0.12152512 -0.082056515 -0.1496346 0.048106767 -0.089521244 0.05706861
-0.0805011 0.113195546 0.09846602 0.031902485 -0.11855915 -0.16270606 -0.010479362 -0.1799282
-0.19029263 0.14525314 -0.14635146 0.032215558 0.0042841095 -0.06778764 0.07181984 -0.09512544
-0.035028525 -0.093476295 -0.113404326 0.101488836 0.096772045 0.0030385456 0.050372247 0.17419575
-0.09035891 -0.10195014 -0.1295266 -0.03714683 -0.04259785 0.03377211 0.1600451 0.15776204
-0.17145136 -0.031031866 -0.06398489 0.014205393 -0.0858646 -0.13208544 0.0072101746 -0.023336556
0.098428875 -0.03898378 0.08413679 -0.11257416 -0.11989601 0.14332663 0.09472454 0.057501737
0.011741244 -0.03433697 -0.039514776 0.14063178 -0.05641767 0.10740703 -0.07999512 0.023472551

net.2.bias f4 [50]
00000000: 6a83 4e3e d1c9 0b3e 617e 6d3d ff1b 5a3e
00000010: 7d27 113e 073f 75bc a3d1 37be 0a90 293e
00000020: 9504 4dbe f148 b23d 63c5 f0bd 30fd 343e
00000030: 6159 74be 2396 0abe 0940 ea3d 6a68 923d
00000040: ce3f a7bc cf35 853c fd3d 2cbe 6d09 3cbd
00000050: 4eb9 583e 4990 d239 afa1 073e 6643 1bbe
00000060: c802 15be fa36 2dbe 8ccb 783e aebe 9cbc
00000070: 064f 33be 1138 6bbe a5e2 f13d 0423 183e
00000080: b5cc 54bd c4b1 823e 344f 01bd 9bfa bfbd
00000090: 3282 38be c26f 54bd 2700 26be a2be 1d3e
000000a0: f628 5bbd a493 4bbd 87df 393e 817f 3ebe
000000b0: 8146 913d ece8 9c3c ce0b 5bbe 9333 503e
000000c0: 3ad6 a23d f13b 28be
0.20167318 0.13651206 0.057981852 0.21299742 0.1417522 -0.01496864 -0.17951064 0.16558853
-0.20021279 0.08705319 -0.117563985 0.17674708 -0.2386222 -0.13533835 0.11437995 0.07148822
-0.020416167 0.01626101 -0.16820522 -0.045907427 0.21164438 0.00040161822 0.13245271 -0.15162429
-0.14551842 -0.16915503 0.24296397 -0.019133892 -0.17510614 -0.22970606 0.11810807 0.14857107
-0.051953036 0.2552625 -0.031569675 -0.09373971 -0.18018416 -0.051864393 -0.16210996 0.15404752
-0.05350586 -0.049701348 0.18151675 -0.18603326 0.07093526 0.019154035 -0.21391222 0.20332174
0.07951017 -0.16429116

net.4.weight f4 [50, 50]
00000000: 24dc 09be 55ef efbd 238e 173e 27f1 a0bc
00000010: 40d8 363d 05ee a93d 539a 4c3e 68fd a9bd
00000020: 0da4 1e3e b8e8 93bc 40cf 063e 2a1a e8bd
00000030: 699d 053e f9ed 213d 692e b6bd e0fd 40bd
00000040: 22c0 93bd 8f78 f8bd 41ee 47bd 4b33 b0bc
00000050: 13ee ec3a 0351 90bd cbcd 9dbd b6c9 ce3d
00000060: 0127 3b3e 14b9 943c bb8e efbd 5cf6 253d
00000070: 864a 3a3e beaa 813d f6c0 073d 2678 3dbd
00000080: 47f4 8abd 3e03 91bb 877c 1abe b698 febd
00000090: 8cd7 3a3e 54f5 423d e64a 543d 5d4e 0dbc
000000a0: 19b8 d43d 5e11 3cbd f520 013d b96e 213e
000000b0: 4196 9b3c 4c8c 05be 0786 4d3e 5036 0fbe
000000c0: 29bb 693d cd31 ce3d 455b 53be dec3 44bd
000000d0: 5791 97ba a705 43bd 6221 b9bd 66c8 433c
000000e0: 900a 7e3d 3f23 67bd 0bf6 aa3b f90e 6abe
000000f0: d884 ae3d bb8b b9bd b06c e83d 7463 813e
00000100: cc94 9fbd 974f 853b b660 103e 445a 8ebd
00000110: 6569 cc3d b69d 4d3e 50f9 39be 2757 d23d
00000120: eabf 9f3d cc2a 1fbd e6f7 073e 6101 8ebc
00000130: 75f0 2bbe bc51 d13c 55bd 0c3e 25f4 643d
00000140: 46a9 003e aded bd3c 37df 663d 75a7 6a3d
00000150: 2607 b63d 197c 933c 7ecd 5a3d db5a b1bd
00000160: c95e f93b c4ef a4bc b052 0c3d edb4 9ebd
00000170: 211f c6bc 3b4e 2cbd 5cba b03d 9480 973d
00000180: 255d ba3d 1c67 d53b 5168 c1bd 5b1b 2abd
00000190: 9888 04bd d2e7 353d 05d3 9d3d 9338 2e3e
000001a0: 9ac8 443e d2ec 10bc e983 cebc 5a48 a0bc
000001b0: d1c8 eebd ea96 893d 5cdf 8cbe 41fa 393d
000001c0: db0e 223d 6b81 c3bd ac6f df3d 579c de3d
000001d0: b1de b03d 5839 153d d621 c1bd bd35 dcbd
000001e0: 0f9f 9f3d e5c1 a93d 0442 543e 85b1 cfbd
000001f0: afee 47be 11b8 b5bd c3d9 b33d 8f6d dbbc
00000200: f9ee e03c fa58 febd bbf3 85bd eaeb 013e
00000210: 4acb f23d 9402 26bd ff13 cb3d e2f2 10be
00000220: 49c5 86be 1282 80bd d96d 36be ad1d c03d
00000230: 3083 14bd 7580 533c 54f0 c2bc c251 b0bd
00000240: bb82 503d 46da 123e bfea 98bd 8972 023e
00000250: d837 0e3d 6b84 4fbe 0943 403e 2f87 2d3d
00000260: 794e c73d d6af e6bc 7d18 c7bc 1fff b5bc
00000270: 7bfc 7b3c 60c6 d3bd 609f 683c 406d 543e
00000280: 0faf 42bc b507 36bd 0d03 57bd 569d 8abd
00000290: 7c17 5cbd 7511 4cbd 0cf3 b93d d3d8 b5bd
000002a0: 5f7b b0bc 3f48 11be d7d1 2b3e 1cb7 ad3d
000002b0: 4616 6ebd cff3 5c3d 54f2 06be 9435 2ebe
000002c0: 77ff 33bc 2623 1c3d c5af d7bb 253c cabc
000002d0: f1f9 a13c 234e 093e ed00 0b3d 0bd4 f0bc
000002e0: 87f1 123e cb95 adbd 6717 fbbd 1a16 c3bc
000002f0: 7d4f fcbd addc 773d fdab 29be a6f8 9abb
00000300: dcc3 ac3d 2e12 ebbd 9a1f e73d c5e1 0dbd
00000310: 6152 26bd 86e5 d43d b9dc 0e3e 8efe fcbc
00000320: fff8 7f3c 0bc6 b3bd 3524 ccbd 4417 523e
00000330: 9429 a4bd b922 ac3c 9743 00be 7952 ea3d
00000340: 7c14 30bd f380 c63d 3334 e1bd d24a 323e
00000350: 9258 b0bb 1bf3 33be 6cbc 133e 68a0 d13d
00000360: f65d 0abe 412c dbbc 5304 f7bd 1f6a 07be
00000370: 4869 b1bb 4ab6 11be 3184 553e 6d07 e5bd
00000380: 82c6 94bd f00a 0fbe 5ab7 0bbd 48da 3a3d
00000390: 1604 21be 48e9 3ebd 088b f0bd cc31 8d3b
000003a0: b3f1 a7bb 38a5 9bbd 91a5 073c e206 c43d
000003b0: 0a2b ddbd 8946 42bd 812c bd3c 1739 fc3c
000003c0: 71b6 1ebd c24b 183e 6264 7abd 0518 60be
000003d0: 59ca f73d 4fa4 a13d 8dbb 27be 7ca7 df3d
000003e0: cfbc b6bd 17a5 14be 6e02 353c 5f5f c93d
000003f0: 3e8a 40bb 325c cabd cf7f 42bd fb99 c0bd
-0.13462883 -0.11715571 0.14800315 -0.01964624 0.044639826 0.08297352 0.19980745 -0.083002865
0.15492268 -0.018055305 0.13164997 -0.113331154 0.13048328 0.03953359 -0.08895571 -0.047117114
-0.07214381 -0.1213237 -0.0488112 -0.021508833 0.0018076323 -0.07046702 -0.077052675 0.10097067
0.18276598 0.018154658 -0.116971456 0.04051815 0.18192491 0.063313946 0.033143006 -0.04625716
-0.067848735 -0.0044254353 -0.15086566 -0.12431471 0.18246287 0.047597244 0.05182924 -0.00862464
0.10386676 -0.045915 0.03152557 0.15764894 0.018992545 -0.130418 0.20070659 -0.13985562
0.057063255 0.100680925 -0.20640285 -0.048038356 -0.00115637 -0.047612812 -0.090395704 0.011949634
0.062021792 -0.056430098 0.005217319 -0.22857274 0.08521432 -0.090598546 0.113488555 0.2527119
-0.077920526 0.0040683257 0.14099392 -0.069508106 0.0998104 0.20079693 -0.18161511 0.10270529
0.078002766 -0.038859174 0.1327816 -0.017334642 -0.16790946 0.02555167 0.137441 0.055896897
0.12564573 0.023184622 0.056365218 0.057288606 0.08888082 0.01800351 0.05341863 -0.086599074
0.007610176 -0.02013386 0.034258544 -0.077493526 -0.024184765 -0.042066794 0.08629295 0.07397571
0.09099797 0.0065125357 -0.09443725 -0.041529994 -0.03235683 0.044410534 0.077062644 0.17013769
0.19217148 -0.008845525 -0.025209384 -0.01956575 -0.116593964 0.06718238 -0.2751416 0.045404676
0.03956495 -0.09546169 0.109099716 0.10869663 0.08636225 0.03643164 -0.09430282 -0.10752437
0.0779401 0.082889356 0.20728308 -0.10141281 -0.19524644 -0.088729985 0.08781769 -0.02678564
0.027457701 -0.12419315 -0.065406285 0.1268765 0.118551806 -0.040529802 0.09915923 -0.14155152
-0.26322392 -0.06274809 -0.17815341 0.0938066 -0.036257923 0.0129090445 -0.023796238 -0.08609344
0.050905924 0.14341077 -0.07466649 0.12739004 0.034721226 -0.20265357 0.18775572 0.04236525
0.09731764 -0.028160017 -0.02430367 -0.022216378 0.01538002 -0.103405714 0.014198154 0.207448
-0.0118825575 -0.044440944 -0.052493144 -0.06768291 -0.053733334 -0.049821336 0.09079561 -0.088792466
-0.021543203 -0.14187716 0.16779266 0.08482191 -0.05812671 0.05394345 -0.13178378 -0.17012626
-0.0109862005 0.038119458 -0.0065822327 -0.024686882 0.019772502 0.13408713 0.03393643 -0.029397985
0.14349948 -0.08475836 -0.12260323 -0.02381425 -0.12319849 0.060513187 -0.16569515 -0.0047293482
0.08435795 -0.11478077 0.112853244 -0.03463914 -0.040605906 0.103953406 0.13951387 -0.0308831
0.01562333 -0.08778008 -0.099678434 0.20516688 -0.08015743 0.02101265 -0.12525783 0.11441512
-0.042988285 0.09692564 -0.10996284 0.17411354 -0.005381652 -0.17573206 0.14427346 0.10235673
-0.13512406 -0.0267545 -0.12061372 -0.13224076 -0.005414162 -0.14229694 0.20851208 -0.11183057
-0.07264425 -0.13969016 -0.034110405 0.045618325 -0.15724215 -0.046609193 -0.11745268 0.0043089148
-0.0051252483 -0.07599872 0.00827922 0.09571625 -0.10799225 -0.04743055 0.02309251 0.030788941
-0.03874821 0.1487265 -0.06113089 -0.21884163 0.12099142 0.078926675 -0.16380139 0.10920617
-0.08922731 -0.14516102 0.011047943 0.09832644 -0.0029379274 -0.09880866 -0.04748517 -0.094043694

net.4.bias f4 [50]
00000000: 1601 4ebe ef81 02bc 8159 c13d 3f77 e43d
00000010: 2e9c 4ebd 4545 06be 88f6 303e cd15 83bd
00000020: 8fec 68be 8083 57be f71e 07bc 9863 9e3c
00000030: 7c1a c53d 4263 36be 203b efbb 2a30 c73c
00000040: f07f 7d3d 0e08 0fbd ef31 333e 8f01 80bd
00000050: c3bc 303e 295c 62be 88a1 89bd ceea 16be
00000060: 4503 29be 0a6f 6b3e 108f 36be 7c3d 9b3c
00000070: 8d4e fd3d 761a f3bd 75eb 38be 412d 2cbd
00000080: e5ad 9abd a554 fe3d 790c 2e3e 6c3a 053e
00000090: 61ce 823c 2454 1c3e bee6 4dbe 7406 2e3e
000000a0: 4f18 afbd 8aad 14bc 4da5 43be bd1d 87bd
000000b0: 0811 b33d b93e 36be 8cd3 2dbd dd59 393e
000000c0: 3200 7dbe 2daf e2bd
-0.20117602 -0.007965549 0.094409 0.11155557 -0.050441913 -0.13112362 0.17281544 -0.064006425
-0.2274649 -0.21046257 -0.008247129 0.0193346 0.09624192 -0.17811301 -0.0073007494 0.024314959
0.06188959 -0.03491979 0.17499517 -0.06250297 0.17259507 -0.22105469 -0.06720263 -0.14738008
-0.16505153 0.22991577 -0.17828012 0.018950216 0.12368498 -0.118702814 -0.1805857 -0.042035345
-0.07552699 0.124184884 0.16996945 0.13010567 0.01596755 0.15266472 -0.20107552 0.16994649
-0.08549558 -0.009074578 -0.19106026 -0.06597469 0.08743483 -0.17797364 -0.042438075 0.18100686
-0.24707106 -0.110685684

net.6.weight f4 [1, 50]
00000000: a210 8dbe f9e0 27be 2d21 8f3e 9181 413e
00000010: d54f 423e 4f48 25be b8b2 9b3e a410 25be
00000020: d17f 8fbe 4c85 a1be ebb1 2f3e b36e dfbd
00000030: 6000 573e 21f3 52be c95b 3bbe 73df 1d3e
00000040: fc2c 513e 8ec9 b23d 3710 b13e 6743 03be
00000050: 5231 203e 9134 a4be 1018 38be 7977 86be
00000060: dca3 88be 67f9 8b3e ec5f 80be 9678 183e
00000070: cfb7 543e 4ce6 62be ff30 59be d916 3e3e
00000080: 0950 78be 8196 433e 2889 603e fd73 373e
00000090: 7388 7a3e 6f1c a43e 5159 02be a0a4 9c3e
000000a0: a675 48be c8dc 31be b7da 46be af5d c8bd
000000b0: 292c 103e d709 43be 7e2c c2bd 46b4 533e
000000c0: f640 85be c869 4cbe
-0.27551752 -0.16394414 0.27955 0.18897082 0.18975766 -0.16140865 0.3040979 -0.16119629
-0.28027204 -0.3154701 0.17157714 -0.10909786 0.20996237 -0.20600559 -0.18296732 0.1541727
0.20427316 0.0872985 0.34582683 -0.1281868 0.15643814 -0.32071355 -0.17977929 -0.26263025
-0.26687515 0.27338716 -0.25073183 0.1488975 0.20773242 -0.22158164 -0.21210097 0.18563403
-0.24249281 0.19100381 0.21927321 0.1791534 0.24466114 0.32052943 -0.12729384 0.3059435
-0.1957613 -0.17369378 -0.1941937 -0.09783494 0.14079346 -0.19046722 -0.094811425 0.20674238
-0.26026124 -0.19962227
