pretrain_ckpt/bc/bipedalWalker/bc_BipedalWalker-v3_50data_2000epochs/model.pth (torch, 29474 bytes, 9 tensors)

log_std f4 [4]
000000 00 00 00 00 00 00 00 00 00 00 00 00 00 00 00 00
       0.0 0.0 0.0 0.0

net.0.weight f4 [50, 24]
000000 d1 d7 3d 3e fc f8 87 3c bf a6 1a 3e 83 d8 84 3d
       0.18539359 0.016598217 0.15102671 0.06486609
000010 b5 df 35 3e 9b c9 4f be a5 04 93 3d 89 73 a9 3d
       0.17761119 -0.2029175 0.0717862 0.0827399
000020 87 af 27 bd 9c 6c ec 3d f1 99 88 bd 9e 3c ad be
       -0.04093888 0.11544153 -0.06669987 -0.3383531
000030 fa 71 1f 3e 6a 68 49 3e 46 2c db bb 2a c7 7f 3e
       0.15570822 0.19668737 -0.0066886274 0.24978319
000040 87 c6 26 3e 17 e3 18 3e 94 b6 9f bd 9e d6 73 3e
       0.1628667 0.14930378 -0.07798496 0.23812339
000050 00 36 83 bd 7f 58 02 3e b9 b3 32 bd cd 87 25 be
       -0.06406784 0.12729071 -0.043628428 -0.16165085
000060 df 2b 0c be 2b 80 90 3d 04 0a 40 be 3f 7c 85 bd
       -0.1368861 0.07055696 -0.1875382 -0.06517839
000070 f3 70 b6 3d 7f e3 8a be a6 a8 23 3f cf 8a a0 be
       0.08908262 -0.2712669 0.6392921 -0.31355903
000080 33 a9 f7 3d f2 0d 10 3d 56 e5 f0 3e a0 6f 94 3d
       0.12092819 0.03516955 0.4704997 0.07247853
000090 5e 55 03 bf d1 a8 08 bd 22 a9 35 3b 9c ab 8d 3d
       -0.51302135 -0.03336412 0.002771922 0.069174975
0000a0 b7 55 0c 3e e2 64 41 3e 08 88 0f 3d bf a7 1f 3e
       0.13704573 0.1888614 0.03504184 0.15591334
0000b0 bc 57 6b 3e e4 8c 03 3d a5 ab 0c 3d 62 ff d0 3d
       0.22982687 0.032116786 0.03434338 0.102049604
0000c0 eb 32 02 be 81 94 e9 3d 81 12 8b 3d bc 54 47 3c
       -0.12714736 0.11405278 0.06790639 0.012166198
0000d0 ef b0 30 3e 3b e8 b1 be 93 67 89 3d 24 e4 9a 3e
       0.17254995 -0.3474749 0.06709208 0.30252182
0000e0 97 73 50 3e df 24 33 bd 58 73 3d bd 21 5b e4 be
       0.20356594 -0.043736335 -0.04625258 -0.44600776
0000f0 c0 09 e6 bd 88 b2 16 3b c4 08 25 3d 88 8d 05 3e
       -0.112323284 0.0022994597 0.040291563 0.13042271
000100 23 00 51 be d8 dd 19 3d 3f e1 21 be ee 5e 26 3d
       -0.20410208 0.037565082 -0.15808581 0.040617876
000110 1c 3d 3d bd f4 1e 22 3e 8c 9c 69 3d 03 ec 0e 3e
       -0.046200857 0.1583212 0.05703406 0.13957219
000120 83 00 40 3d 91 5c 9b 3e cf f1 b2 3d 85 da 84 3e
       0.046875488 0.3034406 0.087375276 0.25947967
000130 be c3 41 bc cd 81 01 be fd 74 d6 be 73 41 99 bd
       -0.011826454 -0.12647171 -0.4188613 -0.074831866
000140 c1 ff c5 be 3b 1a 30 3c 88 34 8b be ad 95 89 3d
       -0.38671687 0.010748441 -0.27188516 0.067180015
000150 85 d6 13 3e e5 ed 9b be 8b 98 88 be cc 0e 72 3d
       0.14437301 -0.30454937 -0.2667888 0.059096143
000160 f5 74 56 be 36 ee 8d be 8b 69 1a 3d 25 2a 19 3d
       -0.20943053 -0.27720803 0.03769831 0.037393708
000170 41 99 9a be 48 13 66 be f4 20 7a be 8a de 09 3e
       -0.30195048 -0.22468293 -0.24426633 0.13463798
000180 50 97 39 be 8c 6c 72 bf 69 45 31 3e 0d d5 cb 3e
       -0.18124127 -0.9469688 0.17311634 0.39810982
000190 f4 43 84 3e 65 a1 51 3e fc 55 16 be 6d c8 c9 3e
       0.25833094 0.20471723 -0.14681238 0.39410725
0001a0 50 d7 91 be 8d 2d a4 be 3d 90 6d 3d 85 3f c2 3e
       -0.28484583 -0.32066002 0.057998884 0.37939087
0001b0 e3 8a 32 bd 8c 07 85 bd 3d a9 d2 3d ec e2 f5 bd
       -0.043589484 -0.0649558 0.10286186 -0.120061725
0001c0 e2 0b 77 39 04 a3 9a bc 9a 22 0c bd b5 3e 4d be
       0.00023560182 -0.01887656 -0.034212686 -0.20043452
0001d0 34 4d c4 3d 88 e1 be 3d bc 77 23 3a 65 e2 88 be
       0.09585038 0.093203604 0.00062357984 -0.26735225
0001e0 ae 49 c2 3d 62 27 e1 be 00 37 9a 3d d6 d3 21 bd
       0.094867095 -0.4397536 0.07530022 -0.039508663
0001f0 47 36 c1 be a6 0f 97 be dd bc 05 3e de 1c a2 3e
       -0.37736723 -0.29504126 0.13060327 0.3166265
000200 38 a4 bb bd f4 7a 43 3e d8 b5 ed 3d e0 70 35 be
       -0.091621816 0.19089872 0.116069496 -0.1771884
000210 a6 1a 51 be b7 fd d5 3c dc 44 ce bd 47 26 1a be
       -0.20420322 0.026121957 -0.10071728 -0.15053664
000220 07 6c 43 3d b2 fa bd bd c3 4b ad 3d a9 91 08 be
       0.047710445 -0.09276332 0.08461716 -0.13336815
000230 4e b0 dd bd 06 2c 3b 3d 51 85 4c be 6f ba 94 bc
       -0.10824643 0.04569628 -0.19972731 -0.018155305
000240 ba 1d 29 be 95 b8 b8 be 28 bd 2d be d0 4d 62 be
       -0.16515246 -0.36078325 -0.16966689 -0.22099996
000250 64 71 cb 3e 0c 57 5c bd ec f6 e1 be 8d cb 1b be
       0.39734948 -0.053793952 -0.441337 -0.15214367
000260 33 09 6d be 21 fb 26 3d 07 fe e5 3e a7 6d 80 bd
       -0.2314804 0.04076684 0.4492037 -0.062709145
000270 81 64 68 be 75 02 47 bd ae 8c 4c be f8 2f 97 bd
       -0.22694589 -0.048586328 -0.1997554 -0.07382196
000280 01 de e8 bd cd 62 fa 3d e8 6f 3b be 8e 6a d6 3d
       -0.11370469 0.12225876 -0.18304408 0.104695424
000290 54 45 3c be 4d 09 24 be 6d 9f 34 be b1 9e 2f be
       -0.18385822 -0.16019173 -0.17638941 -0.1715038
0002a0 6d a2 6c 3e dc 41 08 3e fc 86 25 3e 0a b7 f3 bd
       0.23108836 0.13306373 0.16164774 -0.11900146
0002b0 03 64 97 be 4e 04 04 bd ae c9 66 3e 47 42 f9 3d
       -0.2956849 -0.032230668 0.22537872 0.121708445
0002c0 f1 f7 5f 3e c2 58 ce 3d 4d fc 02 be 7c fe 01 3e
       0.21871926 0.10075523 -0.12791558 0.12694734
0002d0 9e ce 49 3e 44 de 81 bd f8 85 2d 3c ea 1c 19 be
       0.19707724 -0.06341222 0.010591023 -0.14952436
0002e0 a4 28 a6 bd 80 2f 2d 3e 74 1a bb 3d 53 d3 40 be
       -0.0811322 0.16912651 0.09135905 -0.18830614
0002f0 7b e2 4b bd 89 9c 7e 3c b3 dd 3b 3e 43 ca 75 3d
       -0.049776535 0.015540251 0.1834629 0.060007345
000300 53 29 92 bd 09 43 e2 be 5e 72 f7 bd 44 9f f0 bd
       -0.07136788 -0.4419177 -0.12082361 -0.117491275
000310 1d 4e 5c 3e a4 0d b4 bd dd 8f b0 bd 2e ef 0b 3f
       0.21514173 -0.08791664 -0.0862119 0.54661834
000320 9d 2b 4d be e9 d1 8d 3d 21 e3 1c 3e 19 ba 7e be
       -0.20036168 0.06924803 0.15321018 -0.24875678
000330 e0 27 27 bd 76 ca 93 3d be 8c b7 bd 20 d5 89 bc
       -0.040809512 0.07216351 -0.08962391 -0.016825259
000340 f4 9d 02 be 8b 6d aa 3c 19 bf 04 bc 10 f7 1e 3e
       -0.12755567 0.020804187 -0.008102202 0.15523934
000350 4f f4 af bd 14 e4 b5 bd aa 36 00 bd 89 fb 79 3c
       -0.0859152 -0.08881393 -0.03130213 0.015257725
000360 09 70 92 3d 7b a7 25 3d 4a df 81 bd 92 d0 9e 3e
       0.07150275 0.040442925 -0.06341417 0.31018502
000370 76 e0 ae be 62 54 95 ba 29 41 52 3e c4 31 3d 3e
       -0.34155625 -0.0011392946 0.20532669 0.18476015
000380 1e ec f9 3d e3 d5 66 3e 7c 7f f2 bd fa 11 0b 3e
       0.12203239 0.22542529 -0.11840722 0.13581076
000390 16 9b 5d be 88 9b 46 3d 4c de 16 3e 54 fe 66 3d
       -0.21641192 0.04848817 0.14733237 0.05639489
0003a0 8d 7b cc 3d 08 3a 46 bd 29 9a 39 be 43 21 2b be
       0.09984503 -0.048395187 -0.18125214 -0.16711907
0003b0 74 0d 5a be a6 6c 23 be bf c2 fc 3d 9d fe 07 3e
       -0.21294194 -0.15959415 0.12341832 0.13280721
0003c0 94 de af be 21 43 1a 3e f7 fd cb bd 78 45 9c 3d
       -0.343495 0.1506467 -0.09960549 0.076304376
0003d0 b4 a6 68 3e 1b 5d 34 3e b1 45 94 3e 33 06 ae 3d
       0.22719842 0.17613642 0.2895942 0.08497276
0003e0 71 1b 09 be 2b 64 b5 bc ca b7 01 be 6a b2 41 3e
       -0.13389374 -0.02214249 -0.12667766 0.18915716
0003f0 86 fc 9e bd e3 02 20 3e 48 28 39 3d b7 d7 a9 bd
       -0.07763009 0.15626101 0.04520443 -0.082930975

net.0.bias f4 [50]
000000 e6 79 b3 3d 86 ff bd bc cd d9 ca bd 74 cf cc bc
       0.08763485 -0.023193132 -0.099048235 -0.025001265
000010 e7 7f 57 bd 48 f4 05 be 61 1e ef 3d 07 a2 1d 3d
       -0.05261221 -0.13081467 0.11675716 0.0384846
000020 61 40 47 be 13 55 58 be b1 6d d0 bd 4e d6 40 bd
       -0.19458152 -0.21126203 -0.10177172 -0.047079377
000030 dc 58 33 be 67 f9 6f be 1e 6c dd 3d 3c 41 98 3d
       -0.17514366 -0.23434983 0.10811637 0.074343175
000040 c7 34 68 3e 1b b2 42 3d 1c e8 73 bd a2 2a 8e 3e
       0.22676383 0.047533136 -0.05954753 0.277669
000050 54 c1 10 be ec 6e b5 3c e6 b2 db 3b 65 29 39 be
       -0.14136249 0.022147618 0.006704676 -0.18082197
000060 19 15 28 be e0 7e 05 be b1 59 77 be 36 e3 f0 bd
       -0.16414298 -0.1303668 -0.24155308 -0.11762087
000070 32 17 2f bd d6 4c fa bd 45 a8 82 bd 62 88 8e bd
       -0.04274673 -0.122216865 -0.06379751 -0.06959607
000080 80 4f 8a bd 37 04 3d be b9 62 09 be b9 a0 78 be
       -0.06753445 -0.18458639 -0.13416566 -0.24280061
000090 ed cf 3c be 4b 28 aa 3d 44 4a 63 be 0f fb 83 bd
       -0.18438692 0.083084665 -0.22196299 -0.0644437
0000a0 6f 2e f8 bd f3 db 60 be 22 38 6c bd d4 a7 93 bd
       -0.121182315 -0.21958904 -0.05767072 -0.07209745
0000b0 e3 2f af bd fb 4e f3 3d ac f3 9e bb d1 c1 6a be
       -0.085540555 0.11880299 -0.0048508253 -0.22925498
0000c0 36 34 70 bd 57 69 4c bc
       -0.058643542 -0.012476287

net.2.weight f4 [50, 50]
000000 2f 83 7f 3e 4e b0 6a be 4f ab fe bc ee 2e df 3d
       0.24952386 -0.22918817 -0.031087546 0.10897623
000010 ef dc 55 3e 04 28 0c 3e 50 8d 52 3e 34 97 85 bd
       0.2088506 0.1368714 0.20561719 -0.0652298
000020 dd 08 21 3e 45 48 33 be ae bd 53 be c8 99 26 3e
       0.15726037 -0.17508037 -0.20677826 0.162696
000030 eb b7 1c 3d 35 bf 73 3d 21 62 86 be 4e 8c 3c 3d
       0.038261335 0.05950852 -0.2624674 0.046032242
000040 e5 c1 4d be 91 e2 9c 3d cf c1 9e bc 60 a5 9b bc
       -0.20093496 0.076604016 -0.019379525 -0.018999755
000050 c1 8c 72 be 43 5d 8b bc 92 4a 62 3c d3 b4 73 3e
       -0.23686506 -0.017012244 0.013811724 0.23799448
000060 7c 11 68 3c f7 cd ee bd 23 43 59 3e 8a 8a 38 be
       0.014164325 -0.116603784 0.21217017 -0.18021598
000070 00 a9 9c bd bb a6 93 3c a3 77 90 3d aa da 2d bd
       -0.07649422 0.01802384 0.07054069 -0.042444862
000080 40 bf 1f be 9c 05 c6 3c 25 13 11 bd a0 83 a4 be
       -0.156003 0.024172597 -0.03541865 -0.32131672
000090 de 6b a0 3e 27 2c ce 3c 9f fd 03 3d e8 c4 02 3d
       0.31332296 0.025167538 0.032224294 0.031926066
0000a0 6b 31 07 3d cc 14 36 3e 87 82 0f be 37 d7 93 be
       0.033006113 0.17781371 -0.14014636 -0.28875133
0000b0 1d 92 78 3e 14 12 b2 bd 43 d8 93 be 72 f9 ac be
       0.24274488 -0.086948544 -0.28875932 -0.33784062
0000c0 79 e8 7c 3d 19 3b 58 be 92 d3 20 bc 94 0d e7 bd
       0.06174514 -0.21116294 -0.009816067 -0.11281887
0000d0 f1 a2 01 bd d9 fc 07 3e 15 48 5f 3e 1d db b6 bc
       -0.031649534 0.13280047 0.21804841 -0.022321278
0000e0 89 4b 19 3e e0 c1 e2 bd 5e b6 f6 bc 28 bd 2d be
       0.1497022 -0.11072135 -0.030116256 -0.16966689
0000f0 6d 9c 59 be 0e ff b2 3d b1 6e ea bd d5 23 19 be
       -0.21251078 0.08740054 -0.11446894 -0.14955075
000100 74 e9 69 be f5 ea 65 3d 57 0f d6 bc 7d 46 58 3e
       -0.22842962 0.056132276 -0.026130361 0.21120639
000110 7b e8 7d 3b 14 3c f4 bd da 7f 3d be 14 b9 22 bd
       0.0038743305 -0.119255215 -0.18505803 -0.039727286
000120 7a cf 37 3e d0 d7 14 3d 79 d7 2f 3e 59 73 c5 bd
       0.1795024 0.036338627 0.1717204 -0.096411414
000130 78 c8 d1 bc d7 e4 80 3d 6e 5f 83 be 57 1b 8d bc
       -0.025608286 0.06293648 -0.25658745 -0.01722495
000140 2a eb 21 3e 05 78 ef bd 30 4e ef bd b3 83 3e 3e
       0.15812364 -0.11692814 -0.11684835 0.18604927
000150 0f ed e5 bd be 5f 99 bd 8c 2f b0 3d 56 2b 7f bd
       -0.11226856 -0.074889645 0.08602819 -0.062297188
000160 ed 15 9e 3c 64 8e 9a bc 2d 0c fb 3c 19 29 db 3d
       0.019297564 -0.018866725 0.030645454 0.10701198
000170 7c d9 93 bd b2 f6 7c be a6 27 ac 3e cb 8b 86 bb
       -0.07219216 -0.24703482 0.33624 -0.00410602
000180 69 8b 72 be 73 d6 0b be 6e 0d b7 bc d9 8a 43 be
       -0.23685993 -0.13656025 -0.022345271 -0.19095935
000190 d4 99 56 bd 27 44 63 3e 13 e4 16 bd 89 1c a9 bd
       -0.052392796 0.22193967 -0.036838602 -0.08257396
0001a0 8f d0 f4 3d f7 2b 64 3e e5 15 4e 3e aa 51 80 3d
       0.11953842 0.22282396 0.2012554 0.06265576
0001b0 03 4b d0 bc fd b2 94 3c 97 a1 05 be 04 00 6f bd
       -0.025426393 0.018151755 -0.13049923 -0.058349624
0001c0 55 13 14 bc 2e 33 1d be fb 34 a6 bd 42 2a d8 3d
       -0.009037812 -0.15351555 -0.08115574 0.10554935
0001d0 56 7b 5d 3e c2 82 be bd 04 74 1b 3e 3c 82 6b bd
       0.2162908 -0.09302284 0.15180975 -0.057497248
0001e0 7b fd b9 3d 03 e1 18 bc ac a0 93 3c 5b a6 c8 3d
       0.09081551 -0.009330991 0.01802095 0.09797355
0001f0 94 2c 55 3e 7a 51 8e bd d4 1e c1 3d 72 f1 38 be
       0.20817786 -0.06949134 0.09429708 -0.18060854
000200 a1 d1 4a bd 7c 4f c7 bd 88 4e 38 3e ff 4e 2a be
       -0.049516324 -0.09731957 0.17998707 -0.16631697
000210 20 93 05 be 5a 1a 5e bc 05 cc 13 be 3e 00 34 be
       -0.13044405 -0.013556087 -0.14433296 -0.17578217
000220 a3 07 87 3d e9 43 7c bd 1b 88 a3 3d 4a 4c 01 3e
       0.065932535 -0.0615882 0.079849444 0.12626758
000230 81 e3 33 be 84 37 4a 3e f9 9e 47 be ef 3c f5 3d
       -0.17567255 0.1974774 -0.19494237 0.11974513
000240 1e 97 58 3e 86 39 01 be c5 62 b9 bd 16 e7 47 3d
       0.21151397 -0.126196 -0.09052042 0.048804365
000250 6a f4 9c bd 11 af 35 be b3 73 a5 3d 2c a3 83 be
       -0.07663806 -0.17742564 0.080787085 -0.25710428
000260 d0 4a 37 3d 1d 2d 1b 3e 1e 9f c1 ba 5a fc 08 3e
       0.04474908 0.15153928 -0.0014772152 0.13377514
000270 32 39 24 be ba ee 2f 3e 3d 49 ca bd 5e 96 5b 3e
       -0.16037443 0.1718091 -0.0987725 0.2144408
000280 e8 1f 4f bd b1 98 2b 3e d7 09 b4 bc 03 4a f5 3c
       -0.050567538 0.16757466 -0.021977348 0.029942518
000290 5a 09 25 bc 1f 34 8a 3d d8 e5 63 3d f3 25 97 bc
       -0.01007303 0.067482226 0.055639118 -0.018450713
0002a0 a4 0e c9 bc 2f 9f 3f be cb 3b 02 bc b9 80 01 3e
       -0.024543114 -0.18713067 -0.007948826 0.1264676
0002b0 2f a2 e9 3c 5e 8b 15 3d 1d d7 2d be 5f 08 3c 3c
       0.028519718 0.036509864 -0.1697659 0.011476605
0002c0 f7 53 37 3e 6b d4 d6 3d 66 12 04 3e 47 5c dd 3d
       0.17903124 0.10489734 0.12897643 0.10808616
0002d0 de b7 ab bd 6c 80 ba bd e0 ac 17 3c ec 01 05 3d
       -0.08384679 -0.09106526 0.009257525 0.032472536
0002e0 27 41 d1 3c c2 ee 11 3e 87 c4 0f 3e df 5f ff bc
       0.025543762 0.14251235 0.14039813 -0.031173645
0002f0 76 97 17 be d3 5b d4 bd bb 32 7f 3d a2 ed cf 3d
       -0.14803872 -0.103690766 0.06230424 0.10152747
000300 a0 a2 19 be db ea 65 bc 76 a5 02 3d 4c 0f 00 be
       -0.15003443 -0.014033045 0.031896077 -0.12505835
000310 0c 79 e0 3d 17 0e 96 3e 9f 3b f2 bd 2b 69 c5 3d
       0.10960588 0.29307625 -0.11827778 0.096392
000320 db b6 06 3e 1a 98 1a 3e 48 92 4b be d7 93 a6 bd
       0.13155691 0.15097085 -0.1988002 -0.08133667
000330 7f 01 8b 3c 9d a5 26 3d b2 9a 0f 3e 54 55 29 bd
       0.016968487 0.040685285 0.14023855 -0.04134114
000340 91 9f 05 3d 7a 48 25 be e1 c7 2d be 2f 20 32 be
       0.032622878 -0.16140929 -0.16970779 -0.1739509
000350 2d 4d 29 bd 3e e0 68 be 38 74 33 3d 78 74 e2 bd
       -0.041333366 -0.22741792 0.043812007 -0.11057371
000360 0d 95 16 be 81 97 46 3d c4 5f f3 3d 40 62 7d 3e
       -0.14705296 0.04848433 0.118835 0.2474451
000370 bb e2 02 3e fc 18 e5 bd 4f c9 9e bd dc f3 60 be
       0.12781803 -0.11186406 -0.0775324 -0.21968025
000380 23 65 3f 3d a1 99 ce bd f5 19 90 3d a7 a7 18 3e
       0.04672731 -0.10087896 0.07036201 0.14907704
000390 63 aa e8 bd 7d 11 f5 3d 1f 57 d9 3d db f1 07 3e
       -0.11360624 0.11966226 0.1061232 0.13275854
0003a0 9a aa 5d 3d d8 b1 d1 bd bc 23 8e bc 5b fb 0b be
       0.054117776 -0.10238999 -0.017351024 -0.13670103
0003b0 4b 1c 8d 3d e7 51 92 bc 46 b3 0a 3e a9 a0 e6 3d
       0.06890162 -0.01786132 0.1354495 0.11261112
0003c0 9b b4 29 be 86 3f 87 3c c9 a8 52 3e 76 22 79 bc
       -0.16572802 0.016509783 0.20572199 -0.01520597
0003d0 db 15 14 3e 69 7b 18 3c 21 1c 4b bd d4 98 25 be
       0.14461462 0.009306767 -0.049587373 -0.1617158
0003e0 11 a1 98 3d df c2 47 3d 29 55 d5 3d d2 9e d4 bd
       0.07452596 0.048769828 0.10416634 -0.10381855
0003f0 0a 18 2d 3d 5f db b8 3c 26 3f ad 3d d0 66 9e 3d
       0.042259254 0.022565542 0.0845931 0.07734454

net.2.bias f4 [50]
000000 b3 9b 1e 3e 0f a5 3d bd f6 7d 1f bd dd 49 c5 bd
       0.15489082 -0.04629999 -0.038938485 -0.09633229
000010 5d c0 0a bd cb af fc 3d 28 80 d2 3d 3b f1 fe 3d
       -0.03387486 0.12338217 0.1027835 0.12448355
000020 3c 09 d4 3d 7c f4 1d be a3 b6 21 3d 84 f8 b5 bd
       0.10353324 -0.15425295 0.039480817 -0.08885291
000030 f3 66 41 bd 3e fb 0a be 74 2d 05 bd d8 c5 01 3e
       -0.04721732 -0.13572404 -0.03251405 0.12673128
000040 c2 60 b4 bd 74 9b 6b 3d 1c 7b d6 3d 3b b7 07 3e
       -0.088075176 0.0575213 0.104727 0.1325349
000050 fa 03 08 3e af 1b 04 3e ee f8 86 3d 95 31 dd 3d
       0.13282767 0.12901185 0.06590448 0.10800473
000060 bd 52 1b 3d 91 83 92 3b 4f d9 2a 3e f4 25 cc 3c
       0.037920702 0.0044712503 0.16684459 0.024920441
000070 ff 4d ef bd 4e 44 90 bc 9e 8a e6 3d bf ec 95 bd
       -0.116847984 -0.017610695 0.11256908 -0.07320546
000080 32 c8 2c bc cc 1a f0 bd fa 46 b9 bd 62 ad 20 3c
       -0.010545777 -0.11723861 -0.09046741 0.009806963
000090 70 c4 0a 3e 10 4b 10 3e b6 db 95 bd c4 f4 49 3e
       0.13551497 0.14091134 -0.07317297 0.19722277
0000a0 e8 d7 ba 3c 10 7f be 3c 64 5c 9a bb ef a5 f7 bb
       0.02280803 0.023253947 -0.004710721 -0.0075576226
0000b0 d0 53 c5 bb ef 6b 22 be 2d 62 07 bc 4e ae a7 3d
       -0.006021954 -0.15861486 -0.008263153 0.08187543
0000c0 a8 d2 01 3d db e8 1a 3e
       0.031695038 0.1512789

net.4.weight f4 [50, 50]
000000 bd 33 cb bd 35 dd 19 be 8c d0 73 be dd f9 14 3e
       -0.09921978 -0.1502579 -0.23810023 0.1454844
000010 ea 7a 39 be ae dd 6d 3d 6f ed 7d 3b 19 41 47 be
       -0.18113294 0.05807274 0.0038746258 -0.19458427
000020 b3 6e aa 3e 21 8b 08 3e d0 94 b2 3c 4e a4 0c be
       0.33287582 0.13334323 0.021799475 -0.13734552
000030 23 db 32 3e 4b 28 51 be 5e cb 6f bd 34 6d e1 3d
       0.17466407 -0.20425527 -0.058543555 0.11007157
000040 71 11 84 bd e8 69 25 be b8 62 34 3e a6 9f 04 3e
       -0.06448639 -0.16153681 0.17615783 0.12951526
000050 91 4d 2b be 49 e1 17 3e 90 ff 1c 3d 2f 88 7a 3e
       -0.16728808 0.14832033 0.03832966 0.24466012
000060 de 01 bf bd bd 9b 22 be 71 1b c4 bd 98 d6 93 bd
       -0.09326528 -0.15879722 -0.095755465 -0.07218665
000070 96 ca d4 3d e8 cd 77 be 98 54 a0 bb b3 6e 18 be
       0.10390203 -0.24199641 -0.004892897 -0.14885978
000080 ba f1 0a bd 16 13 ef 3d 99 75 07 3e 8c 7a bc bd
       -0.033921935 0.11673562 0.13228454 -0.092030615
000090 84 66 c5 3d 18 e4 50 bd 39 e4 79 3d 59 49 32 bd
       0.09638694 -0.050998777 0.061008666 -0.04352698
0000a0 36 0d d7 bd f0 db 52 3d bc 4f e9 bd c7 20 f3 3d
       -0.10500567 0.05147928 -0.11392161 0.11871486
0000b0 50 0d aa bd 3c 4f 1d bd 8d bb 77 bd 0d 49 a8 3e
       -0.083033204 -0.038405642 -0.060481597 0.32868233
0000c0 f3 99 6f be 56 6a b9 3d 4b e1 55 3e 82 bb f0 3d
       -0.2339857 0.09053485 0.20886724 0.11754514
0000d0 63 76 e3 3d aa 13 4d be 95 30 31 be da 7a 8d bd
       0.11106565 -0.20027032 -0.17303689 -0.06908198
0000e0 43 af 83 3e f1 51 08 be 20 f9 8a bd dc 13 e8 bd
       0.25719652 -0.13312508 -0.06785798 -0.11331913
0000f0 98 cc 7f bd af 77 92 3e cc 66 e6 3c 06 de ed 3d
       -0.062450975 0.28606936 0.02812519 0.11614613
000100 21 9c 87 3d 7f 64 8b 3d 73 f4 5e 3e b4 d7 7c bc
       0.06621576 0.068062775 0.21772937 -0.015432287
000110 74 fe 2f 3d 51 30 eb bd 70 b8 13 be ee 58 c8 3c
       0.042967275 -0.11483825 -0.14425826 0.024456467
000120 bd a5 40 bd ff d5 78 be ba da 0e be cf ea fb bc
       -0.04703306 -0.24300383 -0.13950625 -0.030751614
000130 df fc 86 be 22 30 26 3e 3d 1e 86 bd fa 92 08 3d
       -0.263648 0.16229299 -0.06548736 0.033343293
000140 e7 94 ba bd d8 a7 88 bd 28 21 07 3d 36 50 90 bd
       -0.09110432 -0.06672639 0.032990605 -0.07046549
000150 3e b6 3b 3d 8f 4f 60 bd 4b a3 91 bd de 87 4d bc
       0.045828097 -0.054763373 -0.07111224 -0.0125446
000160 23 0a 53 be 49 bc 94 be 82 0b 40 bd 93 71 ed bd
       -0.20609336 -0.290499 -0.046885975 -0.11593928
000170 22 4d 23 3e 5c 6d 38 bd f8 69 df bd f5 c9 0a 3e
       0.15947393 -0.04502617 -0.10908884 0.13553603
000180 f5 e4 d2 bb a0 de 87 be 00 4b 0d 3e 75 56 51 be
       -0.006435985 -0.26537037 0.13798141 -0.20443137
000190 39 d9 44 3d 07 b1 20 3e 60 b5 41 3e 4e 2a 39 bd
       0.048058722 0.1569253 0.18916845 -0.04520636
0001a0 6a 69 43 3d ed 3d 2e 3d 0a 4c ee 3d 5c 3b c4 bd
       0.047707953 0.042539526 0.11635597 -0.095816344
0001b0 dd 36 bf bd b4 29 8f be 67 2e 19 bb 0a 61 07 3e
       -0.09336636 -0.27961504 -0.0023373605 0.13220611
0001c0 b8 16 13 be 09 f1 01 3e a9 31 84 3c fe ed 0e be
       -0.14364135 0.12689604 0.016136961 -0.13957974
0001d0 e2 78 61 3e 20 08 f7 3b f2 6f 21 be dd 39 ff bd
       0.2201877 0.0075388104 -0.1576536 -0.124622084
0001e0 2f 2f 02 3e 58 ec d3 bd e6 6d 91 3d 41 2f 32 bd
       0.12713312 -0.10347813 0.071010396 -0.043502096
0001f0 55 d5 87 bd db c3 ca bc f5 1b d1 bc 29 1e 9b 3d
       -0.06632487 -0.024751594 -0.025526026 0.07574112
000200 a5 0d 2e be c1 92 08 bd 50 dc 87 3d 8e 73 11 be
       -0.16997392 -0.03334308 0.06633818 -0.14204237
000210 bc 3b 32 3e e5 3e a7 3d 0e 5c 4e 3e c4 68 6c bc
       0.174056 0.08166293 0.20152304 -0.014429275
000220 8c 92 ed 3b 7f 65 f4 bb b3 d4 9f bd 4c 98 19 3e
       0.0072501358 -0.0074583883 -0.07804241 0.14999503
000230 b4 79 b7 3c ec 90 ac 3c 5c fb 54 3d e7 be b8 bd
       0.0223969 0.021065198 0.051997527 -0.09020787
000240 16 7e 33 3e 83 24 1e 3c 62 91 03 3e ca cb 55 be
       0.17528567 0.00965226 0.12848428 -0.2087852
000250 bf 43 21 3e 29 f7 ac 3d 5f 24 16 3f bc 35 c5 3e
       0.157485 0.084455796 0.5864925 0.3851756
000260 2a 9f 5a 3e b6 97 98 bd 4b 86 26 3e 89 b2 ed 3e
       0.21349779 -0.074508116 0.16262166 0.46425274
000270 d8 a4 8b be 56 3c fe 3c 6f 28 42 3e 69 c7 92 3c
       -0.27274203 0.03103463 0.18960737 0.017917352
000280 28 81 91 bd cf e7 1f 3e 61 ff 33 bd 36 82 03 3e
       -0.07104713 0.15615772 -0.04394472 0.1284264
000290 28 d6 76 bd 78 a0 4b 3e c2 94 e5 3d 4e 09 ef 3b
       -0.06026283 0.19885433 0.11210014 0.0072948104
0002a0 ea 48 f0 bd 14 af 99 be 47 99 08 3e 87 b1 e8 bd
       -0.11732657 -0.30016387 0.1333972 -0.11361986
0002b0 a3 ff 7b 3e cb 15 15 bd 82 7a 4e bd a4 6c a4 be
       0.24609236 -0.036397737 -0.0504098 -0.32114136
0002c0 e2 c5 a4 bd 3a 27 ad bd 7d b5 73 be 5d 78 0b 3c
       -0.08045556 -0.084547475 -0.23799701 0.008512584
0002d0 dd a0 fd be ba 38 92 3e 3a 5a ed bd f7 dc 9c be
       -0.4953679 0.28558904 -0.11589475 -0.30637333
0002e0 c7 3d e9 3c ca 84 7a 3e ae 9a cc 3c 42 d6 70 3e
       0.02847184 0.24464718 0.0249761 0.23519233
0002f0 e1 22 ec 3d f7 83 cb 3b 54 60 f2 bd fa 87 73 3e
       0.1153009 0.0062108 -0.118347794 0.2378234
000300 3a df cb be 97 37 1a 3e 0d 5f 92 be 66 ff 0c be
       -0.39818746 0.15060268 -0.28588143 -0.13769302
000310 88 49 82 3d 52 d9 56 3e 60 b6 d1 bd bb 6d 4f 3e
       0.06361681 0.20981339 -0.102398634 0.20256703
000320 6b 2a 80 3d 6b 95 f2 3d a4 42 b3 3d f8 c0 dc bd
       0.062580906 0.118449055 0.08752945 -0.10778993
000330 21 a9 aa bc e3 b8 cb bd 30 f7 c1 3c 6a d8 90 bc
       -0.0208326 -0.09947374 0.023677438 -0.01768132
000340 ec 6f 42 bd fd ef 11 be b4 af 11 3d 72 16 63 3b
       -0.04747002 -0.14251705 0.035567954 0.003465083
000350 a9 4f 0a bd 0c 5b d2 3d f3 52 52 3c 3b e4 15 be
       -0.033767376 0.10271272 0.012837159 -0.14637844
000360 c0 a9 f2 3d 45 81 20 3e 68 99 89 bd 55 99 84 bd
       0.118487835 0.15674312 -0.06718713 -0.06474558
000370 0d 2e 79 3d 2b 0a 15 be e1 ba 99 3c 5a 73 30 be
       0.060834933 -0.1455466 0.018765869 -0.17231503
000380 b8 e8 2f bd 5f 41 4b 3d 8c 4d d5 3d 45 39 86 3c
       -0.042946547 0.04962289 0.104151815 0.01638473
000390 46 3c 03 3e 0b 2b e6 3d 67 e0 19 3d 3e 26 e8 bd
       0.12815961 0.112386785 0.037567522 -0.11335419
0003a0 82 13 62 bd 05 3d d2 bd bd f7 c5 3d c9 b8 84 bd
       -0.055194385 -0.10265545 0.09666393 -0.064805575
0003b0 89 46 f1 bc 4e 2b d0 bd 3a 8a b6 3c 14 4a 02 be
       -0.02945258 -0.1016451 0.022282708 -0.12723571
0003c0 43 37 30 3e 4a c0 aa bd 7b 0b 20 3e 21 e8 3c be
       0.1720858 -0.083374575 0.1562938 -0.18447925
0003d0 df 61 a3 bd 6f a9 13 bd ce ed 06 3e 1b c4 71 be
       -0.07977652 -0.036050256 0.13176653 -0.23609965
0003e0 7e 69 b0 3d 44 9d c1 bd d4 d8 33 3e 39 dd f1 3d
       0.08613871 -0.09453824 0.17563182 0.11809773
0003f0 4c cd c1 3e ad bf 78 3d 0d 13 ab 3d 76 1a 8f 3d
       0.37851942 0.06072967 0.08353243 0.06987469

net.4.bias f4 [50]
000000 30 e8 6f bd b5 b6 2b be b6 bb 86 3c 09 e9 70 3d
       -0.05857104 -0.16768916 0.01644693 0.05881599
000010 d0 2e 9c bd 66 ab 0c 3e 68 ad d6 3a 6b 3e 85 3d
       -0.07626116 0.13737258 0.0016378583 0.06506046
000020 fa 9d 22 bb dc d7 6d bd 6b 4f 94 3c f6 77 a7 3c
       -0.00248134 -0.058067188 0.018104276 0.020442944
000030 7d e2 e2 3d be 62 eb 3c af 41 7c bd 76 68 23 be
       0.110783555 0.028733607 -0.06158608 -0.15957817
000040 14 f6 72 3d 46 c4 c3 bd 8f b6 d2 bd b3 cd 1c be
       0.05931671 -0.095589206 -0.102887265 -0.15312843
000050 7d 8e f5 3d d8 f4 f0 bc 48 09 3c 3d 3d ed b8 bd
       0.11990068 -0.029413626 0.04590729 -0.090296246
000060 34 2d f0 bd 31 64 c1 bd 7e 23 9e bc bb 77 0e be
       -0.11727372 -0.09442938 -0.019304033 -0.13912861
000070 0b ca 80 bd 98 d3 0f be f8 ec 86 bd 94 8a 18 bc
       -0.06288537 -0.1404556 -0.06588167 -0.009310383
000080 f2 1d cd bd 3e 70 12 be 2f 27 60 3d 80 45 ca bd
       -0.10015477 -0.1430063 0.05472487 -0.09876537
000090 e2 cc 98 bc 56 69 be 3d c2 0d ab 3c 0d 03 89 bd
       -0.018652383 0.09297435 0.020880584 -0.06690035
0000a0 64 4c 21 3e db 64 ec 3d 82 f5 4d 3d 15 0a d7 3d
       0.15751797 0.11542674 0.050282963 0.1049997
0000b0 07 76 f1 3c 17 ea d3 bd ba 2f 18 3e f7 dc e8 3c
       0.029475225 -0.103473835 0.14861956 0.028425677
0000c0 88 6f 08 be 02 2e 3b bd
       -0.13323796 -0.045698173

net.6.weight f4 [4, 50]
000000 df a7 5e 3e 72 03 53 be 94 ad 20 be 31 b8 0b 3d
       0.21743725 -0.20606783 -0.15691215 0.034111205
000010 75 47 06 be 10 fa 90 be a6 a5 5c be c0 3f c1 be
       -0.13113196 -0.28315783 -0.21547565 -0.3774395
000020 3b af db 3d aa 3b a5 3c 6b 71 9a 3e 85 b2 21 bc
       0.10726782 0.020170052 0.30164656 -0.0098692225
000030 f3 26 1e 3e 25 59 c7 be 51 b3 ad 3c 55 0d 07 3e
       0.15444545 -0.389352 0.021203669 0.1318868
000040 b5 9e 78 bd b1 2d a5 bd e8 e2 14 3d 1c 2f 1e 3e
       -0.06069823 -0.080653556 0.036349207 0.15447658
000050 3d 0f ae 3d 58 5a 83 3e bb 39 f2 bd 30 84 4e 3e
       0.08499 0.25654864 -0.118274175 0.20167613
000060 bf 5f 57 3d 07 b0 81 3e 32 29 ae 3d a6 75 66 3e
       0.052581545 0.2532961 0.08503951 0.22505817
000070 3a 50 66 3e e4 b9 2a be 8f b9 14 bf b5 12 e1 bc
       0.22491542 -0.16672474 -0.5809564 -0.02747474
000080 3f 68 8e be 02 5e a0 3e f5 83 00 be 25 08 5b be
       -0.27813908 0.31321722 -0.12550338 -0.21389826
000090 17 a3 a2 3e 97 ef 74 3e e9 67 62 3d ed 7b 64 be
       0.31765053 0.23919521 0.055274878 -0.22312899
0000a0 58 ae 5f 3d bc 31 b0 3e 70 78 77 be d1 90 b0 3e
       0.054609627 0.34412944 -0.24167037 0.34485486
0000b0 24 5a 20 be 82 2e 15 3d 9a 12 a4 3e 92 54 30 be
       -0.15659386 0.036421306 0.32045442 -0.17219761
0000c0 77 a2 71 3e ba ed 85 bd 63 f1 67 3e 3e 9d 3e be
       0.23597132 -0.06539483 0.22650675 -0.1861467
0000d0 01 b7 3d be 83 32 b5 3d 76 06 33 be 22 c5 4b 3c
       -0.18526842 0.08847525 -0.17482933 0.012437137
0000e0 7e 38 3f 3e 8f 74 87 be 88 00 52 3e 83 51 bb bd
       0.18673894 -0.26456115 0.20508015 -0.091464065
0000f0 fd 83 5d 3e 35 65 5b be d1 69 1a be e6 eb 85 be
       0.21632381 -0.21425326 -0.15079428 -0.2615654
000100 3a 98 6f 3e 8c e7 ac bd 53 8d 2a be fb d2 51 3e
       0.23397914 -0.084426016 -0.16655473 0.20490639
000110 5a cb 52 be 9f 14 33 bd 73 a1 58 3e 23 d8 61 bd
       -0.20585385 -0.043720838 0.21155338 -0.055137765
000120 51 71 05 3e 97 ce 58 3c 93 62 e5 bd 22 49 51 bb
       0.13031508 0.013232849 -0.11200442 -0.003193446
000130 73 a3 94 3c ba 86 bf bd 8e b4 31 be ea df 5f be
       0.018144345 -0.09351869 -0.17354032 -0.2186276
000140 32 a3 ce bd d0 e1 e7 ba 57 2b 4a be c6 e3 0c 3e
       -0.10089721 -0.0017691199 -0.19743095 0.13758764
000150 00 2e 39 be 91 70 45 3d 63 85 93 3d 14 ee eb 3d
       -0.18083954 0.048203055 0.07203176 0.11520019
000160 30 d3 15 be 58 79 50 3d 15 6b 2a 3e 5e b0 a0 3d
       -0.14631343 0.050896972 0.16642411 0.07846139
000170 66 b7 1c be 21 cb e5 3d eb 4b 4c 3e b0 dd 37 be
       -0.15304336 0.112203844 0.19950835 -0.17955661
000180 1c 22 67 3e 09 2e 08 be 18 db 26 bd b9 72 49 3e
       0.22571605 -0.13298811 -0.040736288 0.1967267
000190 7e a4 ff 3c 15 02 46 be 75 e4 16 be 49 34 3c 3e
       0.031206366 -0.19336732 -0.14735587 0.1837932
0001a0 88 95 06 be 0b 44 b5 bd 46 6d c6 bd 03 d7 00 3e
       -0.13142979 -0.08850869 -0.09688811 0.1258202
0001b0 e3 5f 2e 3e 93 c5 4d be 71 b4 48 be e1 79 4f be
       0.17028765 -0.200949 -0.19600083 -0.20261337
0001c0 92 d8 e5 3c 20 e7 7f 3e 46 2b 67 3e a2 ed f2 be
       0.02805737 0.24990511 0.22575101 -0.47446924
0001d0 3c bd cd 3c 1b 2d 5c 3d ef 13 bf bd 8c 5e b4 3d
       0.025114648 0.053753953 -0.09329974 0.08807096
0001e0 d3 3e 47 3e 43 4b f6 3d 7e d9 ae bd 73 d5 5e be
       0.1945756 0.12026074 -0.08537577 -0.21761112
0001f0 31 a0 bc 3d c4 cf 13 be 8b 6d d5 3e e7 91 42 be
       0.092102416 -0.14434725 0.41685137 -0.1900097
000200 7e a2 da 3d 27 78 d3 bd 39 24 3c be 45 56 96 be
       0.10675524 -0.103256516 -0.18373193 -0.29362693
000210 52 9e ef bd 65 cb 48 be b9 43 01 be cb cd 97 bb
       -0.11700119 -0.19608839 -0.1262349 -0.0046326867
000220 ac 22 58 be dc 6e 8a 3e f4 5e 41 bd 5d fb 25 3e
       -0.21106976 0.27037704 -0.047209695 0.16209169
000230 20 66 51 3e 30 73 cc 3d 32 85 47 be a6 a5 7a bd
       0.20449114 0.09982908 -0.19484404 -0.06119313
000240 6a 9f d4 bd 53 f0 8a be aa 8e 0f bc 43 a9 0d 3e
       -0.10381968 -0.27136478 -0.008762041 0.138341
000250 bb 75 4b be 3e 3e a0 3c 28 ba 61 be 9c f3 80 3c
       -0.1986913 0.01956093 -0.22043669 0.015741162
000260 1c b3 56 3e 47 80 68 3e 4b ec e6 3c a8 67 2c bd
       0.20966762 0.22705184 0.028188845 -0.04209104
000270 5c cb 92 3d 6a aa 7a be bf 8a bd bd b7 66 8e 3d
       0.07167694 -0.2447907 -0.09254979 0.06953185
000280 61 02 9c bd 84 6c 40 3d 57 9e bd 3d 5d 22 e1 3e
       -0.07617641 0.04697849 0.092587166 0.4397153
000290 a8 d9 56 be 04 5a 59 be 55 e8 44 be ad 3d 9f be
       -0.20981467 -0.21225744 -0.19229253 -0.31101742
0002a0 c0 64 21 be 12 56 46 be 7c d4 a8 3c d2 be 97 be
       -0.1576109 -0.1936877 0.020609133 -0.29637772
0002b0 a6 84 af be 78 93 39 be e5 52 23 3e 30 eb 84 bd
       -0.3428089 -0.18122661 0.1594959 -0.06490171
0002c0 51 33 fc bd b9 dc 0e be a7 6d 3f be a7 2b 32 3d
       -0.12314475 -0.13951387 -0.18694173 0.04349866
0002d0 d8 ff e1 be 33 b4 86 3d 71 da 1b 3e 89 5e a5 3d
       -0.44140506 0.06577339 0.15220048 0.08074672
0002e0 4d 07 69 3e 53 03 12 bb 48 48 b4 bd 2d 5d ac 3e
       0.22756691 -0.0022279813 -0.08802849 0.33664837
0002f0 b9 96 97 3d c9 56 82 3e ef ac 91 3e b6 51 83 be
       0.07401795 0.25456837 0.2845225 -0.25648278
000300 c8 18 4c be fb 5c ff be e1 65 8b 3d dd 5e a2 3e
       -0.19931328 -0.49875626 0.06806541 0.31713
000310 55 43 ec 3d c0 92 56 3d 4b 11 ae 3d dc ed 72 3c
       0.1153628 0.052386045 0.08499392 0.014827218

net.6.bias f4 [4]
000000 29 a9 35 be 4e 92 9d bd 49 88 8a bd b2 14 30 bc
       -0.1774031 -0.07693921 -0.067642756 -0.010747122
