pretrain_PPO/gail-5000_expert-BipedalWalker-v3/model.pt (torch, 57273 bytes, 16 tensors)

log_std f4 [4]
0	0xbfe390c8	-1.7778559
1	0xbfbec6dd	-1.4904438
2	0xbfed67c4	-1.8547292
3	0xbff0033a	-1.8750985

net.0.weight f4 [50, 24]
0	0x3d057d5f	0.032590266
1	0x3e339f21	0.17541172
2	0xbe1ca453	-0.1529706
3	0x3e212ef9	0.15740575
4	0x3e918e55	0.28428903
5	0xbd0c1939	-0.03420374
6	0xbe89f765	-0.2694656
7	0x3dab1051	0.083527215
8	0xbc9a0e37	-0.018805606
9	0xbe9fb640	-0.31193733
10	0x3d621faa	0.05520598
11	0xbec52d58	-0.38511157
12	0xbd55db71	-0.05221123
13	0xbd0477c5	-0.032340784
14	0xbbd7cf6a	-0.006586005
15	0xbd39425f	-0.045229312
16	0xbab10c39	-0.0013507671
17	0xbe402bac	-0.1876666
18	0xbd91c0de	-0.071168646
19	0x3d399b79	0.045314286
20	0xbe4908bb	-0.19632237
21	0xbd7e8eb9	-0.06214783
22	0xbde43eaa	-0.11144765
23	0xbdd656e8	-0.10465795
24	0x3d8eb5a0	0.06968236
25	0xbddc0dc2	-0.107448116
26	0xbdeabbf0	-0.114616275
27	0xbdbc8361	-0.09204746
28	0xbdf34eee	-0.11880289
29	0x3e42b00d	0.1901247
30	0xbe95f55e	-0.29288763
31	0xbdee776e	-0.11643873
32	0x3d5a2435	0.053257186
33	0x3db608f7	0.08888429
34	0xbde6e844	-0.1127477
35	0xbd93cb7b	-0.07216545
36	0xbda15d9c	-0.07879183
37	0xbdce4f77	-0.100737505
38	0xbe64b025	-0.22332819
39	0xbe31ddc3	-0.17369752
40	0xbd9655b0	-0.07340562
41	0xbdc92787	-0.09821992
42	0x3a9e26d3	0.0012066014
43	0xbc8da7e8	-0.017291978
44	0xbe145fb2	-0.1448963
45	0xbc98c8c9	-0.01865043
46	0xbac3e70f	-0.001494618
47	0xbe3bc08c	-0.1833517
48	0x3e8c5794	0.27410567
49	0x3e296bc0	0.1654501
50	0xbe153e49	-0.14574541
51	0x3e38613e	0.18005845
52	0x3e5c43ad	0.21510191
53	0xbe2cf5a3	-0.16890578
54	0xbe8407be	-0.25787157
55	0xbd8191e2	-0.06326653
56	0x3cda3977	0.02663873
57	0x3d7a110e	0.06105142
58	0xbe2d9ae5	-0.16953619
59	0xbe072fde	-0.13201854
60	0x3d69e38c	0.05710177
61	0x3ce37cbb	0.027769437
62	0x3e09a4ca	0.13441768
63	0xbe5a65d8	-0.21327913
64	0x3e248530	0.16066432
65	0xbe53a817	-0.2066959
66	0x3dafd516	0.08585565
67	0xbdf91fc4	-0.12164262
68	0x3e091a48	0.13388932
69	0xbe43d694	-0.19124824
70	0xbdc3e03a	-0.09564252
71	0x3db0059c	0.0859482
72	0x3ed3f644	0.41398823
73	0x3e16a59c	0.14711612
74	0x3d65ea8c	0.056131884
75	0xbd980e84	-0.07424644
76	0x3e6d2a01	0.23160554
77	0x3d9d3e86	0.07677941
78	0x3c9b2096	0.018936437
79	0x3dd97169	0.106173344
80	0x3d021c52	0.03176529
81	0xbe80ba50	-0.25142145
82	0xbd11ea07	-0.035623576
83	0x3d20a410	0.039218962
84	0xbd9078ff	-0.07054328
85	0xbde852c9	-0.11343915
86	0x3d036250	0.03207618
87	0x3e4698aa	0.19394174
88	0x3e5211cd	0.20514603
89	0xbb4d973d	-0.0031370663
90	0xbcc6fc08	-0.0242901
91	0x3d6a28be	0.05716776
92	0x3d63405f	0.05548131
93	0xbd7dfe9f	-0.062010404
94	0x3e1281d1	0.14307334
95	0x3e17b562	0.14815286
96	0x3e83f6cf	0.25774238
97	0x3c355693	0.011068004
98	0x3e110cb7	0.14165007
99	0xbdbed195	-0.09317318
100	0x3e58cfd8	0.21173036
101	0xbdca89a3	-0.09889533
102	0xbdf32021	-0.118713625
103	0xbd6cca47	-0.057810094
104	0xbd35df4c	-0.044402406
105	0x3dd4e28c	0.10394773
106	0x3e296bdf	0.16545056
107	0x3c429773	0.011876929
108	0x3b924680	0.0044639707
109	0xbd2f02f2	-0.04272742
110	0x3db1fb45	0.08690504
111	0x3bb9db04	0.0056718607
112	0xbe12a88e	-0.14322111
113	0xbc32ff8b	-0.010925184
114	0xbd88d1be	-0.0668063
115	0x3dc8016c	0.09765896
116	0x3d45ca37	0.04828855
117	0x3e17daea	0.14829603
118	0x3d0fa05a	0.035065033
119	0x3e180710	0.14846444
120	0x3c97a669	0.018511968
121	0xbd5ca412	-0.053867407
122	0x3e539ada	0.2066454
123	0xbd8e9062	-0.069611326
124	0x3e4965f0	0.19667792
125	0xbebac165	-0.36475673
126	0x3c160baf	0.009158059
127	0xbdce78e1	-0.100816496
128	0xbd395e90	-0.045256197
129	0xbd10a913	-0.03531749
130	0x3d87dae4	0.06633547
131	0xbe924a56	-0.2857234
132	0x3dd46970	0.10371673
133	0xbdf663e3	-0.12030771
134	0x3de6675c	0.11250183
135	0xbe196dc3	-0.14983277
136	0xbc717a8c	-0.01473869
137	0x3da5b2b0	0.080907226
138	0xbe04cae5	-0.12968023
139	0xbe313efa	-0.1730918
140	0xbdb58635	-0.088634886
141	0x3e19c1db	0.15015356
142	0xbcbee448	-0.023302212
143	0x3d93fc85	0.07225899
144	0xbd9115d9	-0.07084245
145	0x3dee0997	0.11622923
146	0x3d8b670c	0.06806764
147	0x3e1f1739	0.15536202
148	0xbe2186d1	-0.15774085
149	0x3dd0de65	0.101986684
150	0xbe607978	-0.21921337
151	0xbd502707	-0.05081847
152	0xbdbde4cc	-0.09272155
153	0x3e565f6f	0.20934843
154	0x3ddfdaad	0.10930381
155	0xbcb2d7ea	-0.021831471
156	0x3d478d3d	0.04871868
157	0xbe326025	-0.17419489
158	0x3cd39800	0.025829315
159	0xbd05ed5c	-0.032697067
160	0x3dbfac92	0.09359087
161	0x3dacf083	0.084443115
162	0xbe222e24	-0.15837914
163	0x3dadb2e9	0.0848139
164	0x3e168fbc	0.14703268
165	0xbe0b4482	-0.13600352
166	0x3e101f6d	0.14074488
167	0x3d9fcc72	0.07802667
168	0xbd90ff67	-0.07079964
169	0xbe924c26	-0.28573722
170	0xbd0d2892	-0.03446252
171	0xbd55b3f0	-0.052173555
172	0x3dcf71d8	0.10129136
173	0xbeb281a4	-0.34864533
174	0xbe98b0a3	-0.29822263
175	0x3e05620e	0.13025686
176	0x3e14ab17	0.1451839
177	0x3e2440fb	0.16040413
178	0x3ccac0d4	0.02475015
179	0x3d115075	0.03547712
180	0xbc5d05b4	-0.013490129
181	0xbe55906f	-0.20855878
182	0x3cfe88ed	0.03107115
183	0xbe88a97b	-0.26691803
184	0xbe140241	-0.14453985
185	0xbdfd8651	-0.123791344
186	0x3c0e570c	0.008687746
187	0xbe9478b9	-0.28998354
188	0xbe976d23	-0.29575452
189	0x3d36fc30	0.0446741
190	0x3d30ca9f	0.043161985
191	0xbce362f6	-0.02775715
192	0xbce9a17b	-0.028519383
193	0xbdfe904d	-0.12429867
194	0x3e3395e1	0.17537643
195	0x3e06bd35	0.13158114
196	0xb835ba36	-4.3327185e-05
197	0xbdc69ff8	-0.0969848
198	0x3e6af855	0.22946294
199	0xbd2fc06b	-0.042908113
200	0xbe0b4a24	-0.13602501
201	0xbe484521	-0.1955762
202	0x3e04f862	0.12985376
203	0x3db0b35c	0.0862796
204	0x3cda2ba5	0.02663214
205	0xbcde8933	-0.027165031
206	0xbe3ee7af	-0.18643068
207	0x3d10cdf9	0.03535268
208	0xbe0a8682	-0.13527873
209	0x3cefb25e	0.029259857
210	0x3dc1d3f5	0.09464256
211	0x3e026901	0.12735368
212	0x3da5b4cc	0.08091125
213	0xbd7c9eaa	-0.06167475
214	0xbe1028ac	-0.14078015
215	0xbd7b5cc5	-0.06136777
216	0x3d104a1c	0.035226926
217	0xbe271f93	-0.16320638
218	0xbca10a58	-0.019658253
219	0xbd417edb	-0.04724012
220	0xbe701989	-0.23447241
221	0x3f09d418	0.53839254
222	0xbe272ae8	-0.16324961
223	0xbf0f89cd	-0.5606964
224	0x3e24625b	0.16053145
225	0xbc757288	-0.01498092
226	0x3dd6a018	0.10479754
227	0xbe245420	-0.16047716
228	0xbe81cd05	-0.2535173
229	0xbe87997a	-0.2648428
230	0xbdccdd05	-0.10003094
231	0xbda8c758	-0.08241147
232	0xbdf83456	-0.12119357
233	0x3da45037	0.08023112
234	0xbd85a68d	-0.06525908
235	0x3e1f198b	0.15537088
236	0xbd4ca5c5	-0.049962778
237	0xbe2e13b8	-0.1699971
238	0x3e20ca0d	0.15702076
239	0xbd3ba9f2	-0.04581637
240	0x3db46063	0.08807447
241	0x3c6671cd	0.014065218
242	0x3d42592d	0.047448326
243	0x3d91486f	0.07093894
244	0x3caf48bb	0.021396985
245	0xbe87d174	-0.26526988
246	0xbe005674	-0.12532979
247	0x3d07d113	0.033158373
248	0x3e3a70f5	0.18207152
249	0xbe49831b	-0.19678919
250	0xbdced4ff	-0.100992195
251	0xbeac7c76	-0.33688706
252	0xbe1ba507	-0.15199672
253	0xbd8b2584	-0.06794265
254	0xbe58be2f	-0.211663
255	0xbdadb851	-0.08482421

net.0.bias f4 [50]
0	0x3e3a0513	0.18165998
1	0x3e40ebdc	0.18839973
2	0x3dcef6bb	0.10105654
3	0x3eaf0f0b	0.34191164
4	0x3dc7279f	0.09724354
5	0xbd69b5cd	-0.057058144
6	0xbdd6c180	-0.10486126
7	0xbe1a48c0	-0.15066814
8	0xbe0e3dd9	-0.1389078
9	0x3b8b1f42	0.0042456696
10	0x3df7a56f	0.12092101
11	0xbdea894f	-0.11451971
12	0x3d821429	0.063515015
13	0xbd372327	-0.04471126
14	0xbe0b0227	-0.1357504
15	0xbda5082c	-0.08058199
16	0xbdcf0c07	-0.10109716
17	0xbe79f0e0	-0.24408293
18	0x3e481aeb	0.19541518
19	0xbe64b0e8	-0.2233311
20	0xbe93affa	-0.28845197
21	0xbc11d03a	-0.008899743
22	0xbc94c08d	-0.018158222
23	0xbcf766c3	-0.030200368
24	0x3db433c8	0.08798939
25	0x3d3a336c	0.045459196
26	0x3d40beab	0.047056835
27	0xbc93da7f	-0.018048523
28	0xbd3c725b	-0.046007495
29	0x3d1bf60a	0.038076438
30	0x3df6f0cb	0.12057646
31	0x3db82d76	0.08993046
32	0x3e8db2ea	0.27675563
33	0x3e15e04c	0.14636344
34	0x3bd27e4c	0.006423747
35	0xbdd6315c	-0.10458633
36	0xbe19d100	-0.15021133
37	0xbe871bc4	-0.2638837
38	0x3e094795	0.13406213
39	0x3e8a0493	0.26956615
40	0xbeaa095c	-0.33210266
41	0x3cb95945	0.022625575
42	0xbd233eff	-0.039855
43	0x3da843ea	0.082160786
44	0xbcbce8b0	-0.023060173
45	0x3d0a1e49	0.03372029
46	0x3b4fa35a	0.0031683058
47	0xbe743934	-0.23849946
48	0xbd86dc14	-0.06584945
49	0x3e2abcfb	0.16673653

net.2.weight f4 [50, 50]
0	0x3d6d30cd	0.05790787
1	0xbd92cca0	-0.07167935
2	0xbb2b7c60	-0.0026166663
3	0xbd493223	-0.04912008
4	0xbd7555ff	-0.059896465
5	0xbd8269b0	-0.063678145
6	0xbe02f2b4	-0.12787896
7	0x3d031ef3	0.032011937
8	0xbe27f53e	-0.16402146
9	0x3e25ed32	0.16203764
10	0x3c8bc1ff	0.017060278
11	0x3dbdcd94	0.092677265
12	0x3e0198f5	0.12656005
13	0xbdec8ef1	-0.115507014
14	0xbe08c18f	-0.13355087
15	0xbd9e78d1	-0.07737888
16	0x3dac6cc3	0.08419182
17	0x3db4c3fc	0.088264436
18	0x3df2e845	0.11860708
19	0x3d8e0d42	0.069361225
20	0x3cacb463	0.021082109
21	0xbd8d72c2	-0.06906654
22	0x3b4f0e2e	0.0031594145
23	0x3db4976c	0.08817944
24	0xbc03e479	-0.008050078
25	0xbbd3438e	-0.006447262
26	0xbcfbfbcc	-0.030759715
27	0xbda7e714	-0.081983715
28	0xbd327ccf	-0.043576058
29	0x3d6a391d	0.057183374
30	0x3ca8aab6	0.020589214
31	0x3c229c1e	0.009924917
32	0x3e3ae808	0.18252575
33	0x3da9c9ed	0.082904674
34	0xbd50cbfa	-0.050975777
35	0xbda973c6	-0.08274035
36	0xbd529365	-0.051410098
37	0xbc35aded	-0.01108883
38	0x3de4487c	0.11146638
39	0x3e81fc9f	0.25388047
40	0xbd0f6290	-0.035006106
41	0x3deeaa16	0.11653535
42	0x3c7afa62	0.015318485
43	0x3dfa45be	0.122203335
44	0xbdb26b23	-0.08711841
45	0xbdcf3638	-0.10117763
46	0x3d4a7480	0.04942751
47	0xbd8952b4	-0.067052275
48	0xbc7528a4	-0.014963303
49	0xbe3d7ec7	-0.18505393
50	0xbe24ecbc	-0.16105932
51	0xbd602de3	-0.05473126
52	0xbde01e7f	-0.10943317
53	0xbba362fe	-0.004986166
54	0x3a9d0afe	0.0011981425
55	0x3d455e62	0.048185714
56	0xbc49b748	-0.012311764
57	0xbe4b1120	-0.19830751
58	0xbcd038f3	-0.02541778
59	0x3e9b660a	0.30351287
60	0xbdebc09e	-0.11511348
61	0x3dd94a39	0.1060986
62	0xbde0d1db	-0.10977527
63	0xbd3bbcd4	-0.045834377
64	0xbc691e91	-0.014228479
65	0x3e34882f	0.17630075
66	0x3def3ae2	0.11681153
67	0xbdd46900	-0.1037159
68	0xbd116482	-0.035496242
69	0x3e2d9a30	0.16953349
70	0xbe431498	-0.19050825
71	0xbcb3757c	-0.021906607
72	0x3da61dec	0.08111176
73	0x3caff1fb	0.02147769
74	0xbe1e4545	-0.15456112
75	0xbcac36b2	-0.021022175
76	0xbc8eb649	-0.017420905
77	0x3e7bf1a4	0.24603897
78	0xbe0b3718	-0.13595235
79	0xbc2c7f22	-0.010528358
80	0x3e1c876c	0.15286034
81	0x3ddbd8bc	0.10734698
82	0x3dbc65d4	0.0919911
83	0x3dd6c581	0.1048689
84	0xbd9a3e87	-0.075314574
85	0x3bd99683	0.006640257
86	0xbbf00fdf	-0.0073261107
87	0x3d6d1942	0.057885416
88	0x3e085269	0.13312687
89	0x3e9cdd5b	0.3063763
90	0x3e217266	0.15766296
91	0x3cac444b	0.021028658
92	0x3d6c4bba	0.057689406
93	0x3d08b42e	0.033374958
94	0xbc61513e	-0.01375228
95	0x3ddd6a7a	0.108113244
96	0xbdb5ae97	-0.08871191
97	0xbd35f3a8	-0.04442182
98	0x3d594ddb	0.053052764
99	0xbe04f1f2	-0.1298292
100	0xbe2bac58	-0.16764963
101	0x3cf7e564	0.03026075
102	0xbe04fb8d	-0.12986584
103	0xbe032a77	-0.12809168
104	0xbde062b0	-0.10956323
105	0xbd694931	-0.056954566
106	0x3da5068b	0.080578886
107	0xbd360756	-0.04444059
108	0x3d1b7867	0.03795662
109	0x3e191d0b	0.14952485
110	0xbe73f6db	-0.23824637
111	0x3cefd70d	0.029277349
112	0xbe47a4ae	-0.19496414
113	0x3d27394d	0.04082613
114	0xbdd8a9a6	-0.10579233
115	0x3e0ccb05	0.13749321
116	0xbe3ef6d4	-0.18648845
117	0x3ce81bb6	0.028333526
118	0xbd8a12d3	-0.06741872
119	0x3d2c85d0	0.0421198
120	0x3be73ebe	0.00705704
121	0x3e316229	0.17322601
122	0x3c4beaac	0.012446087
123	0xbd89e465	-0.06733016
124	0x3dd4a762	0.10383488
125	0x3e25d253	0.16193514
126	0x3d87eba0	0.06636739
127	0x3d342118	0.043976873
128	0xbcdeccba	-0.02719723
129	0x3dd9bf1f	0.106321566
130	0x3dc9c9c9	0.098529406
131	0x3e0853d2	0.13313225
132	0xbe600418	-0.21876562
133	0x3e0ff276	0.14057335
134	0xbe1b0742	-0.15139487
135	0xbd06f12c	-0.032944843
136	0x3da3f13f	0.080049984
137	0xbda2de19	-0.07952518
138	0xbe2afe87	-0.16698657
139	0x3d244322	0.040103085
140	0xbdea1ef1	-0.11431683
141	0x3e0a6d8e	0.13518354
142	0x3e27b1a5	0.1637636
143	0x3dbc406f	0.09191977
144	0x3d8079d6	0.06273238
145	0x3deec55f	0.11658739
146	0xbda7dc75	-0.08196346
147	0xbe5cc58c	-0.21559733
148	0xbd959b07	-0.0730496
149	0xbca9cfe4	-0.020729013
150	0xbdb40ee2	-0.08791901
151	0x3d214a2f	0.039377388
152	0x3b23d2ea	0.002499754
153	0xbe326608	-0.17421734
154	0xbe2c6ad0	-0.1683762
155	0x3d45dd7f	0.04830694
156	0x3b7c3691	0.0038484673
157	0x3e1fd58f	0.1560881
158	0xbc877313	-0.016534364
159	0xbdcb27be	-0.099196896
160	0x3e15774e	0.14596292
161	0x3e39e68e	0.18154356
162	0xbddd0826	-0.1079257
163	0x3d5b4b1e	0.053538434
164	0xbd29173b	-0.04128192
165	0x3cae117e	0.021248575
166	0xbda64fef	-0.08120715
167	0x3d774ba7	0.060374882
168	0x3d011e43	0.031523
169	0x3e32cedd	0.17461725
170	0x3bd9ca81	0.006646455
171	0x3d41565f	0.04720151
172	0x3cab16d5	0.02088491
173	0x3c632af7	0.013865224
174	0xbe58d4ca	-0.21174923
175	0xbe09956c	-0.13435906
176	0xbcafec97	-0.02147512
177	0xbcf9f331	-0.03051147
178	0xbce65908	-0.028118625
179	0xbdcb1032	-0.099151984
180	0x3e04e9c9	0.12979807
181	0x3d63fcf6	0.055661164
182	0xbdec6981	-0.11543561
183	0xbdb1b329	-0.0867675
184	0xbc99f431	-0.018793197
185	0x3c4d51d9	0.012531721
186	0x3cd7a0c6	0.02632178
187	0x3ca13791	0.019679816
188	0xbd876614	-0.06611267
189	0x3c62266c	0.013803106
190	0x3c157b5f	0.009123652
191	0xbe0851d2	-0.13312462
192	0xbd9ca368	-0.07648355
193	0x3dec3692	0.11533846
194	0xbe234187	-0.15942965
195	0xb92e0357	-0.00016595177
196	0xbd1c9556	-0.038228355
197	0x3c359311	0.011082427
198	0xbd50348a	-0.050831355
199	0xbdee015b	-0.11621352
200	0x3e010069	0.12597813
201	0xbca965ee	-0.020678487
202	0x3e15513b	0.14581768
203	0xbdadd82f	-0.084884994
204	0x3e12f8af	0.14352678
205	0x3ca568a0	0.02019149
206	0xbd1c9794	-0.038230494
207	0x3d8a0fd2	0.06741299
208	0x3dc5c218	0.09656161
209	0xbe0b160e	-0.13582632
210	0x3db3472c	0.08753809
211	0x3db7189f	0.08940243
212	0x3d893308	0.066991866
213	0x3d23bd7e	0.039975636
214	0x3e2211f7	0.15827166
215	0xbdf1e800	-0.118118286
216	0x3e2e76d5	0.17037518
217	0xbd7c0125	-0.06152453
218	0x3dd1b309	0.10239226
219	0xbdabac3c	-0.083824605
220	0x3db9fea8	0.09081775
221	0xbd06421e	-0.032777898
222	0x3d040735	0.032233436
223	0xbdb3fe08	-0.08788687
224	0x3dded2fe	0.10880087
225	0x3de3e59a	0.111277774
226	0xbcea7430	-0.028619856
227	0x3d7766e8	0.060400873
228	0x3d18a506	0.037266754
229	0x3da37b9a	0.079825595
230	0xbd95247c	-0.072823495
231	0x3b89fcd2	0.0042110467
232	0xbd2864ee	-0.04111188
233	0xbe084726	-0.13308391
234	0x3dd76d93	0.105189465
235	0x3d282a0d	0.041055728
236	0x3b7a3301	0.0038177373
237	0x3d2bc1e8	0.04193297
238	0xbd77e9f6	-0.060525857
239	0xbdc0cc61	-0.09413982
240	0xbd597948	-0.05309418
241	0x3d950582	0.07276441
242	0x3d8a9509	0.067667075
243	0x3d764db8	0.060132712
244	0x3e0ca180	0.13733482
245	0x3dbe5ed0	0.09295428
246	0xbd2125eb	-0.039342802
247	0xbcbc10db	-0.022957256
248	0x3c914f81	0.017738106
249	0xbde4f619	-0.11179752
250	0x3e3c6da4	0.184012
251	0x3c0a2b1d	0.008433131
252	0x3e334d6a	0.1751
253	0x3d7d5408	0.061847717
254	0x3dc3b7b3	0.09556522
255	0x3e15b79d	0.14620824

net.2.bias f4 [50]
0	0x3e65af7f	0.22430228
1	0x3d37c37c	0.044864163
2	0xbcb740dc	-0.022369795
3	0xbe37d96c	-0.17954034
4	0x3c94b099	0.018150615
5	0x3df16075	0.11785976
6	0x3c916f4f	0.017753271
7	0x3e2162a8	0.1576029
8	0xba95717c	-0.0011401619
9	0xbbb78752	-0.0056008482
10	0x3dacf89f	0.08445858
11	0x3e15514b	0.14581792
12	0xbda9e9e7	-0.082965665
13	0xbe3bdb81	-0.18345453
14	0x3e849901	0.25897983
15	0x3de18d41	0.1101327
16	0xbce8bf18	-0.028411433
17	0x39090987	0.00013068887
18	0x3e16960c	0.14705676
19	0x3e01c370	0.1267221
20	0xbc302e02	-0.010753157
21	0x3e4dfe55	0.20116551
22	0xbdce1ab7	-0.10063689
23	0xbe2482ad	-0.16065474
24	0xbe457706	-0.19283685
25	0xbca3b747	-0.019984854
26	0x3e3f0d4b	0.18657415
27	0xbdf49af7	-0.1194362
28	0x3e511957	0.20419823
29	0x3d91ef7d	0.07125757
30	0xbd01b74a	-0.03166894
31	0xbda67ec2	-0.08129646
32	0xbce9b271	-0.02852747
33	0xbd11b0e0	-0.03556907
34	0x3e1338e7	0.14377175
35	0x3d569176	0.052384816
36	0xbdb6dbfd	-0.08928678
37	0xbc4b021f	-0.012390642
38	0xbcb8fe01	-0.022582056
39	0xbdf38a07	-0.11891561
40	0x3dd87f77	0.10571187
41	0x3df7c652	0.120983735
42	0xbd90694b	-0.07051333
43	0x3e12bed1	0.14330603
44	0x3cfeee34	0.031119443
45	0xbd54da19	-0.051965807
46	0x3cdbc79e	0.026828583
47	0xbcdab7e0	-0.026699007
48	0xbc06ce0a	-0.0082278345
49	0xbcc519d0	-0.02406016

net.4.weight f4 [50, 50]
0	0x3e0061a4	0.12537247
1	0x3e20c4d7	0.15700088
2	0xbd6f9d44	-0.05849959
3	0x3d890431	0.066902526
4	0x3d718e1e	0.058973424
5	0xbe005af0	-0.1253469
6	0x3e0b8a8f	0.13627075
7	0xbcff5806	-0.031169903
8	0xbd7286cf	-0.059210595
9	0xbb127502	-0.0022347574
10	0x3c9ce848	0.01915373
11	0xbdece804	-0.11567691
12	0x3e278cfb	0.16362374
13	0xbbfab1f8	-0.00765061
14	0x3e14e8b7	0.14541899
15	0x3d60243a	0.05472205
16	0x3e26f143	0.16302972
17	0xbd01fa8b	-0.031733077
18	0xbdeb3c73	-0.11486139
19	0xbdfce4f0	-0.12348354
20	0xbe1444ff	-0.14479445
21	0x3d12d28c	0.035845324
22	0xbcb7cace	-0.022435572
23	0x3dd5ee36	0.10445826
24	0xbd800916	-0.06251733
25	0xbd174daa	-0.0369393
26	0xbdc55a9f	-0.09636425
27	0x3bedf52e	0.0072618937
28	0xbdae117e	-0.0849943
29	0xbc0643fe	-0.008194922
30	0x3d582e11	0.052778307
31	0xbdd19094	-0.10232654
32	0xbe046adb	-0.12931387
33	0xbcfb0cb5	-0.030645708
34	0xbd9f2f42	-0.077726856
35	0xbd01cc3c	-0.031688914
36	0xbd95d1fa	-0.073154405
37	0x3d2dfa2c	0.04247491
38	0x3d701139	0.058610175
39	0xbdec2b95	-0.1153175
40	0xbe212ae0	-0.15739012
41	0xbc25aee6	-0.0101125
42	0x3cf567b7	0.029956682
43	0xbd150d89	-0.03638986
44	0xbdd96e77	-0.106167726
45	0x3dabae97	0.0838291
46	0xbdbf9a03	-0.09355547
47	0xbe249fb5	-0.16076548
48	0xbbe0f888	-0.0068655647
49	0x3dca6c09	0.09883887
50	0xbdd1a97b	-0.10237404
51	0xbc07afd5	-0.008281668
52	0xbd839f11	-0.06426824
53	0xbc3defac	-0.011592787
54	0x3e0a7c0a	0.1352388
55	0xbcb37b90	-0.021909505
56	0xbb85047f	-0.004059374
57	0x3da76ac8	0.08174664
58	0x3deecf52	0.11660637
59	0xbd4e3742	-0.050345667
60	0x3bcde42d	0.006283304
61	0xbdbcb637	-0.09214442
62	0xbd879c9c	-0.06621668
63	0x3c0e2930	0.008676812
64	0xbd7c53bd	-0.061603297
65	0xbe16ae01	-0.14714815
66	0xbc851abe	-0.016248103
67	0xbdeb3cca	-0.11486204
68	0xbe06ff76	-0.13183388
69	0xbd9970ac	-0.074921936
70	0xbdd6847a	-0.10474487
71	0x3d171e08	0.036893874
72	0xbe24a25a	-0.16077557
73	0x3d720b75	0.059092958
74	0x3d82ed5d	0.0639293
75	0xbde8ed47	-0.11373382
76	0xbc329ae6	-0.0109011885
77	0x3e11c295	0.14234383
78	0xbc1d2139	-0.00959044
79	0x3d165b2f	0.036708053
80	0x3dd5ad3c	0.104334325
81	0xbdd342cf	-0.10315477
82	0x3bb56210	0.0055353716
83	0xbdf5b442	-0.11997272
84	0xbbd8d358	-0.006616991
85	0x3e010d70	0.12602782
86	0x3e011b40	0.12608051
87	0x3c842c7e	0.016134497
88	0x3dc609a0	0.096698046
89	0xbda29342	-0.079382434
90	0x3d94d131	0.072664626
91	0xbdbcc58a	-0.09217365
92	0x3dd91ad9	0.10600824
93	0x3d598da2	0.053113587
94	0x3e02a198	0.12756956
95	0xbd8e6b9d	-0.06954119
96	0x3db09dd0	0.0862385
97	0xbc4b0283	-0.012390736
98	0x3dcb9cd0	0.09942019
99	0xbddb74ea	-0.10715659
100	0xbcceccbf	-0.025244115
101	0xbe05fa66	-0.130838
102	0x3e0f8fff	0.14019774
103	0xbd1b75d3	-0.037954163
104	0xbd715f7b	-0.058928948
105	0x3d10f8aa	0.035393395
106	0x3d8b46a0	0.0680058
107	0x3de6d47f	0.11270999
108	0x3dcdc458	0.10047215
109	0x3e2bbc3e	0.16771027
110	0x3c984924	0.018589564
111	0x3d5ec7e1	0.054389838
112	0xbd761e87	-0.060087707
113	0x3d9c4e74	0.07632151
114	0x3e0115fb	0.12606041
115	0xbdddbfc0	-0.10827589
116	0x3b3c9577	0.0028775611
117	0xbd99b694	-0.07505527
118	0x3e03698f	0.12833236
119	0x3d45e56c	0.048314497
120	0xbdeaec98	-0.11470908
121	0x3dce355c	0.10068771
122	0x3dcc2df7	0.099697046
123	0xbdba8c59	-0.091088004
124	0x3e1d971e	0.15389678
125	0x3d91d0da	0.071199134
126	0xbd4f5799	-0.05062065
127	0xbdbdb537	-0.092630796
128	0x3c2f3e29	0.0106959725
129	0xbdf07a92	-0.117421284
130	0xbe122d0a	-0.14274994
131	0x3d142041	0.036163572
132	0xbdcfd376	-0.10147755
133	0xbd080700	-0.0332098
134	0xbdcab70b	-0.09898194
135	0x3da4883a	0.08033796
136	0xbddc06a5	-0.10743455
137	0x3d65ce4a	0.056104936
138	0xbdf5dc6b	-0.12004932
139	0xbd29ca34	-0.0414526
140	0xbe08da92	-0.13364628
141	0x3de856a3	0.1134465
142	0x3ddde3de	0.10834478
143	0xbcf1bd49	-0.029509204
144	0xbc3c0806	-0.011476522
145	0x3da4d76a	0.080488995
146	0x3d1b55d1	0.037923638
147	0x3d871926	0.065965936
148	0x3dd75b61	0.10515476
149	0x3db9b37d	0.09067438
150	0x3d22f6f9	0.039786313
151	0x3e1d31ea	0.15351072
152	0xbdbec4b1	-0.0931486
153	0xbe019f91	-0.12658526
154	0xbc72b6d0	-0.014814094
155	0xbdd6aee4	-0.104825765
156	0xbd92eb59	-0.07173795
157	0x3d51c663	0.051214587
158	0x3dac7d05	0.08422283
159	0x3df29f14	0.11846748
160	0x3dc3a057	0.09552067
161	0xbc2788ea	-0.010225514
162	0x3d29940f	0.041400965
163	0xbe02cb66	-0.12772903
164	0x3d9de577	0.077097826
165	0x3e687e07	0.22704326
166	0xbd14651d	-0.03622924
167	0x3dabfa6f	0.08397376
168	0xbdee91a5	-0.11648873
169	0xbba21714	-0.004946599
170	0x3d166259	0.036714885
171	0x3cf8b83f	0.030361293
172	0x3e68b5a6	0.22725543
173	0xbdda984b	-0.10673579
174	0xbce28bdb	-0.027654579
175	0x3d39ff4d	0.04540949
176	0xbcc51ed4	-0.024062552
177	0xbce540d6	-0.027985018
178	0xbe1188c7	-0.14212333
179	0x3dc79430	0.097450614
180	0xbdc878a2	-0.09788634
181	0x3e0c43ec	0.13697785
182	0xbd334d43	-0.043774854
183	0x3e339c57	0.17540108
184	0xbdebac15	-0.115074314
185	0x3d1de1e5	0.038545508
186	0xbe1eb5c4	-0.15499026
187	0xbe33d3d0	-0.17561269
188	0xbc0ee1a8	-0.008720793
189	0xbe1a5b94	-0.15073997
190	0xbd9333a9	-0.07187588
191	0x3d7068d8	0.058693737
192	0xbcdd31e4	-0.027001329
193	0xbe4c73fc	-0.1996612
194	0x3e434785	0.19070251
195	0xbe064e59	-0.13115825
196	0xbbe13e32	-0.0068738693
197	0x3e294130	0.16528773
198	0xbe12da5d	-0.14341111
199	0xbcc69dcf	-0.02424517
200	0x3d2bc8ba	0.041939475
201	0xbdae8d81	-0.085230835
202	0xbd99f95a	-0.07518263
203	0xbe29d2eb	-0.16584365
204	0x3d3d2b16	0.046183668
205	0x3d5dac51	0.05411941
206	0x3d727403	0.05919267
207	0x3dca72f9	0.098852105
208	0xbc255700	-0.010091543
209	0x3c8c52e4	0.01712937
210	0x3da2c890	0.079484105
211	0xbcdd19f2	-0.02698991
212	0x3d35ab07	0.044352558
213	0xbe35ae14	-0.17742187
214	0x3e1348e5	0.14383276
215	0x3dc6684d	0.096878625
216	0x3c8d019b	0.01721268
217	0x3d4f6ec2	0.050642736
218	0x3ce28415	0.027650872
219	0xbca24cc3	-0.019811993
220	0xbd70f801	-0.058830265
221	0x3dd37819	0.10325641
222	0xbd830f4a	-0.063994005
223	0xbda84a85	-0.082173385
224	0x3db4f538	0.08835834
225	0xbe1a40af	-0.15063737
226	0x3dee0bbf	0.11623334
227	0x3d9c48a4	0.076310426
228	0x3e15cb0a	0.14628235
229	0xbd806fc8	-0.062713206
230	0xbdad610f	-0.08465778
231	0xbcf7a2f4	-0.03022907
232	0xbe0db62e	-0.13839027
233	0xbe3ececc	-0.18633574
234	0x3d0bffb7	0.034179416
235	0xbde9a141	-0.1140771
236	0x3d428637	0.04749128
237	0xbe115a72	-0.14194658
238	0x3b575fbb	0.0032863456
239	0xbda42338	-0.0801453
240	0xbd8379fb	-0.0641975
241	0x3d5f7c12	0.054561682
242	0xbd2d1285	-0.04225399
243	0xbdab14e5	-0.08353595
244	0x3b400dca	0.0029305094
245	0xbd88cb51	-0.066794045
246	0x3cc0fab8	0.023557052
247	0x3daeb31f	0.085302584
248	0x3d5b5bf9	0.05355451
249	0x3dc75b30	0.097341895
250	0x3de42e62	0.11141659
251	0x3e20d8ed	0.1570775
252	0x3dc6526a	0.09683688
253	0xbb742b4a	-0.0037257248
254	0xbdacdf61	-0.08441044
255	0x3dc30341	0.09522105

net.4.bias f4 [50]
0	0xbdd976d2	-0.10618366
1	0x3d82c146	0.0638452
2	0xbe036400	-0.12831116
3	0x3d886506	0.06659894
4	0x3e6fd189	0.23419775
5	0x3dd9a3a9	0.10626919
6	0xbe1d2993	-0.1534789
7	0xbe2b7d7f	-0.16747092
8	0xbdb5a0a2	-0.08868529
9	0xbdf3ad0e	-0.11898242
10	0x3dd0208f	0.1016246
11	0x3cf4cdb5	0.029883245
12	0x3d6b645d	0.05746876
13	0x3cf3bd12	0.029753242
14	0xbce22d45	-0.027609477
15	0x3dbeb88b	0.093125425
16	0xbdcda73d	-0.10041664
17	0x3ce805a2	0.028322998
18	0xbe2b9d96	-0.16759333
19	0xbe2157ff	-0.15756224
20	0x3e3dbc6a	0.18528906
21	0xbe0de944	-0.13858515
22	0xbb800779	-0.003907141
23	0xbde18e20	-0.11013436
24	0x3ddd9793	0.10819926
25	0xbd1c6bdc	-0.0381888
26	0xbca1e7c7	-0.01976384
27	0x3dea4386	0.1143866
28	0x3d9e91e6	0.07742672
29	0x3c2ac6bc	0.0104233585
30	0x3da217fd	0.07914732
31	0xbe37ce0b	-0.17949693
32	0xbcceeb6a	-0.025258739
33	0x3d8a68c9	0.067582674
34	0x3d3eb269	0.046556864
35	0xbd8431cc	-0.064548105
36	0xbd87182e	-0.06596409
37	0xbd8859d0	-0.066577554
38	0xbe27cc6a	-0.16386572
39	0xbd0a85dd	-0.03381907
40	0x3e16962d	0.14705725
41	0x3e18bb6e	0.14915249
42	0x3c6687ca	0.014070461
43	0x3db9ab7c	0.09065911
44	0xbd5e3133	-0.05424614
45	0x3d7f7bcc	0.06237392
46	0xbe2bdd73	-0.16783695
47	0x3d28d688	0.041220218
48	0x3da37145	0.07980589
49	0xbdb42038	-0.08795208

net.6.weight f4 [4, 50]
0	0x3ec33753	0.38128147
1	0x3c9573d4	0.018243708
2	0xbc80836e	-0.01568767
3	0x3e3700b9	0.1787137
4	0x3d8f68d8	0.07002419
5	0x3e125216	0.14289126
6	0xbe52a363	-0.2057014
7	0x3bcd784c	0.006270444
8	0x3de862a9	0.11346943
9	0xbe06a4b7	-0.13148771
10	0x3df7526f	0.1207627
11	0x3c51270f	0.01276566
12	0x3d8cb15e	0.068697676
13	0xbe009cfa	-0.12559882
14	0xbe158347	-0.1460086
15	0x3e26075b	0.16213743
16	0x3e0459f3	0.12924938
17	0xbe5308d5	-0.20608838
18	0xbdf49ec7	-0.11944347
19	0x3dc020b4	0.093812376
20	0xbe8ff718	-0.28118205
21	0x3e831b6e	0.25606865
22	0xbe53a38b	-0.20667855
23	0xbe01c542	-0.12672904
24	0xbea04a0c	-0.31306493
25	0x3d2a8629	0.04163185
26	0xbd24bb1d	-0.040217508
27	0xbe1ca16a	-0.1529595
28	0x3d04cb3e	0.03242039
29	0x3e911c72	0.28342015
30	0x3d5cd2ea	0.05391208
31	0x3e952e2b	0.29136786
32	0x3eb2702d	0.34851208
33	0xbdc09983	-0.0940428
34	0xbd88e983	-0.06685164
35	0xbf0f0b8d	-0.55877
36	0x3dce5e94	0.10076633
37	0xbda5a060	-0.0808723
38	0xbe1a67ec	-0.15078706
39	0x3d31819d	0.0433365
40	0x3e1f0069	0.155275
41	0x3de6672f	0.112501495
42	0xbe3ca0c5	-0.18420704
43	0x3ea44a40	0.32087898
44	0xbe27693d	-0.16348739
45	0x3e2cc6f7	0.16872774
46	0xbe40e526	-0.18837413
47	0x3bda4128	0.0066605993
48	0xbe3e8952	-0.18607071
49	0x3d951f46	0.072813556
50	0xbcb2e277	-0.021836502
51	0xbdbc541b	-0.09195729
52	0x3cfb69e8	0.030690148
53	0xbdcd9de4	-0.10039881
54	0x3e8ad88c	0.27118337
55	0x3dddc2ce	0.10828172
56	0xbe502a97	-0.20328747
57	0xbebaadf2	-0.36460835
58	0x3e52da86	0.20591173
59	0xbe0b35d2	-0.1359475
60	0xbd7443ba	-0.0596349
61	0x3b888c06	0.0041670827
62	0x3ccda1ff	0.02510166
63	0xbd79f802	-0.061027534
64	0xbd3728d2	-0.044716664
65	0x3e9e1160	0.3087263
66	0x3c144edf	0.009052007
67	0x3d9b923f	0.075962536
68	0xbe0b8cef	-0.1362798
69	0xbc6eb6a3	-0.014569911
70	0x3df84819	0.121231265
71	0xbd1ae957	-0.037820186
72	0xbe0b4a7a	-0.1360263
73	0xbd2c3a9f	-0.042048093
74	0x3a5fb207	0.0008533303
75	0x3ebb6839	0.36602953
76	0x3cbf4a31	0.023350807
77	0xbdf3e6ae	-0.11909233
78	0x3e94cfdc	0.29064834
79	0x3d8d65db	0.06904193
80	0x3ce1e115	0.027573148
81	0xbdebe2eb	-0.115178905
82	0x3db926a8	0.09040576
83	0x3da965e7	0.082713895
84	0x3e3e355f	0.18575047
85	0x3e1f40fc	0.15552133
86	0xbe23b7ab	-0.15988033
87	0xbdbae000	-0.09124756
88	0xbdaf7d8c	-0.08568868
89	0x3e1dc89b	0.15408556
90	0x3e971507	0.2950823
91	0x3e421a84	0.18955427
92	0x3e581dd7	0.21105133
93	0x3d5e85c9	0.054326806
94	0xbd26b4a4	-0.040699616
95	0xbe865a67	-0.26240847
96	0xbde764bf	-0.11298513
97	0x3daf39f5	0.08555976
98	0x3e191868	0.14950716
99	0xbe31f2ab	-0.17377727
100	0xbda5a557	-0.08088177
101	0xbdd9ce7f	-0.10635089
102	0xbe033b0b	-0.12815492
103	0x3e86b9ee	0.26313728
104	0x3dde4081	0.10852147
105	0xbe4a7348	-0.19770539
106	0xbd7f707c	-0.062363133
107	0xbd851863	-0.06498792
108	0xbe834405	-0.25637832
109	0x3d41fca0	0.047360063
110	0x3da3b2de	0.079931006
111	0xbe07b3b8	-0.13252151
112	0x3e6efe87	0.23339282
113	0x3ea8e886	0.329899
114	0x3e2ab302	0.16669849
115	0x3e946d8c	0.28989828
116	0xbe17dec4	-0.14831072
117	0xbdeb8c2f	-0.11501347
118	0xbd945c2d	-0.07244144
119	0xbea8b24a	-0.32948524
120	0x3e45e63f	0.19326113
121	0xbe5755c0	-0.21028805
122	0xbb039fe4	-0.0020084316
123	0xbe5b5486	-0.21418962
124	0x3da7015c	0.08154556
125	0xbeac0cc6	-0.33603495
126	0x3d1a715a	0.037705757
127	0x3e292a10	0.16519952
128	0xbccd77f4	-0.025081612
129	0x3e0f8349	0.14014925
130	0x3e5ac36d	0.21363612
131	0xbe9dbe76	-0.30809373
132	0xbdadd152	-0.0848719
133	0x3e2633ce	0.162307
134	0x3e368b75	0.17826636
135	0x3e802fb5	0.25036398
136	0xbd69e0ed	-0.05709927
137	0xbe8080d1	-0.2509828
138	0xbbb6d97d	-0.005580126
139	0xbd82f832	-0.06394996
140	0x3e4c58f4	0.19955808
141	0x3ea438e8	0.32074666
142	0xbe4c8d7e	-0.1997585
143	0xbe586afb	-0.2113456
144	0x3d0b267b	0.033972245
145	0x3df93c5a	0.12169714
146	0xbe1a8f81	-0.15093805
147	0xbe3ffacf	-0.1874802
148	0x3cd24dc0	0.02567184
149	0x3d9ef55e	0.07761644
150	0x3d07003c	0.032959208
151	0x3e0d27c1	0.13784696
152	0xbe385aaa	-0.18003336
153	0xbea27acd	-0.31734315
154	0xbe7b2286	-0.24524888
155	0xbd87561c	-0.06608221
156	0x3dd8c1d1	0.105838425
157	0xbd1e69f1	-0.038675252
158	0x3bcfd7ff	0.0063428874
159	0x3cbde878	0.023182139
160	0xbdcd22c1	-0.100163944
161	0xbe212525	-0.15736826
162	0xbd9d3b9a	-0.07677384
163	0x3cd595f7	0.026072485
164	0x3c8c2e64	0.017111965
165	0xbdfc492f	-0.12318646
166	0xbe340a08	-0.17581952
167	0x3d19baf6	0.037531815
168	0xbe07485c	-0.13211197
169	0xbeb44a65	-0.3521301
170	0xbe0202e9	-0.12696423
171	0x3dd10555	0.10206095
172	0xbdca8a06	-0.09889607
173	0x3e2c78de	0.16842982
174	0x3cea8764	0.028629012
175	0xbde599f4	-0.11211005
176	0x3d510511	0.051030222
177	0xbd5ded2c	-0.054181263
178	0x3dcd0fdd	0.10012791
179	0xbda4e46a	-0.08051379
180	0xbe2e56e8	-0.1702534
181	0xbe267b07	-0.16257869
182	0xbda5f598	-0.08103484
183	0x3cf28528	0.02960451
184	0xbc93df88	-0.018050924
185	0x3e9309bf	0.28718373
186	0x3dcef2de	0.10104917
187	0x3e25ccaf	0.16191362
188	0xbe221cd7	-0.15831314
189	0xbd017228	-0.03160301
190	0xbe8af697	-0.27141258
191	0xbd3b691d	-0.04575454
192	0xbdedc59c	-0.116099566
193	0xbcaf1ea6	-0.021376919
194	0x3e22e0db	0.15906088
195	0x3e44a94a	0.19205204
196	0x3c780a9e	0.01513925
197	0xbd042ffe	-0.03227233
198	0xbe670452	-0.22560242
199	0x3d035953	0.032067608

net.6.bias f4 [4]
0	0xbde7d60e	-0.113201246
1	0x3eb95040	0.36194038
2	0x3e17360d	0.14766712
3	0xbd3a8d89	-0.045545135

net.0.weight f4 [50, 24]
0	0x3de98594	0.11402431
1	0x3dc91ad8	0.09819573
2	0xbe8875b4	-0.266523
3	0xbdad1ed6	-0.08453147
4	0xbe25d24f	-0.16193508
5	0xbd30170a	-0.04299072
6	0x3cf0c672	0.029391501
7	0x3ea7eb14	0.32796538
8	0x3d0c48a5	0.034248967
9	0xbe620883	-0.2207356
10	0x3db2b23b	0.08725401
11	0xbe4fee62	-0.2030578
12	0xbd08a898	-0.03336391
13	0x3db090a0	0.08621335
14	0xbe06da69	-0.13169254
15	0xbbd3b9a6	-0.00646134
16	0x3d9bda99	0.076100536
17	0xbe7e44c4	-0.2483092
18	0xbd7a3532	-0.061085887
19	0xbd880c5a	-0.06642981
20	0xbd31fa0f	-0.043451365
21	0xbe1fd747	-0.15609466
22	0xbea1cd11	-0.31601766
23	0xbe90498e	-0.28181118
24	0xbe89121a	-0.26771623
25	0x3e0442bb	0.1291608
26	0xbd87a6d5	-0.066236176
27	0x3e23a079	0.15979184
28	0xbd950912	-0.07277121
29	0xbdc909fc	-0.098163575
30	0x3df71321	0.120641954
31	0xbdbce84e	-0.09223996
32	0x3db92215	0.09039704
33	0xbe287573	-0.16451053
34	0xbba0a37f	-0.0049023028
35	0x3d353942	0.04424406
36	0xbafa62b9	-0.0019102908
37	0x3d14e42c	0.036350414
38	0xbe6df4ee	-0.23237965
39	0xbc461167	-0.01208911
40	0x3d965b8c	0.0734168
41	0xbe8fcbdb	-0.28085217
42	0xbd6a9dee	-0.05727952
43	0xbe19a06f	-0.15002607
44	0xbd5c421f	-0.053773995
45	0xbe815077	-0.25256702
46	0xbd8b5dca	-0.06804998
47	0xbe49447e	-0.19655034
48	0x3ce8a14f	0.02839723
49	0x3d9be608	0.07612234
50	0x3e1a9f0b	0.15099733
51	0xbd731dce	-0.059354596
52	0x3d47d7d0	0.0487898
53	0xbdfa8c44	-0.12233785
54	0x3d46e0a5	0.04855408
55	0x3dd740cd	0.10510407
56	0xbd9a2d7e	-0.07528208
57	0x3e707b15	0.23484452
58	0xbd9e5bfb	-0.07732388
59	0x3e43944d	0.19099541
60	0xbdd0652b	-0.10175546
61	0xbd13d4da	-0.036091663
62	0xbc8b7264	-0.01702232
63	0x3e194fe3	0.1497188
64	0xbd9c7afe	-0.076406464
65	0x3d0f1329	0.034930382
66	0x3e6447a8	0.2229296
67	0x3e29846c	0.16554421
68	0x3e3079ca	0.17233959
69	0x3e3071ca	0.17230907
70	0xbdd6f4f3	-0.10495939
71	0x3d717112	0.058945723
72	0xbea34d75	-0.31895033
73	0xbe350d26	-0.17680797
74	0xbd17e34c	-0.037082
75	0x3e88563a	0.26628286
76	0xbcf784a8	-0.030214623
77	0xbc809d87	-0.015700115
78	0xbe45ffdb	-0.19335882
79	0x3dd29977	0.10283177
80	0x3c81270c	0.01576569
81	0xbc6c1a51	-0.014410571
82	0xbdc121dc	-0.09430286
83	0xbe32d654	-0.17464572
84	0x3dc468d4	0.09590307
85	0x3c4e008f	0.012573375
86	0x3df4d57a	0.1195478
87	0x3d8b136c	0.06790814
88	0xbe0e467c	-0.13894075
89	0x3d7a99be	0.061181776
90	0x3d009cca	0.031399526
91	0xbe6ad7fb	-0.22933953
92	0xbe6a8601	-0.22902681
93	0x3dd46fcd	0.10372887
94	0x3d092fa5	0.033492703
95	0xbe95d55c	-0.29264343
96	0x3d01a670	0.031652868
97	0xbe3ae133	-0.18249969
98	0x3e5f232a	0.21790758
99	0xbddcb57b	-0.10776802
100	0xbe1dbd5a	-0.15404263
101	0x3d8d8208	0.06909567
102	0x3d377782	0.044791706
103	0x3e1ac61c	0.15114635
104	0x3ca02cb7	0.019552572
105	0xbdb304f9	-0.08741183
106	0xbe2e5078	-0.17022884
107	0xbe1c6335	-0.1527222
108	0xbd40b098	-0.047043413
109	0x3dc92f01	0.098234184
110	0xbe1a58d5	-0.15072949
111	0x3e4b8956	0.19876608
112	0xbc36f2e6	-0.01116631
113	0xbddfbc71	-0.10924614
114	0x3d9d9593	0.07694545
115	0x3dd72945	0.105059184
116	0x3e30f67e	0.1728153
117	0x3e548103	0.20752339
118	0x3d296b4e	0.0413621
119	0x3e79dc0e	0.2440035
120	0xbe5b1433	-0.21394424
121	0xbc721712	-0.014776008
122	0xbe40973f	-0.18807696
123	0x3e450a4f	0.19242214
124	0xbc342510	-0.0109951645
125	0x3dcd143c	0.10013625
126	0x3e0fffe6	0.14062461
127	0x3d7142bf	0.058901545
128	0xbe10ba5a	-0.14133587
129	0xbed07253	-0.40712222
130	0x3dddfcf3	0.10839262
131	0xbdab69cb	-0.08369788
132	0x3e199719	0.14999045
133	0xbe46fc8e	-0.1943228
134	0xbd74b9c0	-0.059747458
135	0xbea3f155	-0.3202006
136	0xbe828993	-0.25495586
137	0xbe83bafb	-0.25728592
138	0x3badbc8c	0.0053020176
139	0xbe4cd1eb	-0.20001952
140	0xbdf88d96	-0.121363804
141	0x3d1e80d3	0.038697075
142	0xbe4d27ed	-0.20034762
143	0xbddcffdf	-0.10790991
144	0x3e4abf0a	0.19799438
145	0xbe193dd4	-0.14964992
146	0xbab66a37	-0.0013917153
147	0xbe24eae6	-0.16105232
148	0x3e36fbd6	0.17869505
149	0xbd551a5e	-0.0520271
150	0x3d6adf0a	0.057341613
151	0xbe1916ed	-0.14950152
152	0xbe873935	-0.26410833
153	0xbe293fff	-0.16528319
154	0x3df67d1c	0.120355815
155	0x3e4a9b38	0.19785774
156	0x3e36f7aa	0.17867914
157	0xbe26fd15	-0.1630748
158	0xbde7783f	-0.11302232
159	0x3d2ab99b	0.041680913
160	0x3d2b69d0	0.041848958
161	0x3e1eca2a	0.15506807
162	0xbe06e8b0	-0.131747
163	0x3dc67ff5	0.096923746
164	0xbd54db81	-0.051967148
165	0x3b7cab04	0.0038554082
166	0xbd453ccf	-0.048153695
167	0xbdb8ca56	-0.090229675
168	0xbebdad32	-0.370462
169	0xbea9261c	-0.33036888
170	0xbe4a2159	-0.19739284
171	0x3cc90006	0.024536144
172	0xbea13605	-0.31486526
173	0x3d3df887	0.046379592
174	0xbe313e15	-0.17308839
175	0xbe498d52	-0.19682816
176	0xbd79c72d	-0.060980964
177	0xbe909e14	-0.28245604
178	0xbde8e6c1	-0.11372138
179	0xbb8b37d7	-0.0042486
180	0x3c9fda0e	0.019513156
181	0x3d5b2bcd	0.05350857
182	0xbe32ed42	-0.17473319
183	0xbe0209f3	-0.12699108
184	0xbe8cbf68	-0.2748978
185	0x3d0f456c	0.034978315
186	0xbdb57846	-0.08860831
187	0xbdbdace2	-0.092614904
188	0x3cdbae99	0.026816653
189	0x3e8ad2a9	0.27113846
190	0x3e28aeb7	0.16472898
191	0xbdd23abb	-0.10265108
192	0xbe9870d4	-0.2977358
193	0xbd7f2d7d	-0.06229924
194	0x3e73f496	0.23823771
195	0x3cf8cf2f	0.03037223
196	0xbe8ce8da	-0.27521402
197	0xbdbc678d	-0.09199438
198	0xbe18cc11	-0.14921595
199	0x3dccbc09	0.09996802
200	0xbcb0ec31	-0.021597
201	0xbe4ca40f	-0.19984458
202	0xbd9b4743	-0.075819515
203	0xbd507561	-0.05089319
204	0xbe01c216	-0.12671694
205	0xbe4be86b	-0.19912879
206	0xbe8216c0	-0.25407982
207	0xbcd3841e	-0.025819834
208	0xbda6e5a0	-0.08149266
209	0xbe8aa60b	-0.27079806
210	0x3d93dc94	0.07219806
211	0xbe722b53	-0.2364934
212	0xbe188d3a	-0.14897624
213	0xbe06e56c	-0.13173455
214	0x3e8e7306	0.2782213
215	0x3d927e4f	0.07152998
216	0x3ea5a002	0.3234864
217	0x3d274855	0.040840466
218	0x3e602566	0.21889266
219	0x3d5914b1	0.05299825
220	0x3d0821a5	0.03323521
221	0xbceafdcb	-0.028685471
222	0x3d5d85a7	0.05408254
223	0xbe64f33e	-0.22358415
224	0x3d2d3fe1	0.042297248
225	0xbbe7a6d6	-0.007069449
226	0x3c3d0cfe	0.011538742
227	0x3e1e9289	0.15485586
228	0xbe22ad00	-0.15886307
229	0xbd88e5ea	-0.066844776
230	0x3e7ef929	0.24899735
231	0x3e95c9b9	0.29255465
232	0x3b090f7f	0.0020913777
233	0x3e0d256f	0.13783811
234	0x3decdeba	0.11565919
235	0xbd67e7cc	-0.056617543
236	0x3da2eb4d	0.07955036
237	0xbe02958f	-0.12752365
238	0x3d2d319f	0.04228365
239	0xbd14dd2e	-0.036343746
240	0x3d4708d6	0.04859241
241	0xbdd4ce11	-0.103908665
242	0xbc3484a1	-0.011017949
243	0xbddcf80f	-0.10789501
244	0x3c7d766e	0.01547013
245	0xbc32b582	-0.010907533
246	0x3d65e637	0.056127753
247	0x3d664f71	0.056228105
248	0xbe3f2588	-0.18666661
249	0xbd6c8cab	-0.05775134
250	0xbd91a8d1	-0.07112277
251	0xbe20764d	-0.15670128
252	0xbd544102	-0.05181981
253	0xbcf8d6c7	-0.030375851
254	0x3d785861	0.06063116
255	0xbe2209a6	-0.15823993

net.0.bias f4 [50]
0	0xbd927a79	-0.07152266
1	0xbc60ca53	-0.013720113
2	0x3e839dd4	0.2570635
3	0x3db22f62	0.08700444
4	0x3dcca281	0.09991933
5	0xbdd680fb	-0.1047382
6	0xbd8dccfb	-0.069238625
7	0xbe288e1f	-0.16460465
8	0x3dcd0886	0.10011391
9	0x3dd1400d	0.10217295
10	0xbe8ef673	-0.279224
11	0xbd479d57	-0.048734035
12	0x3e31d9eb	0.17368285
13	0x3d2eba85	0.042658348
14	0x3e44cb80	0.19218254
15	0x3e5e25dd	0.21694131
16	0x3e8d8c90	0.27646303
17	0xbd88a523	-0.06672122
18	0x3e5e2f6a	0.21697775
19	0x3c9598ce	0.01826134
20	0xbe4235ff	-0.1896591
21	0xbd105095	-0.0352331
22	0x3e8effd6	0.27929562
23	0x3dc64baf	0.09682404
24	0xbd4a9cad	-0.049465824
25	0x3dc523d0	0.09625971
26	0x3c51984b	0.012792657
27	0x3d10c9ce	0.035348706
28	0x3bbffb0b	0.005858784
29	0xbe47c190	-0.19507432
30	0x3ddeae25	0.10873059
31	0xbe0476f5	-0.12936004
32	0x3eae9657	0.34099075
33	0x3e84d994	0.2594725
34	0x3eb54c81	0.3540993
35	0xbddd55dd	-0.10807393
36	0xbe9d1d55	-0.3068644
37	0x3ebba56c	0.36649644
38	0xbd9b3eaf	-0.07580315
39	0xbefcad83	-0.4935113
40	0x3e8180f1	0.25293687
41	0x3e57d47d	0.21077152
42	0x3e8621f7	0.26197788
43	0xbe52a5f0	-0.20571113
44	0x3c9e8f00	0.019355297
45	0x3e860431	0.26175073
46	0xbd1c39bd	-0.038141
47	0xbd8833f9	-0.06650538
48	0x3db1f870	0.08689964
49	0xbe41e815	-0.18936189

net.2.weight f4 [50, 50]
0	0xbd4719c7	-0.048608568
1	0x3d2a92cf	0.041643914
2	0x3cbc745b	0.023004701
3	0x3d9b0efd	0.07571218
4	0xbe278864	-0.16360623
5	0x3e11687c	0.14200014
6	0x3e16ee4a	0.14739338
7	0xbdd0d4de	-0.10196851
8	0x3de37d81	0.11107922
9	0x3d1eccdd	0.03876959
10	0xbb8b9fab	-0.0042609773
11	0xbd77fcaa	-0.060543694
12	0x3e082017	0.13293491
13	0x3dcea4af	0.10090005
14	0xbc58976b	-0.013219695
15	0x3e1e4932	0.1545761
16	0xbdba43f2	-0.09094991
17	0xbe07f63b	-0.13277523
18	0xbd103232	-0.03520412
19	0x3cd03672	0.025416587
20	0x3d896f42	0.06710674
21	0xbdd50ef0	-0.1040324
22	0x3dd8737a	0.105689004
23	0xbe45eac4	-0.19327837
24	0xbde6bbe6	-0.112663075
25	0xbe03454b	-0.12819402
26	0xbe28f19b	-0.16498415
27	0xbe7de25c	-0.2479338
28	0xbe04a5a4	-0.12953812
29	0x3e00c6e2	0.12575868
30	0x3d2d286e	0.042274885
31	0x3dc6a533	0.09699478
32	0x3c658ab9	0.014010125
33	0xbdd7fbdb	-0.105460845
34	0xbd9a05ed	-0.075206615
35	0xbd056fab	-0.032577198
36	0x3db16c9a	0.08663292
37	0xbd186120	-0.037202
38	0xbd5b5e64	-0.053556815
39	0xbd0a7898	-0.033806413
40	0xbd448cad	-0.04798572
41	0x3ceb8db5	0.028754095
42	0x3d751923	0.059838425
43	0x3e12594b	0.14291875
44	0x3d778da1	0.060437802
45	0xbe1d307f	-0.15350531
46	0xbd9e613b	-0.07733389
47	0x3c5d80d5	0.0135194855
48	0x3d07c9e6	0.03315153
49	0xbdc899b4	-0.097949415
50	0x3e21fce9	0.15819134
51	0x3d9e0388	0.07715517
52	0xbd80b253	-0.06284013
53	0x3bb43718	0.0054997317
54	0xbcfa2c7c	-0.03053879
55	0x3d9c6f93	0.076384686
56	0x3e16b1cf	0.14716266
57	0x3da00d9c	0.07815096
58	0xbd2611bb	-0.040544253
59	0xbde0f707	-0.10984617
60	0x3e424337	0.18970953
61	0xbe3bcf34	-0.1834076
62	0xbdaf14e9	-0.0854891
63	0x3e5a1a4c	0.21299094
64	0xbd935082	-0.0719309
65	0x3e89394c	0.26801527
66	0xbcaae82b	-0.02086266
67	0xbd735f04	-0.059416786
68	0xbd529552	-0.051411934
69	0x3e0a543c	0.13508695
70	0x3e0639df	0.13108014
71	0x3cc2e2ea	0.023789842
72	0xbda65989	-0.08122546
73	0x3cd72264	0.026261516
74	0x3d5fc0ef	0.054627355
75	0x3db80084	0.08984473
76	0x3e2b5a74	0.16733724
77	0x3e896810	0.26837206
78	0x3eb1c5cd	0.34721223
79	0xbca54310	-0.02017358
80	0xbccb7271	-0.024834843
81	0xbd2f1da8	-0.04275289
82	0x3d82c421	0.06385065
83	0x3ca64449	0.020296233
84	0x3d998479	0.0749597
85	0xbce7bddf	-0.02828878
86	0xbe036036	-0.1282967
87	0x3e1f31a3	0.15546279
88	0xbd21ddbd	-0.039518107
89	0x3bc1209e	0.005893781
90	0xbe951976	-0.29120988
91	0xbdf4fa3f	-0.11961793
92	0xbe098c90	-0.13432527
93	0xbd744ad0	-0.05964166
94	0xbbdd0013	-0.0067443936
95	0x3d799bb1	0.060939495
96	0xbdf156c0	-0.117841244
97	0xbe8a9c8d	-0.27072564
98	0x3b0b0f1e	0.0021218727
99	0xbe0182c4	-0.1264754
100	0x3dd48222	0.10376383
101	0x3d35a45b	0.044346195
102	0x3c4d69d9	0.012537443
103	0x3dc3dd7d	0.0956373
104	0xbde66f8f	-0.11251747
105	0x3dfde94e	0.12398015
106	0x3e057b32	0.13035277
107	0x3dc31200	0.095249176
108	0x3e0fa2f0	0.14027
109	0x3e089527	0.13338147
110	0x3d8146ca	0.0631233
111	0x3dc8fbe0	0.09813666
112	0xbdd3e866	-0.10347061
113	0x3a917293	0.0011096768
114	0xbe0f3bff	-0.1398773
115	0xbd6d2811	-0.05789954
116	0x3d2aa228	0.04165855
117	0x3ddf197d	0.108935334
118	0xbd4deaf1	-0.050272886
119	0xbd60b05d	-0.054855693
120	0x3d9aefd8	0.07565278
121	0x3e3b69ba	0.1830205
122	0xbd85f35d	-0.065405585
123	0x3d63dc76	0.05563017
124	0x3bbbd61d	0.0057323114
125	0x3cfc3701	0.030787947
126	0x3d94f34b	0.07272967
127	0x3e7bb74f	0.24581645
128	0x3dc4b6ff	0.09605216
129	0x3d03ab63	0.03214587
130	0x3d96d89f	0.07365536
131	0x3e22542c	0.15852422
132	0xbd2dd9a0	-0.04244387
133	0xbe1308d4	-0.14358836
134	0x3d9b9f66	0.07598762
135	0xbc1a9283	-0.009434345
136	0xbe197c7b	-0.14988892
137	0x3d6390cd	0.055558015
138	0xbdae7707	-0.085187964
139	0xbdf9f7db	-0.12205478
140	0xbd75ef34	-0.060042575
141	0x3d523768	0.05132237
142	0x3e0c08fc	0.13675302
143	0xbe8f3e73	-0.27977332
144	0xbd84d973	-0.06486788
145	0x3d9ba49c	0.07599756
146	0xbe3b2a48	-0.18277848
147	0xbd9c8995	-0.07643429
148	0x3db62a5d	0.08894799
149	0xbb8fe04b	-0.0043907515
150	0xbd89c67a	-0.067273095
151	0x3d42f61e	0.047597997
152	0x3cab1c47	0.020887507
153	0xbd0f38a4	-0.034966126
154	0x3dd39076	0.10330288
155	0xbd004659	-0.03131709
156	0x3e111b42	0.14170554
157	0xbd143d14	-0.03619106
158	0xbe2f0572	-0.17091921
159	0x3d52a3e4	0.05142583
160	0x3d8abf6f	0.06774794
161	0xbda687c5	-0.08131365
162	0x3c88ec06	0.016714107
163	0x3de567bd	0.11201427
164	0x3e09df60	0.13464117
165	0x3ddc4a49	0.10756356
166	0x3d6c0972	0.057626195
167	0x3dc36519	0.09540767
168	0x3d5899d3	0.052881073
169	0x3de3fb5c	0.11131927
170	0xbd6f80bc	-0.05847238
171	0xbd4d2769	-0.050086413
172	0x3dbfd822	0.09367396
173	0xbdc12230	-0.09430349
174	0xbe46250c	-0.1935007
175	0x3db5b8db	0.08873149
176	0xbe662fab	-0.22479121
177	0xbd3c6428	-0.045993954
178	0xbdb0ef33	-0.08639374
179	0x3ded7357	0.11594265
180	0xbe05033f	-0.1298952
181	0xbe1c0b05	-0.15238579
182	0x3db0436c	0.0860661
183	0x3e7738be	0.24142739
184	0x3c9e0bf1	0.019292803
185	0xbdd5b13f	-0.10434198
186	0xbdc86d52	-0.09786476
187	0x3dd1059e	0.102061495
188	0xbca68307	-0.02032615
189	0xbe602c86	-0.21891984
190	0xbd64e3b7	-0.05588123
191	0xbd01ce78	-0.031691045
192	0x3b31e97e	0.0027147229
193	0x3dd295aa	0.102824524
194	0xbe23819f	-0.15967415
195	0x3db4a296	0.08820073
196	0xbe025636	-0.127282
197	0xbe23c2e1	-0.15992309
198	0xbd8fc2b9	-0.07019562
199	0x3e120b9f	0.14262246
200	0x3e08aa9a	0.1334633
201	0x3ca85028	0.020546034
202	0xbda991d2	-0.08279766
203	0x3df39dab	0.11895307
204	0x3d570851	0.052498166
205	0x3b8ea19d	0.004352762
206	0x3e24e99f	0.16104744
207	0x3de39785	0.111128844
208	0xbb09f154	-0.0021048384
209	0x3da89874	0.08232203
210	0x3d08e9da	0.033426143
211	0xbdd900b7	-0.105958395
212	0xbe286f0e	-0.16448614
213	0x3d8ce4cd	0.06879578
214	0x3cd7f10d	0.02636006
215	0x3dfb18f1	0.122606166
216	0xbc1286b9	-0.008943253
217	0x3d780dcf	0.060560044
218	0xbd573702	-0.052542694
219	0x3e455942	0.1927233
220	0x3db5ce6b	0.08877262
221	0x3cbdf591	0.023188384
222	0x3dceb52c	0.100931495
223	0x3c02e1a6	0.007988369
224	0x3dee44e0	0.116342306
225	0x3d19142b	0.03737275
226	0xbc2ab99d	-0.01042023
227	0xbc23f9ac	-0.010008257
228	0x3df3f69c	0.119122714
229	0x3d3156c8	0.04329565
230	0x3d981a02	0.074268356
231	0x3e245db0	0.16051364
232	0xbe562c90	-0.20915437
233	0xbe5153cc	-0.20442122
234	0xbdd19818	-0.10234088
235	0xbd5bccde	-0.053662173
236	0x3e1974ca	0.14985958
237	0x3d9d6bd4	0.07686582
238	0x3cda7020	0.026664793
239	0x3ba15c9f	0.0049243714
240	0x3c7a8ce2	0.015292378
241	0xbd3f1595	-0.04665144
242	0xbe4de877	-0.2010821
243	0xbc88de27	-0.016707493
244	0x3d1945b2	0.037419982
245	0xbd6bfcbf	-0.057614084
246	0xbb323b5f	-0.0027196032
247	0x3cd6fe77	0.026244385
248	0xbe18835d	-0.14893861
249	0x3b1a8982	0.0023580496
250	0xbd02d8cc	-0.031945035
251	0x3de87618	0.113506496
252	0x3c5ba25b	0.013405408
253	0xbdb29021	-0.08718897
254	0xbc6a23a7	-0.014290727
255	0xbcb966b2	-0.022631977

net.2.bias f4 [50]
0	0x3c65519c	0.013996508
1	0xbd76ef0f	-0.060286578
2	0x3cfbfbc5	0.030759702
3	0x3d3456fa	0.04402826
4	0xbdb4fe4c	-0.08837566
5	0xbdc3f964	-0.09569052
6	0x3e1de595	0.1541961
7	0x3e6f51b3	0.2337101
8	0x3e119c75	0.1421984
9	0xbd06dfd9	-0.03292832
10	0x3d8c99b3	0.06865253
11	0x3d8481ff	0.06470107
12	0x3c917b16	0.017758887
13	0x3e05d271	0.13068558
14	0xbd4f6c25	-0.050640244
15	0xbe227130	-0.1586349
16	0xbdc1001d	-0.0942385
17	0xbdfbedbf	-0.12301206
18	0x3e29bade	0.1657519
19	0x3e1752bf	0.14777659
20	0x3e19130e	0.14948675
21	0x3e2d71be	0.1693792
22	0x3d9811d8	0.074252784
23	0xbe1ecd68	-0.15508044
24	0xbde87218	-0.11349887
25	0x3e1d1d77	0.15343271
26	0xbe290041	-0.16504003
27	0x3dcea1b4	0.10089436
28	0xbd5a14ae	-0.053242378
29	0xbe892d74	-0.2679249
30	0x3eb38c80	0.3506813
31	0xbddc2d7b	-0.10750862
32	0x3a94cbdf	0.0011352262
33	0x3ddd9367	0.108191304
34	0xbe5ce3d5	-0.21571286
35	0x3dc75f54	0.09734979
36	0xbe509c6b	-0.20372169
37	0xbd51a260	-0.051180243
38	0x3e846781	0.25860217
39	0xbe0357e9	-0.12826504
40	0xbcc3591b	-0.0238462
41	0xbe84d252	-0.25941712
42	0xbc8149a6	-0.015782189
43	0xbd665873	-0.056236695
44	0xbdce45f3	-0.100719355
45	0xbd97a896	-0.07405202
46	0x3d0abc87	0.0338712
47	0xbdb41d64	-0.08794668
48	0x3e377cf5	0.17918761
49	0x3dc89114	0.097932965
