pretrain_ckpt/gail/masked_BipedalWalker/BipedalWalker-v3/policy.ckpt (torch, 28183 bytes, 9 tensors)

log_std f4 [4]
0	0xbf9e6e4a	-1.2377408
1	0xbf855ca7	-1.04189
2	0xbff8a42a	-1.9425099
3	0xbfbbb342	-1.466408

net.0.weight f4 [50, 24]
0	0xbd6dbaaf	-0.058039363
1	0xbdc25e3e	-0.094906315
2	0xbdb0704e	-0.086151704
3	0x3ddaab92	0.10677256
4	0x3d952d76	0.072840616
5	0x3dd85f80	0.1056509
6	0x3d06692f	0.032815155
7	0x3dadfe5a	0.08495779
8	0x3db58372	0.08862962
9	0x3dc51380	0.0962286
10	0xbe849482	-0.25894552
11	0xbe7003cf	-0.23438953
12	0xbe92c2df	-0.286643
13	0xbdba7f09	-0.09106261
14	0xbe376196	-0.1790832
15	0xbe6508c6	-0.22366628
16	0x3dc2bcd7	0.095086746
17	0xbd939a1d	-0.07207129
18	0x3dc5944e	0.096474275
19	0xbcdc7c37	-0.026914699
20	0xbdd0f494	-0.102028996
21	0xbde48235	-0.111576475
22	0x3d8d1b67	0.06889992
23	0x3e5d15a8	0.21590292
24	0xbe2b77c8	-0.16744912
25	0x3d71006c	0.058838293
26	0x3e129250	0.14313626
27	0x3df19f0a	0.117979124
28	0x3dee9585	0.11649612
29	0x3d7375b6	0.05943843
30	0xbd89cbf2	-0.067283526
31	0x3ce13e5e	0.02749556
32	0xbe06c31c	-0.13160366
33	0x3e914b79	0.28377894
34	0x3e4d2e3d	0.2003717
35	0xbdee4fee	-0.11636339
36	0x3e37918c	0.17926615
37	0xbb23ee1d	-0.0025013753
38	0x3d6560d6	0.056000553
39	0xbdd47aeb	-0.10375007
40	0x3d57ce45	0.05268695
41	0x3c80f4ee	0.015741792
42	0xbd5f3d21	-0.054501656
43	0x3cee35e8	0.029078439
44	0xbe87b564	-0.26505578
45	0xbc7eaa3c	-0.015543517
46	0xbe82252c	-0.25418985
47	0xbe23f0a2	-0.16009763
48	0x3dc3e556	0.09565227
49	0x3c330e6d	0.010928732
50	0xbe0a5f86	-0.13513002
51	0xbe0066e2	-0.12539247
52	0x3e33737b	0.17524521
53	0x3e08fd98	0.13377988
54	0xbdf6dc64	-0.12053755
55	0xbc946c14	-0.018117942
56	0xbd97c573	-0.07410707
57	0xbe058811	-0.13040186
58	0x3dcae071	0.0990609
59	0x3e4f5d36	0.20250401
60	0xbd140283	-0.036135208
61	0x3d31e3ac	0.043430015
62	0x3e41b90a	0.18918243
63	0xbe1ab0a5	-0.15106447
64	0xbd7f0119	-0.062256906
65	0x3e252666	0.16127929
66	0xbe3cdae7	-0.1844288
67	0xbe4531b2	-0.19257239
68	0x3d3cc667	0.04608765
69	0x3cfc8f53	0.030830061
70	0x3df189a3	0.1179383
71	0xbe409ed9	-0.18810596
72	0x3c95968f	0.018260268
73	0xba94cc6d	-0.0011352428
74	0xbe2d64bc	-0.16932958
75	0xbd7b2d29	-0.061322365
76	0x3d804cfe	0.06264685
77	0x3d3a30f4	0.04545684
78	0x3c0cf4dd	0.008603302
79	0x3e37e2fc	0.17957681
80	0xbd8e7c6b	-0.069573246
81	0xbe95c925	-0.29255024
82	0x3e871a3c	0.26387203
83	0x3d1b7f44	0.037963167
84	0x3e640460	0.22267294
85	0x3e6e2b72	0.2325876
86	0x3e391b7e	0.18076894
87	0xbd31d741	-0.043418173
88	0x3e4a57ee	0.19760105
89	0xbdf64e40	-0.12026644
90	0x3d235cdd	0.039883483
91	0xbc5a9934	-0.0133421905
92	0x3e640dd3	0.22270899
93	0x3e01e42c	0.12684697
94	0xbe4db856	-0.2008985
95	0x3dc2ceed	0.09512124
96	0x3d5cfa00	0.053949356
97	0x3debf14b	0.11520632
98	0x3b5feb5f	0.0034167392
99	0xbc8758e0	-0.016521871
100	0x3e03a69d	0.12856527
101	0x3bdee856	0.006802599
102	0xbd3d9186	-0.04628136
103	0xbe23f367	-0.1601082
104	0xbb8b5d3a	-0.004253057
105	0x3d3daa43	0.046304952
106	0xbedd5c2c	-0.43234384
107	0xbe99c29c	-0.30031288
108	0xbe2ea4a9	-0.17055
109	0xbd319c93	-0.04336221
110	0x3caf3dba	0.021391738
111	0x3d7ad539	0.0612385
112	0xbd407112	-0.046982832
113	0x3c97b624	0.018519469
114	0x3dfe675a	0.124220565
115	0xbc7fa06e	-0.015602214
116	0x3cabf84f	0.020992426
117	0xbe4baefd	-0.19890971
118	0xbe0e2d83	-0.13884549
119	0x3df7e6cf	0.1210457
120	0xbdeb77a7	-0.11497431
121	0x3e243d23	0.16038947
122	0xbd044039	-0.03228781
123	0xbc59ee4b	-0.013301442
124	0xbe0d41c9	-0.13794626
125	0xbe354b70	-0.17704558
126	0x3c94b70b	0.018153688
127	0xbd76f55c	-0.060292587
128	0x3d4188d6	0.047249638
129	0xbed2cfb7	-0.411741
130	0x3e542d1b	0.20720331
131	0x3eb05d7c	0.34446323
132	0x3d431cfc	0.047635064
133	0x3e4a0e5c	0.1973204
134	0x3e36b4ca	0.17842403
135	0xbda79556	-0.081827804
136	0xbe12746d	-0.14302225
137	0xbd455896	-0.048180185
138	0xbd8f36a4	-0.06992844
139	0xbd33a9cf	-0.043863114
140	0x3de8cb62	0.11366917
141	0x3e2f36fa	0.17110816
142	0x3dc1403b	0.09436079
143	0x3d588ff8	0.052871674
144	0x3d0e2ae1	0.03470886
145	0xbbafa7a2	-0.0053605596
146	0x3e284125	0.164311
147	0xbd401395	-0.046893675
148	0xbdcdcfb2	-0.1004938
149	0x3d46c1cc	0.048524663
150	0xbdbd6597	-0.09247892
151	0x3e076f94	0.13226157
152	0xbd3959df	-0.045251723
153	0x3e9ebc8d	0.31003228
154	0xbdafbe70	-0.08581245
155	0xbe096164	-0.13416058
156	0x3e59ee84	0.21282393
157	0x3aa7fa59	0.0012815698
158	0x3d5b8c46	0.053600572
159	0xbd6efed6	-0.0583485
160	0xbe493072	-0.19647387
161	0x3d4f2396	0.050571047
162	0xbe26ac4a	-0.1627666
163	0x3d997148	0.0749231
164	0xbd805e8f	-0.062680356
165	0xbcd9eaa8	-0.02660115
166	0x3d3c6858	0.045997947
167	0xbe3bbac7	-0.18332969
168	0x3e1e4008	0.15454113
169	0x3dfd3aa1	0.12364698
170	0x3e31ef0a	0.17376342
171	0xbccbcd09	-0.024878042
172	0x3da9fe1c	0.08300421
173	0x3d277c47	0.040890004
174	0xbdf614a1	-0.120156534
175	0xbbed186b	-0.007235577
176	0x3e36a2c5	0.17835529
177	0xbd8b5017	-0.06802385
178	0x3e16124b	0.14655416
179	0x3e04ccab	0.129687
180	0x3d4a5451	0.049396817
181	0xbdcc170c	-0.09965333
182	0x3aa7151d	0.0012747381
183	0xbe18ff63	-0.14941172
184	0x3c6c6078	0.014427297
185	0xbe0e746a	-0.13911596
186	0x3da4c43a	0.0804524
187	0xbcfb2f56	-0.03066222
188	0xbd572472	-0.05252499
189	0x3dd71d32	0.105036154
190	0xbe116824	-0.14199883
191	0x3de2f849	0.11082513
192	0xbe3e6cc8	-0.18596184
193	0x3de8e21f	0.11371254
194	0xbc58d40b	-0.013234149
195	0xbe0b05ca	-0.13576427
196	0x3e424df1	0.18975045
197	0x3dcce7a2	0.10005118
198	0x3d1f9c25	0.03896727
199	0xbd121198	-0.03566131
200	0x3c65f104	0.014034513
201	0xbd2d5252	-0.042314835
202	0x3d96cf93	0.073638104
203	0xbe1307aa	-0.14358392
204	0x3d3eb37d	0.046557892
205	0xbd08b26b	-0.033373278
206	0x3e043003	0.1290894
207	0xbe3f0cd0	-0.18657231
208	0xbded9d05	-0.11602215
209	0x3d9590ca	0.07303007
210	0xbd3bfdd5	-0.04589637
211	0xbe524f67	-0.20538102
212	0xbcc87ffe	-0.024475094
213	0x3cc165ab	0.02360805
214	0xbe38243d	-0.17982574
215	0x3d8c52aa	0.068517044
216	0x3e128752	0.14309433
217	0xbd91a4f1	-0.07111538
218	0x3dcf4ce9	0.10122091
219	0x3e1b504e	0.15167353
220	0x3dfd252c	0.123606056
221	0xbe3c38cf	-0.18381046
222	0xbd365110	-0.0445109
223	0x3d98ccf6	0.07460968
224	0x3e3621ee	0.1778638
225	0x3d663495	0.05620249
226	0xbe7b4dff	-0.24541472
227	0x3cc22e67	0.023703767
228	0x3dce750a	0.10080917
229	0x3e29a8e3	0.16568331
230	0xbe200c7a	-0.1562976
231	0x3dd0ccfc	0.10195348
232	0x3e50488c	0.20340174
233	0xbe11a32b	-0.142224
234	0xbd8497c8	-0.064742625
235	0xbe101378	-0.14069927
236	0x3d303f7a	0.043029286
237	0x3dc18573	0.094492815
238	0x3d16a543	0.0367787
239	0xbdf0892f	-0.11744916
240	0xbcc99904	-0.024609096
241	0x3da0382c	0.07823214
242	0xbe1baf6f	-0.15203641
243	0xbdd06654	-0.101757675
244	0xbdae2c36	-0.08504526
245	0xbd956143	-0.07293942
246	0x3de66f06	0.11251645
247	0x3e025c0f	0.1273043
248	0x3d0de250	0.034639657
249	0xbd77f8f9	-0.060540173
250	0xbeb8a886	-0.36066073
251	0xbe12d7b8	-0.14340103
252	0xbe29b3f3	-0.16572551
253	0xbe42c433	-0.19020157
254	0x3bb65345	0.0055641257
255	0xbd3d4f51	-0.04621822

net.0.bias f4 [50]
0	0xbd9f03a7	-0.077643685
1	0xbeb09b3d	-0.34493437
2	0x3e005f74	0.12536412
3	0x3ddf901a	0.10916157
4	0x3e90df23	0.2829524
5	0xbe04706f	-0.12933515
6	0x3d71f537	0.059071746
7	0xbe03be8b	-0.12865655
8	0xbde20162	-0.1103542
9	0xbd3d30f4	-0.046189263
10	0x3e06f45a	0.1317915
11	0xbe8e7859	-0.27826193
12	0xbdd8470c	-0.10560426
13	0xbec57053	-0.3856226
14	0xbe605196	-0.21906123
15	0x3e40ab23	0.18815283
16	0xbd9d2d2c	-0.076746315
17	0xbc655208	-0.013996609
18	0x3e2b68c3	0.16739182
19	0xbd9f6bda	-0.07784243
20	0xbe526918	-0.20547903
21	0x3ee6e10d	0.45093575
22	0xbc976ff7	-0.018486006
23	0xbe53f8e2	-0.2070041
24	0xbcae54f4	-0.021280743
25	0x3dce70dc	0.1008012
26	0xbe10f805	-0.14157112
27	0xbe47de8a	-0.19518486
28	0x3d94bf76	0.07263081
29	0x3d962bbd	0.07332561
30	0xbc500457	-0.012696347
31	0x3d80fe5d	0.06298516
32	0xbc45f6b3	-0.012082743
33	0x3ca240da	0.019806314
34	0x3e1b193f	0.1514635
35	0xbda5668c	-0.080762
36	0x3ca34bd1	0.019933613
37	0x3dd942a6	0.10608415
38	0xbd80b74d	-0.06284962
39	0x3e796ff7	0.24359117
40	0x3e4b0447	0.1982585
41	0x3bd3f5ca	0.0064685093
42	0x3dc39087	0.09549051
43	0xbe04be8d	-0.12963314
44	0xbdc0bc79	-0.09410948
45	0xbe6c1a48	-0.230569
46	0xbd9c7441	-0.07639361
47	0x3e6a7eee	0.22899982
48	0x3e3399c7	0.1753913
49	0xbddb9282	-0.107213035

net.2.weight f4 [50, 50]
0	0x3e22a3d0	0.15882802
1	0x3cb56354	0.02214209
2	0x3db97459	0.09055395
3	0x3dddef7a	0.10836692
4	0x3d06c41d	0.032901872
5	0xbdaa8fed	-0.08328233
6	0x3e2fd8c2	0.1717253
7	0xbe091a67	-0.13388978
8	0xbd21fba8	-0.03954664
9	0x3e292d89	0.16521277
10	0x3c9d4286	0.01919676
11	0x3d04ffe6	0.032470606
12	0x3daa7a6c	0.08324131
13	0x3df0d7e5	0.117599286
14	0xbd8a780f	-0.067611806
15	0xbc62d23c	-0.013844069
16	0xbe0d5445	-0.13801678
17	0x3de70d89	0.112818785
18	0x3de71a7a	0.11284347
19	0xbe1c99fd	-0.15293117
20	0xbe1ea905	-0.15494163
21	0xbd2cd91b	-0.042199235
22	0xbd2091b0	-0.03920144
23	0x3d5af978	0.05346057
24	0x3df7152e	0.120645866
25	0x3d804785	0.06263641
26	0xbd4f0097	-0.050537672
27	0x3d188b7b	0.037242394
28	0xbd1232ea	-0.035693087
29	0xbdedc35f	-0.1160953
30	0xbe233a3c	-0.15940183
31	0xbd930d66	-0.0718029
32	0x3d5c7773	0.053824853
33	0xbdc1d548	-0.09464508
34	0xbd9fd9f6	-0.078052446
35	0x3d089b51	0.033351246
36	0x3d9beefc	0.07613942
37	0x3e356a4b	0.17716329
38	0xbc157ae9	-0.009123542
39	0x3dc5ef00	0.09664726
40	0x3c180f61	0.00928101
41	0x3c69a31b	0.014260079
42	0xbd8a5948	-0.0675531
43	0xbd921fdc	-0.07134983
44	0x3d688e6b	0.056776445
45	0x3dfafe1b	0.12255498
46	0xbd8dbc0d	-0.069206335
47	0x3d0fb951	0.03508884
48	0xbdc62332	-0.09674682
49	0xbe0605c3	-0.13088135
50	0x3d61d27d	0.055132378
51	0x3d9d0390	0.07666695
52	0x3d5fba03	0.054620754
53	0xbc9cb82f	-0.019130794
54	0x3e3c9b55	0.1841863
55	0xbe2f6535	-0.17128451
56	0x3e0a4d0d	0.13505955
57	0xbaa4599f	-0.0012538916
58	0x3d3c32e7	0.04594698
59	0x3df244b3	0.118295096
60	0xbd6c6734	-0.05771561
61	0x3d3dbf61	0.04632509
62	0x3dc25c5e	0.09490274
63	0x3e022743	0.1271029
64	0xbdf7af92	-0.12094034
65	0xbced6ad0	-0.028981596
66	0xbe44c14f	-0.19214366
67	0xbdaccc11	-0.0843736
68	0x3d9b0e1e	0.07571052
69	0xbe514796	-0.20437464
70	0xbe2555ed	-0.1614606
71	0xbe7326ad	-0.23745222
72	0xbdb7f96e	-0.08983122
73	0x3d892ee9	0.066984005
74	0x3d8650f8	0.06558412
75	0x3e93a844	0.28839314
76	0xbdddbde1	-0.10827232
77	0x3c00b372	0.007855283
78	0xbd09de05	-0.033659
79	0xbe226f23	-0.15862708
80	0xbdcb613f	-0.099306576
81	0xbe010dcd	-0.12602921
82	0x3bf11993	0.007357785
83	0xbe204e0c	-0.15654773
84	0x3e98995a	0.29804498
85	0xbd49c5d2	-0.04926092
86	0xbd5ddb74	-0.054164365
87	0x3de97130	0.11398542
88	0x3df06c9a	0.11739464
89	0xbd37ac9b	-0.044842344
90	0xbd544a0f	-0.05182844
91	0xbe15e8a1	-0.14639522
92	0xbdf6a455	-0.120430626
93	0xbc869cf2	-0.01643226
94	0xbe060eb4	-0.13091546
95	0x3d815d5c	0.06316635
96	0x3dfa841d	0.1223223
97	0x3d156abd	0.036478747
98	0xbded8bbd	-0.115989186
99	0x3d392675	0.04520269
100	0xbdf304d1	-0.11866153
101	0xbda54775	-0.0807027
102	0xbd9211ce	-0.07132302
103	0x3d595695	0.053061087
104	0xbc5f47de	-0.013627974
105	0x3cb410ff	0.02198076
106	0x3d05b837	0.032646384
107	0x3d8f56ce	0.069989786
108	0x3cc63bb2	0.024198387
109	0xbd6ddcc1	-0.058071855
110	0xbb20bacc	-0.0024525402
111	0xbd43accc	-0.047772214
112	0x3d632e00	0.05546379
113	0xbe2a6d4c	-0.16643256
114	0x3db66102	0.089052215
115	0x3d843eb2	0.06457271
116	0xbd1690f4	-0.03675933
117	0x3da7750f	0.08176624
118	0xbd32ece4	-0.043682948
119	0x3dc86e82	0.09786703
120	0xbe1c5de8	-0.15270197
121	0x3e91eeba	0.28502446
122	0xbd0c7783	-0.034293663
123	0xbe1c3553	-0.15254717
124	0x3dc21767	0.0947712
125	0xbe895a72	-0.26826817
126	0xbce56f0c	-0.028007053
127	0x3d2554dc	0.04036413
128	0xbd8b8ccf	-0.068139665
129	0xbd4664c3	-0.048435938
130	0xbd8e2632	-0.06940879
131	0x3dc6bab7	0.09703582
132	0x3d3e41c8	0.046449453
133	0xbaffaf65	-0.0019507228
134	0xbe82d23e	-0.25551027
135	0x3d8ce3c1	0.06879378
136	0x3d7395ce	0.059469037
137	0x3d950c8a	0.07277782
138	0xbc3c00a2	-0.01147476
139	0x3dbb98bf	0.091599934
140	0x3dfb6224	0.12274578
141	0x3e5c7b6f	0.21531461
142	0x3e38afcc	0.18035811
143	0xbd05ac62	-0.0326351
144	0xbe111798	-0.14169157
145	0xbda16182	-0.07879926
146	0x3d601cb4	0.054714873
147	0x3d92d59c	0.07169649
148	0x3e0dcaa3	0.13846831
149	0x3e61ce59	0.22051372
150	0x3da743ef	0.08167254
151	0x3dd65221	0.104648836
152	0x3cbdb686	0.023158323
153	0x3e2cfe9c	0.16894001
154	0xbd500db8	-0.050794333
155	0xbccf7606	-0.025324833
156	0xbd9f1579	-0.077677675
157	0xbd762a00	-0.060098648
158	0xbd3f7cc7	-0.046749856
159	0xbc310ffc	-0.010807034
160	0xbce67ae4	-0.02813477
161	0xbd2ac1d0	-0.04168874
162	0xbe4513b8	-0.19245803
163	0xbd92a9f3	-0.071613215
164	0x3dd4202a	0.10357697
165	0xbe02a2b9	-0.12757386
166	0xbd747331	-0.059680168
167	0x3e199223	0.14997153
168	0x3d40612c	0.04696767
169	0xbd47536b	-0.048663538
170	0xbd62364c	-0.055227563
171	0x3d449347	0.047992017
172	0x3e306853	0.17227297
173	0xbdce2b24	-0.10066822
174	0x3d656af3	0.056010198
175	0xbe24e8f0	-0.16104484
176	0x3cfd5f44	0.030929215
177	0xbdc3478f	-0.09535133
178	0xbdb4a3e8	-0.08820325
179	0xbd768e25	-0.060194153
180	0xbd6ef187	-0.058335807
181	0x3d62aa5c	0.05533825
182	0xbb5e8d3a	-0.003395869
183	0xbe12d781	-0.1434002
184	0xbd5b7326	-0.05357661
185	0x3d3e45f2	0.046453424
186	0x3ddb0beb	0.106956325
187	0x3be86ee3	0.007093297
188	0x3d267c6a	0.040645994
189	0x3c934d1c	0.017981105
190	0x3e04d5a4	0.12972122
191	0x3e7211bb	0.23639576
192	0xbd0f217d	-0.034944046
193	0x3d82918b	0.06375416
194	0x3b87ba81	0.004142106
195	0xbd01149d	-0.0315138
196	0x3c6ae71f	0.01433733
197	0xbd0d7feb	-0.03454582
198	0x3d65678a	0.056006946
199	0x3e4c328d	0.19941159
200	0x3b84149f	0.0040307785
201	0x3db8fda8	0.09032756
202	0x3d049366	0.032367133
203	0x3d3587ca	0.04431895
204	0xbe4a7288	-0.19770253
205	0x3e046959	0.12930812
206	0x3dc9d0e3	0.09854295
207	0x3e103aa6	0.14084873
208	0xbd2f0757	-0.04273161
209	0xbb9f89f6	-0.004868741
210	0xbd68f31c	-0.056872472
211	0x3e87a99b	0.26496586
212	0xbd51341a	-0.05107508
213	0x3e54e816	0.20791659
214	0x3e3b7cda	0.18309346
215	0x3d9dd3fe	0.0770645
216	0x3d05de77	0.032682862
217	0x3dc8a342	0.09796764
218	0xbd3b4c2b	-0.045726936
219	0x3e05f1b6	0.13080487
220	0x3deb327e	0.1148424
221	0xbed1ebd7	-0.41000244
222	0xbdbbf763	-0.09178045
223	0x3e1ff39f	0.15620278
224	0x3d7bd357	0.061480846
225	0x3e599195	0.21246941
226	0x3d6dd195	0.0580612
227	0xbd9a8727	-0.075453095
228	0x3e176607	0.14785014
229	0x3dc56424	0.09638241
230	0xbd37ed7a	-0.04490421
231	0x3de74ec9	0.11294324
232	0xbdb02722	-0.08601214
233	0x3cf3cd4d	0.029760981
234	0x3e1818f5	0.1485327
235	0x3e0df69e	0.13863608
236	0x3d11d297	0.035601225
237	0xbe23b0a6	-0.15985355
238	0x3dc1323a	0.09433408
239	0xbe09e7f5	-0.13467391
240	0xbe309424	-0.17244011
241	0x3d13a9a1	0.036050443
242	0xbe38192d	-0.17978354
243	0xbcaa0e68	-0.020758823
244	0x3e0d3d7c	0.13792986
245	0x3de0b77c	0.10972497
246	0xbd8c7f2a	-0.06860192
247	0xbe7a8cd7	-0.24467789
248	0xbde6150f	-0.11234485
249	0xbd4deddc	-0.05027567
250	0xbd0b10f0	-0.0339517
251	0xbe017cff	-0.12645338
252	0xbde513b9	-0.111854024
253	0x3dff526f	0.12466895
254	0x3db952a4	0.090489656
255	0xbb1c120b	-0.0023814465

net.2.bias f4 [50]
0	0xbdac5b86	-0.08415894
1	0x3d40f1a5	0.04710545
2	0x3e057040	0.13031101
3	0x3dabe3fc	0.08393094
4	0xbe3517c9	-0.17684855
5	0x3cf9e163	0.03050298
6	0x38277c31	3.9931565e-05
7	0xbdb27b19	-0.08714885
8	0xbdb13ba6	-0.08653955
9	0x3e0aa1d3	0.13538294
10	0xbd8933c5	-0.066993274
11	0x3cd33142	0.025780324
12	0xbd84bf0c	-0.06481752
13	0xbd5d4c1e	-0.05402767
14	0x3e9f7754	0.31145728
15	0xbcc9acba	-0.024618495
16	0xbdbc267b	-0.09187027
17	0x3d81abc0	0.06331587
18	0xbd8d0a0a	-0.068866804
19	0xbdbe32f5	-0.09287063
20	0x3e5c256a	0.21498647
21	0x3e679e0d	0.22618885
22	0x3d6bd3c8	0.057575017
23	0x3d72f004	0.059310928
24	0x3de98d7f	0.11403941
25	0xbdbcae11	-0.09212888
26	0xbd8a4679	-0.06751723
27	0xbe241b74	-0.16026098
28	0xbd5aadeb	-0.053388517
29	0x3e372313	0.17884474
30	0xbe2e63fe	-0.17030331
31	0xbe67213e	-0.22571275
32	0xbd929e03	-0.071590446
33	0xbd3cd3aa	-0.046100296
34	0xbdd2c2de	-0.10291074
35	0x3d72dba1	0.059291486
36	0xbcb4f105	-0.022087583
37	0xba9300f0	-0.0011215489
38	0x3e856900	0.2605667
39	0xbe5d995c	-0.21640533
40	0xbd1ed0f5	-0.038773496
41	0xbd8e5321	-0.06949449
42	0x3e058deb	0.13042419
43	0xbb88694b	-0.0041629425
44	0x3da72c9e	0.08162807
45	0xbcd05029	-0.025428848
46	0xbd5d8285	-0.05407955
47	0xbdd77317	-0.105199985
48	0xbb72f4e2	-0.003707223
49	0x3d8a08f0	0.06739986

net.4.weight f4 [50, 50]
0	0xbc8d312f	-0.017235367
1	0xbc8304fa	-0.015993584
2	0xbe6107b5	-0.21975596
3	0xbe29e9d0	-0.16593099
4	0x3eb646fb	0.3560103
5	0xbc4c925c	-0.012486067
6	0x3e13fef7	0.1445273
7	0xbdefaecd	-0.117032625
8	0xba5a6d95	-0.0008332369
9	0xbe4df4a0	-0.20112848
10	0xbd8dc7f2	-0.06922902
11	0xbe0d9a51	-0.13828398
12	0x3de8e539	0.11371846
13	0xbe542fbd	-0.20721336
14	0xbea998fd	-0.33124533
15	0xbdb9ee04	-0.09078601
16	0x3e61b662	0.2204223
17	0xbdb03f91	-0.08605874
18	0x3e25d69d	0.1619515
19	0xbd50a2ed	-0.050936628
20	0xbde75131	-0.11294783
21	0xbe0f91ed	-0.1402051
22	0xbde1eb0e	-0.11031161
23	0xbd95dcf7	-0.07317536
24	0xbce112dd	-0.027474815
25	0x3cef21e3	0.029190963
26	0x3e1e3e05	0.15453346
27	0xbd342294	-0.04397829
28	0x3b8235cd	0.0039736987
29	0x3c003654	0.007825453
30	0x3e8361a6	0.25660437
31	0x3e9fa404	0.31179821
32	0x3e04c547	0.1296588
33	0xbdd15b20	-0.10222459
34	0x3e2ed7a8	0.17074454
35	0xbe3e274d	-0.1856968
36	0xbdb9b83f	-0.09068345
37	0x3d4e7434	0.05040379
38	0xbe82a217	-0.2551429
39	0x3e4b5a91	0.19858767
40	0x3d6e7a99	0.058222387
41	0x3e101e9f	0.14074181
42	0x3d14c63f	0.036321875
43	0x3ce7a86f	0.028278558
44	0x3d6dcd3e	0.058057062
45	0x3e0a90b2	0.1353176
46	0x3e5e87e1	0.21731521
47	0xbd46c11c	-0.048524007
48	0x3e365396	0.17805323
49	0x3e05f64f	0.1308224
50	0x3df23237	0.11825984
51	0x3929379d	0.00016137814
52	0xba512038	-0.0007977518
53	0xbd405f32	-0.046965785
54	0xbd1608dc	-0.036629543
55	0xbdb21f54	-0.086973816
56	0x3d0225a6	0.031774186
57	0xbdca8612	-0.09888853
58	0xbdc8e11b	-0.098085605
59	0x3cc601d7	0.0241708
60	0x3c467668	0.012113191
61	0xbc89b1f9	-0.016808497
62	0xbd3095f3	-0.043111753
63	0x3dc5e38f	0.09662544
64	0x3c523687	0.012830383
65	0xbd9cea6e	-0.076619014
66	0x3d8aff72	0.067870036
67	0xbde1a24f	-0.11017286
68	0xbdf49b02	-0.11943628
69	0xbdd0a2f7	-0.10187333
70	0xbd3ce1a4	-0.046113625
71	0xbdd014ea	-0.10160239
72	0xbd73c007	-0.059509303
73	0xbd79d5ef	-0.06099504
74	0x3e08e72f	0.1336944
75	0xbcf58e9e	-0.029975232
76	0x3d32133c	0.043475375
77	0xbd7856e2	-0.060629733
78	0xbdc8edcb	-0.098109804
79	0x3de995ec	0.114055485
80	0xbda8cc23	-0.08242061
81	0xbdd4dc4d	-0.103935815
82	0x3d9b8472	0.07593621
83	0xbde5cedb	-0.11221095
84	0x3d43cddf	0.047803756
85	0xbdf0ea5f	-0.11763453
86	0xbd16b1f6	-0.03679081
87	0x3a0cbab6	0.0005368398
88	0x3d3c9b00	0.046046257
89	0x3d5dd7d1	0.054160897
90	0x3c61fb03	0.013792756
91	0xbbd2f22c	-0.0064375605
92	0x3c4482a9	0.011994042
93	0xbdb8f8d9	-0.09031839
94	0xbdaae824	-0.083450586
95	0xba96733a	-0.0011478432
96	0xb99b946e	-0.00029674493
97	0x3e2ab255	0.16669591
98	0xb925c21d	-0.00015807939
99	0x3e022fdb	0.12713568
100	0x3d1495e9	0.036275778
101	0xbe352e67	-0.17693482
102	0xbaa365a4	-0.0012466204
103	0x3defd757	0.11710995
104	0xbcbd67b2	-0.023120735
105	0x3dbbb753	0.09165826
106	0x3d415c2c	0.047207043
107	0xbde4783b	-0.11155745
108	0xbe14c063	-0.14526515
109	0x3e27c4ef	0.16383718
110	0xbc96c600	-0.01840496
111	0xbd22fae2	-0.03979004
112	0x3cfff6ad	0.031245554
113	0x3db49a9a	0.088185504
114	0x3dde7ff9	0.108642526
115	0x3d48cf72	0.04902596
116	0xbddb71b9	-0.1071505
117	0xbcb51475	-0.022104481
118	0xbd114e9a	-0.03547535
119	0xbdfa1cd5	-0.122125305
120	0xbc93ce06	-0.018042576
121	0x3c732330	0.014839932
122	0x3e0f1ba4	0.13975388
123	0x3d3576ef	0.044302877
124	0xbdd957bb	-0.106124364
125	0x3d876e30	0.066128135
126	0x3bca65cb	0.0061766854
127	0xbe059815	-0.13046296
128	0x3d193299	0.03740177
129	0xbdf62227	-0.12018233
130	0xbd87e249	-0.06634957
131	0xbd95f7e9	-0.07322676
132	0xbe22e69a	-0.1590828
133	0x3af841f9	0.001894056
134	0x3d3dc27a	0.046328045
135	0x3d8ed3c0	0.06973982
136	0x3dcf8fe5	0.101348676
137	0xbd47f395	-0.048816282
138	0x3e0c4ee8	0.13701975
139	0x3d629aff	0.055323597
140	0x3e11bd4e	0.1423237
141	0xbd68017b	-0.056642037
142	0x3daf37b7	0.08555549
143	0xbd241411	-0.0400582
144	0xbcb531fc	-0.022118561
145	0x3d95f47e	0.07322024
146	0x3db8ac06	0.09017186
147	0xbc662499	-0.0140468115
148	0xbe42e955	-0.19034322
149	0xbd8eaac4	-0.06966165
150	0x3d122a2d	0.035684753
151	0x3da441d0	0.08020365
152	0xbe2519b6	-0.16123089
153	0x3df0b8c5	0.11753992
154	0xbd8fc095	-0.07019154
155	0x3de33b2e	0.11095272
156	0x3d1d56df	0.038412925
157	0x3c512b04	0.012766603
158	0x3dfc60f7	0.12323182
159	0x3cb5337c	0.022119276
160	0xbb9ff8ff	-0.0048819776
161	0xbd20b040	-0.039230585
162	0xbdc903a7	-0.0981515
163	0x3dbb2c56	0.09139316
164	0xbd248ec2	-0.040175207
165	0x385f699c	5.32657e-05
166	0x3d8c2788	0.068434775
167	0xbd90e785	-0.07075409
168	0x3d7b279f	0.061317082
169	0x3c59a1b0	0.013283178
170	0xbe4df19a	-0.20111695
171	0xbe273ac8	-0.16331017
172	0x3d952572	0.07282533
173	0xbd8dfe56	-0.06933276
174	0xbe3bdb9a	-0.1834549
175	0x3ccca77c	0.024982207
176	0x3e28afd3	0.16473322
177	0x3dc2a459	0.09504003
178	0x3d73693d	0.059426535
179	0xbe2e1388	-0.16999638
180	0x3df74ba8	0.12074977
181	0xbc3622b4	-0.011116672
182	0x3e183a71	0.14866044
183	0x3cdc7922	0.02691323
184	0xbd1f2754	-0.038855866
185	0x3c886be5	0.01665301
186	0x3d0f94bf	0.035053965
187	0xbdb7105b	-0.089386664
188	0xbe3c8d40	-0.18413258
189	0x3e0f146d	0.13972636
190	0xbc5a446d	-0.013321978
191	0x3d31fa12	0.043451376
192	0xbdea59a3	-0.11442878
193	0xbbe5f4b7	-0.0070176977
194	0xbdec9da1	-0.11553503
195	0xbd81e379	-0.06342215
196	0xbd6d3e30	-0.057920635
197	0xbdef4944	-0.11683896
198	0xbd846e5f	-0.06466364
199	0xbe1a1c49	-0.15049852
200	0x3d80d583	0.06290724
201	0xbe02b975	-0.12766059
202	0x3e26bfe8	0.16284144
203	0x3e1fbf26	0.15600261
204	0xbe473902	-0.1945534
205	0x3c2c3c82	0.010512473
206	0xbd586526	-0.052830838
207	0xbc4e1680	-0.012578607
208	0x3d8f358f	0.06992637
209	0x3d658474	0.05603452
210	0xbcce904c	-0.02521529
211	0x3c13e739	0.009027296
212	0xbdff7436	-0.12473337
213	0xbd6f6fec	-0.058456346
214	0x3e40d2e5	0.1883045
215	0x3d2788df	0.040902015
216	0x3d9f74ec	0.07785973
217	0xbcfc29ec	-0.030781709
218	0xbe27b23a	-0.16376582
219	0xbdab4591	-0.08362878
220	0xbbd6f21d	-0.006559624
221	0x3d25ad0e	0.04044824
222	0xbcc8b41b	-0.024499943
223	0xbdf160a0	-0.11786008
224	0x3d43076c	0.0476145
225	0xbc06cb1c	-0.008227136
226	0xbe273df4	-0.16332227
227	0xbc1d1c2b	-0.009589235
228	0xbca4704f	-0.020073084
229	0x3dba3e7a	0.09093948
230	0xbd4d49bb	-0.050119143
231	0xbd512db2	-0.05106897
232	0xbe37385b	-0.17892592
233	0xbdaa4ea5	-0.083157815
234	0x3dc896fe	0.097944245
235	0x3dfb676a	0.12275584
236	0x3bea4363	0.0071491464
237	0x3d0aca2b	0.03388421
238	0x3e05e81c	0.13076824
239	0xbcb31874	-0.021862246
240	0x3c70762f	0.014676615
241	0xbd4847e1	-0.048896674
242	0xbe2a9b48	-0.16660798
243	0x3d3d0925	0.0461513
244	0xbdf6ec12	-0.120567456
245	0xbe14449b	-0.14479296
246	0x3caa230b	0.020768663
247	0x3e0ae56b	0.13564079
248	0xbc570198	-0.013122939
249	0x3d919c0b	0.07109841
250	0x3df9a183	0.12189009
251	0x3e20dc04	0.1570893
252	0xbe3ff77c	-0.18746752
253	0x3c20bde4	0.009810898
254	0xbe02fc94	-0.12791663
255	0x3d7bcd86	0.0614753

net.4.bias f4 [50]
0	0xbe4c457e	-0.19948384
1	0xbc0b136e	-0.008488519
2	0x3cac5c3a	0.02104007
3	0xbe0e74c1	-0.13911726
4	0x3e2e7d8c	0.1704008
5	0x3d0b553d	0.034016836
6	0x3df973cb	0.12180289
7	0x3cd3474a	0.02579083
8	0x3cf78916	0.030216735
9	0xbd42ef24	-0.047591344
10	0x3db025ff	0.08600997
11	0xbcad5596	-0.021158975
12	0xbe47f13f	-0.19525622
13	0x3d91cce5	0.07119159
14	0x3d98a92b	0.07454141
15	0xbd9bd049	-0.076080866
16	0xbe241fa8	-0.16027701
17	0x3dcc500c	0.09976205
18	0x3de6cafe	0.112691864
19	0x3dd79256	0.10525958
20	0xbd297768	-0.04137364
21	0xbd86620e	-0.06561671
22	0x3d8da9de	0.06917165
23	0x3d10abcb	0.035320085
24	0xbc804790	-0.015659124
25	0xbcd18705	-0.025577078
26	0x3de1e647	0.1103025
27	0xbd1d451f	-0.038395997
28	0xbd3c488f	-0.045967635
29	0x3e30e607	0.17275248
30	0x3d67b0c6	0.05656507
31	0xbe3d0c98	-0.18461835
32	0xbc64c6ce	-0.013963414
33	0xbdade661	-0.08491207
34	0xbd2fc035	-0.042907912
35	0xbceeb5e1	-0.029139461
36	0x3d2f146f	0.042744096
37	0xbdc3d08c	-0.095612615
38	0x3d08734d	0.033313084
39	0x3dab13d8	0.08353394
40	0xbc1601a3	-0.009155664
41	0xbd051089	-0.032486472
42	0x3cfa7129	0.030571537
43	0xbd476978	-0.048684567
44	0xbdd8eb1e	-0.1059172
45	0x3bfb1fa4	0.007663684
46	0xbd92a5dd	-0.07160542
47	0x3dca727f	0.0988512
48	0xbe38392b	-0.17990558
49	0xbc980dd1	-0.018561276

net.6.weight f4 [4, 50]
0	0xbe147e02	-0.14501193
1	0x3d93da1f	0.07219338
2	0xbe7c0537	-0.24611364
3	0x3e6b4a4f	0.22977565
4	0xbe11a7c6	-0.14224157
5	0x3e757859	0.2397169
6	0xbec51955	-0.3849589
7	0xbe4a2ce5	-0.19743688
8	0x3e9c0125	0.30469623
9	0x3e0f75bc	0.14009756
10	0xbe1e3fd3	-0.15454035
11	0xbeabd3e7	-0.33560106
12	0xbcf6f02e	-0.030143823
13	0x3d9367f7	0.07197564
14	0xbdc64d8a	-0.09682758
15	0xbdf3793b	-0.11888357
16	0x3eea76ad	0.45793667
17	0xbe3aeb27	-0.18253766
18	0x3dc1a5fd	0.09455488
19	0xbebc39fd	-0.36762992
20	0x3ebe2b49	0.371424
21	0xbdc7cdfd	-0.09756086
22	0xbd861022	-0.06546046
23	0xbcc2dbb1	-0.023786398
24	0xbd9d5826	-0.076828286
25	0x3e062180	0.13098717
26	0x3e0e7bf1	0.13914467
27	0xbcdf30ac	-0.027244888
28	0xbe066d0f	-0.1312754
29	0xbeaea61b	-0.34111103
30	0xbe22854f	-0.15871166
31	0x3d0cade5	0.034345526
32	0xbe055ebf	-0.13024424
33	0xbc03695c	-0.008020725
34	0x3e08a971	0.13345887
35	0x3b977110	0.0046216324
36	0x3e011130	0.12604213
37	0xbe5213df	-0.20515393
38	0xbd00e3cb	-0.03146724
39	0x3e195c2d	0.14976569
40	0xbdcaf822	-0.09910609
41	0xbe35d2e8	-0.17756236
42	0xbe186a7a	-0.14884368
43	0xbe4da60f	-0.20082878
44	0x3d1f0e52	0.038832016
45	0xbe6acc4b	-0.22929494
46	0x3e014507	0.12623988
47	0xbe4d8ec1	-0.20073988
48	0x3e227ae8	0.15867198
49	0xbe01deaa	-0.12682596
50	0xbea51fc2	-0.32250792
51	0x3d7b4d26	0.06135287
52	0x3e3d8538	0.1850785
53	0xbe744093	-0.23852758
54	0x3e1ff9ed	0.15622683
55	0xbed40a18	-0.4141395
56	0x3bac1601	0.0052516465
57	0x3e0f077d	0.139677
58	0x3e3ce240	0.18445683
59	0xbbccd5ce	-0.0062510734
60	0xbca84835	-0.020542243
61	0x3e3e96fe	0.18612286
62	0x3eb76df8	0.35826087
63	0x3e759fec	0.23986787
64	0xbdfb3c25	-0.12267331
65	0x3e747beb	0.23875396
66	0xbe3d84fa	-0.18507758
67	0xbcf38027	-0.029724194
68	0xbe6a182b	-0.22860782
69	0x3f060eda	0.5236641
70	0xbe103cc1	-0.14085676
71	0x3e21e8d5	0.15811475
72	0xbdda9999	-0.10673828
73	0x3e1cd837	0.15316854
74	0x3e014be8	0.12626612
75	0x3e1b69dd	0.15177102
76	0xbf0d4f65	-0.5519927
77	0xbef7cbe1	-0.48397735
78	0x3eb193fd	0.3468322
79	0xbd7280bf	-0.059204813
80	0xbdbd3629	-0.09238846
81	0xbe9e2eb4	-0.30895007
82	0x3e4d90c3	0.20074753
83	0x3e45c9ea	0.19315305
84	0x3d0e3e43	0.034727346
85	0x3e9d26e4	0.30693734
86	0xbc9ed8f6	-0.019390564
87	0xbdcd74e3	-0.1003206
88	0xbdfbfb66	-0.1230381
89	0xbd0aa938	-0.033852786
90	0x3debc145	0.115114726
91	0xbe2e13b3	-0.16999702
92	0xbdebbcf1	-0.11510647
93	0xbd1e13aa	-0.03859297
94	0xbe09d305	-0.13459404
95	0xbd6a161c	-0.05714999
96	0x3dff0455	0.12451998
97	0x3e365297	0.17804943
98	0xbe012c8b	-0.12614648
99	0x3ee6085c	0.44928253
100	0xbf08599b	-0.5326173
101	0x3d4c297c	0.04984425
102	0x3e3423e8	0.17591822
103	0x3e5d7bcd	0.21629258
104	0x3dbc9957	0.09208935
105	0x3d315e74	0.04330297
106	0xbcfe923a	-0.031075586
107	0x3dd85025	0.10562161
108	0xbeb596fe	-0.3546676
109	0xbdc9cbf2	-0.098533526
110	0xbe4eadcc	-0.20183486
111	0x3dff6e73	0.124722384
112	0x3eab68cc	0.3347839
113	0x3eafbaf8	0.34322333
114	0x3caa9da3	0.02082712
115	0x3e43dc9e	0.19127128
116	0xbd9131ce	-0.070895776
117	0xbb92ff70	-0.004486017
118	0xbd89bda2	-0.06725623
119	0xbc10423e	-0.008804856
120	0x3d8c6d5a	0.06856795
121	0xbcfae61d	-0.030627305
122	0xbe4b5302	-0.19855884
123	0xbe2e91a9	-0.17047752
124	0x3cc7feb6	0.024413448
125	0xbc111788	-0.008855708
126	0xbe7d3b6c	-0.24729699
127	0xbeb57771	-0.3544269
128	0xbedd77c8	-0.43255448
129	0xbe9eb133	-0.30994567
130	0xbdfff57c	-0.12497994
131	0xbeaa1f9c	-0.3322724
132	0x3d26ae85	0.04069378
133	0x3e2bf58d	0.16792889
134	0xbe8191d3	-0.25306568
135	0x3d10e7e0	0.035377383
136	0xbdf7dc43	-0.121025585
137	0x3e6de978	0.23233593
138	0x3d4ae3c2	0.049533613
139	0xbeedb89b	-0.46429905
140	0x3d2de550	0.042455018
141	0x3ea01acd	0.31270447
142	0x3d6f9352	0.058490105
143	0x3e462f9a	0.19354096
144	0x3e5f2ecb	0.21795194
145	0x3d903f73	0.07043352
146	0xbe166612	-0.14687374
147	0xbd89916a	-0.06717189
148	0x3e5c5f66	0.21520767
149	0x3eb51fa1	0.35375693
150	0xbe992651	-0.29912046
151	0x3d4e22da	0.050326206
152	0x3e6c283c	0.23062223
153	0x3e97c655	0.29643503
154	0x3e8e393c	0.2777804
155	0x3e532b67	0.20622025
156	0x3e826a2a	0.25471622
157	0xbd31b9de	-0.043390147
158	0xbe3a334c	-0.1818363
159	0xbe2f351a	-0.171101
160	0x3db7630e	0.0895444
161	0x3e870015	0.2636725
162	0x3db7655b	0.08954879
163	0x3d686afd	0.056742657
164	0x3e92a51b	0.2864159
165	0x3ba1f57c	0.004942594
166	0xbd281702	-0.041037567
167	0x3ddbba8a	0.10728939
168	0xbe6b76f6	-0.22994599
169	0xbe3a1666	-0.18172607
170	0x3dafdc72	0.085869685
171	0xbda99342	-0.0828004
172	0xbe0689da	-0.13138524
173	0x3e8e4558	0.2778728
174	0x3e47c8c6	0.19510183
175	0x3e6c5885	0.23080643
176	0xbe678152	-0.22607926
177	0x3d8c449b	0.06849023
178	0xbe96540a	-0.29360992
179	0xbdaf94c1	-0.085732944
180	0xbd8c8cd5	-0.06862799
181	0xbe429945	-0.1900378
182	0xbd541816	-0.051780783
183	0x3ddac020	0.10681176
184	0xbd32aab8	-0.04361984
185	0xbd2ebc85	-0.042660255
186	0x3dbd7d7e	0.09252451
187	0x3e4f076a	0.20217672
188	0xbdf4c577	-0.11951726
189	0xbe00f60a	-0.12593856
190	0xbdacc4f9	-0.08436007
191	0x3e7e77b1	0.24850346
192	0x3e3b4b53	0.18290453
193	0x3e66870d	0.22512455
194	0x3c816858	0.015796825
195	0x3dd0a475	0.10187618
196	0xbe3d936c	-0.18513268
197	0x3efa819a	0.48927003
198	0x3e7d1eb6	0.24718747
199	0x3e1f72d3	0.15571146

net.6.bias f4 [4]
0	0xbecf0fc1	-0.40441707
1	0xbc3ac561	-0.011399598
2	0xbe3c5683	-0.18392377
3	0x3e566b13	0.20939283
