gail/200_expert/BipedalWalker-v3/discriminator.ckpt (torch, 29259 bytes, 7 tensors)

net.0.weight f4 [50, 28]
000000 d2 57 e1 3d af a0 0e 3d 19 90 54 3d 31 7e 93 3e
       0.110030785 0.03482121 0.051895235 0.28807214
000010 92 ce 35 3e f0 c8 e8 3d 9a 90 ce be 66 ec 22 3d
       0.17754582 0.11366451 -0.40344697 0.03977623
000020 4c 29 b0 3c d7 62 2e be d1 0c 81 be fd 34 df bd
       0.021504067 -0.17029892 -0.2520509 -0.108987786
000030 f0 ee 3a bd 83 71 9e 3c 87 26 51 be b8 12 b4 3d
       -0.045638025 0.019341236 -0.20424853 0.08792633
000040 44 29 8c be f6 8c 3a be ed 44 1a be cc 03 6b be
       -0.27375233 -0.18217835 -0.15065356 -0.22950667
000050 f5 3d 20 be bc d5 4c be 5f ec 68 3c 07 0f 6e be
       -0.15648635 -0.20003408 0.0142165115 -0.2324792
000060 29 46 94 3d 47 25 66 3d 51 0b e1 3e a4 00 e6 be
       0.072399445 0.056187894 0.43953946 -0.44922364
000070 d9 8e 23 3d 09 15 88 be 57 34 df bc 6e 76 c9 bc
       0.039931152 -0.2657855 -0.027246637 -0.024592604
000080 c0 0a 97 bd 00 72 a9 3d 49 02 2b be 41 61 5e 3d
       -0.07375097 0.08273697 -0.1670009 0.054291967
000090 73 df 7b be 47 5b 4c 3c c8 53 c2 3e e7 8d 18 bd
       -0.24596958 0.012472934 0.37954545 -0.037244704
0000a0 53 f0 87 be 49 f2 26 3e bc 26 f8 bd da 7a bc bc
       -0.2655054 0.16303362 -0.12116763 -0.023007799
0000b0 a5 8c b6 bc 9f 67 03 be 72 32 bb bd de cd ce bd
       -0.022283861 -0.12832497 -0.09140481 -0.1009786
0000c0 49 8b c8 bd 1d 52 ca bd 24 73 5e bd 51 67 56 be
       -0.097921915 -0.09878943 -0.054309025 -0.2093785
0000d0 1c d9 84 bd fe 01 a3 bd 46 3e cd 3d a2 fc f1 3d
       -0.06486723 -0.07959364 0.10021643 0.11815764
0000e0 39 be 89 3d 52 2b ea 3e 17 b3 0a 3e a2 33 32 be
       0.06725735 0.45736176 0.1354488 -0.17402509
0000f0 ef 3f f7 3d 14 e8 1e be 73 c9 62 3d f1 36 8e ba
       0.12072741 -0.15518218 0.0553679 -0.0010850114
000100 5a b0 61 3d 75 7b d7 bc b5 d7 63 be 3a 99 92 3c
       0.055099823 -0.026303986 -0.22250254 0.01789533
000110 c5 55 54 3e 00 11 95 3d 5f af 37 be fd f6 2e 3e
       0.20735843 0.07278633 -0.17937993 0.17086406
000120 09 01 fc bd 60 d1 1b be c6 74 aa bd 1c 05 82 bd
       -0.12304885 -0.15216589 -0.08323054 -0.06348631
000130 65 b2 d6 bb f9 5d a2 3d 98 8b 9d be ea 72 15 be
       -0.006552028 0.0792808 -0.30770564 -0.14594617
000140 b4 4c 16 3e af 2d fc bd 26 41 79 3d 1b 70 f0 3d
       0.14677697 -0.12313401 0.060853146 0.117401324
000150 ef cb b6 3d 95 ed b5 be 51 70 86 bd 21 3f 9f 3e
       0.08925616 -0.35532823 -0.065643914 0.3110285
000160 12 8c 9a bd b8 94 5c be 59 0b 6e be 3d 3a ca bd
       -0.075462475 -0.21541107 -0.23246516 -0.09874389
000170 06 da a7 3e ec cc d9 bd da f2 3c 3d ba d0 8d bc
       0.32783526 -0.10634789 0.04613004 -0.017311443
000180 72 4c df 3d b4 30 1c be cd df 9f 3d 1e 99 9c bd
       0.10903253 -0.15252954 0.078063585 -0.07646392
000190 44 6e 1c 3e 0e 2a 12 be b4 cf 74 3d 71 de 02 3d
       0.15276438 -0.14273855 0.059768394 0.031950418
0001a0 80 55 73 3d 04 54 32 be 40 0c 46 be af f5 15 bd
       0.05940771 -0.17414862 -0.1934061 -0.036611255
0001b0 0b 87 46 bd 83 2e 23 be 19 79 25 3e 13 2a 46 be
       -0.04846863 -0.15935712 0.16159476 -0.19351988
0001c0 be 69 5c bd a4 ea f2 3e 5a 6c df 3d b7 d9 88 3e
       -0.05381178 0.47444642 0.10909338 0.26728603
0001d0 dc 6e e1 3d 00 4d 0d be 40 a9 24 be 4b da 0c be
       0.11007473 -0.13798904 -0.16080189 -0.13755147
0001e0 0b 05 ac 3d 19 96 b1 3d 02 1f ae be ab 50 28 bd
       0.08399399 0.08671207 -0.34008032 -0.041092556
0001f0 2f 44 94 b9 7b 10 b6 3d ba e1 56 bd 3b ce 28 bd
       -0.0002827956 0.08889862 -0.052461363 -0.0412123
000200 33 c5 71 3d e2 04 80 3d e2 0b b2 bb 2f c4 8b bd
       0.059025954 0.06250931 -0.0054335454 -0.068245284
000210 84 aa fc bd 4c 5a 08 be 17 e0 19 3e 8d 19 e3 bd
       -0.12337211 -0.13315696 0.1502689 -0.11088858
000220 df 28 35 be 9b 5f b3 3c 48 95 fd bd 81 c1 3e be
       -0.17691372 0.021896174 -0.12381989 -0.18628503
000230 22 4e 16 bb 18 07 98 3c db 69 c5 3d 7f 2d d9 3d
       -0.0022934754 0.01855807 0.09639331 0.10604381
000240 dc 89 db 3d 86 0c 9d be 17 4f 19 be 62 f2 a7 bd
       0.10719654 -0.30673617 -0.14971577 -0.08200528
000250 da f5 95 3d 98 18 03 be c5 7d fa 3d 15 bd 13 3e
       0.07322283 -0.1280235 0.1223102 0.14427598
000260 24 1d c6 3d 7c a1 a3 bc 09 f4 9e bd 8c ad f9 3d
       0.09673527 -0.019974463 -0.0776139 0.121913046
000270 1e a9 40 3e 1d b1 e4 3d 0d f6 2e be c4 e8 86 bd
       0.18814513 0.11166594 -0.17086048 -0.06587365
000280 c5 33 23 3e ad a8 b5 3d 53 54 b7 bd 62 90 3d 3e
       0.15937717 0.08870063 -0.089516304 0.18512109
000290 36 e7 8c be 3b db af 3d ec 8d 79 3d 2d 30 31 3c
       -0.2752015 0.08586737 0.060926363 0.010814709
0002a0 bd 0d 94 bd 77 c1 e4 bc a4 48 61 be bb cf ad bc
       -0.07229183 -0.027924282 -0.22000366 -0.021217218
0002b0 19 f4 ba 3d 08 7b 51 3e 9f 75 f1 bd 11 6a b1 bd
       0.09128589 0.20457089 -0.117900126 -0.08662809
0002c0 0d e0 a5 3d 95 10 23 3e 76 e8 6b 3d 97 4f 03 bd
       0.08099375 0.15924294 0.05759474 -0.032058325
0002d0 a8 d2 b3 bd de e8 8c 3d ce 6a 4e 3e 18 8e 9e bd
       -0.08780414 0.068803534 0.2015793 -0.07741946
0002e0 03 23 8a 3e e5 4d a8 b9 f6 dd b2 3d b9 2b 87 3e
       0.26979837 -0.00032101493 0.08733742 0.26400545
0002f0 db b6 74 bc a6 66 77 3e 31 2b 49 3e d9 0f 8a 3e
       -0.014936174 0.24160251 0.19645382 0.26965216
000300 a3 2d 63 bc 52 f8 c1 bc 76 90 c9 3d e3 fe 18 3d
       -0.013865861 -0.023677979 0.09842007 0.037352454
000310 5a 68 66 3e dd a8 c9 3d 50 65 b0 bc cc cc 0f bc
       0.22500744 0.09846661 -0.021532685 -0.008776855
000320 15 35 b5 3d 05 87 ae be de e2 2f be 06 c8 e7 bc
       0.08848015 -0.34087387 -0.17176387 -0.02829362
000330 a3 bc 46 3e 2b fc 94 3d ea 83 ad bc dd c1 af 3c
       0.19407897 0.0727466 -0.021181066 0.021454746
000340 43 d3 43 be 60 57 e8 bd 3c 8d 2a be 9e 08 64 3d
       -0.19123559 -0.113447905 -0.16655439 0.05567228
000350 ed 81 98 3d 4a 1d 26 3e 2c cb 02 bd ee 83 3b be
       0.074466564 0.1622211 -0.03193204 -0.18312046
000360 6a 0e e2 bc 5c a3 0b be 65 22 17 be 27 be 12 3e
       -0.027594764 -0.13636535 -0.14759214 0.1433035
000370 d6 21 46 bd 7b 09 86 bd f6 64 15 3e f9 8d 52 be
       -0.048372112 -0.06544777 0.14589295 -0.20561971
000380 31 79 89 3d 0e ee 89 be d4 c1 97 3d 9d f6 54 be
       0.067125686 -0.26939434 0.07410017 -0.207972
000390 1d 00 14 3d dd e8 9b be 84 39 fe 3c 5d 1d 51 3e
       0.03613292 -0.30451098 0.031033285 0.20421357
0003a0 8a 4f 4b be 89 72 cb bb 01 af 98 3d 09 90 4f bd
       -0.1985456 -0.006208722 0.07455254 -0.050674472
0003b0 6c 42 6b 3e be e9 28 3c f9 83 c8 3d 61 2c 87 bd
       0.22974557 0.010309635 0.09790797 -0.066002615
0003c0 d6 6a 4c 3e b8 6f 37 bd 91 8e ec 3d 3c 94 b4 3d
       0.1996263 -0.044784278 0.1155063 0.08817336
0003d0 ee e5 01 bd 0e 0b e1 3d 2c 7b 87 bd e0 5a 72 3e
       -0.03171342 0.10988437 -0.0661529 0.23667479
0003e0 2a 48 bc 3c 25 d6 04 3e be 4b 00 3e 0b eb db 3c
       0.02298363 0.12972315 0.12528893 0.026845476
0003f0 76 b2 06 3e e8 1d 1c be 8d 92 c2 bd af f0 8d bc
       0.13154015 -0.15245783 -0.095006086 -0.017326681

net.0.bias f4 [50]
000000 b5 b5 eb 3c 92 aa 22 be 4c d4 96 3d 45 22 59 3d
       0.028773168 -0.1588538 0.07364711 0.053011198
000010 9c 01 fa 3d f8 81 26 bc 7f 84 8b 3e 96 8f fc bd
       0.12207338 -0.010162823 0.27249524 -0.12332074
000020 e4 96 76 3e d6 ae 10 3e 06 67 c1 3b 08 21 01 3e
       0.24080998 0.14129195 0.005902174 0.12610257
000030 ce f2 cc 3d 10 36 9a bd ae e4 be bd 94 2e e5 bd
       0.10007249 -0.07529843 -0.09320961 -0.11190525
000040 5d 86 d3 bc a7 a5 76 be e6 b6 75 3d dc 5a 7a bd
       -0.025820905 -0.24086629 0.05998888 -0.061121807
000050 a5 6c db bd b0 ce 95 3d ae 2b 6e 3d 5f 97 58 bd
       -0.10714082 0.07314813 0.058147125 -0.052878734
000060 16 69 06 be 67 d5 3e 3d 2c f4 2a be 2c 6e 4c 3e
       -0.13126025 0.046590235 -0.16694707 0.19963902
000070 32 b1 cd 3d d3 bf 8c b8 3d b4 ed bc bc ff ec 3d
       0.10043563 -6.71145e-05 -0.029016608 0.11572215
000080 e6 73 ec 3c 7c 94 12 be 22 47 4b be ee 80 5c bd
       0.028863858 -0.14314455 -0.19851354 -0.053833894
000090 25 c6 0b bd 73 17 0d be 3f 66 85 3d c4 6b fd 3d
       -0.034124512 -0.13778476 0.065136425 0.1237407
0000a0 6a 54 64 3e 98 50 a5 bd 36 fe 2a 3e dd e0 0d be
       0.22297826 -0.08072013 0.16698536 -0.1385531
0000b0 9e db 48 3e 87 ec 2d be ec 7a 6b bd d7 7b 18 3d
       0.19615027 -0.1698476 -0.057490274 0.037227478
0000c0 75 df 6d bd 84 aa f0 ba
       -0.058074433 -0.0018361364

net.2.weight f4 [50, 50]
000000 23 df 18 be 3f 35 5f bd d7 c8 00 3e b1 6c b5 bd
       -0.1492887 -0.05449414 0.12576614 -0.08858622
000010 10 f5 c8 3d b0 00 7d bd f9 a9 16 be 87 f3 ff bb
       0.09812367 -0.061768234 -0.14713277 -0.007811013
000020 37 a4 bf bd b4 37 bc bc 54 a5 42 bd d5 f5 61 3d
       -0.09357493 -0.02297578 -0.04752095 0.055166084
000030 cf 92 b2 3d 70 48 3e be 40 b4 94 3c a5 c1 12 be
       0.08719408 -0.1858232 0.018152356 -0.14331682
000040 0e 59 0e be 2e 10 b8 3d ef 82 1c be 38 7a 25 be
       -0.13901159 0.08987461 -0.15284322 -0.16159904
000050 ad e1 13 3e 95 40 0a 3e 5a 97 87 3c 3f f7 9c 3c
       0.14441557 0.13501199 0.016551662 0.019160865
000060 a5 f7 09 3e 2c f6 20 bd 42 b1 7f 3e 01 11 02 3d
       0.13473375 -0.039297268 0.24969962 0.031754497
000070 1e ab e5 bc c0 0e c1 3d a3 a1 ac 3d 6c ec 29 3c
       -0.028035697 0.094266415 0.08429267 0.010371309
000080 c8 37 0f 3e e2 cc c0 3d 53 be 31 3d ef e8 ab bd
       0.13986123 0.09414078 0.043394398 -0.08394038
000090 8c ba 05 3c f3 9a 9c bd 55 6c 26 3e 8b 57 11 3e
       0.008162152 -0.07646742 0.16252263 0.14193551
0000a0 6b 9e fe 3d 33 70 07 bd bc 54 ab bc e9 88 4c bd
       0.124325596 -0.033065986 -0.020914428 -0.049935255
0000b0 df de ec bd 98 9f 94 3d 55 a4 11 3e ef 39 0e 3d
       -0.11565947 0.072570026 0.14222844 0.03472322
0000c0 b2 b5 94 3c 2f 87 0f be 5f 55 f4 bc 57 27 5c bd
       0.018153045 -0.14016412 -0.029825864 -0.053748455
0000d0 fe eb b8 3d 92 ee ff bc cd 21 25 3a bc b2 4b 3d
       0.09029387 -0.031241689 0.0006299287 0.049731
0000e0 1f 5e 5b bd 8b 95 bd 3d 3b 80 8c bd 50 ba a0 bd
       -0.053556558 0.09257039 -0.068603955 -0.07848036
0000f0 b0 b5 0c be f6 cf 1e bd d6 ec dc 3d 06 33 8c 3d
       -0.13741183 -0.038772546 0.1078736 0.068456694
000100 30 d9 fe 3d a9 1a 9e bd 89 5c ef 3d 3e 64 19 3e
       0.12443769 -0.07719929 0.116875716 0.14979646
000110 0e fb 48 3d 21 76 78 bd 14 42 1b be b1 49 ca 3d
       0.04906755 -0.06065953 -0.15161926 0.09877337
000120 6c ef 3a bd ba db 1d 3e fb 13 a8 bd 99 6d 3b be
       -0.045638487 0.1541585 -0.08206936 -0.18303527
000130 db 2d 25 3e 01 04 ac bd 72 65 d4 bd 9a 8a 5d bd
       0.16130774 -0.08399201 -0.10370912 -0.05408726
000140 45 00 14 3e f2 3c c1 3d 40 fa 8c 3d 6d 5a 00 be
       0.14453228 0.094354525 0.06883669 -0.12534495
000150 05 8a e5 bd 11 e2 ce bc 5a 3f 49 3b c0 69 e5 3b
       -0.11207966 -0.025254281 0.0030707926 0.007001132
000160 29 43 c8 3d db 0a 80 bd ab b1 7d 3c 41 2e d2 3c
       0.09778435 -0.062520705 0.015484254 0.025656821
000170 3d 53 44 be 19 5d b1 3d bc 11 7b 3d c3 7f a3 bd
       -0.19172378 0.08660335 0.06129621 -0.07983353
000180 aa e7 05 bc 52 65 35 bd 7d 7c 68 3e 03 90 84 3d
       -0.008172909 -0.04428608 0.22703739 0.064727806
000190 41 2c 10 3d 6f 4d 7f bd ad 68 9c bd c8 b6 b8 3d
       0.035198454 -0.062329706 -0.07637153 0.09019238
0001a0 26 ca 28 3d 6a 0e 30 bc ea a8 41 3e fd dc d8 3d
       0.04120841 -0.010745624 0.18912092 0.10589025
0001b0 e7 c0 2b bd 6c 80 d9 3d da d2 ea 3d 50 db 56 3b
       -0.041932013 0.10620198 0.11465998 0.003278453
0001c0 a0 fe 45 bd d2 c7 e0 3c 3c 49 95 3d 83 63 0a 3e
       -0.048338532 0.027439032 0.07289359 0.13514523
0001d0 10 3b 2b 3d 3f 17 26 bd 8d 9c 3c 3e 56 c8 81 3e
       0.041804373 -0.040549513 0.18419094 0.25348157
0001e0 cf b2 88 3c a4 80 37 bb 9e af c6 3d 60 d9 0b 3e
       0.016686825 -0.002800026 0.09701465 0.1365714
0001f0 39 93 e9 bd 13 8e ed bc af 09 65 be 8d 5c d6 3d
       -0.114050336 -0.02899841 -0.22366975 0.104668714
000200 02 10 7e 3d d2 20 1e be 59 d5 3a be 64 98 88 bd
       0.062026985 -0.15442207 -0.18245448 -0.06669691
000210 68 58 6e 3d 9d b3 9d bd 20 c8 cc bd 3c 16 41 bb
       0.05818978 -0.07700274 -0.09999108 -0.0029462716
000220 c6 42 10 3d 16 e0 80 3a bb a9 d2 bc 7d 0a e6 bd
       0.03521993 0.0009832408 -0.0257157 -0.11232469
000230 b7 3f 52 bd fd 1b c9 bb c2 64 f1 bd 42 14 dc 3c
       -0.051330294 -0.0061373697 -0.11786796 0.026865128
000240 a2 c6 4f bd 6e f7 a3 bd 55 22 06 bd 2b 97 17 be
       -0.05072654 -0.08006178 -0.032747585 -0.1480376
000250 93 83 ed bd dc aa 59 3a 65 2d 0d 3e 43 7b 53 be
       -0.115973614 0.0008303353 0.13786848 -0.2065249
000260 09 7a 46 be b7 75 91 3c 51 24 d9 bd 31 83 98 3d
       -0.1938249 0.017756326 -0.1060263 0.07446898
000270 a8 58 2b 3e 8d 96 fe 3c a2 4b 0b bd ce 81 b7 3d
       0.16733038 0.031077648 -0.034007676 0.08960305
000280 b0 17 85 3d 4b 85 a7 3c ed 34 44 be a9 bd d1 3c
       0.06498659 0.020449301 -0.19160815 0.025603132
000290 b9 1f 13 3e 7d 0f fc 3d 22 5d 11 3e 09 69 30 bd
       0.1436757 0.12307642 0.14195684 -0.04306892
0002a0 5f 57 2a 3e 19 3b 35 3d 2f 13 c7 bd ea 2f fe 3c
       0.16634892 0.044245813 -0.09720456 0.031028707
0002b0 9e 42 ed bd 90 43 3e bd 76 33 3b be b5 e9 92 3d
       -0.11584972 -0.04645115 -0.1828135 0.07173482
0002c0 57 07 85 bd a6 6b 0a 3e 6a 85 41 bd 21 6e 06 be
       -0.064955406 0.13517627 -0.047246374 -0.13127948
0002d0 5c af 51 be 02 35 b5 3d 60 84 43 bd 77 2b 07 be
       -0.2047705 0.08848001 -0.047733665 -0.13200174
0002e0 38 2b 88 bd f1 b2 29 3d 12 3e 41 be 4e a9 15 3e
       -0.06648868 0.041430417 -0.18871334 0.14615366
0002f0 50 9b 87 bc ae d5 9f 3c 2f fe d4 bd 78 61 cb bd
       -0.016553551 0.01951107 -0.10400044 -0.099307
000300 f5 aa 96 3d 3b e5 1c 3e a0 95 07 bd 32 4d dc 3d
       0.07356826 0.1532182 -0.033101678 0.10756911
000310 21 fa 6b be 59 d1 15 be c5 f6 5b bd 19 bd 5a 3e
       -0.23044635 -0.14630641 -0.053702135 0.21361198
000320 34 ce aa be 7e ca 66 bd 2e 76 f7 3c 91 1e 3e be
       -0.33360445 -0.056345455 0.03020772 -0.18566348
000330 9d 90 aa 3c 46 8e 16 3e ed 53 e0 bd 02 67 f2 bc
       0.02082091 0.1470271 -0.109535076 -0.029590134
000340 02 af 51 bd 7b 8f 63 be d3 6f d6 bc 74 94 86 3d
       -0.05119229 -0.22222702 -0.026176369 0.06571284
000350 c3 87 4b ba b4 0f 81 bd 35 1f 8b be 3f 67 03 3e
       -0.00077640655 -0.06301823 -0.27172247 0.12832354
000360 f9 d6 49 3e e1 6c 8d 3e 2f ed b0 bd 28 c2 b3 be
       0.19710912 0.2762213 -0.08638989 -0.35109067
000370 bd 74 ea bd 9a 67 82 3d c7 e4 0b bc 8f 27 dc bd
       -0.11448047 0.06367417 -0.0085384315 -0.10749733
000380 12 a4 85 3e 4e 47 b3 bd 97 30 eb bc b7 96 f3 bd
       0.26101738 -0.08753835 -0.028709693 -0.11893981
000390 55 7a ab bd 80 36 0c 3e 53 4f 21 be 38 fd ee 3b
       -0.08372942 0.13692665 -0.15752916 0.0072933696
0003a0 36 9a 24 3e 07 8f 3d 3e b8 a4 a4 bc a1 b7 c5 3d
       0.16074452 0.18511592 -0.020098075 0.09654165
0003b0 bd c6 27 3e 6b 2b 33 bb db cc 73 bd f7 40 68 bd
       0.16384406 -0.0027339112 -0.059521537 -0.05670258
0003c0 3b f4 6d 3e 4d 26 f2 bd 26 33 2f 3e ad ac 26 bd
       0.23237698 -0.118237115 0.17109355 -0.04069202
0003d0 c7 93 35 be f9 b4 10 3d 13 88 d9 3d 3e 8e 48 be
       -0.17732154 0.03532884 0.10621657 -0.19585511
0003e0 68 0d c9 bc c4 39 11 be 48 e5 92 bc 28 8b 27 be
       -0.024542525 -0.14182192 -0.017931595 -0.16361678
0003f0 0e f8 8b 3d 5d 7a a1 3d c4 4f ca bd ff aa 1b 3d
       0.06834422 0.07884667 -0.09878495 0.03800487

net.2.bias f4 [50]
000000 fb 05 0a be 3d 8b 03 bd 8b 34 97 3d ec fa 16 3e
       -0.13478844 -0.03211521 0.07383069 0.14744157
000010 57 91 53 3d 92 a7 10 3e 92 73 26 be 18 a2 9d 3d
       0.05165228 0.14126423 -0.16255024 0.076969326
000020 f0 55 42 3d 56 90 db bd f5 8a aa bc af ea ad 3d
       0.047445238 -0.10720889 -0.020818213 0.08492028
000030 c1 8a 4c bd 84 7b 10 be 61 52 da bb f0 cd bb bd
       -0.049937014 -0.14109617 -0.0066626524 -0.09170139
000040 b0 38 db bd 4f 69 6a 3d ef e7 11 be bf f2 f0 3d
       -0.10704172 0.057229336 -0.14248632 0.1176505
000050 d5 90 c1 3d a6 84 50 3d 42 5a ed 3a 9f 8c db 3c
       0.09451453 0.050907753 0.0018108564 0.026800452
000060 74 03 0e be 2a 0a ef 3d 22 87 c9 bd ea 34 a5 3c
       -0.13868505 0.116718605 -0.09840228 0.020166833
000070 de 44 3d bd eb c6 66 bd f6 b4 ca bc f9 cd 08 be
       -0.046208255 -0.056342047 -0.024744492 -0.13359822
000080 f3 bd 01 bc 50 d6 a4 3c 55 2c c9 3d 41 7b d1 3d
       -0.007918823 0.020121723 0.09822909 0.10228587
000090 61 23 5d bd bb 81 39 bd 2e da 32 bd 76 fa 17 bd
       -0.053988818 -0.045289736 -0.043665104 -0.037104093
0000a0 19 0a 3c 3c 05 ee a7 bd 4e 1f e0 3d 24 42 40 be
       0.011477017 -0.081996955 0.10943471 -0.1877523
0000b0 f2 82 6f 3d 5f 32 51 3d cb d1 ce 3d cf bf f4 3d
       0.05847449 0.05107343 0.100986086 0.11950647
0000c0 ec 3c db bd 6f 11 9a 3d
       -0.10704979 0.075228564

net.4.weight f4 [50, 50]
000000 0a a8 41 be 68 0a 35 bd a7 32 12 3e 90 97 09 3e
       -0.18911758 -0.044199377 0.14277135 0.13436723
000010 f8 57 3d be 62 45 44 3d 76 84 f1 3d 8c 83 06 3e
       -0.18490589 0.04791773 0.11792843 0.13136119
000020 2c 29 8a bd 2b 2a ee bd 7a 87 9e be b9 07 82 3d
       -0.06746134 -0.11629137 -0.30962735 0.06349129
000030 a2 70 06 bd 96 b0 74 bc fe 85 26 be fd 93 5e be
       -0.03282226 -0.0149346795 -0.16262051 -0.2173614
000040 c4 fd 03 be 79 24 b8 3b e4 81 59 be fc b4 78 bd
       -0.12889773 0.0056195823 -0.21240956 -0.060719475
000050 62 45 d4 bd e2 c0 ae bd 43 25 cf 3c c2 e6 40 3d
       -0.10364796 -0.08532883 0.025286322 0.047095068
000060 46 c0 ae bd 35 8b 19 3e 00 fa 33 3e 26 fe 92 bc
       -0.08532767 0.1499451 0.17575836 -0.017943453
000070 9e c1 0a 3e b5 fd 82 3d 9e 0b bd 3d d2 e8 0d be
       0.13550422 0.06396047 0.092307314 -0.13858345
000080 89 6d 4d 3e a2 ab 33 bc f1 f7 85 3e f6 42 87 be
       0.20061316 -0.010966213 0.26165727 -0.26418275
000090 c6 a6 87 3d 3a 31 4e 3c c4 48 83 3c e7 d4 68 3d
       0.066236064 0.012584979 0.016025908 0.056843664
0000a0 9a 8a 53 3d d4 7d c4 bd 54 bf 03 3d ec 1b b9 bb
       0.051645853 -0.09594312 0.032164887 -0.0056490805
0000b0 c0 be 1f bd 28 2e 4c bd 07 1d 98 bd 2f 02 24 3e
       -0.039000273 -0.049848706 -0.074274115 0.16016458
0000c0 36 da 59 be 6f 24 a1 bd 56 11 3e be df e0 0d be
       -0.21274647 -0.07868277 -0.185613 -0.13855313
0000d0 6a fd 05 bd 5b 56 4c bd f0 87 3e 3d ef 06 2e 3d
       -0.032712378 -0.049887042 0.04651636 0.04248708
0000e0 90 88 05 be 97 d0 84 bd 22 8a d5 ba 76 64 7b 3c
       -0.13040376 -0.06485098 -0.0016291777 0.015343776
0000f0 cd 1c ab 3c 86 d6 52 3d 22 8c aa 3c ea a4 f2 bd
       0.020887757 0.051474117 0.020818774 -0.11847861
000100 a7 74 24 be ab fb 22 be 63 f4 af bd fb 26 01 3e
       -0.16060124 -0.15916316 -0.08591535 0.12612526
000110 c6 cc 1f be ed 38 71 3d 32 8d 5e be ae 01 a3 3a
       -0.15605459 0.05889218 -0.21733549 0.0012436414
000120 e9 d9 1c bd ae 23 d3 bc ce 26 c5 bd 1d c7 cc 3d
       -0.038293753 -0.02577385 -0.09626542 0.09998915
000130 c2 11 c1 bd 78 64 31 3d ab 97 de bd 17 2d fd 3d
       -0.09427215 0.043308705 -0.10868772 0.12362116
000140 dc 2d 11 bc d6 14 4d bd cc f5 5c ba cf 97 10 bd
       -0.008861031 -0.0500687 -0.00084289606 -0.035301026
000150 df 97 c4 3d e3 37 65 bb ad 09 e1 3d ec b1 90 bd
       0.095992796 -0.0034975938 0.10988174 -0.07065186
000160 ed 58 c9 3c 42 aa b0 3c b7 e5 b3 3d 69 42 74 3d
       0.024578536 0.02156556 0.08784049 0.059633646
000170 30 75 ae bb e8 99 1f be 13 a9 07 be 5a 15 3e be
       -0.0053240284 -0.15586054 -0.1324809 -0.18562832
000180 29 1f ee 3c 73 a6 c5 3d 90 5b 32 be ef 0f 3c bc
       0.029067593 0.09650888 -0.17417741 -0.011478408
000190 10 af a1 3c b3 91 41 3d de 2a 22 bd 24 16 87 bd
       0.019736797 0.04725809 -0.039591663 -0.0659602
0001a0 17 a4 37 3e 6d 97 f0 3b e3 4d 11 be be c2 b2 bd
       0.17933689 0.00734227 -0.14189868 -0.087285504
0001b0 07 39 34 3e 1e e4 26 3d 84 16 8b 3e 8e 71 89 be
       0.17599879 0.040744893 0.27165616 -0.26844448
0001c0 66 4f 14 bc a3 85 52 3d c0 af 82 3c 00 f6 7e 3c
       -0.009052133 0.051396977 0.015952945 0.015561581
0001d0 db a1 32 3e e7 1f e6 bd fe dd 28 3e ae e4 54 bd
       0.17444555 -0.11236554 0.16490933 -0.0519759
0001e0 ed 34 d1 3e 04 9f b2 3d 6a af da bd 8f 1a 33 be
       0.40860692 0.08721736 -0.10677989 -0.174906
0001f0 5d ab 8e 3e 2d eb 28 bc 61 08 0a be d4 80 6a be
       0.27865115 -0.0103099765 -0.13479759 -0.22900707
000200 09 52 9d 3d 93 87 c9 3b bf c0 5b be 2d b5 90 3e
       0.076816626 0.006150195 -0.21460246 0.28263226
000210 1e c6 1e 3d c4 bc f2 bb df 84 2c be ef 8b 9a 3e
       0.038763158 -0.0074077565 -0.16847561 0.30184886
000220 82 4f 28 be 95 f7 07 3e d0 da 82 bb 02 b2 9b 3d
       -0.1643658 0.13278039 -0.0039933696 0.07602312
000230 56 02 91 bd cc ff 7b bd fa 84 5e 3c 58 cd 2e bd
       -0.07080524 -0.061523244 0.013581509 -0.0426763
000240 01 94 e8 3d 69 f6 0d 3e 5b ba fb bd b6 74 12 be
       0.113563545 0.1386353 -0.12291404 -0.14302334
000250 18 31 83 3e 70 ca 35 be 1f 01 20 be f3 5d 13 be
       0.25623393 -0.17753005 -0.15625428 -0.14391308
000260 22 b4 88 3d 99 f5 94 3d de f9 eb bd a8 6a 00 bc
       0.066749826 0.072734065 -0.11522268 -0.007837929
000270 62 05 81 bd f6 ac cd 3c 20 61 af 3d a5 72 60 be
       -0.06299855 0.025106888 0.08563447 -0.21918733
000280 37 a7 61 be 0b 02 e7 3d 1f e1 25 bc 0f ef 53 bd
       -0.22036444 0.112796865 -0.010124474 -0.051741656
000290 f5 5e 76 3d 8e b0 89 bd 19 e1 16 be 82 44 56 bc
       0.06014915 -0.06723128 -0.14734305 -0.013077857
0002a0 c7 71 00 3d 19 ff dc bc 1b 17 46 be 45 e1 1e 3d
       0.031358507 -0.026977109 -0.19344752 0.038789053
0002b0 f8 4c 32 3e 5e 0d fd bd 8a 6b e3 bd 24 e0 ff bd
       0.17412174 -0.12356065 -0.11104496 -0.12493923
0002c0 81 16 d2 3c 60 48 ce bd 68 f8 b1 3c e8 6b db bb
       0.025645496 -0.10072398 0.021724895 -0.006696213
0002d0 be 9b 67 3d 59 49 4e 3c b6 09 2c bc 82 80 e3 3c
       0.05654501 0.01259073 -0.010500362 0.027771238
0002e0 39 a3 52 3d a7 10 96 be 0c 9c b7 3d dc c5 29 3d
       0.051425193 -0.2930958 0.089653105 0.04144846
0002f0 48 aa e5 bd e7 3e 60 bd 6a ea 01 3c 24 8c f8 bd
       -0.11214119 -0.05474749 0.007929424 -0.12136105
000300 c3 ec bf bd be e0 3f bd 64 1f 49 3d 6f 77 ee bd
       -0.093713306 -0.04684519 0.049102202 -0.11643874
000310 47 c8 b9 ba 28 51 13 bd f1 ef a8 be bd c3 37 bd
       -0.0014174067 -0.03596607 -0.3299556 -0.044864405
000320 72 13 32 3e 9f 0f 9a 3d 0d 3b 84 bd ea 7f 3d bd
       0.1739023 0.07522511 -0.064565755 -0.046264566
000330 bc 75 38 3e f4 3b 5b bd 7a ec 27 bd ba a6 85 3c
       0.18013662 -0.053523973 -0.040997006 0.016314853
000340 dc 65 69 bc 63 9b 8e 3d 69 72 48 3e e1 29 6f be
       -0.014245477 0.069632314 0.19574894 -0.2335582
000350 2c ac e2 bd 57 6f 13 bd 2a 24 ab 3d 3d f1 e4 3c
       -0.110679954 -0.035994854 0.08356507 0.027947063
000360 07 09 d6 3d b5 75 41 3c 1b 68 8c bb b4 ae 95 3d
       0.104509406 0.011807849 -0.0042848713 0.073087126
000370 e2 40 0a 3e 90 b0 e4 3d fc 3a d9 bd 4f c7 2c be
       0.13501313 0.11166489 -0.106069535 -0.16872905
000380 c0 8b ed 3d 69 25 c1 bd 5b 3c e6 bd 7c bb 35 bd
       0.11598921 -0.094309635 -0.11241981 -0.044368252
000390 e8 a8 dd bd 8c dc 32 3d f4 9d 41 bd ae 8c 06 bd
       -0.10823232 0.04366736 -0.047269776 -0.032849006
0003a0 e2 9f 1e be c4 32 b6 3d c4 d3 d1 bd ed 0a 90 3e
       -0.15490678 0.088964015 -0.10245469 0.28133336
0003b0 56 fc 52 3c a6 52 8f 3d 60 4f f2 bd e5 e9 49 bd
       0.012877544 0.06998186 -0.11831546 -0.049295325
0003c0 ac 4e ab bd 28 6a 38 3d 1b e1 90 3e 4b 4e 07 bd
       -0.08364615 0.045023113 0.28296742 -0.03303365
0003d0 da f5 d2 bc 39 66 e4 3d a4 16 fc 3d bf 09 3a be
       -0.025751997 0.1115231 0.12309006 -0.1816778
0003e0 65 de 85 3e 40 59 6e bd dd 4f b0 bd 9d 71 8c 3d
       0.26146236 -0.058190584 -0.08608983 0.068576075
0003f0 ca ac f9 3d 74 9f 2c 3e b7 fe 52 bd 84 2e a7 3d
       0.1219116 0.16857702 -0.051512446 0.08163169

net.4.bias f4 [50]
000000 ad aa b1 bc 43 d7 25 3e 28 82 43 be 61 7d 48 3a
       -0.02168783 0.16195397 -0.1909262 0.00076480774
000010 2f 37 10 be 9f 56 c6 3d 07 04 73 3d 0c 32 9f bd
       -0.14083551 0.096844904 0.059330013 -0.077732176
000020 75 03 42 bd 3d 32 af 3c 0a 66 af 3d 59 ec 1b be
       -0.047366578 0.02138626 0.08564384 -0.15226878
000030 cf 09 ad 3c 0e af bc bd 47 cb 16 3e c4 3b 9a bd
       0.021122841 -0.092130765 0.14725982 -0.07530931
000040 bc e1 67 bd b8 91 5c 3d 40 6c 75 3d 0d 25 0c 39
       -0.05661176 0.053849906 0.05991769 0.00013365243
000050 b9 6f 02 be df 43 00 3e cb fd 7d 3d 31 81 04 3e
       -0.12737931 0.12525891 0.062009614 0.12939908
000060 c5 f1 cf 3c c5 1e 9a bd 5b 04 54 bc 73 8c cb 3d
       0.02538384 -0.075254 -0.012940492 0.09938898
000070 af e1 02 3e 20 66 04 3e 32 7d 83 3c 0a 6d ce bd
       0.12781404 0.12929583 0.016050909 -0.10079391
000080 4e 1e a0 bd a8 06 2c be b0 98 e9 bd e4 64 94 bc
       -0.0781828 -0.16799414 -0.11406076 -0.018114515
000090 e0 ef 9c bd 54 11 93 bc 78 b3 c1 3c 91 7c 1a bd
       -0.0766294 -0.017952599 0.023645148 -0.037716452
0000a0 57 a4 fb 3d ad 25 a6 bc 2b 5d 0d be 40 63 20 3e
       0.12287205 -0.020281637 -0.13805072 0.15662861
0000b0 40 df 49 be 76 67 09 bc b7 6a 84 bc 42 70 17 be
       -0.1971407 -0.008386483 -0.016164167 -0.14788917
0000c0 6d 0e 63 3e c1 ac 15 be
       0.22173472 -0.14616682

net.6.weight f4 [1, 50]
000000 6d 32 76 3e 29 f5 49 3e f8 ea 2c be 3c 2a 06 3e
       0.24042673 0.19722427 -0.16886508 0.13102049
000010 9f 81 73 be 25 b8 5c 3e c1 8e 5a be 19 16 93 bd
       -0.23779915 0.2155462 -0.21343519 -0.07181949
000020 8b 19 73 be 17 af 4f 3e d8 69 75 3e 12 c7 50 be
       -0.23740213 0.20281635 0.23966157 -0.2038844
000030 21 07 71 be b2 d4 21 be fb ba 31 3e 88 5d 32 be
       -0.23537876 -0.15803793 0.17356484 -0.17418492
000040 5e b9 9d be d5 24 a9 bd 7e 0e 6d 3e c9 3a 14 3e
       -0.30805486 -0.08258978 0.2315006 0.1447555
000050 48 89 7f be 9d eb 9f 3e 47 1d 79 3e 15 5c 8d 3e
       -0.24954712 0.31234446 0.24327575 0.27609316
000060 ba 6a 25 3e 3b bd 32 be e7 7c 5a be 17 d1 67 3e
       0.16153994 -0.17454998 -0.21336709 0.22638355
000070 40 8d 81 3e c1 7c 5f 3e f3 c3 5f be 8a 63 0e be
       0.25303078 0.21824934 -0.21852092 -0.13905159
000080 1d 67 17 be ec 19 2f be eb 4a 8b be 1a 2a 6d be
       -0.14785428 -0.17099732 -0.27205595 -0.23160592
000090 dc 9a 42 be 72 5a 62 be cb 51 16 3e a5 d2 c6 bd
       -0.19004387 -0.22104815 0.14679639 -0.09708146
0000a0 8f 2a 77 3e 03 8a 8d 3e 1f aa a5 bd fb e3 3b 3e
       0.24137329 0.27644357 -0.08089089 0.18348686
0000b0 80 b7 16 be 08 86 30 3e 8c 31 32 3e 28 7c 09 be
       -0.14718437 0.17238629 0.17401713 -0.13426268
0000c0 b6 dd 3a 3e 07 a1 57 be
       0.18248639 -0.21057521
