gail/200_expert/BipedalWalker-v3/policy.ckpt (torch, 27752 bytes, 9 tensors)

log_std f4 [4]
000000 86 3f c6 bf 14 0c bc bf aa e9 fb bf f5 49 e0 bf
       -1.5488136 -1.4691186 -1.9680684 -1.752257

net.0.weight f4 [50, 24]
000000 d4 96 d4 bd 34 5c c0 bd 7d 1e 80 be f6 57 5a 3e
       -0.10380331 -0.09392586 -0.2502326 0.21322617
000010 c4 16 cf 3d ba 9e 6c be ad 17 39 be 7c 5c 72 bd
       0.10111764 -0.23107424 -0.18075438 -0.05917023
000020 94 34 94 be 40 c0 8b 3e bf f7 ba 3d c8 9d 07 3e
       -0.28946364 0.27295113 0.09129285 0.13243783
000030 d8 03 58 3e 55 be ec 3d 54 77 d5 bc 49 6f c1 bd
       0.21095216 0.115597405 -0.026057877 -0.09445054
000040 6b 4a 68 be cd 38 1f bd 74 0d bb 3d 34 b3 a7 3d
       -0.22684638 -0.03887253 0.09133425 0.08188477
000050 ff c3 38 be 7a 29 8e be 80 47 9f 3c a6 2b 55 be
       -0.18043517 -0.2776602 0.019443274 -0.20817432
000060 88 4c 62 be f0 f6 0d be 9c ba d1 bd e4 6d 5a bd
       -0.22099507 -0.1386373 -0.10240671 -0.053327456
000070 5c df 1f bd 5f 9a 87 bb c4 3f 2d bc 5d 01 eb 3b
       -0.03903137 -0.0041382755 -0.010574285 0.0071717934
000080 c8 cd c9 3d 17 5f 97 3d 7b 42 71 3d 5d bf e9 bd
       0.09853703 0.07391184 0.05890129 -0.11413453
000090 69 f1 fe bd 12 2e 0e 3e 7e 0d e2 bd 99 9f 1f 3d
       -0.12448389 0.13884762 -0.1103773 0.038970564
0000a0 9c 72 36 bc 9a 69 e1 bd 31 02 bb bd 77 8b ca ba
       -0.011135723 -0.1100647 -0.09131277 -0.0015452941
0000b0 ff a6 37 bd 95 74 16 3e 22 5a f8 3d 07 6d 25 3e
       -0.044836994 0.1469291 0.121265665 0.16154872
0000c0 3d d3 a7 3c 4c 58 a1 3d 23 17 1f be 4a c0 e0 3d
       0.020486468 0.078781694 -0.1553617 0.10974176
0000d0 17 a1 42 3e 40 40 31 3e fc c5 43 3e 0a 21 14 3d
       0.19006763 0.17309666 0.19118494 0.03616432
0000e0 ce 3f af 3c b5 df e3 3d a2 a5 aa bd 34 84 16 3e
       0.02139273 0.11126653 -0.08332373 0.14698869
0000f0 37 e9 1f 3e f3 73 43 3d 42 af 06 bc 5a 27 80 3d
       0.15616308 0.047718 -0.008220496 0.06257506
000100 84 cb 7b 3d 5a 8b 5c 3d 97 05 53 3d 55 13 b4 3d
       0.061473384 0.053843834 0.051519003 0.0879275
000110 74 a2 df 3d ee 0e 8a bc 73 f8 30 be 79 d6 8d be
       0.10919657 -0.016852822 -0.17282276 -0.27702692
000120 5c e8 40 3d b6 28 67 be 90 86 98 bd 6e b7 0e 3e
       0.047096595 -0.22574124 -0.07447541 0.1393716
000130 59 3c 05 3e 37 39 b3 3e 7c a5 16 3e 8a b5 38 be
       0.13011302 0.3500459 0.14711565 -0.18038002
000140 ea 71 21 be 5d ba f4 be e8 70 3f be dd 39 16 be
       -0.15766111 -0.47798434 -0.18695414 -0.1467051
000150 61 94 96 3e d4 f8 be be af ac cc 3c a5 91 e2 3d
       0.2941008 -0.37299216 0.024984686 0.11062936
000160 35 36 d0 bc 6a 15 ff bd 8b 2d 4e be f4 03 35 3c
       -0.025416473 -0.12455256 -0.20134561 0.011048306
000170 7d ad 31 3d cb fa 04 bd e5 ff 32 bc 65 dc 78 3d
       0.043378342 -0.032465737 -0.010925268 0.06075706
000180 f7 b8 1e 3e 86 93 f0 3d e2 2c ad bd 0f e6 64 be
       0.15500246 0.11746888 -0.08455826 -0.22353385
000190 0b 27 95 3e 79 1a de bd c9 fc 5c be 7b cd 1b 3e
       0.2913135 -0.10844893 -0.21580805 0.15215103
0001a0 35 db 92 3e de 45 d8 be 5a a4 df bd 42 98 47 be
       0.28682867 -0.42240804 -0.109200194 -0.19491675
0001b0 4d 79 17 bd 3f 4b c7 3d 85 14 2d be 79 85 ae 3d
       -0.036980916 0.09731149 -0.16902359 0.08521552
0001c0 f2 e8 a3 3c a4 ca ea bd 62 ea 41 3d a0 73 bb 3d
       0.020008538 -0.11464432 0.047342665 0.09152913
0001d0 26 06 91 be 6e c0 9b bd 20 6a f9 bc a7 65 ec 3d
       -0.28325003 -0.076050624 -0.030446112 0.11542826
0001e0 1c 2d f0 bc 31 87 9b bd c4 6e ad bd 4d 6b b7 bd
       -0.029318385 -0.07594145 -0.084683925 -0.08956013
0001f0 b3 ea 4d be 2b 9f c3 3d e2 d6 82 3e ea 0b 92 bd
       -0.20109062 0.09551843 0.25554568 -0.07131179
000200 36 08 12 3e b8 5c 2e bd 34 da 9c 3d e1 44 9f 3e
       0.14260945 -0.042568892 0.076588064 0.31107238
000210 8a 72 26 be e6 3c 1e be a2 fd 2e bd df ad 5f 3e
       -0.1625463 -0.15452918 -0.04272235 0.2184367
000220 7c 55 fc bc 00 28 6e bd 48 df 93 3d 68 3a 8d 3d
       -0.03080248 -0.058143616 0.07220322 0.06895906
000230 be 5f a7 bd 20 2d 31 bc 2b 09 83 3e 1e 8e da bd
       -0.08172558 -0.010813981 0.25592932 -0.10671638
000240 9f 2f 04 3e 34 1c 00 3e 89 8a 12 3e 2c db b2 bd
       0.12908791 0.12510759 0.1431066 -0.0873321
000250 8c a6 86 bd 22 03 bf 3c b9 82 8d be 24 1a 5b be
       -0.06574735 0.023316924 -0.27638796 -0.2139669
000260 eb 7f ac 3b 83 55 b9 3d 3a b9 1a ba a7 91 91 be
       0.0052642724 0.09049513 -0.00059022347 -0.28431436
000270 fd 28 d1 bd 2f e2 18 be be fe a1 3d b1 0f df bc
       -0.10212896 -0.14930032 0.07909916 -0.027229162
000280 31 0b 52 3d 78 d9 57 be fd 73 43 be 4e de 64 bc
       0.051280204 -0.21079051 -0.19087215 -0.013969017
000290 87 2b fe 3d 5c af 1a bd c0 be f2 bc 5d d2 25 3e
       0.12410646 -0.037764892 -0.029631972 0.16193528
0002a0 e6 95 42 3d 12 b6 14 be 6e 0f 9f bd ba 41 1d be
       0.047506236 -0.1452258 -0.07766615 -0.15357104
0002b0 e7 0c 91 3e e0 08 06 be e0 5c 08 bd 08 70 0f 3e
       0.28330156 -0.13089323 -0.033291698 0.1400758
0002c0 9c 12 87 bd cc 82 c3 3c 81 a2 16 be 94 cc 9f bd
       -0.06595346 0.02386608 -0.14710428 -0.07802692
0002d0 45 f2 41 3e 07 b9 76 bd 76 eb 10 3e 78 6b 0d 3e
       0.18940075 -0.06023505 0.14152321 0.13810527
0002e0 24 1c 46 3e aa d7 d0 bd 9b fc 32 3e 04 89 0f be
       0.19346672 -0.10197385 0.17479174 -0.14017111
0002f0 f5 db c2 3d 89 5c 94 3c dd 1f c4 3d 6e a1 a4 3d
       0.0951461 0.01811053 0.0957639 0.08038603
000300 75 41 e3 3d 75 26 34 be 27 87 75 3d 62 3a 63 3d
       0.11096469 -0.17592795 0.059943344 0.0554756
000310 73 a4 ba 3e 03 9d 9a 3e ec be 82 3e d9 69 2c be
       0.3645359 0.30197915 0.25536287 -0.16837253
000320 58 b4 1e be e1 82 6f be 79 0f c2 bb 6b fe f8 3d
       -0.15498483 -0.2338977 -0.0059222546 0.121579014
000330 e1 6c 32 3e 91 af 8b bd 60 d3 a9 3d b5 31 c0 3d
       0.17424347 -0.06820596 0.0829227 0.09384481
000340 50 a3 bc 3c 88 aa 24 3e fa ca 3b 3e 15 b2 15 3d
       0.023027092 0.16080678 0.18339148 0.036546785
000350 ae e2 0c be e7 7e 23 3e f8 2b 8d be 4f cd a0 bd
       -0.13758346 0.15966378 -0.27572608 -0.078516595
000360 d6 f1 8d bd 8c b5 52 3e e5 f6 c3 bd 98 ea 06 be
       -0.06930892 0.20577067 -0.09568576 -0.13175428
000370 f0 67 fe 3d 63 e2 04 3e 2b 8b 14 3e d5 06 c1 3d
       0.12422168 0.12976985 0.14506213 0.09425131
000380 90 50 82 bd 7f 58 7f 3e da 17 9f 3e f7 17 96 3d
       -0.06363022 0.24936102 0.31072885 0.0732879
000390 7a 82 16 bd c9 75 8a 3d 8d 13 29 bd 3c 6b b6 3d
       -0.036745526 0.06760747 -0.04127841 0.08907172
0003a0 cc 80 2e bc 9f 3d ae bd f3 5a 57 3e f0 1d ef 3d
       -0.010650825 -0.08507847 0.21030788 0.11675632
0003b0 a3 66 82 3d cc b3 a5 bb f2 18 2f 3b f7 92 2d 3e
       0.06367233 -0.005056834 0.002671775 0.16950594
0003c0 dc 34 0d be 9f ca 3b be e8 e7 66 be bc 6f 4c be
       -0.13789696 -0.18339013 -0.22549403 -0.19964498
0003d0 ff 45 a1 be 67 e5 35 bd 02 3c 8f be 07 6f a7 3d
       -0.31498715 -0.04440823 -0.2797547 0.08175474
0003e0 7f 48 1d 3c 52 86 9c 3e 81 8b eb bc 99 4e f0 bc
       0.009599804 0.30571228 -0.028753044 -0.029334353
0003f0 c1 51 be 3c 65 44 7d 3d ad 02 a9 bd a8 6e 3c 3e
       0.023232343 0.061832804 -0.082524635 0.18401587

net.0.bias f4 [50]
000000 28 19 59 be c4 f8 f3 3c fd fc ab 3d b9 30 59 be
       -0.21201003 0.029781707 0.08397863 -0.21209992
000010 9b e6 15 be 6d 2f 9c bd d5 8d 65 3e 01 7e b7 3d
       -0.1463875 -0.07626233 0.22417386 0.0895958
000020 2c 7a 7b bd e6 bc 91 3d 43 9e 2c 3e da e7 51 bd
       -0.06139581 0.07116108 0.16857247 -0.0512465
000030 4f 58 af 3d 75 ec a3 be 55 96 bc 3d 26 c2 f2 3d
       0.085617654 -0.3201634 0.09208361 0.11853437
000040 6c 03 47 3e 5d 5a 0d 3e be 2e 2f be 39 89 28 3d
       0.19434899 0.13804002 -0.17107674 0.04114649
000050 3e 95 35 3d 71 85 09 bd da 2f 47 be eb 56 77 3e
       0.04433178 -0.033574525 -0.19451848 0.2415425
000060 55 1e 78 3b 2a 73 bc 3e 51 1d 51 3e a2 b9 8d 3d
       0.0037859876 0.36806613 0.2042134 0.06920172
000070 aa 0f ed 3d 4b df 08 be fb 7d 87 3c a2 a5 bf 3d
       0.11575253 -0.1336643 0.016539564 0.09357764
000080 94 17 90 3d b4 e4 2a bd d8 21 94 be 0b c3 26 3d
       0.07035747 -0.041722015 -0.2893207 0.04071335
000090 3b 43 c7 3d 9d a6 53 be 0f 7f 4f be fb d3 71 3e
       0.0972962 -0.20669027 -0.20263313 0.2361602
0000a0 fb 17 18 3d f6 4d 16 3e c9 32 46 be 1f 50 02 3e
       0.037132245 0.14678177 -0.1935531 0.12725876
0000b0 7f b5 b7 be ef 1f 52 3d a7 22 71 be fb 24 c8 3c
       -0.35880658 0.051299985 -0.23548375 0.024431696
0000c0 7c 17 98 3d 8f 96 a3 3d
       0.07426354 0.07987701

net.2.weight f4 [50, 50]
000000 a2 b7 aa 3d 6c 14 3c bd c0 19 40 bd 4f 16 d2 3d
       0.083358064 -0.045917913 -0.046899557 0.10258161
000010 5a 64 d4 3d 43 c5 e9 bd 78 53 29 3d 90 3e 94 3d
       0.10370703 -0.11414578 0.041339368 0.07238495
000020 67 74 7c 3d 2f 78 cb bc a6 a1 3b bd 60 42 12 be
       0.061634447 -0.024837581 -0.045808457 -0.14283133
000030 1f ed 00 3e e7 a5 15 3d 09 ec 59 3e e1 f5 6d 3d
       0.12590455 0.03653517 0.21281447 0.058095817
000040 78 4d b2 3d 22 1b de 3d a3 06 c2 bd 02 00 6b 3e
       0.08706182 0.10845019 -0.09473922 0.22949222
000050 b8 fb 87 bd c2 58 dd 3d ec 45 2b 3d cf 66 46 3e
       -0.066398084 0.10807945 0.04181473 0.19375156
000060 be 89 7a bd 97 70 d2 3d d8 4a 6e be f8 ab 15 3d
       -0.061166517 0.10275381 -0.23270738 0.036540955
000070 f9 23 ee bd 24 a5 a9 be 48 73 42 be 4d 4c 6d 3d
       -0.11627955 -0.33133805 -0.18989289 0.057934094
000080 af fc 1f be b5 86 2a be a7 60 b5 bd aa 98 08 be
       -0.15623735 -0.16652949 -0.088563256 -0.13339487
000090 01 db e0 ba dc 1c f6 bc 85 fa 4b be 33 99 45 3d
       -0.0017155112 -0.030043058 -0.19919784 0.048241805
0000a0 de 6d e4 3d aa 8c 8e 3d 5d 3a da bd fb 4a 7d 3e
       0.11153768 0.06960423 -0.10655663 0.24735634
0000b0 fb 87 da bb 8c 96 85 be 51 c9 29 3e 49 cc 84 bd
       -0.006669042 -0.2609142 0.16580702 -0.06484277
0000c0 d2 0b 9f bd b1 1e 10 be 7e a9 d8 bc e9 e7 e8 bd
       -0.077659264 -0.14074208 -0.026448008 -0.11372358
0000d0 11 b5 f4 bb 44 bc c1 bd 1c 04 e7 bc 1f 01 05 3d
       -0.007467874 -0.09459737 -0.028200202 0.032471772
0000e0 57 44 32 bd b1 b1 30 bd ca 99 8d 3d 10 ef 4b bc
       -0.043522205 -0.04313821 0.069140986 -0.012447134
0000f0 5e 6f 13 3e 4d de 9e bd 78 32 1c 3e 3e 78 d3 bc
       0.14397952 -0.07757244 0.15253627 -0.025814172
000100 d7 d7 15 be 5d fc 5e 3e e3 a3 e1 3d 47 10 40 bd
       -0.14633118 0.21775956 0.11017587 -0.046890523
000110 dd c7 bc 3d 0e 62 b8 3d 04 35 b7 bd 8b dc da 3c
       0.092178084 0.090030774 -0.08945659 0.026716491
000120 36 a6 11 bd b5 44 20 3e 72 e0 23 3e 62 bc 35 bd
       -0.0355589 0.1565121 0.16003588 -0.04436911
000130 72 a5 97 3d af 28 69 3e 85 58 54 3e fc 00 42 3d
       0.07404603 0.22769426 0.20736893 0.04736422
000140 16 6c be 3d a5 c4 d0 3d b5 ab b1 3d 4f 7e df bd
       0.092979595 0.10193757 0.08675329 -0.10912763
000150 5d f7 1d be a4 e4 53 bd 08 17 03 be ae 0e 44 3d
       -0.15426393 -0.05173172 -0.12801754 0.047865562
000160 73 ec 19 be 3d 08 f5 3c 74 03 13 bd 88 62 26 bc
       -0.15031604 0.029911155 -0.035891965 -0.010155328
000170 49 6f 06 3e 86 1a f0 3a 19 91 14 bd a9 9f 61 bd
       0.1312839 0.0018318451 -0.03627119 -0.055083904
000180 0b 39 b9 bc 60 2b 4a be 89 d2 15 be 0d 32 49 bd
       -0.022610208 -0.19743109 -0.14631094 -0.049119998
000190 63 e4 e7 bd 76 19 10 3e 1a af c4 bd 44 3e c4 3a
       -0.11322858 0.14072213 -0.096037105 0.001497217
0001a0 68 f1 89 bd 35 1f 8b 3d 53 bb 64 bd 99 f1 3b 3d
       -0.06735498 0.06793062 -0.05584271 0.045884702
0001b0 8d f8 81 bd 31 94 08 3e 94 cb 9a bd e1 29 1e 3e
       -0.063462354 0.1333778 -0.07558361 0.15445663
0001c0 cb ee 43 bd 55 25 50 bc f0 66 ab 3d 73 d2 ac 3d
       -0.047835153 -0.012704213 0.08369243 0.084385775
0001d0 47 50 4f 3d 3a ab 35 bc 8f cb 5e 3b c4 50 1e be
       0.050613668 -0.011088187 0.0033995842 -0.15460497
0001e0 a6 bc cf bd 9a 04 b0 bd 22 50 2b be ff 5a 68 bc
       -0.10143404 -0.08594628 -0.16729787 -0.014181851
0001f0 a4 2a ae 3d 26 4c d1 bd 8d 84 4e 3e 6f e2 26 3d
       0.08504227 -0.10219602 0.20167752 0.040743288
000200 e5 e4 b4 3d 42 ab 57 3d 03 f7 c7 3c 8b 02 8a 3d
       0.08832721 0.05265356 0.024409777 0.06738766
000210 cc d7 b8 3d 1e 15 f2 bc 39 93 06 bd 4f 96 51 3d
       0.09025535 -0.029551085 -0.032855246 0.051168736
000220 38 75 42 3e 28 f1 15 be f3 1a 4b 3d e6 52 02 bd
       0.18990028 -0.14642775 0.049586248 -0.03181734
000230 fd 46 e0 bd ff 16 bc bc 75 f9 37 bd 50 13 54 3e
       -0.1095104 -0.022960184 -0.044915635 0.20710492
000240 6b 45 0a 3e dc e9 33 3e cc a7 59 3c 4e 07 71 3e
       0.13503043 0.17569679 0.013284635 0.23537943
000250 85 05 cc 3d fb 43 a2 bd aa e5 13 3d 06 0f 2b 3e
       0.0996199 -0.079231225 0.036107697 0.1670495
000260 7c 9d f3 bd b3 9f 85 bd 30 5e 3d bd 1a b3 ce bd
       -0.11895272 -0.06524601 -0.046232402 -0.10092755
000270 06 8e ef 3d df bc 2f 3e 02 9f d1 bd d0 42 9e bd
       0.11697011 0.17161892 -0.102354065 -0.07727587
000280 74 f6 ef 3c c9 36 fe 3d 44 69 f0 bd 35 2b 00 3e
       0.029292323 0.12412793 -0.11738828 0.12516482
000290 ea e4 95 bd 4a 1a fa bd 11 6f f1 3d 43 e1 06 be
       -0.073190525 -0.122120455 0.11788762 -0.13171868
0002a0 b6 91 b1 bd 4d 9c d5 3a 2a 5b 8b bd a1 1d 94 bd
       -0.0867037 0.0016297192 -0.068044975 -0.07232214
0002b0 5a b7 f3 3d 6d 8b bf 3d c7 3d 00 3d 2f 66 98 bc
       0.11900206 0.09352765 0.031308915 -0.018603412
0002c0 ce c1 92 bd f4 0f 16 be e4 1e d8 3d d5 26 a5 3d
       -0.071658716 -0.14654523 0.10552767 0.08064047
0002d0 fc ed ca bc 3c fb 1d be dc 52 b7 bd 39 91 b2 3d
       -0.024771683 -0.1542787 -0.08951351 0.08719105
0002e0 b3 c9 f9 bd 69 b5 f7 3d f4 09 04 3e a7 24 b7 3d
       -0.12196674 0.12095148 0.12894422 0.08942538
0002f0 89 9c d8 bd 6a e6 a4 3d 05 dd 06 3e 3d 18 1e 3d
       -0.10576732 0.080517605 0.1317025 0.038597334
000300 ea 80 ab bd 95 d7 8a bc d7 c7 30 3d 15 03 8f 3d
       -0.08374198 -0.0169485 0.043159332 0.0698301
000310 a5 b1 c0 3c fd 11 24 3e 73 57 7a bd b9 d5 9c 3d
       0.023522208 0.16022487 -0.061118554 0.07657952
000320 da d8 22 be 7d ea 63 3c 5f b4 38 bd 39 5d 09 3e
       -0.15903035 0.013910887 -0.04509389 0.13414468
000330 59 04 dd bd ed 07 f6 bb dd 12 aa 3d d6 a9 19 bd
       -0.10791845 -0.007508269 0.08304379 -0.037515484
000340 ac d4 ab 3d f3 9e 9d 3d be 1c d4 3d 4b 26 6f bd
       0.08390173 0.07696333 0.10357045 -0.05838613
000350 bb 90 e3 3d a1 f9 94 3c 65 77 ce bd 40 5a 15 bd
       0.111115895 0.018185439 -0.100813664 -0.036463022
000360 2f cf c2 3d 46 24 12 be 6c c0 c2 bd a5 a3 f1 bd
       0.095121734 -0.1427165 -0.09509358 -0.11798791
000370 9d a9 7a bd 9f 00 83 bd 7c 21 8f 3d 3a dc e0 3c
       -0.061196912 -0.06396603 0.069888085 0.027448762
000380 20 60 25 bc 44 0f 05 3e d0 21 31 3d f5 a7 fa 3d
       -0.010093719 0.12994105 0.043245137 0.122390665
000390 0e c6 ca bd cc 65 23 bd 86 0d 92 3d 8e e2 8a bd
       -0.09901057 -0.039892003 0.07131486 -0.06781493
0003a0 00 48 3d 3d 42 fc f3 3d 45 18 d4 3d 25 0a 44 3d
       0.046211243 0.11913349 0.103561915 0.047861237
0003b0 0a d9 4e 3d 23 84 f6 bd 0b eb d5 3d 69 28 33 3d
       0.050499953 -0.12036922 0.104452215 0.04373971
0003c0 df 47 82 bd da 2b fa bd 0f 91 cf 3d a8 ac 59 bd
       -0.063613646 -0.12215395 0.101350896 -0.053143173
0003d0 61 60 a9 bd cd 50 23 3e 43 13 be bd 0f 3c 87 3a
       -0.08270336 0.15948792 -0.09281018 0.0010317581
0003e0 13 db c6 bd 21 8f 02 3b ef b7 dd 3d 2f 83 3a 3e
       -0.09709754 0.0019921737 0.10826098 0.18214105
0003f0 9f 3a 1c be 7e 58 ea bd fb d4 5c 3d fa b6 2c bd
       -0.15256737 -0.1144266 0.05391405 -0.042166688

net.2.bias f4 [50]
000000 5d dc 3a bd 67 6c 3a 3e fa 56 55 3e d0 91 4a bc
       -0.04562031 0.18205415 0.2083396 -0.012363866
000010 95 d9 f8 3d 87 92 68 bd b2 92 2a 3e c2 3e 09 3c
       0.121508755 -0.056780364 0.16657522 0.008376779
000020 36 f6 47 bd 8d 68 28 3e 82 70 4e 3d 14 5e 23 3e
       -0.04881879 0.16446133 0.050400265 0.15953857
000030 a1 80 43 3d d1 f9 f6 bb 76 f2 bd bc cc 92 6d 3d
       0.047730092 -0.0075371047 -0.023186903 0.058001325
000040 30 84 3d be 4f 7b a3 bd c9 61 97 bd b0 3a 6e 3d
       -0.18507457 -0.079825036 -0.07391698 0.058161438
000050 85 71 3d 3d 0b 9f 19 3e cd 72 e1 3b b2 32 21 be
       0.04625084 0.15002076 0.0068801404 -0.15741995
000060 0e 52 9c bd bb fd 93 3d 1c 97 34 bd f9 18 a5 bd
       -0.07632838 0.072261296 -0.04408942 -0.08061404
000070 42 5a db 3c fb 4f c8 bd 98 8c bb bd 96 1d 81 3d
       0.026776437 -0.0978088 -0.091576755 0.06304471
000080 2f 41 ce bc 83 d5 af bd 91 07 6c bd 1a 54 a6 bd
       -0.025177566 -0.08585646 -0.057624403 -0.0812151
000090 7f d4 83 3d 77 96 98 3c d8 96 2e be 60 40 c3 3d
       0.06437015 0.018626435 -0.1704973 0.09533763
0000a0 82 fd 91 bd 5f b2 09 bd 3a e9 10 be 32 56 05 bd
       -0.07128431 -0.033617374 -0.14151469 -0.032552905
0000b0 fb f7 80 3b 93 95 b2 bc c1 a2 d0 3c 9c 97 6a bb
       0.0039358116 -0.021799838 0.025468232 -0.0035795933
0000c0 ee b2 9e bd ca 0f e7 bd
       -0.07748972 -0.112823084

net.4.weight f4 [50, 50]
000000 58 0e 57 3d b8 8f eb bd 37 11 e5 3d bd d6 5e bc
       0.052503914 -0.115020216 0.11184924 -0.013601002
000010 ec 20 61 3d 21 3b 41 be 6e 84 48 3e 92 78 c4 bc
       0.054963037 -0.18870212 0.19581768 -0.023983274
000020 dd 0f 6c bd d6 12 db 3d 1c b3 e3 bd f2 02 81 3d
       -0.057632316 0.10696952 -0.11118147 0.0629939
000030 66 79 2c 3e 97 cf 62 bd 4c b3 e1 bd fd a4 97 3d
       0.16843185 -0.055373754 -0.11020526 0.07404516
000040 90 34 92 bd 55 7b 26 bd 97 01 09 bb bb 8f 02 3e
       -0.07138932 -0.040644962 -0.0020905489 0.12750141
000050 37 4a fd 3c c1 21 9a 3d a6 d8 df 3d 85 0a 61 bd
       0.030919177 0.07525969 0.10929994 -0.054941673
000060 f0 eb ac 3d 0a 58 45 3b 50 90 1a be 0b c4 ea bd
       0.08443439 0.003011229 -0.15094113 -0.114631735
000070 1d 79 b9 3d 8d 4c 5e 3c c4 02 9a bc cd 8c 83 3d
       0.09056304 0.013568056 -0.018800147 0.0642334
000080 22 3b 89 3d d7 6a aa 3b a2 d5 08 be 9a 09 07 3e
       0.06700732 0.0052007246 -0.13362744 0.13187256
000090 1a de 91 ba 85 73 03 be d2 8d ea bc e2 03 d7 bd
       -0.0011128813 -0.12837036 -0.028632078 -0.104987875
0000a0 fd 05 30 bd cf 5d 82 3c 17 93 c2 bd 28 fd ef bc
       -0.04297446 0.015913872 -0.095007114 -0.029295519
0000b0 8b 6b c6 3d 6b dd 24 3c 27 e9 ba bd 6c 3e 87 3d
       0.09688481 0.010062556 -0.091265015 0.06603703
0000c0 5c 3e be 3c 4a 8e 17 3e f2 bf b6 3c c7 11 27 bc
       0.023223095 0.14800373 0.022308324 -0.01019711
0000d0 72 39 16 be 77 65 96 3d 55 a8 28 3e 5e 29 3b 3d
       -0.14670351 0.07343572 0.16470464 0.045693748
0000e0 59 cc b0 bc d0 d1 a4 bd 4e c5 33 be c7 5d 7f bd
       -0.021581816 -0.08047831 -0.17555735 -0.062345292
0000f0 56 59 12 3e 45 76 04 be 6d 19 1a 3e 7b c2 7b 3d
       0.14291891 -0.12935741 0.15048762 0.061464768
000100 99 49 a5 3d 8c 06 f6 3d 53 89 f7 3c 09 d5 cf 3d
       0.08070678 0.120129675 0.030216848 0.10148055
000110 d5 f8 c6 3d 9c dc f1 3c 56 07 19 bd 2e a8 45 bd
       0.0971543 0.02952414 -0.03736051 -0.04825609
000120 d3 19 55 be 95 90 8c bd 24 e9 f7 3d 84 f1 2b 3e
       -0.20810632 -0.06863514 0.12105015 0.1679135
000130 78 e9 2d 3e c2 f6 d1 39 6d be 8e bd f8 52 a8 3d
       0.16983593 0.00040047435 -0.069699146 0.0821895
000140 90 26 db 3d ca 0d ef 3d 32 9e 90 bd 1f af 03 3e
       0.107007146 0.11672552 -0.07061423 0.12859772
000150 9b e4 e8 3c c2 08 8a 3c 70 af 08 bc 54 20 a4 bd
       0.02842932 0.01684988 -0.008342609 -0.080139786
000160 a8 02 cd 3c cf ee ec bc ec 79 2b 3e 90 b9 18 be
       0.02502568 -0.028922467 0.16745728 -0.14914536
000170 ba 38 f2 3d f0 9b 12 3e 6d 2f 5f 3d 61 ce 87 bb
       0.11827226 0.14317298 0.054488588 -0.0041444753
000180 57 9c ca 3d b4 23 3e bd f1 92 12 be 4f be f9 3d
       0.09893101 -0.046420768 -0.14313866 0.121945016
000190 a4 e9 9f 3c fd dd a8 3d 8e 60 03 3e 8b 5c fe bd
       0.019520588 0.08245466 0.12829801 -0.12419995
0001a0 1c b2 50 bd 26 7c da bd af 82 ac 3d a4 8d 7f 38
       -0.05095111 -0.10668211 0.084233634 6.092865e-05
0001b0 32 a6 78 3d bc 58 f2 bc cd 78 be bd c6 8f 0c bd
       0.06070537 -0.029583327 -0.09300385 -0.0343168
0001c0 76 97 02 be 5a eb 9e 3d 07 ea d1 3d 86 e3 c1 bd
       -0.1275309 0.077597335 0.10249715 -0.09467225
0001d0 99 d3 19 3d 4d 31 df 3c 23 3c e8 bc 61 c7 da bc
       0.03755531 0.027245188 -0.028348988 -0.0267064
0001e0 bf 70 66 bd f8 fd 28 bd 5d 9e e0 bd f2 02 c0 3d
       -0.056259867 -0.04125783 -0.109677054 0.09375562
0001f0 55 98 d8 bd 48 e8 12 bd 9b 06 06 3e 6a eb eb 3c
       -0.1057593 -0.035866052 0.13088457 0.028798778
000200 1a 7b cc 3d f2 dc b3 b9 e5 a7 e3 3d 8f 7f c6 3d
       0.09984417 -0.00034306158 0.11116008 0.096922986
000210 77 ab f1 3d 28 16 b8 3d 40 82 63 bd 25 e2 c7 3d
       0.118002824 0.08988601 -0.055544138 0.097599305
000220 ea a3 1f 3e 6e c7 4c 3d 06 61 ee 3d 40 d6 82 bd
       0.15589872 0.04999488 0.116395995 -0.06388521
000230 e4 39 71 bc cb fc 09 bb a7 f8 d3 3d fc f8 bc bd
       -0.014723275 -0.0021055217 0.10350161 -0.092271775
000240 7b d3 8c 3d 16 60 0d be ec ca ef 3a 02 a7 94 bd
       0.06876274 -0.13806185 0.0018294728 -0.07258417
000250 05 38 4a bd ae 78 a6 3d 5f 27 1c be b8 47 a8 3d
       -0.04936983 0.081284866 -0.15249394 0.08216804
000260 3b d1 de 3c 08 5f e8 bd 81 e0 f1 3d 03 b1 16 3e
       0.027199378 -0.11346251 0.11810399 0.14715962
000270 bc c7 83 bd a0 ae 4f bd 65 3e df bd ba 41 05 be
       -0.06434581 -0.050703645 -0.10900573 -0.13013354
000280 87 c5 a5 bd 45 ba 51 bd b0 d3 3c bc eb 30 26 bc
       -0.08094316 -0.05120303 -0.01152508 -0.010143499
000290 aa e8 0e 3d e3 8f aa 3d 9f 05 5e bd 48 50 fb 3d
       0.034889854 0.083282255 -0.05420458 0.12271172
0002a0 1b 49 ff 3c 41 0b af bd 99 22 a5 3c 0b 04 9f 3d
       0.03116279 -0.085470684 0.020158099 0.07764443
0002b0 ef b5 96 bd 92 fe 50 3b f9 6d 48 bd 96 66 74 bd
       -0.0735892 0.0031890017 -0.048933003 -0.059668146
0002c0 a9 26 df 3d 86 cf df bd 39 81 e0 3d 5d a0 5c 3d
       0.10896046 -0.10928254 0.10962147 0.05386387
0002d0 00 0e 90 bb 53 94 95 bd 35 4d 29 3d c5 95 3d 3d
       -0.0043962 -0.07303681 0.041333396 0.04628541
0002e0 04 64 bc b8 b1 d8 89 3d 36 53 d4 bc 42 43 bb 3d
       -8.983168e-05 0.06730784 -0.025918584 0.09143688
0002f0 48 08 a8 3d 6e 49 9b bd ca 4f 6a bd 50 60 31 3d
       0.082047045 -0.07582365 -0.057205 0.04330474
000300 1e e3 08 bd 7b ca 54 3d ca 06 51 bd 16 d7 4f 3d
       -0.03341972 0.051950913 -0.051031865 0.05074223
000310 b7 3a 98 3d 0e 58 de bd b7 7a c7 bd 23 b8 02 bd
       0.07433074 -0.10856639 -0.09740203 -0.031913888
000320 7c 3d cc bc a2 a2 0c bd 75 35 2c 3d f0 f6 0c 3d
       -0.024931662 -0.034334786 0.042043168 0.034415185
000330 8f 56 08 3d 78 62 c9 bd c2 c2 58 3d b3 d1 9d bd
       0.033285674 -0.098332345 0.05292011 -0.077060126
000340 8f b4 22 bc 35 25 d2 3d 0f 1e bd bc 62 22 6f 3d
       -0.009930744 0.10261003 -0.023085622 0.0583824
000350 6f 00 b0 3d 0d 94 40 3b 00 fa 86 3d 49 77 fe 3d
       0.08593833 0.002938512 0.065906525 0.124250956
000360 a7 cf a3 bc c2 39 0d be 99 82 5d 3d 12 0e 98 bd
       -0.019996477 -0.13791564 0.054079626 -0.07424559
000370 2a c2 d5 bd cb 36 c4 3d 43 eb a0 bd 8b 37 a4 bd
       -0.104374245 0.095807634 -0.078573726 -0.080184065
000380 85 7c 00 3d 7c db d6 3d 27 03 91 bd 2f 15 81 3c
       0.03136875 0.10491082 -0.070806794 0.015757171
000390 65 9e 00 be 2e 0a df bd ef 19 2b be 14 c1 8d 3c
       -0.12560423 -0.108906135 -0.16709112 0.01730398
0003a0 b2 24 00 be 93 0c 0f be 68 b3 15 be a7 70 b0 3d
       -0.12513998 -0.1396964 -0.1461922 0.08615237
0003b0 ef 7d 93 3b 59 84 1b 3d 8e 70 f7 bd 8e 70 da 3d
       0.0045010964 0.037968013 -0.12082015 0.10665999
0003c0 15 f6 29 3e 63 76 e8 3d 0e 79 a7 3d 48 68 13 3e
       0.16597779 0.113507055 0.08177386 0.14395249
0003d0 51 00 14 3e 31 dc 94 bd 1f b9 af 3d 8b 12 e3 3d
       0.14453246 -0.07268561 0.08580231 0.11087521
0003e0 ee d3 2f 3d cc 41 c5 bc da 1a a4 3d 41 d0 97 bd
       0.04292672 -0.024079226 0.08012934 -0.07412768
0003f0 0b e2 8a ba 67 6f ff 3d 16 56 bf bd 53 1f 14 3e
       -0.001059593 0.1247242 -0.093425915 0.14465074

net.4.bias f4 [50]
000000 68 5d 10 bc 89 70 8e 3c 08 46 23 bd 00 11 0e be
       -0.008811332 0.017387645 -0.03986171 -0.13873672
000010 ca 98 b0 3d a4 0b 39 bd 3e 7d a8 3d 9c 51 b6 bd
       0.08622892 -0.045177117 0.08227013 -0.089022845
000020 01 f3 2b be 42 d9 a9 3d 9a 63 22 3e 64 03 5f 3d
       -0.16791917 0.08293392 0.15858307 0.054446593
000030 9a 76 03 be d1 2b 9e bd 38 66 6d bd 1d 8e 75 3d
       -0.12838212 -0.07723201 -0.05795881 0.059949983
000040 64 8a 5e bc 1b cc a7 bc 6f 88 53 3d 3a a5 06 be
       -0.0135828 -0.020483067 0.051643785 -0.13148966
000050 a6 1f b5 3d 79 8a f1 bd 54 7f ba bd 9a fe 48 3e
       0.08843927 -0.1179399 -0.09106317 0.19628373
000060 a9 b6 a4 bb c2 8c 9e bd 6c e4 94 bd cb 25 54 be
       -0.0050266576 -0.07741691 -0.072701305 -0.20717542
000070 ac 80 c4 3d bc 9c cc 3d 6f 7b 06 3e 28 ba 81 3a
       0.09594855 0.09990832 0.13133024 0.0009897398
000080 47 37 16 be 8d 33 90 bd 2f 43 f5 3d e3 39 93 3d
       -0.14669524 -0.070410825 0.11975705 0.071887754
000090 d1 9a b7 3d 5a 00 0e 3d 99 15 a9 3d eb d8 9c 3d
       0.08965076 0.034668304 0.082560726 0.07658561
0000a0 6b 1d 08 3e 19 4f 4e 3d 10 4c 5e 3e 04 84 3d bc
       0.13292472 0.050368402 0.21708703 -0.0115671195
0000b0 4a 31 db 3d d2 9a 10 3e c0 3c 7e bd d7 83 5e 3d
       0.107027605 0.1412156 -0.062069654 0.05432495
0000c0 97 db 87 3d f6 86 a2 bd
       0.0663368 -0.07935898

net.6.weight f4 [4, 50]
000000 83 72 55 be 0e c0 78 3e b5 ca 1a 3d 44 b3 6f 3e
       -0.20844464 0.24292013 0.037790973 0.23408228
000010 e8 59 cf bd ab e6 69 3e 3f 17 08 3e 65 dc b1 3e
       -0.1012457 0.22841899 0.13290118 0.3473846
000020 f9 93 e6 3d 89 f0 0f be 4d 6a 6d be 75 a7 d6 3c
       0.11258692 -0.140566 -0.23185082 0.026202897
000030 3e 5d a1 3e 01 ee 3b 3e 13 0b 90 be 72 e0 30 be
       0.3151645 0.1835251 -0.2813345 -0.17273119
000040 76 03 81 bc 89 dd 9f 3c d5 01 9c 3d 0b d1 e2 3b
       -0.01574872 0.019514816 0.07617537 0.0069218925
000050 bf d8 33 be 42 b6 f3 bd eb 66 a9 bd 64 c9 ad 3d
       -0.17563151 -0.11899997 -0.08271583 0.08485678
000060 73 94 86 3d bd 24 25 3e 69 05 3b bd f5 18 a6 3c
       0.06571283 0.16127296 -0.045659456 0.020275572
000070 d0 89 10 3e 75 93 cb bd b7 d6 ab bd e4 29 04 3e
       0.14115071 -0.099402346 -0.08390563 0.12906605
000080 96 52 3f be fd da 08 be 17 8f e6 3d 16 28 9f 3d
       -0.18683848 -0.13364787 0.11257761 0.07771318
000090 c3 0b b2 bd 7b e4 cd bd 50 2f e7 bd 73 2f 1c bc
       -0.086936496 -0.10053345 -0.11288321 -0.009532797
0000a0 2e 5b 71 3c 85 ac 67 bd 09 ff 8d be ae 8b 25 be
       0.014731212 -0.05656101 -0.2773364 -0.16166565
0000b0 52 06 11 3e bb 86 54 be 4d 16 8e 3d d6 c6 b2 3d
       0.14162567 -0.2075452 0.06937847 0.08729331
0000c0 9c 57 4a be d6 38 f1 3d ff 41 21 3d 90 3d 56 3e
       -0.19759983 0.11778419 0.03936958 0.20921922
0000d0 7d c2 bb bd bf 6b 42 bd c6 4e 37 3e be 95 0b 3e
       -0.09167955 -0.047466036 0.17901143 0.13631341
0000e0 f1 05 88 3e c2 0f 90 be 14 46 81 3d f4 ca 95 bd
       0.26567033 -0.28137022 0.063121945 -0.07314101
0000f0 d9 58 1d be e9 f2 74 3e fa f0 af bd 0e e0 b1 3d
       -0.15365924 0.23920788 -0.085908845 0.08685313
000100 b0 71 e8 3d 42 4d 15 bd ca 3b 77 bd 57 09 85 bd
       0.11349809 -0.036450632 -0.060359754 -0.06495922
000110 64 e3 66 3e 6a f5 87 be 7c e5 fe bd 1a 3e 0a 3d
       0.2254768 -0.26554424 -0.124461144 0.03375063
000120 6f b8 7d 3c 9d 01 51 bc 3b 5a f3 3d a4 54 bf 3d
       0.015485867 -0.012756732 0.118824445 0.09342316
000130 79 ac 08 bd b7 ee 98 bc b2 f4 b2 bc dc 8b 67 3c
       -0.033367608 -0.018668516 -0.021845195 0.014132466
000140 8a 6d 4a be a1 0a e3 3d 1b d4 5a be cf f4 7d bd
       -0.19768348 0.11086012 -0.21369974 -0.062001046
000150 f3 e4 a2 bd 91 27 28 bd f3 12 5e bd 07 8f 65 bd
       -0.07953825 -0.04105336 -0.05421729 -0.056044605
000160 c4 50 b7 3c e5 32 17 be d5 3b ba 3c f7 d0 9a 3d
       0.02237738 -0.14765508 0.022733608 0.07559388
000170 66 d2 6a bd cd 44 04 be 3b f1 ea 3c 21 8c cc bd
       -0.057329558 -0.1291687 0.02867948 -0.09987665
000180 88 a9 1d be 27 9d 8a 3d d9 1d e1 3c e4 b6 0f be
       -0.15396702 0.06768256 0.027480053 -0.14034611
000190 e2 b8 25 3e 8e 37 1c be 37 81 f4 3d ea d2 36 bd
       0.16183808 -0.15255567 0.11938708 -0.044634737
0001a0 4b 17 f8 3b 59 37 55 be 12 91 7b 3d 9b 74 d8 bd
       0.007571136 -0.20821895 0.061417647 -0.10569116
0001b0 c4 e9 9c be e9 58 72 bb b9 2d 6d 3e 74 19 59 3c
       -0.306471 -0.0036979264 0.23161973 0.013250697
0001c0 9f b7 2d bd 5f 0b bd be a2 49 94 3d 84 66 cd 3c
       -0.042411443 -0.36922738 0.07240607 0.025073297
0001d0 01 54 13 3e 56 db 44 3d a5 e3 20 bd 6c 3e ac 3d
       0.14387514 0.048060738 -0.0392796 0.084103435
0001e0 6d fd 23 3e b0 53 14 be cb a6 ca bd 3f c9 6b 3e
       0.16014643 -0.14485049 -0.098950945 0.23025988
0001f0 28 08 3d bd ab 78 01 be 3f 58 2a bd cb b6 23 be
       -0.046150357 -0.12643687 -0.041588064 -0.15987699
000200 14 99 85 3e b4 3f 4c 3e f0 b0 62 3e 4e 2f c0 be
       0.26093352 0.19946176 0.22137809 -0.3753609
000210 e3 20 fa bd 7e 66 de bb 96 56 2d bb 56 65 14 3d
       -0.12213304 -0.0067871204 -0.0026449314 0.036229454
000220 f1 47 4c bd cb 19 ba 3d f7 0b 12 bc 89 15 31 3e
       -0.049873296 0.09086951 -0.008913985 0.17293371
000230 a1 35 b6 3d cf e3 dd 3d e4 d1 92 3e e1 43 5e bd
       0.08896948 0.10834467 0.2867576 -0.054263953
000240 29 e2 8f 3d 85 13 13 3e 6a 13 8d bd 2e 9c 32 bd
       0.070255585 0.14362915 -0.068884686 -0.043605976
000250 02 86 82 3d e6 7e 36 bd be 6e 52 3e 42 36 39 3e
       0.06373216 -0.044554614 0.20550057 0.18087104
000260 6d ea 29 be 70 b2 24 be 97 02 e8 3d df 90 34 bc
       -0.16593333 -0.16083694 0.11328619 -0.011020868
000270 85 9e 0a bd dd ff 5a bd cc a4 f9 bd 9a c1 af bd
       -0.033842582 -0.053466666 -0.12189636 -0.085818484
000280 01 2f 84 3e 9b 0a 14 3e 3e 02 83 bd 60 b3 6e bc
       0.2581711 0.1445717 -0.06396912 -0.0145691335
000290 78 55 24 be 62 45 fa 3d 10 aa 3f 3e 09 1c 8e bd
       -0.16048229 0.12220265 0.18717217 -0.06938941
0002a0 70 8c 7c bd 70 d9 ca bc f8 cb 0a 3d 13 8b 19 bd
       -0.06165737 -0.024761885 0.033885926 -0.037486147
0002b0 68 60 cc 3d 03 7c 12 bd a4 88 ec 3d ac b9 81 3d
       0.099793255 -0.035762798 0.115495 0.06334242
0002c0 b4 8f 4d be 8e c5 c7 3d 85 87 ef 3d 58 06 a1 3c
       -0.2007435 0.097544774 0.1169577 0.019656345
0002d0 9f b8 1e be d6 e9 10 bd 1c fb 45 3e d0 0b 2a 3e
       -0.15500115 -0.035379253 0.19334072 0.16606069
0002e0 ad 01 26 3e d7 27 1b 3e 38 74 86 be f6 fe d2 3d
       0.16211577 0.15151916 -0.26260543 0.10302536
0002f0 ad 55 59 be 35 ae 54 bd dc c2 2d be a2 bd d9 bd
       -0.21224089 -0.05192395 -0.16968864 -0.10631873
000300 9b 19 0b 3e 7e 93 46 3d 11 5b 1a bd 9b 17 ec bc
       0.13583986 0.048480503 -0.037684504 -0.02881985
000310 b9 90 8b bd 98 0b 16 be 64 ec 5f be c3 19 46 be
       -0.06814713 -0.1465286 -0.2186752 -0.19345765

net.6.bias f4 [4]
000000 8b 9c 0d be 7e 27 4d 3e fb f1 91 3c df 42 5c 3d
       -0.13829248 0.20034596 0.01781558 0.05377471
