pretrain_PPO/Test/model.pt (torch, 57273 bytes, 16 tensors)

log_std f4 [4]
-1.3968673 -1.1192862 -1.3660583 -1.4636234
00000000: 8ccc b2bf c544 8fbf 00db aebf 0358 bbbf

net.0.weight f4 [50, 24]
0.040795952 0.21634556 -0.1203539 0.1753732 0.27558023 -0.014866952 -0.30634236 0.08614015
0.011291281 -0.33102295 -0.0028089115 -0.35447043 -0.061578613 -0.056994405 0.0070088366 -0.030918282
0.013665591 -0.17182143 -0.054597594 0.06210503 -0.17878972 -0.04322944 -0.086810164 -0.08887679
0.02104591 -0.13726427 -0.07668012 -0.19012931 -0.056545343 0.19240741 -0.23936012 -0.1799582
0.10577263 0.112671725 -0.14569816 -0.106716044 -0.08129463 -0.05881661 -0.1708129 -0.1211981
-0.020915208 -0.04598823 0.053175297 0.035359908 -0.09217078 0.03418388 0.053383566 -0.12872651
0.29299003 0.17842396 -0.12370758 0.2242605 0.21808977 -0.18229707 -0.24701056 -0.093353584
0.039018486 0.041756496 -0.20680135 -0.13059267 0.029478591 -0.014144529 0.1408695 -0.20617817
0.16823348 -0.19890733 0.09390267 -0.113610275 0.14129852 -0.1831769 -0.08922215 0.085804746
0.46724558 0.19452707 0.063826226 0.020721117 0.18416157 0.06390558 -0.0037393433 0.11181775
0.02520467 -0.2769521 -0.075767286 0.0526627 -0.11205096 -0.1569013 0.016830835 0.17913972
0.1906788 -0.017204693 -0.037944894 0.0430806 0.040921688 -0.076633506 0.1303779 0.1324282
0.27507094 -0.017217372 0.18154828 -0.09770366 0.21858187 -0.09168482 -0.109601706 -0.11630042
-0.04750969 0.097497925 0.15957047 -0.0014896793 0.021061976 -0.050669942 0.097744964 0.017268537
-0.13098072 0.0019945686 -0.053060412 0.11244785 0.06392579 0.16609348 0.053630676 0.15681504
0.012154706 -0.09010204 0.19780494 -0.12537338 0.2301012 -0.35679606 0.008132993 -0.13470934
-0.017630786 -0.034936596 0.10270017 -0.22205745 0.10850644 -0.12708847 0.14483172 -0.1172421
0.018135088 0.113975026 -0.096189 -0.13928857 -0.054529004 0.18519533 0.007522791 0.0934402
-0.06937113 0.07501244 0.08060576 0.096448556 -0.12862921 0.0944306 -0.18445416 -0.10980415
-0.090678126 0.2363765 0.11886889 -0.07739184 0.09085056 -0.14966936 0.04325454 -0.015280567
0.11089495 0.101430744 -0.14170256 0.10211792 0.16424526 -0.118610315 0.1560828 0.0949838
-0.09160245 -0.31779295 -0.016938271 -0.17440364 0.1519451 -0.34139672 -0.3031005 0.10275204
0.16008732 0.17950614 0.055353448 0.02286948 0.054207545 -0.16517511 0.058001336 -0.2401545
-0.11793687 -0.09748961 0.03454146 -0.26344764 -0.26845407 0.0731525 0.07283271 -0.0027114346
0.0060276645 -0.08080945 0.16550638 0.22732657 -0.04848321 -0.08445124 0.22649091 -0.028844068
-0.14791831 -0.2065695 0.084701926 0.096658036 -0.0036186692 -0.06486014 -0.19908021 0.022880124
-0.147618 0.01711696 0.08264181 0.11483781 0.06823845 -0.074664116 -0.15466784 -0.07430984
0.003420758 -0.20949739 -0.065425515 -0.03022179 -0.22622445 0.54349774 -0.13126267 -0.4999847
0.16490605 -0.043701686 0.12975265 -0.16064191 -0.27981701 -0.2652793 -0.12785621 -0.11062851
-0.14975767 0.051171064 -0.09479499 0.12512027 -0.08095417 -0.2034991 0.12113691 -0.071033485
0.09860204 0.033326395 0.048773695 0.107232906 0.032384522 -0.2480337 -0.16224776 0.0036232998
0.19499895 -0.21985473 -0.11317814 -0.2803749 -0.19594337 -0.109255224 -0.19501272 -0.0676642
00000000: a819 273d b189 5d3e 1b7c f6bd 0895 333e
00000010: da18 8d3e 8494 73bc e8d8 9cbe 3f6a b03d
00000020: 11ff 383c d77b a9be b715 38bb 267d b5be
00000030: db39 7cbd f772 69bd 62aa e53b 5648 fdbc
00000040: a5e5 5f3c f5f1 2fbe baa1 5fbd d861 7e3d
00000050: a714 37be 5a11 31bd 87c9 b1bd 0905 b6bd
00000060: 7968 ac3c 018f 0cbe 770a 9dbd 42b1 42be
00000070: 179c 67bd 7306 453e d21a 75be f646 38be
00000080: 529f d83d 6fc0 e63d e631 15be f18d dabd
00000090: cd7d a6bd b0e9 70bd 94e9 2ebe b636 f8bd
000000a0: 5f56 abbc 275e 3cbd 57ce 593d 8dd5 103d
000000b0: 09c4 bcbd 6504 0c3d baa8 5a3d e2d0 03be
000000c0: ca02 963e c5b4 363e 665a fdbd 8ba4 653e
000000d0: ed52 5f3e 15ac 3abe 56f0 7cbe 2a30 bfbd
000000e0: d9d1 1f3d dc08 2b3d bcc3 53be 16ba 05be
000000f0: 167d f13c 74be 67bc 1840 103e 5f20 53be
00000100: 6645 2c3e 5dae 4bbe 0b50 c03d 81ac e8bd
00000110: 8fb0 103e ba92 3bbe 1aba b6bd 66ba af3d
00000120: d03a ef3e 1b32 473e 53b7 823d 55bf a93c
00000130: da94 3c3e eee0 823d c50f 75bb b400 e53d
00000140: 067a ce3c aacc 8dbe e12b 9bbd d8b4 573d
00000150: f97a e5bd bcaa 20be d2e0 893c 6770 373e
00000160: 4e41 433e dbf0 8cbc 1b6c 1bbd 4975 303d
00000170: 809d 273d 07f2 9cbd c981 053e 429b 073e
00000180: 19d6 8c3e 720b 8dbc cbe7 393e db18 c8bd
00000190: edd3 5f3e 40c5 bbbd dc76 e0bd ea2e eebd
000001a0: 8599 42bd feac c73d 7166 233e 5841 c3ba
000001b0: 2a8a ac3c 498b 4fbd 832e c83d bf76 8d3c
000001c0: cf1f 06be 4fb7 023b e055 59bd 0f4b e63d
000001d0: 86eb 823d 6914 2a3e d7ab 5b3d 1f94 203e
000001e0: 8824 473c 6b87 b8bd 618d 4a3e e161 00be
000001f0: a69f 6b3e f9ad b6be 3f40 053c 3ff1 09be
00000200: 706e 90bc ad19 0fbd 7754 d23d 0763 63be
00000210: a038 de3d 7b23 02be c44e 143e a01c f0bd
00000220: 0990 943c bd6b e93d bdfe c4bd aaa1 0ebe
00000230: ce59 5fbd d8a3 3d3e bf81 f63b 935d bf3d
00000240: 7312 8ebd 1fa0 993d a214 a53d d286 c53d
00000250: 60b7 03be d564 c13d 8de1 3cbe 00e1 e0bd
00000260: 74b5 b9bd ae0c 723e 8871 f33d 9d7f 9ebd
00000270: dc0f ba3d ed42 19be ac2b 313d 585b 7abc
00000280: e41c e33d ecba cf3d 7a1a 11be 3323 d13d
00000290: e92f 283e f7e9 f2bd 2bd4 1f3e de86 c23d
000002a0: 119a bbbd c2b5 a2be 21c2 8abc de96 32be
000002b0: 7f97 1b3e 8dcb aebe fd2f 9bbe a96f d23d
000002c0: eeed 233e 75d0 373e 4cba 623d c758 bb3c
000002d0: bb08 5e3d aa23 29be cf92 6d3d 10eb 75be
000002e0: e388 f1bd a2a8 c7bd 597b 0d3d 9ce2 86be
000002f0: d072 89be fad0 953d 5129 953d 53b2 31bb
00000300: b783 c53b 6d7f a5bd 817a 293e 4cc8 683e
00000310: 5596 46bd c6f4 acbd 3ced 673e 654a ecbc
00000320: e677 17be f486 53be 3478 ad3d a6f4 c53d
00000330: 3227 6dbb 65d5 84bd afdb 4bbe 196f bb3c
00000340: 2c29 17be de38 8c3c 1c40 a93d 1630 eb3d
00000350: 9ac0 8b3d 80e9 98bd 3f61 1ebe c22f 98bd
00000360: cc2e 603b 7c86 56be d0fd 85bd b093 f7bc
00000370: 62a7 67be ab22 0b3f b969 06be fffd ffbe
00000380: 22dd 283e 8a00 33bd e1dd 043e 507f 24be
00000390: 2d44 8fbe b0d2 87be bdec 02be 3391 e2bd
000003a0: 135a 19be c098 513d e023 c2bd 871f 003e
000003b0: 4dcb a5bd 1162 50be a116 f83d 017a 91bd
000003c0: deef c93d 4281 083d edc6 473d ed9c db3d
000003d0: a2a5 043d 8cfc 7dbe 4724 26be e274 6d3b
000003e0: cead 473e 9921 61be f1c9 e7bd 4d8d 8fbe
000003f0: 61a5 48be 34c1 dfbd 6ab1 47be 8793 8abd

net.0.bias f4 [50]
0.19277662 0.24111897 0.09864275 0.32223842 0.107213624 -0.03537586 -0.084961906 -0.12129696
-0.15488273 -0.022188246 0.12282652 -0.13895173 0.07407194 -0.06204569 -0.1185265 -0.084692195
-0.09757186 -0.2750284 0.21759574 -0.20684603 -0.2668162 -0.011416464 0.021480799 -0.020955838
0.071212694 0.073563434 0.018652845 -0.043219067 -0.04966923 0.013070815 0.10993551 0.06739455
0.28113204 0.14174427 -5.9005877e-05 -0.11867007 -0.16771714 -0.26548144 0.12622268 0.2581356
-0.36871463 -0.015145225 -0.0387073 0.08401422 -0.033089295 0.048076075 0.020731833 -0.22769329
-0.010676628 0.17416595
00000000: 3c67 453e e4e7 763e 3605 ca3d 6ffc a43e
00000010: d192 db3d 47e6 10bd 8200 aebd 8a6a f8bd
00000020: 9499 1ebe 20c4 b5bc 788c fb3d 5d49 0ebe
00000030: 07b3 973d 9f23 7ebd 06be f2bd 1a73 adbd
00000040: c1d3 c7bd 86d0 8cbe 6bd1 5e3e 72cf 53be
00000050: 229c 88be 1f0c 3bbc 80f8 af3c 94ab abbc
00000060: f6d7 913d 6da8 963d dacd 983c 7a06 31bd
00000070: f671 4bbd f926 563c de25 e13d 2706 8a3d
00000080: 8af0 8f3e 6925 113e 147d 77b8 4b09 f3bd
00000090: 0bbe 2bbe 2fed 87be 8540 013e 592a 843e
000000a0: 2ac8 bcbe ae23 78bc 8c8b 1ebd a60f ac3d
000000b0: a488 07bd 6beb 443d ced5 a93c 6e28 69be
000000c0: 06ed 2ebc 8f58 323e

net.2.weight f4 [50, 50]
0.051583204 -0.08704372 -0.036183737 -0.04013263 -0.05546193 -0.091932096 -0.1380911 0.04687809
-0.1606391 0.13785873 0.00087077304 0.074063964 0.13038827 -0.14117657 -0.12304911 -0.06743975
0.057411056 0.11149462 0.1458225 -0.0050688703 0.025108207 -0.047028493 -0.0063361973 0.09661233
0.022364154 0.0151419155 0.0037868049 -0.11016856 -0.026212273 0.09394748 -0.0016443931 -0.00612299
0.16183758 0.11320113 -0.07556742 -0.08787771 -0.042854942 -0.055572778 0.077224955 0.23718439
-0.022905516 0.11953965 0.036113966 0.1302503 -0.077879496 -0.11348961 0.047841128 -0.090810955
-0.0410399 -0.1864521 -0.1775902 -0.08355352 -0.14213254 0.012896004 0.019109262 0.014742065
-0.013948407 -0.17650682 -0.026500797 0.26831526 -0.12757249 0.10359794 -0.12118582 -0.04373285
-0.012343905 0.19164258 0.096094884 -0.05330421 -0.018017752 0.09654473 -0.19219346 0.01541566
0.05013458 0.014719351 -0.11082833 -0.014862883 0.035150737 0.20956194 -0.095444076 0.027335765
0.116369344 0.10348019 0.055865504 0.12285534 -0.08714428 -0.01151115 -0.010979602 0.01861013
0.08738026 0.27464247 0.19031909 0.016378408 0.07310987 0.028222615 0.008142146 0.089664094
-0.098817006 -0.077355444 0.016893065 -0.116657615 -0.15101837 -0.010955332 -0.12300556 -0.15678848
-0.10811074 -0.0038072614 0.05857373 -0.015642788 0.049615163 0.11974309 -0.23301516 0.0132333115
-0.19807197 0.05162232 -0.10801054 0.13633268 -0.19979675 0.052917387 -0.068332456 0.070960775
0.02833895 0.17151634 0.019184627 -0.032803766 0.09103884 0.15269181 0.03127855 -0.010715504
-0.025579588 0.14262941 0.08127752 0.11400852 -0.24659131 0.12990217 -0.14501655 -0.028935803
0.05909029 -0.11491954 -0.19305392 0.017940333 -0.09442982 0.11007029 0.13250665 0.1421144
0.046243664 0.11507042 -0.10563113 -0.24566416 -0.076419726 -0.018619927 -0.07657596 0.025682518
0.029949542 -0.18524675 -0.16065255 0.088786215 6.235054e-05 0.17598401 -0.020662261 -0.11470837
0.13883093 0.18396772 -0.11769895 0.08110931 -0.05122517 0.013435988 -0.07609196 0.07020997
0.019382395 0.21360302 0.017889267 0.03815867 -0.0014319125 0.033946626 -0.21766847 -0.15864892
-0.06964202 -0.06147403 -0.021658106 -0.076314814 0.12380365 0.051821336 -0.10776349 -0.08421419
0.016568484 -0.0024061676 0.025163151 0.026794108 -0.07101809 -0.0015780099 0.022683645 -0.15203758
-0.09370807 0.12832522 -0.15744036 0.01827717 -0.04502478 0.0019781122 -0.044074938 -0.107022814
0.12556617 -0.012458143 0.15503629 -0.06887911 0.14236668 0.039798662 -0.03301038 0.044994056
0.08941371 -0.12329904 0.11079142 0.116814025 0.064743966 0.049686957 0.14051288 -0.11325007
0.19114223 -0.0726085 0.09784549 -0.04746144 0.06914516 -0.04373778 0.02767418 -0.116722755
0.09095951 0.081047274 -0.028622327 0.102334775 0.028728068 0.045046087 -0.044163723 0.0275898
-0.011403977 -0.15010753 0.13519055 0.04680832 -0.013708124 0.08269856 0.006458248 -0.07250836
-0.05093731 0.08449899 0.05890603 0.01197485 0.14015944 0.09465655 -0.032840077 0.0022110606
0.04004949 -0.12026099 0.15048756 -0.0030904855 0.16748211 0.10747299 0.12904586 0.13317792
00000000: e948 533d fa43 b2bd 6635 14bd 1d62 24bd
00000010: 0c2c 63bd e546 bcbd c167 0dbe 3d03 403d
00000020: 947e 24be d72a 0d3e 9744 643a d9ae 973d
00000030: 8184 053e 9790 10be 2c01 fcbd da1d 8abd
00000040: db27 6b3d 4b57 e43d 7e52 153e c418 a6bb
00000050: baaf cd3c f3a0 40bd e09f cfbb afdc c53d
00000060: 0835 b73c cc15 783c 0b2c 783b 0ea0 e1bd
00000070: 1fbb d6bc 8967 c03d ad88 d7ba 5da3 c8bb
00000080: c0b8 253e fed5 e73d 17c3 9abd 3bf9 b3bd
00000090: aa88 2fbd 48a0 63bd 1e28 9e3d 77e0 723e
000000a0: 59a4 bbbc 34d1 f43d 3dec 133d 5660 053e
000000b0: 497f 9fbd 3e6d e8bd 0ff5 433d 18fb b9bd
000000c0: 7419 28bd 4ded 3ebe 35da 35be 1c1e abbd
000000d0: 318b 11be c349 533c 078b 9c3c b488 713c
000000e0: dc87 64bc 34be 34be 3318 d9bc 9e60 893e
000000f0: 5da2 02be 282b d43d 4530 f8bd 3821 33bd
00000100: 173e 4abc f43d 443e 65cd c43d 8455 5abd
00000110: f799 93bc 3eb9 c53d 5dce 44be f791 7c3c
00000120: eb59 4d3d 6f29 713c f7f9 e2bd 7383 73bc
00000130: 38fa 0f3d 6897 563e 2f78 c3bd 41ef df3c
00000140: 0d53 ee3d 6ced d33d 3ad3 643d 959b fb3d
00000150: b378 b2bd 4399 3cbc cae3 33bc 4574 983c
00000160: 6cf4 b23d f09d 8c3e 02e3 423e 032c 863c
00000170: a1ba 953d 1d33 e73c a366 053c cfa1 b73d
00000180: 9260 cabd 886c 9ebd 5363 8a3c 30ea eebd
00000190: 8fa4 1abe fe7d 33bc 57ea fbbd 298d 20be
000001a0: 2a69 ddbd 3f83 79bb 02eb 6f3d 4e25 80bc
000001b0: 4539 4b3d dd3b f53d 879b 6ebe 88d0 583c
000001c0: 61d3 4abe ed71 533d a134 ddbd cb9a 0b3e
000001d0: 8597 4cbe e7bf 583d e3f1 8bbd e253 913d
000001e0: 1627 e83c fba1 2f3e 1429 9d3c 3e5d 06bd
000001f0: 9272 ba3d 3e5b 1c3e f01d 003d 1590 2fbc
00000200: 498c d1bc 720d 123e d474 a63d 4d7d e93d
00000210: 6f82 7cbe 1305 053e 387f 14be c70a edbc
00000220: a908 723d f05a ebbd edaf 45be 9bf7 923c
00000230: 6c64 c1bd 886c e13d d3af 073e 7086 113e
00000240: ff69 3d3d 0aaa eb3d 2255 d8bd 638f 7bbe
00000250: f281 9cbd d188 98bc dbd3 9cbd 2564 d23c
00000260: be58 f53c 53b1 3dbe 1a82 24be 8cd5 b53d
00000270: 31c2 8238 2735 343e e743 a9bc 39ec eabd
00000280: b229 0e3e 0962 3c3e 260c f1bd a31c a63d
00000290: 7cd1 51bd 9e22 5c3c 1ad6 9bbd 3fca 8f3d
000002a0: d4c7 9e3c c0ba 5a3e 838c 923c 444c 1c3d
000002b0: 03af bbba 9e0b 0b3d 7ce4 5ebe dd74 22be
000002c0: 7aa0 8ebd 31cc 7bbd 576c b1bc f14a 9cbd
000002d0: c58c fd3d 9c42 543d 1bb3 dcbd 7d78 acbd
000002e0: a1ba 873c cbb0 1dbb f422 ce3c 517f db3c
000002f0: ef71 91bd 3ad5 ceba 0dd3 b93c bdaf 1bbe
00000300: 04ea bfbd b067 033e 0c38 21be 01ba 953c
00000310: e76b 38bd 37a3 013b ec87 34bd c72e dbbd
00000320: 6b94 003e 3d1d 4cbc d5c1 1e3e 7e10 8dbd
00000330: 92c8 113e ec03 233d e435 07bd b04b 383d
00000340: 891e b73d 3584 fcbd 9de6 e23d 313c ef3d
00000350: 7c98 843d 8d84 4b3d 9ce2 0f3e a7ef e7bd
00000360: caba 433e c4b3 94bd 3763 c83d ed66 42bd
00000370: fa9b 8d3d 6326 33bd f6b4 e23c 570c efbd
00000380: fb48 ba3d 1dfc a53d 5f79 eabc e594 d13d
00000390: 2057 eb3c 3f82 383d 05e5 34bd 0104 e23c
000003a0: bfd7 3abc cab5 19be 646f 0a3e 15ba 3f3d
000003b0: 0a98 60bc dd5d a93d b69f d33b 437f 94bd
000003c0: a4a3 50bd ce0d ad3d 7347 713d 2932 443c
000003d0: f585 0f3e 4bdb c13d 5183 06bd 71e7 103b
000003e0: ef0a 243d 654b f6bd 6919 1a3e be89 4abb
000003f0: 6e80 2b3e cd1a dc3d 9924 043e cb5f 083e

net.2.bias f4 [50]
0.22347131 0.04978725 -0.020086668 -0.1780159 0.02568395 0.13986371 0.032169763 0.1642226
-0.030689 -0.0063334345 0.06697836 0.14755282 -0.06678341 -0.180819 0.25115067 0.081858866
-0.018643199 0.031267896 0.12382624 0.105651915 0.0006706709 0.22247963 -0.10590698 -0.15718982
-0.16585173 -0.052621573 0.18278545 -0.16284025 0.19031757 0.06187875 -0.057926916 -0.08434285
-0.029794406 -0.039319646 0.1331362 0.048521183 -0.10619999 -0.03354013 -0.027887836 -0.10941895
0.08226471 0.14095312 -0.0965185 0.15924206 0.0154007245 -0.0033001744 0.031604134 -0.032963026
-0.00075356115 0.01398349
00000000: aad5 643e b7ed 4b3d cc8c a4bc cd49 36be
00000010: 2667 d23c 6f38 0f3e 71c4 033d f829 283e
00000020: 7f67 fbbc b388 cfbb f32b 893d 1618 173e
00000030: bec5 88bd 9e28 39be d296 803e 9fa5 a73d
00000040: 9fb9 98bc c412 003d 9d98 fd3d 0860 d83d
00000050: f6cf 2f3a b3d1 633e c2e5 d8bd 5ef6 20be
00000060: 09d5 29be b889 57bd 1c2c 3b3e 98bf 26be
00000070: 9ce2 423e 9274 7d3d c644 6dbd f2bb acbd
00000080: 6613 f4bc a30d 21bd db54 083e 26be 463d
00000090: 617f d9bd 6061 09bd 0875 e4bc 0b17 e0bd
000000a0: 667a a83d 0456 103e 7eab c5bd 5a10 233e
000000b0: 5253 7c3c bd47 58bb 5673 013d 3d04 07bd
000000c0: a28a 45ba 021b 653c

net.4.weight f4 [50, 50]
0.09722834 0.1297851 -0.04988891 0.052426483 0.07699108 -0.07296294 0.1157847 -0.060830187
-0.041251104 0.0019001774 0.028645884 -0.1381489 0.123526484 0.00585546 0.14631991 0.037480574
0.1827315 -0.045518037 -0.083530515 -0.11725173 -0.11504025 0.02060816 0.006193252 0.09441893
-0.064949736 -0.033454735 -0.047336157 0.04098319 -0.014344165 0.0035054446 0.053775754 -0.09914028
-0.18652609 -0.043708406 -0.05088878 -0.075532705 -0.046818737 0.042525057 0.09162861 -0.105087824
-0.18796644 -0.033210598 -0.005452126 -0.058348343 -0.08027923 0.0888218 -0.066987306 -0.12908858
0.0020503453 0.115620576 -0.13070346 -0.032273803 -0.09140837 -0.00071028975 0.15979385 0.009668601
-0.014584296 0.074893795 0.13251726 -0.07150678 0.006743916 -0.067171834 -0.10838861 0.03027764
-0.08161957 -0.1526613 -0.0070037963 -0.13329996 -0.1268731 -0.078636736 -0.08883588 0.027548073
-0.14948164 0.08529273 0.07154614 -0.07624358 0.0024016385 0.15283073 0.042147398 0.061853554
0.12351069 -0.0885701 -0.014827676 -0.124227464 0.016447192 0.13623165 0.15830632 0.0027178528
0.120527625 -0.067073934 0.06624754 -0.073407 0.071544215 0.043758262 0.116386496 -0.0580097
0.041134957 0.023408407 0.065685 -0.09256395 0.01601416 -0.10485647 0.15567474 -0.02768047
-0.08524765 -0.008315647 0.09389881 0.12786645 0.09240873 0.19337033 -0.0021289536 0.057566807
-0.02457803 0.031947967 0.13665248 -0.09349032 -0.0031455422 -0.049830772 0.10282997 0.013175686
-0.13051529 0.16314016 0.06576832 -0.119706154 0.13760868 0.050989255 -0.06958337 -0.11853645
-0.03324519 -0.14042011 -0.160253 0.026652394 -0.06580737 -0.009721486 -0.1129461 0.08408854
-0.14058372 0.057118587 -0.16608617 -0.061012827 -0.14426316 0.10352963 0.12749372 -0.008445222
-0.03888813 0.0753814 0.0642461 0.018237513 0.122289404 0.06991513 0.03154502 0.14293535
-0.084855326 -0.1243234 -0.0059302016 -0.102925725 -0.08441005 0.046352107 0.080688804 0.11721848
0.080290765 -0.055680517 0.054860283 -0.114676364 0.08735259 0.20601803 -0.02794778 0.1034512
-0.11212317 -0.010588949 0.033051714 0.033593096 0.24421003 -0.13461822 -0.017702995 -0.008211692
-0.019099845 -0.020326884 -0.14614755 0.08637533 -0.12116912 0.1440024 -0.066087715 0.16409136
-0.12608737 0.016469277 -0.16403466 -0.18053341 0.0023045058 -0.15574528 -0.10166289 0.030119367
-0.033295494 -0.21646321 0.20936845 -0.123203404 0.035615698 0.1539494 -0.115923636 -0.006779427
0.067766234 -0.06745081 -0.041275673 -0.18383251 0.025943661 0.0383434 0.06412055 0.10550531
-0.013006759 0.044490278 0.08033552 -0.052090235 0.07581874 -0.20420939 0.16305822 0.10107089
0.009502536 0.07595604 0.027694305 -0.0144926915 -0.058488324 0.11157664 -0.06724704 -0.11206461
0.079523504 -0.19389968 0.11299816 0.08110948 0.11115089 -0.08833622 -0.10949395 -0.04422338
-0.13616942 -0.1764173 0.017463146 -0.14484559 0.016438216 -0.13238901 -0.017887553 -0.096841015
-0.064941496 0.02886157 -0.016782766 -0.08159014 0.025005348 -0.0765347 0.0794036 0.057819568
0.090960085 0.08441381 0.11342396 0.15933837 0.11538802 -0.010326247 -0.09227151 0.1126246
00000000: a71f c73d 63e6 043e 5058 4cbd 27bd 563d
00000010: 80ad 9d3d 986d 95bd 8720 ed3d 1329 79bd
00000020: ebf6 28bd 600f f93a c6aa ea3c e876 0dbe
00000030: 74fb fc3d 29df bf3b e3d4 153e 3b85 193d
00000040: f71d 3b3e 1f71 3abd 0c12 abbd ad21 f0bd
00000050: 399a ebbd 72d2 a83c c3f0 ca3b b65e c13d
00000060: 5e04 85bd d507 09bd 8fe3 41bd fddd 273d
00000070: ca03 6bbc 9abb 653b f743 5c3d 0f0a cbbd
00000080: b200 3fbe 9607 33bd c170 50bd e4b0 9abd
00000090: 01c5 3fbd c12e 2e3d c8a7 bb3d 4938 d7bd
000000a0: 467a 40be d607 08bd bfa7 b2bb acfe 6ebd
000000b0: 7069 a4bd 34e8 b53d a430 89bd cc2f 04be
000000c0: 165f 063b 7bca ec3d 21d7 05be 8931 04bd
000000d0: 5034 bbbd bd32 3aba 00a1 233e 0d69 1e3c
000000e0: f9f2 6ebc eb61 993d 9bb2 073e 2672 92bd
000000f0: 11fc dc3b 6391 89bd d9fa ddbd d008 f83c
00000100: 2928 a7bd 3e53 1cbe 1a80 e5bb c97f 08be
00000110: 06eb 01be 4c0c a1bd 96ef b5bd 7fac e13c
00000120: b711 19be f4ad ae3d c886 923d 9825 9cbd
00000130: cf64 1d3b a97f 1c3e c0a2 2c3d 275a 7d3d
00000140: 2cf3 fc3d 3e64 b5bd c8ef 72bc f86a febd
00000150: 43bc 863c 4f80 0b3e 0d1b 223e 011e 323b
00000160: 30d7 f63d 0f5e 89bd caac 873d 6956 96bd
00000170: c685 923d dd3b 333d 0b5c ee3d 949b 6dbd
00000180: 217d 283d fdc2 bf3c db85 863d 2b92 bdbd
00000190: 2130 833c fdbe d6bd 3369 1f3e 27c2 e2bc
000001a0: 5296 aebd 5a3e 08bc 054e c03d 6cef 023e
000001b0: ca40 bd3d df02 463e ea85 0bbb 2ccb 6b3d
000001c0: dd57 c9bc dfdb 023d a1ee 0b3e da77 bfbd
000001d0: 7125 4ebb 5a1b 4cbd 8598 d23d d5de 573c
000001e0: cda5 05be 370e 273e 8ab1 863d 8028 f5bd
000001f0: 4ae9 0c3e 1cda 503d ba81 8ebd 3dc3 f2bd
00000200: 1c2c 08bd 4aca 0fbe 5d19 24be 1f56 da3c
00000210: 04c6 86bd de46 1fbc 4950 e7bd 9d36 ac3d
00000220: 2ef5 0fbe 2ef5 693d 7e12 2abe 96e8 79bd
00000230: b9b9 13be 5807 d43d b78d 023e d45d 0abc
00000240: 2949 1fbd 9061 9a3d 7693 833d d666 953c
00000250: de72 fa3d aa2f 8f3d 5a35 013d a55d 123e
00000260: a1c8 adbd 449d febd 2352 c2bb b9ca d2bd
00000270: 2ddf acbd b5db 3d3d 2c40 a53d 3e10 f03d
00000280: 7c6f a43d 4111 64bd 2db5 603d 71db eabd
00000290: eae5 b23d 64f6 523e bef2 e4bc 39de d33d
000002a0: d5a0 e5bd 457d 2dbc 3c61 073d ea98 093d
000002b0: 3212 7a3e 5cd9 09be df05 91bc 558a 06bc
000002c0: 4777 9cbc 9184 a6bc b4a7 15be 8de5 b03d
000002d0: 8427 f8bd 5d75 133e ff58 87bd 9107 283e
000002e0: 0c1d 01be 94ea 863c b4f8 27be c0dd 38be
000002f0: 3107 173b b17b 1fbe a234 d0bd e4bc f63c
00000300: db60 08bd 88a8 5dbe af64 563e 1152 fcbd
00000310: c4e1 113d e9a4 1d3e 5f69 edbd f525 debb
00000320: 06c9 8a3d a623 8abd ae10 29bd 973e 3cbe
00000330: cd87 d43c f80d 1d3d a351 833d 2b13 d83d
00000340: 4d1a 55bc 703b 363d f386 a43d 925c 55bd
00000350: db46 9b3d 441c 51be bcf8 263e 41fe ce3d
00000360: 86b0 1b3c d78e 9b3d 2bdf e23c c172 6dbc
00000370: 7491 6fbd 4b82 e43d d1b8 89bd 2182 e5bd
00000380: 38dd a23d a38d 46be 946b e73d ba1c a63d
00000390: 14a3 e33d 9fe9 b4bd 5d3e e0bd 9323 35bd
000003a0: ff6f 0bbe bda6 34be df0e 8f3c 6752 14be
000003b0: 70a9 863c fc90 07be eb88 92bc 9554 c6bd
000003c0: 0c00 85bd 196f ec3c 037c 89bc bb18 a7bd
000003d0: 04d8 cc3c 3abe 9cbd 5b9e a23d 36d4 6c3d
000003e0: 4849 ba3d 26e1 ac3d d24a e83d 9929 233e
000003f0: 8e50 ec3d 6b2f 29bc d8f8 bcbd baa7 e63d

net.4.bias f4 [50]
-0.1087829 0.052008156 -0.10820053 0.057864983 0.24807003 0.1265716 -0.17059556 -0.19163507
-0.05731842 -0.14040834 0.08467678 0.04416084 0.046815313 0.009872796 -0.039153066 0.09669889
-0.09739274 0.049077265 -0.16899928 -0.15053606 0.18394774 -0.14080347 -0.017167792 -0.10424673
0.115081996 -0.003605246 -0.0128305415 0.09771504 0.10674273 0.0018787313 0.071597345 -0.1879941
-0.021280112 0.068135194 0.057273537 -0.059060603 -0.08622086 -0.06494701 -0.15532148 -0.005838408
0.16340739 0.1474379 0.041342482 0.09429904 -0.057054516 0.049715903 -0.16505589 0.063911624
0.097362325 -0.12494926
00000000: 92c9 debd 8106 553d 3d98 ddbd d503 6d3d
00000010: 1206 7e3e fc9b 013e 9ab0 2ebe fc3b 44be
00000020: b8c6 6abd 34c7 0fbe 056b ad3d ffe1 343d
00000030: 6ac1 3f3d 82c1 213c f75e 20bd 110a c63d
00000040: d875 c7bd 3e05 493d 260e 2dbe 2026 1abe
00000050: cc5c 3c3e c92e 10be 78a3 8cbc 4f7f d5bd
00000060: 1cb0 eb3d fe45 6cbb 3137 52bc d31e c83d
00000070: ef9b da3d c33f f63a a1a1 923d 8681 40be
00000080: a153 aebc 778a 8b3d a897 6a3d 88e9 71bd
00000090: 9094 b0bd f002 85bd 980c 1fbe 1e50 bfbb
000000a0: 4454 273e f6f9 163e bc56 293d db1f c13d
000000b0: ffb1 69bd e7a2 4b3d 6904 29be 19e4 823d
000000c0: e665 c73d 66e5 ffbd

net.6.weight f4 [4, 50]
0.2978669 0.036255997 -0.022602947 0.15140063 0.09531344 0.13305132 -0.16076416 0.014462448
0.067936376 -0.099494725 0.09834084 0.0046251514 0.052740682 -0.10675816 -0.10558531 0.19034208
0.109864056 -0.16655682 -0.09821851 0.09762153 -0.22416726 0.20877019 -0.14454183 -0.090048596
-0.29129136 0.068993226 -0.029085072 -0.10515965 0.059100974 0.2854427 0.07264826 0.25595376
0.28274876 -0.080406114 -0.042082798 -0.5135398 0.09267113 -0.07580261 -0.16934215 0.039509483
0.1353051 0.13549215 -0.14895536 0.30150202 -0.13127393 0.13742338 -0.16498987 -0.015518227
-0.16652353 0.029946264 -0.013466313 -0.09454349 0.05611946 -0.08996545 0.2826293 0.13825993
-0.22147982 -0.36934525 0.17989777 -0.0981551 -0.02230227 0.036075354 0.0077498555 -0.09109469
-0.061227694 0.31072694 0.0046492163 0.060611587 -0.15322372 0.006581091 0.09494845 -0.06655137
-0.15728769 -0.060620364 0.025120612 0.31368333 -0.00391901 -0.08373796 0.25157392 0.08989724
0.061446548 -0.12014851 0.11911159 0.10258651 0.18689564 0.13495718 -0.1841375 -0.13164328
-0.08391653 0.16093807 0.2912571 0.1677547 0.17948861 0.059678387 -0.06397402 -0.226873
-0.13614908 0.09142168 0.13590744 -0.14819449 -0.081099786 -0.0837859 -0.112798914 0.25563514
0.08464139 -0.19359186 -0.047889773 -0.0435305 -0.25617054 0.042220786 0.068528436 -0.13124616
0.20049436 0.32584333 0.14471197 0.24914865 -0.14069365 -0.101629406 -0.05408988 -0.31561598
0.19051266 -0.19828372 0.00059617043 -0.19669323 0.09068494 -0.32415497 0.04144062 0.16115418
-0.014667945 0.118349366 0.17663907 -0.29772708 -0.07957944 0.15183477 0.101189055 0.23964006
-0.051911596 -0.2195424 -0.011704076 -0.06924259 0.17866254 0.2740709 -0.17877091 -0.19852999
0.03518177 0.11580524 -0.12096763 -0.18076147 0.020115292 0.040268607 -0.046029776 0.14660335
-0.20083135 -0.33282498 -0.2467622 -0.08376013 0.14909518 -0.01755225 -0.051802825 0.053369995
-0.112493046 -0.16707967 -0.07997417 0.051972315 0.0856416 -0.1290297 -0.24862838 0.062096063
-0.12728421 -0.37690908 -0.094038054 0.03944532 -0.043523848 0.19785506 0.056098755 -0.11587782
0.054918982 -0.00047821586 0.092863835 -0.08672531 -0.15074944 -0.19683996 -0.15875383 0.040902246
-0.014828799 0.32273453 0.089105524 0.15456931 -0.15529563 -0.049764946 -0.2920311 -0.04624983
-0.10303467 -0.065183096 0.19578409 0.18248038 0.033089563 -0.08068188 -0.21783791 0.006003685
00000000: 0382 983e 2b81 143d d129 b9bc c408 1b3e
00000010: b133 c33d 9b3e 083e 5c9f 24be e7f3 6c3c
00000020: 3a22 8b3d e4c3 cbbd ec66 c93d 958e 973b
00000030: 9d06 583d 06a4 dabd 1c3d d8bd 09e9 423e
00000040: 6800 e13d df8d 2abe c926 c9bd cced c73d
00000050: 1a8c 65be dac7 553e c602 14be 666b b8bd
00000060: 2424 95be 524c 8d3d d143 eebc f15d d7bd
00000070: dd13 723d 8c25 923e 9cc8 943d 5f0c 833e
00000080: 72c4 903e f6ab a4bd 035f 2cbd 5877 03bf
00000090: 5dca bd3d 663e 9bbd 0768 2dbe b2d4 213d
000000a0: 6c8d 0a3e 74be 0a3e c187 18be 795e 9a3e
000000b0: ac6c 06be b7b8 0c3e 1bf3 28be 2940 7ebc
000000c0: 2585 2abe de51 f53c cfa1 5cbc 04a0 c1bd
000000d0: 85dd 653d ce3f b8bd cab4 903e 0394 0d3e
000000e0: 9bcb 62be d21a bdbe 1f37 383e 8b05 c9bd
000000f0: 40b3 b6bc c0c3 133d 80f2 fd3b da8f babd
00000100: e4c9 7abd 9a17 9f3e 7458 983b db43 783d
00000110: aee6 1cbe 31a6 d73b 5574 c23d 164c 88bd
00000120: 0610 21be 0f4d 78bd bec9 cd3c 1a9b a03e
00000130: 0a6b 80bb cf7e abbd 4cce 803e 0b1c b83d
00000140: 60af 7b3d 6c10 f6bd c7f0 f33d e018 d23d
00000150: 9261 3f3e 3732 0a3e 8a8e 3cbe 7fcd 06be
00000160: 6edc abbd f3cc 243e a71f 953e e3c7 2b3e
00000170: ddcb 373e 5371 743d d004 83bd 6551 68be
00000180: aa6a 0bbe 4a3b bb3d 522b 0b3e 4cc0 17be
00000190: a517 a6bd f197 abbd 1e03 e7bd 9ce2 823e
000001a0: 7758 ad3d f23c 46be 1128 44bd 0a4d 32bd
000001b0: c928 83be b4ef 2c3d a358 8c3d 6565 06be
000001c0: 654e 4d3e f0d4 a63e 602f 143e d320 7f3e
000001d0: ff11 10be 1423 d0bd 5a8d 5dbd 6b98 a1be
000001e0: c015 433e e30a 4bbe 5248 1c3a f369 49be
000001f0: 07b9 b93d a4f7 a5be a4bd 293d 9a05 253e
00000200: d251 70bc 2761 f23d dfe0 343e af6f 98be
00000210: 8cfa a2bd 937a 1b3e 353c cf3d 3464 753e
00000220: 41a1 54bd b9cf 60be 74c2 3fbc 0fcf 8dbd
00000230: 50f3 363e 0553 8c3e b90f 37be 724b 4bbe
00000240: c21a 103d 4c2b ed3d e0bd f7bd 8919 39be
00000250: d3c8 a43c b2f0 243d b889 3cbd 301f 163e
00000260: bca6 4dbe 0968 aabe 3baf 7cbe 6e8a abbd
00000270: 68ac 183e bcc9 8fbc 332f 54bd 7f9a 5a3d
00000280: c162 e6bd ef16 2bbe 7fc9 a3bd ece0 543d
00000290: dd64 af3d 5d20 04be 7098 7ebe 7158 7e3d
000002a0: cb56 02be 3afa c0be 0697 c0bd 6a91 213d
000002b0: 1046 32bd 849a 4a3e cfc7 653d 5a51 edbd
000002c0: baf2 603d 0cb9 fab9 652f be3d 0a9d b1bd
000002d0: 105e 1abe 6a90 49be 5d90 22be 1d89 273d
000002e0: 7ef4 72bc 763d a53e f57c b63d 6b47 1e3e
000002f0: d105 1fbe 54d6 4bbd 1a85 95be 7670 3dbd
00000300: d703 d3bd b77e 85bd a07b 483e 23dc 3a3e
00000310: ec88 073d 8b3c a5bd e710 5fbe 8fba c43b

net.6.bias f4 [4]
-0.12044083 0.39169222 0.13045079 -0.050748214
00000000: afa9 f6bd e28b c83e e494 053e 5cdd 4fbd

net.0.weight f4 [50, 24]
0.069138065 -0.238404 -0.48275542 -0.0990098 -0.1120806 0.06228045 0.06851813 0.45853433
0.03313572 -0.121679544 0.0937501 -0.13477652 0.1225862 0.16254795 -0.0047668084 0.120743565
0.20326276 -0.12163292 0.064610146 0.057755757 0.07921282 -0.035349917 -0.19727212 -0.16915281
0.00013818558 0.29158673 -0.08664555 0.5178039 -0.25014287 -0.032692075 0.0074174195 -0.15519564
0.08725167 -0.11296316 0.08992187 0.24347478 0.037850488 0.037674353 -0.258061 -0.037735064
0.04756249 -0.30734012 -0.084873274 -0.17899172 -0.08323681 -0.28094384 -0.08912569 -0.24414624
0.060232308 0.23770745 -0.04649054 -0.049855337 0.17341527 -0.045443185 0.19801585 0.13185775
-0.0075212936 0.27336285 -0.16954924 0.17041643 -0.17402436 -0.02222172 0.17670856 0.34391186
0.11800566 0.22944304 0.41748977 0.360004 0.3668377 0.3666515 0.0994814 0.2615318
-0.2930595 -0.7099162 -0.30573705 0.08742373 0.039185155 0.112746544 -0.24731363 0.2082693
-0.008754739 -0.014163048 -0.13501763 -0.14352398 0.03955231 0.013415139 0.14238492 0.09047186
-0.116629004 0.08326987 0.053444456 -0.20753784 -0.20777409 0.12282959 0.0438738 -0.2987847
0.0538288 -0.26959065 0.012549339 0.00063010835 -0.19258685 0.08125343 0.040699165 0.15839009
-0.052111585 -0.13703415 -0.19078265 -0.2381931 -0.015789056 0.16155103 -0.23761785 0.112300724
-0.09695266 -0.19408429 -0.006819847 0.022769542 0.09181601 0.12666196 -0.036264632 0.15591864
-0.07656209 -0.11584468 -0.3505381 0.29714632 -0.1496191 0.21350858 -0.14834422 0.036412794
-0.21573877 -0.4204075 0.1195961 0.22786787 0.27988216 -0.13231103 -0.2047596 -0.4658022
-0.4010852 -0.40399882 -0.14200361 -0.34758613 -0.26808667 -0.10624821 -0.3625191 -0.32368204
0.2314672 -0.28518543 0.040007416 -0.012606596 0.15402044 -0.0372798 -0.18921727 -0.086165726
-0.3590133 -0.3053974 0.20448734 0.18285018 0.13268417 -0.18656777 -0.3116212 -0.15742166
-0.15772916 -0.04502798 -0.3324454 -0.10446368 -0.25409916 -0.1989454 -0.2592178 -0.32209143
-0.39716738 -0.8564189 -0.4102665 -0.08736971 -0.19466454 0.19306226 -0.24706574 -0.04194575
-0.13463743 -0.25419685 -0.14250034 -0.058881864 -0.12238258 0.05638271 -0.11641636 -0.06834943
-0.21594122 0.09413504 -0.029270723 -0.033375952 0.08558515 0.32835862 0.20072882 -0.09740203
-0.20282449 -0.22209083 0.2785543 0.045426693 -0.24525775 -0.125109 -0.23666622 0.0776327
-0.016890854 -0.25844508 -0.03957735 0.01798303 -0.080714226 -0.1788327 -0.30266953 -0.07409143
-0.12981193 -0.31964725 0.022365602 -0.28782848 -0.20155612 -0.18509525 0.22778745 0.02176547
0.14667727 0.14593793 0.35012102 -0.0055045057 0.18877907 -0.048487347 0.2733226 -0.1804044
0.09474557 0.0993151 0.004381331 0.05726928 -0.11329504 -0.03361624 0.39879018 0.4429595
0.15311193 0.28962314 0.26856983 0.097826 0.23649329 0.033149954 0.21125893 0.14701149
0.1102403 0.078099705 -0.1279713 0.18897098 -0.07315218 0.15645914 -0.109909296 0.037630245
-0.21939945 0.075002216 -0.034535952 0.009261037 -0.06497389 0.092649244 0.12659462 -0.09178188
00000000: 4298 8d3d 2e20 74be b82b f7be a6c5 cabd
00000010: 838a e5bd c919 7f3d 3c53 8c3d 03c5 ea3e
00000020: 52b9 073d 2033 f9bd 0d00 c03d db02 0abe
00000030: 790e fb3d f872 263e e332 9cbb 6748 f73d
00000040: 1d24 503e ae1a f9bd 5352 843d 4d91 6c3d
00000050: 553a a23d 13cb 10bd b401 4abe 6536 2dbe
00000060: e9e5 1039 db4a 953e 3973 b1bd cc8e 043f
00000070: ba12 80be 20e8 05bd d30d f33b 9beb 1ebe
00000080: 01b1 b23d 3b59 e7bd f528 b83d 7451 793e
00000090: 1d09 1b3d 6c50 1a3d 9220 84be 1590 1abd
000000a0: e3d0 423d af5b 9dbe 0ad2 adbd 9b49 37be
000000b0: 1078 aabd dfd7 8fbe 8887 b6bd 7901 7abe
000000c0: 27b6 763d 9569 733e dd6c 3ebd 1c35 4cbd
000000d0: c693 313e a222 3abd abc4 4a3e b805 073e
000000e0: 2f75 f6bb 37f6 8b3e 519e 2dbe a581 2e3e
000000f0: 7133 32be 530a b6bc 17f3 343e 3715 b03e
00000100: f4ac f13d 1ef3 6a3e 38c1 d53e 7252 b83e
00000110: 27d2 bb3e bfb9 bb3e e7bc cb3d 7fe7 853e
00000120: e50b 96be 11bd 35bf 9189 9cbe 360b b33d
00000130: 9d80 203d a9e7 e63d c93f 7dbe 8c44 553e
00000140: 0970 0fbc 210c 68bc 1042 0abe f3f7 12be
00000150: 9a01 223d 2ccb 5b3c 5acd 113e 4f49 b93d
00000160: 30db eebd 6589 aa3d 93e8 5a3d cd84 54be
00000170: bbc2 54be 158e fb3d 04b5 333d 4ffa 98be
00000180: 967b 5c3d c907 8abe be9b 4d3c db2d 253a
00000190: 7d35 45be 3368 a63d 2bb4 263d 0331 223e
000001a0: f572 55bd ae52 0cbe 875c 43be e4e8 73be
000001b0: 0d58 81bc a26d 253e 1852 73be ecfd e53d
000001c0: 1e8f c6bd 08be 46be 0679 dfbb 3187 ba3c
000001d0: 080a bc3d acb3 013e 398a 14bd 23a9 1f3e
000001e0: 96cc 9cbd fa3f edbd bb79 b3be 9023 983e
000001f0: c035 19be fea1 5a3e 8ce7 17be 9525 153d
00000200: a0ea 5cbe a73f d7be cdee f43d 3256 693e
00000210: b74c 8f3e 8b7c 07be 80ac 51be a07d eebe
00000220: 0a5b cdbe efd8 cebe 6569 11be cff6 b1be
00000230: a842 89be a998 d9bd 1a9c b9be a7b9 a5be
00000240: bd05 6d3e d303 92be d1de 233d e58b 4ebc
00000250: 89b7 1d3e b4b2 18bd 2cc2 41be a877 b0bd
00000260: 97d0 b7be 0c5d 9cbe 2165 513e 143d 3b3e
00000270: 5cde 073e 9f0b 3fbe d08c 9fbe 2533 21be
00000280: c183 21be 426f 38bd 4936 aabe 0ef1 d5bd
00000290: 4919 82be 58b8 4bbe 32b8 84be 2be9 a4be
000002a0: 8659 cbbe 453e 5bbf 730e d2be e4ee b2bd
000002b0: 2456 47be 1db2 453e cdfe 7cbe 4fcf 2bbd
000002c0: 65de 09be 1726 82be 9ceb 11be 1c2e 71bd
000002d0: b8a3 fabd 8ef1 663d b36b eebd c9fa 8bbd
000002e0: b21f 5dbe dfc9 c03d 28c9 efbc 39b5 08bd
000002f0: 4447 af3d 9f1e a83e db8b 4d3e b77a c7bd
00000300: 39b1 4fbe c76b 63be ab9e 8e3e 5711 3a3d
00000310: d924 7bbe 931c 00be a158 72be e5fd 9e3d
00000320: b05e 8abc ea52 84be dc1b 22bd 2651 933c
00000330: 804d a5bd eb1f 37be 80f7 9abe 3fbd 97bd
00000340: 6bed 04be cea8 a3be 1138 b73c 415e 93be
00000350: ba64 4ebe 9c89 3dbe 1d41 693e 804d b23c
00000360: 9132 163e c170 153e 1043 b33e 245f b4bb
00000370: 4d4f 413e ab9a 46bd f1f0 8b3e eebb 38be
00000380: f709 c23d b765 cb3d 4591 8f3b 3193 6a3d
00000390: 3b07 e8bd 2fb1 09bd 3a2e cc3e 96cb e23e
000003a0: 60c9 1c3e 7c49 943e fc81 893e ff58 c83d
000003b0: 4c2b 723e 3fc8 073d 4354 583e 2e8a 163e
000003c0: abc5 e13d bdf2 9f3d e90a 03be 9c81 413e
000003d0: cfd0 95bd d336 203e 2018 e1bd 2c22 1a3d
000003e0: 40aa 60be c39a 993d 9275 0dbd 9bbb 173c
000003f0: 0811 85bd e3be bd3d 05a2 013e 23f8 bbbd

net.0.bias f4 [50]
0.03314977 -0.083665885 0.46263275 0.07391407 0.016191049 -0.3616564 -0.32404158 -0.16697556
0.043865833 0.29492038 -0.24778649 -0.124955885 0.16125461 0.16179857 0.44692096 0.4776282
0.51929253 0.18768121 0.007474237 0.06432437 -0.32652444 0.01879631 0.09137168 0.20883013
-0.20868668 0.20606813 -0.032928947 0.031103576 0.16131729 -0.043163434 0.079606354 -0.115586154
0.38135996 0.21997692 0.57769126 0.09860723 -0.51342636 0.5227661 -0.11398539 -0.5521954
0.12142598 0.36505657 0.5089233 -0.36852923 -0.21566238 0.2532493 -0.0821049 -0.23825584
0.27667633 -0.14764477
00000000: 0ec8 073d 0559 abbd 33de ec3e 4360 973d
00000010: 17a3 843c 072b b9be c7e8 a5be a4fb 2abe
00000020: a9ac 333d ceff 963e bebb 7dbe dfe8 ffbd
00000030: ee1f 253e 86ae 253e d3d2 e43e af8b f43e
00000040: 5bf0 043f 812f 403e 72ea f43b 7fbc 833d
00000050: 362e a7be b8fa 993c 1321 bb3d 91d7 553e
00000060: f6b1 55be 8603 533e 81e0 06bd edcc fe3c
00000070: 5c30 253e 24cc 30bd a808 a33d 6fb8 ecbd
00000080: 9d41 c33e a141 613e 93e3 133f 96f2 c93d
00000090: e96f 03bf 00d4 053f 2c71 e9bd ae5c 0dbf
000000a0: 2fae f83d b2e8 ba3e cc48 023f ddaf bcbe
000000b0: 99d6 5cbe e4a9 813e 9d26 a8bd 57f9 73be
000000c0: 85a8 8d3e 3130 17be

net.2.weight f4 [50, 50]
-0.060738467 0.061858222 -0.016326087 0.3116046 -0.08961813 0.16970879 0.1862853 0.24274617
0.5849693 -0.073482305 0.0024666984 -0.11048795 -0.36440316 -0.034669798 -0.06630317 -0.30987337
-0.11852777 -0.1543351 0.11992027 0.08529178 0.100601815 0.07369868 0.22398606 -0.21484967
-0.00695342 -0.17576294 0.33892328 0.20369004 -0.16439675 0.16196495 0.52818394 0.37155324
-0.033485077 -0.53012055 -0.0835825 0.011828833 0.11957003 -0.031217923 -0.36555216 -0.031634323
-0.048680056 0.028643409 0.05074005 0.13365887 0.512706 -0.24645904 0.07348793 0.32146305
0.00691953 -0.16553606 0.07234876 -0.015081816 0.04527464 -0.007757653 0.034894723 -0.016546326
0.056665864 0.06158993 -0.030733835 -0.04807653 0.08818703 -0.12544557 -0.06058179 0.18801081
0.020808648 0.2683042 0.07797583 0.039955042 -0.13155732 0.042776804 0.021450555 0.052248247
-0.14803122 0.13511184 -0.024715584 0.15774678 0.14891206 0.2672703 0.23244913 0.0571517
-0.022769637 -0.06347367 0.13140917 0.0428031 0.18289107 0.09511981 -0.22914022 0.2584763
0.007558698 -0.104111336 -0.21167451 0.015255982 -0.017435528 -0.16826697 0.0025607455 0.10801534
-0.21638088 -0.21511167 0.10812045 -0.1416153 0.09460423 0.008896636 0.04753161 0.06642998
-0.055126287 0.09090944 0.113038935 0.067943685 0.115216464 0.17266989 0.029684896 0.10835617
-0.11284564 0.09279293 -0.10730533 0.026318071 0.075303465 0.14322844 -0.12811838 -0.08921348
0.051962193 0.24627319 -0.08632864 0.09087972 -0.01702749 0.061239578 0.063102596 0.16351451
0.14595583 0.0025210425 0.050302718 0.13795699 -0.024038116 -0.14575556 0.11536738 0.040206682
-0.18414494 0.08031068 -0.09573431 -0.16373046 -0.045246124 0.080304965 0.17107268 -0.29721007
-0.09883885 0.08524973 -0.15386355 -0.092329286 0.12490739 0.068545 -0.14006896 0.0014027914
0.116636515 0.05253172 0.19737603 -0.08226465 0.047430433 0.04046208 -0.07971125 -0.007298764
-0.025205592 -0.089229375 -0.063970216 0.03232672 0.1805964 0.010130027 0.12549007 0.18696569
0.14182968 0.06426423 -0.17670369 0.0067817727 0.06857414 0.0042898078 -0.2232291 0.09451742
-0.17722075 0.091056556 -0.20966397 0.20779654 -0.049222272 -0.13295163 0.09521545 0.21427988
0.12589085 0.038328443 -0.16081779 0.22042039 -0.039909467 -0.32541096 -0.001315409 0.09420248
0.11754046 -0.008452759 -0.10944627 0.0820091 -0.22415064 -0.04598111 0.031546023 -0.026975362
0.24659656 0.099437445 -0.24834485 0.08556455 0.04535745 0.0929982 0.32006273 0.08242327
-0.025755722 0.1059872 0.17928511 -0.1317422 -0.085672624 0.118531115 -0.063526034 0.16519406
-0.11791928 -0.099540986 -0.08316374 0.19751604 0.25483558 0.00010545921 0.14177988 -0.14547995
0.18674073 -0.014087458 -0.030050352 -0.07236987 0.25216448 -0.09940527 0.023989327 0.14240725
-0.25757292 -0.20061663 -0.25970006 -0.30021343 0.24548969 -0.0944782 0.047813285 0.16380677
-0.09294911 -0.2122637 -0.37868837 0.13997766 0.040774416 -0.084822424 0.11617001 -0.06552603
-0.31593192 0.112554654 0.057401758 0.20383143 -0.090559535 0.022538485 -0.069324896 0.07059605
00000000: e6c8 78bd 0c5f 7d3d 49be 85bc a38a 9f3e
00000010: b689 b7bd 24c8 2d3e 93c1 3e3e 7492 783e
00000020: 8cc0 153f e47d 96bd 55a8 213b 8247 e2bd
00000030: 0d93 babe eb01 0ebd f5c9 87bd b9a7 9ebe
00000040: b0be f2bd 050a 1ebe c298 f53d 75ad ae3d
00000050: 5308 ce3d 55ef 963d 9a5c 653e 8d01 5cbe
00000060: 84d9 e3bb 33fb 33be 5a87 ad3e 1f94 503e
00000070: 9f57 28be 24da 253e 1037 073f 3a3c be3e
00000080: a627 09bd fbb5 07bf 4d2d abbd b9cd 413c
00000090: 22e1 f43d bbbc ffbc a729 bbbe fe92 01bd
000000a0: bd64 47bd 95a5 ea3c ccd4 4f3d dfdd 083e
000000b0: b340 033f c25f 7cbe d780 963d ce96 a43e
000000c0: 3abd e23b 4982 29be 962b 943d b919 77bc
000000d0: e771 393d e933 febb c5ed 0e3d 298c 87bc
000000e0: 771a 683d b945 7c3d 86c5 fbbc e5eb 44bd
000000f0: 679b b43d ce74 00be 9c24 78bd e885 403e
00000100: e676 aa3c 2b5f 893e cbb1 9f3d e6a7 233d
00000110: f6b6 06be bb36 2f3d 13b9 af3c 4202 563d
00000120: 7f95 17be c25a 0a3e 5678 cabc 5f88 213e
00000130: 677c 183e a7d7 883e 2507 6e3e e717 6a3d
00000140: 6487 babc 7cfe 81bd 2090 063e 4e52 2f3d
00000150: cc47 3b3e 2dce c23d bca3 6abe 0157 843e
00000160: f4ae f73b 5338 d5bd 34c1 58be 3af4 793c
00000170: f4d4 8ebc 2d4e 2cbe 2ed2 273b 2637 dd3d
00000180: f392 5dbe 3c46 5cbe 416e dd3d 9a03 11be
00000190: ddbf c13d 32c3 113c 81b0 423d 710c 883d
000001a0: 1acc 61bd ba2e ba3d f580 e73d 0f26 8b3d
000001b0: 9cf6 eb3d 60d0 303e bd2d f33c d7e9 dd3d
000001c0: 9d1b e7bd 380a be3d e6c2 dbbd ff98 d73c
000001d0: b438 9a3d 7aaa 123e 7731 03be 8fb5 b6bd
000001e0: 4fd6 543d 0a2f 7c3e 12cd b0bd 261f ba3d
000001f0: 3c7d 8bbc 5ad6 7a3d ef3b 813d 5970 273e
00000200: 7275 153e 1338 253b 390a 4e3d 9944 0d3e
00000210: 95eb c4bc f240 15be bc45 ec3d c3af 243d
00000220: 7e90 3cbe ed79 a43d 5a10 c4bd f5a8 27be
00000230: 0054 39bd ee76 a43d ad2d 2f3e eb2b 98be
00000240: 066c cabd 6997 ae3d 688e 1dbe 2317 bdbd
00000250: 72cf ff3d 5261 8c3d 3d6e 0fbe dedd b73a
00000260: 20df ee3d 802b 573d f11c 4a3e 5e7a a8bd
00000270: 6a46 423d 91bb 253d a73f a3bd 782a efbb
00000280: f57b cebc e4bd b6bd d102 83bd 0669 043d
00000290: 43ee 383e 6af8 253c 7880 003e ef73 3f3e
000002a0: cd3b 113e f79c 833d d0f1 34be a239 de3b
000002b0: 9970 8c3d 8491 8c3b 2b96 64be 5992 c13d
000002c0: 5b79 35be dc7b ba3d 27b2 56be 9ec8 543e
000002d0: 4b9d 49bd 7924 08be 5100 c33d 2f6c 5b3e
000002e0: 88e9 003e 49fe 1c3d 6bad 24be e2b5 613e
000002f0: 1c78 23bd 449c a6be cd69 acba 3bed c03d
00000300: 0db9 f03d 717d 0abc 5e25 e0bd 63f4 a73d
00000310: bf87 65be b056 3cbd 6736 013d 6ffb dcbc
00000320: cf83 7c3e dca5 cb3d 1d4e 7ebe 773c af3d
00000330: bcc8 393d d775 be3d 43df a33e 88cd a83d
00000340: aafd d2bc d10f d93d 8496 373e 6de7 06be
00000350: 2175 afbd 71c0 f23d f019 82bd a228 293e
00000360: aa7f f1bd 25dc cbbd c051 aabd a541 4a3e
00000370: cf79 823e fb29 dd38 bf2e 113e b2f8 14be
00000380: f638 3f3e 15cf 66bc 282c f6bc a836 94bd
00000390: b41b 813e fd94 cbbd 4485 c43c 35d3 113e
000003a0: 99e0 83be 726e 4dbe 68f7 84be 93b5 99be
000003b0: a661 7b3e c97d c1bd ddd7 433d f6bc 273e
000003c0: 1a5c bebd a85b 59be 71e3 c1be 4e56 0f3e
000003d0: 1303 273d 61b7 adbd 8bea ed3d 8332 86bd
000003e0: d4c1 a1be 0e83 e63d 1b1e 6b3d 30b9 503e
000003f0: 4777 b9bd a1a2 b83c 36fa 8dbd a994 903d

net.2.bias f4 [50]
0.015105329 0.051443193 0.072765276 0.15000217 -0.24712501 -0.20798169 0.017447304 0.16838935
0.27002022 -0.10836793 -0.018213669 0.15471517 -0.08725663 0.316096 -0.10387484 -0.28298712
-0.2335845 0.022930032 0.1550078 0.28227225 -0.017931098 -0.020758629 0.17939778 -0.2516208
-0.0528577 0.0981545 -0.00737643 -0.08425726 -0.18357658 -0.18392645 0.44684342 -0.021203851
0.12827839 -0.04134388 -0.1124515 0.23810701 -0.11981111 -0.13972574 0.18555154 -0.07521783
0.03301255 -0.16152988 0.12837191 0.06218546 -0.015942315 -0.0048779147 0.21857084 -0.18321894
0.123797975 0.2318003
00000000: 587c 773c 19b6 523d f605 953d 2b9a 193e
00000010: 570e 7dbe 27f9 54be a6ed 8e3c 426e 2c3e
00000020: 1740 8a3e 01f0 ddbd d534 95bc a76d 1e3e
00000030: 9bb3 b2bd 56d7 a13e 55bc d4bd b0e3 90be
00000040: c630 6fbe c3d7 bb3c 5dba 1e3e fd85 903e
00000050: 3de4 92bc 000e aabc 0db4 373e 71d4 80be
00000060: 5181 58bd 3a05 c93d fbb5 f1bb 128f acbd
00000070: 80fb 3bbe 3757 3cbe a9c8 e43e b3b3 adbc
00000080: 695b 033e 3358 29bd f94c e6bd 53d2 733e
00000090: 875f f5bd 4414 0fbe 3901 3e3e ce0b 9abd
000000a0: 2b38 073d 1768 25be ed73 033e 2eb6 7e3d
000000b0: 7599 82bc ead6 9fbb 09d1 5f3e bf9d 3bbe
000000c0: cb89 fd3d 0f5d 6d3e

net.4.weight f4 [50, 50]
0.083669014 0.16208388 0.11027754 0.17527296 -0.17914987 -0.18492323 -0.21127295 0.020741101
0.21423171 -0.2558344 -0.1558188 0.25812837 -0.08183471 0.028990444 -0.11998915 -0.13909099
-0.2211421 0.2298108 0.16181318 0.15900102 -0.00085054385 -0.12328395 0.24580981 -0.2388417
0.08092135 -0.099942125 0.17323862 -0.16149773 -0.067595966 0.16503166 0.06359316 -0.051922634
0.023242122 0.031759143 0.060694393 0.010196762 -0.043997634 0.124563865 -0.17176798 -0.01566747
0.08260375 0.045622047 0.2016468 0.043821007 0.024923721 -0.018077 0.28992856 0.049554236
-0.098403774 0.15108268 0.079019785 -0.047008235 -0.00053834904 -0.18152305 0.03375714 0.11769349
0.086995274 0.06446789 -0.27739546 0.26715976 0.08844405 -0.13165963 0.13335349 -0.12676713
-0.10839141 0.12667933 0.059943214 -0.043479003 0.06142749 0.019547278 0.018090622 0.101269476
-0.2307495 0.19756044 -0.13529542 0.02981774 -0.21252206 0.11402721 0.101118036 -0.20518121
-0.13704994 -0.18615642 -0.13993156 0.053805478 -0.19683619 -0.15684031 0.021745019 0.004805158
0.1388325 -0.0011730281 0.03448578 -0.053197913 -0.20971063 -0.0086755585 0.0677205 0.021449083
-0.22875783 0.21732175 -0.099872075 -0.17655794 0.028424488 -0.012357993 0.22648928 0.14381537
-0.068691164 -0.16672127 -0.13017046 0.062026005 0.2764826 -0.1767708 -0.109433 0.3449894
-0.11766559 0.09312569 -0.13361217 -0.27126798 -0.24478564 -0.0043926598 -0.031861365 0.30863056
-0.25452453 -0.24855526 0.29123226 -0.30005777 -0.06753548 -0.14945318 0.01823484 -0.24525891
-0.111694455 -0.0012029707 0.30843806 0.19567189 0.16476406 -0.27979606 0.063553385 0.25702253
-0.06310621 -0.12294443 0.030034635 -0.057637144 -0.124013074 0.32256207 0.14155312 0.1537723
-0.047835346 -0.1487573 0.09012887 -0.17805201 0.05365265 0.16808186 0.17632796 -0.046554826
-0.15029061 0.008927999 0.004170529 0.24559747 0.2373678 -0.07570649 -0.18541719 0.21789424
-0.07139294 -0.30073857 0.0090117315 -0.18051516 0.24303949 0.00018608446 0.043795235 -0.19547355
-0.06815975 -0.17544322 0.30329928 0.101174064 -0.22873603 0.15536036 -0.11518127 0.24235465
-0.084356606 0.1835192 0.047513798 0.1009554 -0.32763612 -0.26312345 -0.12036351 0.22885676
0.13174352 -0.053804122 -0.04328388 0.17606282 -0.099193715 0.0063508134 -0.055939652 -0.47861022
0.034340467 0.0050067273 -0.13000138 -0.1404693 -0.11066243 0.23581389 -0.05176753 -0.04730043
0.05951088 0.19192286 0.13498864 0.19015197 -0.052713256 -0.27159753 -0.14292279 -0.07433349
0.20517468 -0.08306704 -0.014198372 0.082310714 -0.18288669 0.06188456 0.023477526 -0.17361374
0.0009250799 0.1531248 -0.03952043 0.06620402 -0.25089696 -0.29737997 0.18259321 -0.12660976
-0.111244015 -0.03866318 0.2582699 -0.02532275 -0.19754937 -0.02780948 0.330353 0.18492262
0.26162395 -0.24963701 0.09379029 0.16745798 -0.011208243 -0.13222627 -0.14409712 0.0008472552
0.1293026 0.11468837 0.025836539 0.18764825 -0.040359825 -0.07107067 0.27432597 -0.08292209
-0.04054925 0.13678725 -0.021352649 -0.17524834 -0.099043295 -0.06176785 -0.0033851664 0.11809189
00000000: a95a ab3d 51f9 253e 31d9 e13d c17a 333e
00000010: 1073 37be 845c 3dbe f057 58be 3ee9 a93c
00000020: 8f5f 5b3e bafc 82be f78e 1fbe 6729 843e
00000030: f598 a7bd 5e7d ed3c dfbc f5bd de6d 0ebe
00000040: 1373 62be 8653 6b3e 5bb2 253e 2ad1 223e
00000050: 08f7 5eba 4c7c fcbd 91b5 7b3e eb92 74be
00000060: 18ba a53d 75ae ccbd 7765 313e a95f 25be
00000070: c16f 8abd 0ffe 283e 213d 823d d4ac 54bd
00000080: 4366 be3c e015 023d af9a 783d 5210 273c
00000090: dd36 34bd 571b ff3d f2e3 2fbe 1159 80bc
000000a0: 282c a93d 2fde 3a3d 807c 4e3e a87d 333d
000000b0: d52c cc3c 3716 94bc 8471 943e 62f9 4a3d
000000c0: eb87 c9bd 6bb5 1a3e 20d5 a13d b58b 40bd
000000d0: fe1f 0dba 2ee1 39be ed44 0a3d 4909 f13d
000000e0: 942a b23d be07 843d c706 8ebe 2ac9 883e
000000f0: 2722 b53d c8d1 06be d18d 083e 3ecf 01be
00000100: 51fc ddbd 3ab8 013e 0487 753d 0a17 32bd
00000110: 649b 7b3d 9d21 a03c c932 943c 5f66 cf3d
00000120: 9949 6cbe 494d 4a3e e28a 0abe 5544 f43c
00000130: 629f 59be 1987 e93d f916 cf3d 061b 52be
00000140: d256 0cbe ca9f 3ebe 384a 0fbe 2263 5c3d
00000150: 6d8f 49be bf9a 20be 9c22 b23c 9674 9d3b
00000160: 1b2a 0e3e 4bc0 99ba f640 0d3d 0ee6 59bd
00000170: 62be 56be ee23 0ebc 0cb1 8a3d fdb5 af3c
00000180: 7e3f 6abe 9889 5e3e bb89 ccbd 9bcb 34be
00000190: 79da e83c 2e79 4abc ceec 673e 5644 133e
000001a0: f4ad 8cbd fbb8 2abe 684b 05be fb0e 7e3d
000001b0: 218f 8d3e 6803 35be 691e e0bd 73a2 b03e
000001c0: a8fa f0bd afb8 be3d a1d1 08be a3e3 8abe
000001d0: 16a9 7abe 4df0 8fbb 1081 02bd d304 9e3e
000001e0: 0a51 82be 4585 7ebe 651c 953e 2ca1 99be
000001f0: 0b50 8abd 410a 19be 3b61 953c 2725 7bbe
00000200: 10c0 e4bd 00ad 9dba 98eb 9d3e 365e 483e
00000210: e9b7 283e 6e41 8fbe 4728 823d 7598 833e
00000220: d43d 81bd 4aca fbbd 320b f63c ed14 6cbd
00000230: 91fa fdbd db26 a53e 4df3 103e 7c76 1d3e
00000240: ffee 43bd d553 18be 7c95 b83d 4453 36be
00000250: e2c2 5b3d a71d 2c3e 518f 343e 46b0 3ebd
00000260: c8e5 19be be46 123c efa8 883b e77d 7b3e
00000270: 8b10 733e 010c 9bbd 01de 3dbe ab1f 5f3e
00000280: 7636 92bd 68fa 99be f1a5 133c f7d8 38be
00000290: 58df 783e ab1f 4339 a262 333d 382a 48be
000002a0: 5797 8bbd 63a7 33be 0b4a 9b3e 5934 cf3d
000002b0: c739 6abe c916 1f3e 28e4 ebbd d12b 783e
000002c0: 28c3 acbd 75ec 3b3e d49d 423d b4c1 ce3d
000002d0: ecbf a7be 1eb8 86be 2581 f6bd 6d59 6a3e
000002e0: c6e7 063e b661 5cbd 704a 31bd d049 343e
000002f0: 1326 cbbd 7c1a d03b fa20 65bd 660c f5be
00000300: 97a8 0c3d 790f a43b 151f 05be 2fd7 0fbe
00000310: fca2 e2bd 3279 713e 310a 54bd 18be 41bd
00000320: aec1 733d 6d87 443e 763a 0a3e 33b7 423e
00000330: dbe9 57bd d50e 8bbe 5a5a 12be 283c 98bd
00000340: 5019 523e 0d1f aabd 4aa0 68bc 8592 a83d
00000350: a646 3bbe aa7a 7d3d f153 c03c cdc7 31be
00000360: 1081 723a bfcc 1c3e 2de0 21bd f995 873d
00000370: 9175 80be 3042 98be b7f9 3a3e fda5 01be
00000380: e7d3 e3bd 485d 1ebd f43b 843e a871 cfbc
00000390: 624a 4abe b5d0 e3bc 0724 a93e 5b5c 3d3e
000003a0: 93f3 853e d8a0 7fbe 2015 c03d 1b7a 2b3e
000003b0: c7a2 37bc 5366 07be 328e 13be 561a 5e3a
000003c0: e767 043e bce1 ea3d 26a7 d33c dd26 403e
000003d0: 5850 25bd 808d 91bd 7474 8c3e 0fd3 a9bd
000003e0: f816 26bd f511 0c3e c0eb aebc 4d74 33be
000003f0: 36d7 cabd 4900 7dbd abd9 5dbb 29da f13d

net.4.bias f4 [50]
0.06385615 -0.09697012 0.22130953 0.053526383 -0.036136772 -0.010885954 0.11390121 -0.06981271
0.03181342 0.04136499 0.061197095 0.0538514 0.014757435 0.21010841 0.06274551 0.32699463
-0.028644629 -0.15997833 -0.060349464 0.042751748 -0.0024792422 0.0029583224 0.06864252 -0.15319204
0.058560178 -0.04549386 -0.061307035 -0.13958542 -0.009557815 0.12845576 0.046383083 0.08474917
-0.09989352 -0.037160896 -0.09730118 0.34899414 -0.06567542 0.06420908 -0.043244865 0.08602483
0.09176833 -0.05394459 -0.19768043 -0.066566296 0.031852264 0.0443396 -0.12480993 0.044969857
0.09465592 -0.063787
00000000: 03c7 823d 4598 c6bd f79e 623e 7b3e 5b3d
00000010: 2704 14bd 005b 32bc 0a45 e93d f7f9 8ebd
00000020: ca4e 023d 566e 293d cea9 7a3d 4993 5c3d
00000030: 2bc9 713c a926 573e b880 803d d76b a73e
00000040: 24a8 eabc 5cd1 23be 0031 77bd 751c 2f3d
00000050: c87a 22bb 6ae0 413b 7394 8c3d 60de 1cbe
00000060: ccdc 6f3d c557 3abd 161d 7bbd 7bef 0ebe
00000070: 6298 1cbc e889 033e 30fc 3d3d f990 ad3d
00000080: f994 ccbd 0636 18bd d745 c7bd 5caf b23e
00000090: d680 86bd 0d80 833d 8721 31bd c92d b03d
000000a0: 09f1 bb3d 01f5 5cbd bd6c 4abe e953 88bd
000000b0: 8577 023d 719d 353d 599c ffbd 5032 383d
000000c0: f7da c13d c2a2 82bd
