outputs/bc_BipedalWalker-v3_500data_2000epochs/model.pth (torch, 29474 bytes, 9 tensors)

log_std f4 [4]
0.0 0.0 0.0 0.0
00000000: 0000 0000 0000 0000 0000 0000 0000 0000

net.0.weight f4 [50, 24]
0.23476711 -0.05266619 0.047603425 0.6814181 -0.05387432 0.25949597 -0.27644864 -0.37827614
0.030801719 -0.06000371 -0.1366871 0.39341477 -0.1956938 -0.28067076 -0.03798242 0.07989918
0.011634232 -0.16239291 -0.035504542 -0.028997393 0.12847455 0.12436634 0.14575523 0.14232986
0.061877057 0.058307745 0.034881886 0.50347 -0.035153773 0.15294981 -0.107085824 0.0993471
-0.14468814 -0.16161062 0.20829453 -0.5941552 0.02959886 0.011670909 0.16526802 -0.1222628
-0.15935752 0.10309642 -0.07554763 -0.041018084 0.029583931 -0.074101605 -0.077529795 0.042501792
0.060260203 -0.58668303 -0.066918604 -0.090816885 0.04640938 0.08886187 0.017794678 -0.05054316
-0.16489017 0.26144823 0.25396475 -0.054030374 -0.32987404 -0.13608043 0.19869646 0.075846344
0.0040381784 0.22379313 -0.066237584 -0.1284858 -0.08449732 -0.23936975 -0.119818255 0.10434956
-0.1666999 -0.56078225 0.080570705 0.29446226 -0.1943488 0.2005244 -0.14839269 -0.04521673
0.11914815 0.2540286 0.17021036 0.09091525 0.1883358 -0.11155466 -0.027817579 -0.17204373
0.0488339 0.023083255 -0.24459015 -0.20535596 -0.042463087 -0.2613003 0.001636976 0.15942833
0.060580175 -0.19703297 0.112326324 0.4827365 0.095370226 0.2504506 0.21004291 0.02938517
0.22953734 0.09263069 -0.13120289 -0.17271431 0.15848894 0.32643685 0.036350787 -0.014928122
-0.036623664 0.20891844 -0.07557398 -0.0015123202 0.15527481 -0.17894012 -0.12904327 0.0010524227
0.18344441 -0.19198066 0.094378285 0.16601361 -0.17283644 0.26034427 0.15890795 -0.32692793
-0.12496417 0.06267998 -0.15741725 0.08678774 0.101351015 -0.18398479 0.0687969 0.22019112
-0.010207088 -0.01672919 -0.09670807 0.13963029 0.03750142 0.14130649 -0.025388302 -0.18733683
-0.113354295 0.27974012 -0.06820366 0.21511959 0.10903998 0.18055849 -0.12556516 -0.20395614
0.15203068 -0.09258503 0.07658086 -0.29938784 0.11260973 0.0074037337 0.11145803 0.20975946
0.20221281 -0.08639617 0.08149992 0.016837861 0.048073452 0.16392796 -0.025132786 -0.1861696
0.39072084 -0.03126502 -0.13660035 0.28073233 0.1740403 -0.056001395 -0.115823925 0.06141442
-0.17546822 -0.13870075 -0.1564804 -0.071569726 0.08809951 -0.17831397 0.12130768 -0.022418922
-0.066860706 0.15929995 0.14961946 0.051667422 0.06258561 0.038480926 0.18635243 0.18442836
0.055126637 0.45794582 0.19404574 0.57316285 0.2826006 0.036979895 -0.12957622 -0.11137023
-0.18349986 0.19900131 -0.49217853 -0.3792709 -0.43515146 -0.394769 0.056000132 -0.13868538
-0.12847047 0.09278303 -0.0029395495 0.10821144 0.06468652 0.08808493 -0.16642728 0.016056664
-0.25951487 -0.20160536 0.13384566 0.17597683 0.18549584 0.20015413 0.09921117 0.1342736
-0.15582907 0.115099065 -0.2771493 -0.12319271 0.09604493 0.23689795 0.039386783 0.0031314916
-0.046983153 0.082058154 0.09725123 0.13883743 0.18932551 0.15101182 0.22505987 0.045046926
-0.10391275 0.19238245 0.18242696 -0.31885248 0.093208626 -0.071084276 0.18520431 0.07467095
0.08024347 0.1000565 -0.04817178 -0.3828464 0.1479221 -0.035074573 0.23170775 0.22632158
00000000: ca66 703e 81b8 57bd cffb 423d 6b71 2e3f
00000010: 52ab 5cbd a8dc 843e ad8a 8dbe 69ad c1be
00000020: e353 fc3c 73c6 75bd b4f7 0bbe a96d c93e
00000030: f563 48be 14b4 8fbe 7493 1bbd 2ea2 a33d
00000040: 819d 3e3c 544a 26be 366d 11bd f18b edbc
00000050: d58e 033e c8b3 fe3d dc40 153e ebbe 113e
00000060: cc72 7d3d 1ad4 6e3d 4fe0 0e3d 69e3 003f
00000070: 67fd 0fbd e09e 1c3e d04f dbbd 7e76 cb3d
00000080: 2129 14be 417d 25be 294b 553e 8e1a 18bf
00000090: 4f79 f23c 5737 3f3c 053c 293e eb64 fabd
000000a0: 9e2e 23be 3724 d33d b7b8 9abd 9402 28bd
000000b0: 005a f23c 95c2 97bd f1c7 9ebd 5c16 2e3d
000000c0: 67d3 763d dc30 16bf 9f0c 89bd 34fe b9bd
000000d0: c317 3e3d 36fd b53d 25c6 913c 5806 4fbd
000000e0: f8d8 28be 8bdc 853e ab07 823e f44e 5dbd
000000f0: 40e5 a8be ab58 0bbe 1677 4b3e 5455 9b3d
00000100: b252 843b 072a 653e 92a7 87bd c891 03be
00000110: ee0c adbd 581d 75be 4663 f5bd 39b5 d53d
00000120: 61b3 2abe 6d8f 0fbf 4102 a53d c2c3 963e
00000130: 5f03 47be 4556 4d3e 41f4 17be 2e35 39bd
00000140: f203 f43d 0910 823e a04b 2e3e c631 ba3d
00000150: 1adb 403e c576 e4bd b1e1 e3bc 3b2c 30be
00000160: 0e06 483d 1819 bd3c d775 7abe d548 52be
00000170: c6ed 2dbd 27c9 85be cd8f d63a 2e41 233e
00000180: eb22 783d 03c3 49be 580b e63d 3d29 f73e
00000190: 7751 c33d 103b 803e 7d15 573e 2bb9 f03c
000001a0: d60b 6b3e 29b5 bd3d 0d5a 06be 05dc 30be
000001b0: ed4a 223e bb22 a73e 90e4 143d 1595 74bc
000001c0: b202 16bd b7ee 553e 88c6 9abd 0c39 c6ba
000001d0: 5c00 1f3e 143c 37be eb23 04be 72f1 893a
000001e0: dad8 3b3e 9496 44be 6749 c13d 79ff 293e
000001f0: 09fc 30be d84b 853e c4b8 223e 1963 a7be
00000200: 37ed ffbd 5d5e 803d fd31 21be c5bd b13d
00000210: 1f91 cf3d 8266 3cbe 64e5 8c3d c879 613e
00000220: a13b 27bc a70b 89bc e10e c6bd 3efb 0e3e
00000230: 179b 193d a6b2 103e 21fb cfbc 3ad5 3fbe
00000240: 4c26 e8bd 193a 8f3e 5cae 8bbd 4f48 5c3e
00000250: 5a50 df3d 53e4 383e 2794 00be e1d9 50be
00000260: eead 1b3e 389d bdbd 6dd6 9c3d 5d49 99be
00000270: ee9f e63d 059b f23b 1c44 e43d 2fcb 563e
00000280: e010 4f3e 7af0 b0bd 6ee9 a63d 8eef 893c
00000290: abe8 443d bbdc 273e 46e3 cdbc 3ea3 3ebe
000002a0: 900c c83e c00f 00bd f6e0 0bbe 26bc 8f3e
000002b0: 9f37 323e b861 65bd 1835 edbd b08d 7b3d
000002c0: f1ad 33be 9207 0ebe 663c 20be 2693 92bd
000002d0: 846d b43d f097 36be 2970 f83d e3a7 b7bc
000002e0: 44ee 88bd 871f 233e d835 193e 38a1 533d
000002f0: e22c 803d 2d9e 1d3d 2cd3 3e3e cada 3c3e
00000300: 78cc 613d e077 ea3e edb3 463e cdba 123f
00000310: 07b1 903e 3b78 173d a1af 04be 1316 e4bd
00000320: 63e7 3bbe 00c7 4b3e d3fe fbbe cc2f c2be
00000330: 2ccc debe 2a1f cabe 6560 653d 8a03 0ebe
00000340: c38d 03be 0705 be3d 75a5 40bb f69d dd3d
00000350: 5e7a 843d df65 b43d ea6b 2abe 4489 833c
00000360: 22df 84be a371 4ebe d60e 093e 4533 343e
00000370: 9ff2 3d3e 34f5 4c3e 3a2f cb3d 057f 093e
00000380: a891 1fbe 0fb9 eb3d 83e6 8dbe 764c fcbd
00000390: 34b3 c43d 6095 723e 0954 213d b639 4d3b
000003a0: 6871 40bd 1b0e a83d a72b c73d 662b 0e3e
000003b0: 8cde 413e d8a2 1a3e 1876 663e 2083 383d
000003c0: 35d0 d4bd e8ff 443e 22ce 3a3e a240 a3be
000003d0: 2ae4 be3d a294 91bd 33a6 3d3e 15ed 983d
000003e0: b056 a43d 6cea cc3d c64f 45bd 7104 c4be
000003f0: e478 173e 5baa 0fbd cc44 6d3e d8c0 673e

net.0.bias f4 [50]
0.00035750296 0.0009669926 0.13189141 0.09068404 0.21506612 0.041058276 0.10221401 -0.01783027
-0.09769703 -0.10850851 -0.20451534 -0.19064154 0.041157957 0.017421203 0.066948004 -0.16182728
-0.014823481 -0.06751981 0.23554458 0.077035666 -0.0702679 -0.13143604 0.13239229 0.03894165
0.1449798 0.17083703 -0.026091859 -0.043280955 -0.17275213 0.11244889 -0.09624819 0.02487086
-0.16860135 -0.13749728 -0.12483847 0.09182211 -0.014827014 0.044186573 -0.10462747 0.051697344
0.124852255 -0.019920047 -0.05905765 0.13251358 -0.115816854 -0.12673277 -0.0786644 -0.004277716
0.055738173 0.072968714
00000000: 3c6f bb39 c67d 7d3a 8b0e 073e 8eb8 b93d
00000010: 4b3a 5c3e b92c 283d 9455 d13d c910 92bc
00000020: 6115 c8bd b639 debd 786c 51be 8937 43be
00000030: 3f95 283d e9b6 8e3c 091c 893d 0db6 25be
00000040: 30de 72bc d347 8abd 9932 713e e0c4 9d3d
00000050: 9ee8 8fbd 2b97 06be d891 073e 4881 1f3d
00000060: 9675 143e e7ef 2e3e 98be d5bc 5f47 31bd
00000070: efe5 30be 9b4b e63d c51d c5bd f9bd cb3c
00000080: d5a5 2cbe 16cc 0cbe 50ab ffbd 3b0d bc3d
00000090: 01ed 72bc fbfc 343d ed46 d6bd 98c0 533d
000000a0: 8ab2 ff3d 5e2f a3bc 6fe6 71bd a4b1 073e
000000b0: 6331 edbd 3cc6 01be cd1a a1bd 152c 8cbb
000000c0: b64d 643d 9f70 953d

net.2.weight f4 [50, 50]
0.02827609 0.04021201 -0.2051946 -0.07011577 0.07824106 -0.0012705231 -0.107365035 0.23867264
0.20361435 -0.07959768 0.21929884 0.14204621 -0.22551697 -0.08194241 -0.011043066 0.1637797
0.20709263 -0.057290934 -0.19640426 0.0897206 -0.10906989 -0.002315616 -0.10883419 -0.05701934
-0.06643704 0.09786278 -0.11845231 -0.019459492 0.1101319 -0.17264092 -0.04193456 0.055478126
-0.05948137 -0.027352024 -0.016907144 -0.11272548 0.049561363 0.08779405 -0.30796245 -0.0011067507
0.012449139 0.031412184 -0.043110568 -0.13018025 -0.11053363 0.2815904 0.20553131 0.11817913
0.07691752 0.26290268 0.17545608 -0.10547363 0.40503097 0.08845106 0.020421036 0.19154932
-0.015619352 -0.1886941 0.4213554 -0.07231466 -0.12599736 -0.02920488 0.022008158 0.03995974
-0.098319545 -0.12346945 -0.16001481 0.103694744 -0.22104463 -0.12212453 0.071890466 0.1843952
0.3649241 0.073578835 -0.08413424 0.067540266 -0.12184442 -0.08408641 -0.12739667 -0.09584308
0.024821857 0.074459285 -0.26195124 -0.006735651 -0.014714951 0.00043208257 -0.23303281 0.28402588
-0.06691444 0.109014615 -0.052750118 -0.04350264 0.05513131 -0.048837148 -0.3456058 -0.35914606
0.23954667 -0.058736287 -0.1114301 -0.16256817 0.09458642 -0.19345827 -0.08276514 0.052704874
-0.054742783 -0.10187857 -0.14331546 0.01919367 0.10249269 -0.040506143 -0.014934899 0.1174168
-0.050726708 0.046133403 0.09782872 0.09173531 0.092472896 0.14744188 -0.1024284 -0.2587101
-0.20330867 -0.0091487365 0.08204222 0.048404448 0.20948073 0.11216282 -0.028461363 -0.032144148
0.032170612 0.14417303 -0.0212233 -0.10306925 0.2033008 0.13257818 -0.11987641 0.21768802
0.13532145 -0.18057092 0.026013996 0.13596024 0.0038117433 -0.2386043 0.039338477 0.021017326
0.02021127 0.093916275 -0.077704296 0.04302692 0.16495036 0.012022176 -0.2367658 0.06673208
-0.13009623 0.03472822 -0.12208492 -0.031635176 -0.05980578 -0.15483856 -0.23055556 -0.07793327
0.03716544 0.21984626 -0.15600896 -0.09790745 0.030820224 0.538381 0.28852186 -0.15862782
-0.07962784 0.3466744 0.09481637 0.052618943 -0.24386823 -0.07359757 -0.120184466 0.11095799
0.14756775 -0.19368893 0.09085409 -0.008080866 -0.15507393 -0.034355238 -0.054800108 0.12888516
-0.3204594 -0.009075689 -0.026576584 -0.1395895 -0.2400667 -0.42228135 0.0644151 -0.09257047
0.09392507 0.15277113 -0.32298508 -0.14061905 0.037181467 0.041772697 0.24665745 0.31685275
0.06378563 -0.04703899 0.06541191 0.09916239 -0.07991323 0.037855282 -0.06333672 0.019568019
0.044305038 -0.0454138 0.058225233 0.10265377 -0.14826171 -0.19332874 0.17558256 0.10846885
-0.27412564 -8.020973e-05 -0.03013123 -0.08015667 -0.16575769 -0.29021147 0.16623576 0.05237614
0.1077136 -0.058736987 -0.1269578 0.20824802 0.0828173 0.1596636 -0.08138856 -0.080399066
0.0736317 0.11936416 0.119993165 0.03845426 0.040690456 -0.1547092 -0.025782004 -0.1355096
-0.09678404 -0.12462812 -0.0637862 0.008827455 0.057940856 -0.03738538 0.02492622 0.16460602
0.28561208 0.09423975 0.14701729 -0.0377641 -0.009346954 -0.098220356 0.06943331 -0.12087017
00000000: 42a3 e73c 59b5 243d 891e 52be db98 8fbd
00000010: d93c a03d ae87 a6ba 33e2 dbbd 9a66 743e
00000020: 4880 503e 1c04 a3bd e08f 603e 9074 113e
00000030: eced 66be 6cd1 a7bd faed 34bc deb5 273e
00000040: 1710 543e e6a9 6abd 331e 49be 6fbf b73d
00000050: 0960 dfbd 97c1 17bb 76e4 debd 1d8d 69bd
00000060: 2510 88bd 486c c83d 2097 f2bd 8369 9fbc
00000070: d58c e13d c8c8 30be 93c3 2bbd 083d 633d
00000080: bda2 73bd 5a11 e0bc da80 8abc 9edc e6bd
00000090: db00 4b3d 5ecd b33d 41ad 9dbe 6410 91ba
000000a0: 79f7 4b3c 10aa 003d b594 30bd f94d 05be
000000b0: 755f e2bd 9e2c 903e cd76 523e e607 f23d
000000c0: ef86 9d3d 2e9b 863e c2aa 333e 8f02 d8bd
000000d0: 3860 cf3e d425 b53d 044a a73c 8125 443e
000000e0: 50e8 7fbc 0739 41be e5bb d73e b519 94bd
000000f0: 7405 01be 133f efbc 744a b43c d3ac 233d
00000100: c25b c9bd 8ddd fcbd ecda 23be e95d d43d
00000110: 8659 62be 6d1c fabd 4f3b 933d 18d2 3c3e
00000120: 55d7 ba3e 80b0 963d 934e acbd 8d52 8a3d
00000130: 9189 f9bd 7f35 acbd 4674 02be 6049 c4bd
00000140: 3557 cb3c 1c7e 983d 791e 86be bcb6 dcbb
00000150: fa16 71bc 2489 e239 27a0 6ebe d76b 913e
00000160: 700a 89bd 0e43 df3d 8210 58bd d32f 32bd
00000170: 5ed1 613d 7609 48bd 3ef3 b0be fee1 b7be
00000180: b94b 753e 7695 70bd 7735 e4bd 4578 26be
00000190: 86b6 c13d ed19 46be c580 a9bd 11e1 573d
000001a0: f839 60bd b6a5 d0bd 4ac1 12be 0b3c 9d3c
000001b0: b0e7 d13d c5e9 25bd 82b1 74bc 3878 f03d
000001c0: cfc6 4fbd 61f6 3c3d 6d5a c83d b9df bb3d
000001d0: 6e62 bd3d 01fb 163e fbc5 d1bd a675 84be
000001e0: 2630 50be 95e4 15bc c005 a83d be43 463d
000001f0: 1e82 563e 9fb5 e53d ce27 e9bc 95a9 03bd
00000200: 55c5 033d 18a2 133e 7cdc adbc f915 d3bd
00000210: 162e 503e 93c2 073e c381 f5bd 9ce9 5e3e
00000220: b591 0a3e 95e7 38be 4e1b d53c 2939 0b3e
00000230: 71ce 793b b054 74be 6221 213d 872c ac3c
00000240: 1b92 a53c 2d57 c03d 6e23 9fbd ff3c 303d
00000250: bfe8 283e a9f8 443c bc72 72be d4aa 883d
00000260: f237 05be 2e3f 0e3d a907 fabd e393 01bd
00000270: e8f6 74bd 008e 1ebe c216 6cbe 7a9b 9fbd
00000280: ca3a 183d 611f 613e d0c0 1fbe b383 c8bd
00000290: b27a fc3c 56d3 093f 23b9 933e 556f 22be
000002a0: ec13 a3bd 4f7f b13e 162f c23d f686 573d
000002b0: 98b8 79be 53ba 96bd 4623 f6bd f13d e33d
000002c0: 001c 173e 6456 46be b611 ba3d 9c65 04bc
000002d0: b3cb 1ebe 14b8 0cbd 1476 60bd 79fa 033e
000002e0: 4113 a4be 33b2 14bc 23b7 d9bc 8df0 0ebe
000002f0: 0cd4 75be 4335 d8be 10ec 833d 9695 bdbd
00000300: c95b c03d 0970 1c3e 4d5e a5be 71fe 0fbe
00000310: 984b 183d d919 2b3d c593 7c3e 863a a23e
00000320: 0aa2 823d f5ab 40bd aef6 853d a715 cb3d
00000330: 8ca9 a3bd 240e 1b3d afb6 81bd 1c4d a03c
00000340: 3379 353d d203 3abd 957d 6e3d 243c d23d
00000350: ebd1 17be f8f7 45be eacb 333e eb24 de3d
00000360: 325a 8cbe 4536 a8b8 c5d5 f6bc 2e29 a4bd
00000370: 62bc 29be 9996 94be b539 2a3e 5d88 563d
00000380: f398 dc3d 3296 70bd 3a01 02be f83e 553e
00000390: 1e9c a93d db7e 233e 0caf a6bd 44a8 a4bd
000003a0: 37cc 963d 3275 f43d fabe f53d 3782 1d3d
000003b0: 09ab 263d 176c 1ebe c834 d3bc 07c3 0abe
000003c0: b636 c6bd 073d ffbd 57a2 82bd 08a1 103c
000003d0: 6453 6d3d 6a21 19bd 1232 cc3c 7b8e 283e
000003e0: bf3b 923e c500 c13d b38b 163e 87ae 1abd
000003f0: f723 19bc c127 c9bd 0d33 8e3d c88a f7bd

net.2.bias f4 [50]
-0.06820002 -0.02473036 -0.0659606 0.0870283 0.070167795 0.18182139 0.13260955 0.08322048
-0.10252904 0.065051824 0.16066948 -0.04037035 0.18377014 -0.11401932 0.03895623 0.015180489
0.040879965 -0.16667347 -0.17384125 -0.037709046 -0.009287082 -0.091431014 -0.052839722 0.06822937
0.12102431 -0.0916184 -0.077971905 -0.0023657081 0.1769572 -0.054650843 -0.14195092 0.020191716
0.084182374 0.18006396 0.01468061 0.15188655 -0.089609586 0.017243212 0.09441 -0.11166984
-0.08337658 -0.10828546 -0.07439997 -0.10101692 0.007294263 0.09296194 -0.13027225 0.061146423
-0.11607849 0.039902024
00000000: 74ac 8bbd 5397 cabc 5a16 87bd e53b b23d
00000010: 22b4 8f3d 632f 3a3e ccca 073e 806f aa3d
00000020: bffa d1bd e439 853d 8a86 243e 615b 25bd
00000030: 3d2e 3c3e f682 e9bd 9190 1f3d 96b7 783c
00000040: c071 273d 73ac 2abe 7103 32be cd74 1abd
00000050: d828 18bc 2f40 bbbd 776e 58bd d7bb 8b3d
00000060: 98db f73d 6da2 bbbd bcaf 9fbd ff09 1bbb
00000070: 4534 353e 90d9 5fbd 955b 11be 1969 a53c
00000080: cf67 ac3d b062 383e f186 703c 2688 1b3e
00000090: 3b85 b7bd a341 8d3c 085a c13d 28b3 e4bd
000000a0: 57c1 aabd c4c4 ddbd 035f 98bd f5e1 cebd
000000b0: b704 ef3b d462 be3d 1766 05be ac74 7a3d
000000c0: 8fba edbd 4e70 233d

net.4.weight f4 [50, 50]
0.08190077 0.0048035327 -0.12546359 -0.009368142 -0.050223153 -0.07108307 0.16318446 0.0118756285
-0.08898391 -0.14459176 0.0071563004 0.07234268 0.10815343 -0.122095324 -0.020065252 -0.13183455
0.1947398 -0.13460569 -0.026527554 -0.012237372 0.08018192 -0.15651344 0.054798074 -0.13452607
-0.09635159 -0.069795504 0.017949255 0.03723912 -0.014882891 -0.10794307 0.0076633925 0.06287181
0.21064381 0.047495257 -0.028761731 0.027163051 -0.016233103 -0.13536006 -0.023608735 -0.075275406
-0.07089788 -0.09699707 -0.09969829 -0.017364396 -0.28851682 0.18528003 0.0502308 -0.09825364
0.110314585 0.0864213 -0.08528082 -0.08112525 -0.013723533 0.050776023 -0.10427034 -0.05026906
-0.014608043 -0.028625138 -0.05474334 -0.09491079 0.07989745 -0.06732136 -0.104682595 0.050180238
0.11423103 0.08135469 -0.11636674 -0.025696954 -0.07037274 0.0663855 0.045483623 0.0765253
-0.1310732 -0.00016276594 0.09740523 0.0065788967 0.03440568 -0.16156076 0.16484447 0.1802065
-0.17025359 -0.2570808 0.066004045 0.1373961 0.1336199 -0.20881636 0.008338778 0.16625148
-0.19356413 0.22684075 -0.20082055 -0.0032391455 0.025760628 0.17883554 -0.09563917 0.13034786
0.09377458 -0.13723642 -0.011545702 -0.02906725 -0.12338086 0.031910323 -0.16894889 0.08781155
0.007449909 0.022604898 0.07171433 -0.18481691 0.104180366 -0.055681463 -0.15366784 -0.11539755
-0.03034674 0.10131644 0.04804571 0.21955559 0.14819652 0.08705955 -0.011471396 0.0051590567
0.19018863 0.081818454 -0.0026856842 -0.30185655 -0.13936816 -0.010479626 -0.15703207 -0.19939366
0.0063264873 0.15329757 0.07832358 -0.019856637 0.1436485 -0.05776469 0.25332567 -0.13720648
0.014495306 0.20919937 -0.18379205 0.346596 0.035678014 -0.14300194 0.013703812 0.114172384
-0.19584078 -0.06879668 -0.03471169 -0.06588748 -0.10774838 -0.27132306 0.1569571 0.048370626
-0.12025457 0.16697021 0.0009832673 -0.18697682 -0.04024304 0.092828386 0.035076365 -0.006481202
-0.11490787 -0.117884405 -0.18968447 -0.06768298 0.12671909 -0.09662011 -0.11810656 0.14258352
0.19194964 -0.009359176 -0.09430298 0.07544615 -0.11646366 0.12412857 -0.15007101 0.06326855
0.034580696 0.08034898 -0.081124686 0.12555957 -0.16017465 0.112461194 -0.087116875 0.031269137
-0.018858323 0.08585088 0.041726936 0.08300395 -0.039555594 -0.023214389 0.060983837 0.014032438
0.027384123 0.17248087 0.12696427 0.05481176 0.19206734 -0.031650428 -0.042512685 -0.01442609
0.06338261 -0.19301999 -0.11785719 -0.058542453 0.024458108 -0.034490976 -0.10369595 -0.09141839
0.11829952 0.056657884 -0.00031570529 0.11046455 -0.18142839 0.17657603 0.02787753 0.18374357
-0.0720732 0.15419714 -0.014186611 -0.001296191 0.032703977 0.087569825 -0.044692785 -0.078700304
-0.1842369 -0.02415884 -0.13028575 0.013850803 0.023996593 0.022512581 0.075705834 0.062026523
-0.0809746 -0.09517099 0.07870559 -0.009891341 -0.05000908 -0.07045814 0.025767982 0.08403425
0.19230163 -0.027703902 -0.04586083 -0.05635702 -0.041858118 -0.07328793 0.06639069 0.048164546
-0.12900849 -0.07333758 -0.07438436 0.09581136 -0.043945536 0.2824444 0.1128759 -0.006456604
00000000: 97bb a73d f466 9d3b 8779 00be d67c 19bc
00000010: cbb6 4dbd 0094 91bd d419 273e ff91 423c
00000020: 323d b6bd dd0f 14be 667f ea3b 6628 943d
00000030: 8c7f dd3d 1d0d fabd e25f a4bc a3ff 06be
00000040: df69 473e 13d6 09be 5050 d9bc 427f 48bc
00000050: 6b36 a43d 0f45 20be f273 603d 34c1 09be
00000060: fb53 c5bd f2f0 8ebd 510a 933c 0c88 183d
00000070: 5fd7 73bc 4211 ddbd 321d fb3b efc2 803d
00000080: 03b3 573e 638a 423d b99d ebbc 0c85 de3c
00000090: 49fb 84bc d49b 0abe 1b67 c1bc fe29 9abd
000000a0: e832 91bd 66a6 c6bd 9e2e ccbd c73f 8ebc
000000b0: 7ab8 93be 0cba 3d3e d0be 4d3d 3439 c9bd
000000c0: 9dec e13d a7fd b03d b6a7 aebd ff24 a6bd
000000d0: abd8 60bc 85fa 4f3d b08b d5bd eee6 4dbd
000000e0: 9356 6fbc 447f eabc 8d3a 60bd 9760 c2bd
000000f0: 46a1 a33d c8df 89bd d463 d6bd cb89 4d3d
00000100: f5f1 e93d 4a9d a63d af51 eebd 6b82 d2bc
00000110: 951f 90bd 1ff5 873d 094d 3a3d 4cb9 9c3d
00000120: 0e38 06be 26ac 2ab9 657c c73d c993 d73b
00000130: f8ec 0c3d 2f70 25be fdcc 283e 0e88 383e
00000140: f556 2ebe 18a0 83be 212d 873d 90b1 0c3e
00000150: a8d3 083e f5d3 55be 5f9f 083c d43d 2a3e
00000160: ad35 46be f148 683e e7a3 4dbe d847 54bb
00000170: f407 d33c aa20 373e 78de c3bd e979 053e
00000180: e30c c03d b487 0cbe 2f2a 3dbc 711e eebc
00000190: 1baf fcbd 66b4 023d f000 2dbe 8bd6 b33d
000001a0: 5e1e f43b e82d b93c f6de 923d a540 3dbe
000001b0: 845c d53d 3f12 64bd 1a5b 1dbe 8d55 ecbd
000001c0: ba99 f8bc fe7e cf3d 94cb 443d 2ed3 603e
000001d0: d4c0 173e 474c b23d 86f2 3bbc 4e0d a93b
000001e0: cfc0 423e 6f90 a73d 4e02 30bb f18c 9abe
000001f0: 87b6 0ebe bdb2 2bbc 04cd 20be da2d 4cbe
00000200: 6c4e cf3b 0afa 1c3e 1d68 a03d 63aa a2bc
00000210: 9818 133e ab9a 6cbd e7b3 813e db7f 0cbe
00000220: b87d 6d3c 5c38 563e fc33 3cbe 0875 b13e
00000230: 1c23 123d 1a6f 12be f485 603c 36d3 e93d
00000240: 7c8a 48be 46e5 8cbd d82d 0ebd 04f0 86bd
00000250: 2fab dcbd dbea 8abe 5db9 203e 4720 463d
00000260: 0748 f6bd 3dfa 2a3e fae0 803a da76 3fbe
00000270: e3d5 24bd cf1c be3d 3cac 0f3d 4360 d4bb
00000280: d154 ebbd 616d f1bd a53c 42be 609d 8abd
00000290: a6c2 013e c4e0 c5bd dae1 f1bd 6a01 123e
000002a0: 728e 443e 3b57 19bc ec21 c1bd 8383 9a3d
000002b0: 8084 eebd 1f37 fe3d 37ac 19be f192 813d
000002c0: 7da4 0d3d 028e a43d b324 a6bd b092 003e
000002d0: d304 24be 0e52 e63d 556a b2bd 1114 003d
000002e0: c57c 9abc 96d2 af3d dde9 2a3d fafd a93d
000002f0: 0c05 22bd 1a2c bebc 30ca 793d 50e8 653c
00000300: ab54 e03c d39e 303e ec02 023e 4c82 603d
00000310: 4dad 443e e1a3 01bd c821 2ebd 685b 6cbc
00000320: bece 813d 08a7 45be 1c5f f1bd 36ca 6fbd
00000330: 5f5c c83c 6946 0dbd 8b5e d4bd 9139 bbbd
00000340: 0547 f23d 1912 683d 3f85 a5b9 3d3b e23d
00000350: 5dc8 39be 59d0 343e 6b5f e43c 4627 3c3e
00000360: 1d9b 93bd dbe5 1d3e f66e 68bc f4e4 a9ba
00000370: 9bf4 053d cf57 b33d c80f 37bd a02d a1bd
00000380: 99a8 3cbe c2e8 c5bc a169 05be 7aee 623c
00000390: 8194 c43c 4e6c b83c a90b 9b3d 860f 7e3d
000003a0: 03d6 a5bd 02e9 c2bd 6530 a13d 4b0f 22bc
000003b0: 52d6 4cbd 5b4c 90bd 6017 d33c 261a ac3d
000003c0: b8ea 443e 4bf3 e2bc 91d8 3bbd 9ed6 66bd
000003d0: 6b73 2bbd fb17 96bd d8f7 873d 3048 453d
000003e0: cd1a 04be 0332 96bd d456 98bd bf38 c43d
000003f0: 3c00 34bd 8d9c 903e 7b2b e73d ec91 d3bb

net.4.bias f4 [50]
-0.0011567374 0.07554382 -0.022815358 -0.10049991 -0.08091112 -0.09572881 0.08484489 -0.033667114
0.049876805 0.14280716 -0.04766095 0.1003594 0.021923361 0.0076490147 -0.053747714 -0.12678401
-0.14871646 0.14883253 0.07430102 -0.0005049966 0.055515893 0.12457834 -0.20740004 0.024098717
-0.049563915 -0.10560395 0.03104834 -0.0057669245 0.05578283 -0.14337188 -0.07291807 -0.13028784
-0.07448552 0.027883766 0.16159104 -0.027340515 -0.14882569 -0.07650985 0.05746019 0.107040904
0.06377061 0.110075235 -0.023395732 -0.10974357 0.04908534 -0.032528877 -0.052544888 -0.023586815
0.15849333 0.09889374
00000000: ab9d 97ba b8b6 9a3d 46e7 babc e6d2 cdbd
00000010: bbb4 a5bd 770d c4bd 28c3 ad3d 87e6 09bd
00000020: 9f4b 4c3d 0a3c 123e 2138 43bd 3b89 cd3d
00000030: 9f98 b33c 96a4 fa3b 9026 5cbd abd3 01be
00000040: 2149 18be 8e67 183e 222b 983d c061 04ba
00000050: a264 633d ee22 ff3d ad60 54be ac6a c53c
00000060: 8803 4bbd e246 d8bd 1759 fe3c 78f8 bcbb
00000070: 897c 643d 14d0 12be 1256 95bd 2d6a 05be
00000080: dd8b 98bd 7f6c e43c 1f78 253e 37f9 dfbc
00000090: c365 18be 32b1 9cbd 605b 6b3d 4338 db3d
000000a0: 2a9a 823d 206f e13d 68a8 bfbc 3dc1 e0bd
000000b0: b60d 493d 003d 05bd 4f39 57bd 2339 c1bc
000000c0: 134c 223e cd88 ca3d

net.6.weight f4 [4, 50]
-0.10338046 0.25022733 0.2560925 0.23502815 0.15769368 0.07228777 -0.029107869 0.04407665
0.13839248 -0.37962502 0.07604003 -0.11821205 0.29822525 -0.08044817 0.045175634 -0.22734056
0.08974645 -0.0036052924 -0.13572593 0.109245844 -0.12919046 0.0858801 0.2556023 -0.1074974
-0.15533337 -0.011994862 -0.18283959 -0.12615478 -0.31898308 0.0026035055 0.04070086 -0.026951017
0.18598452 -0.23792815 0.040280543 0.11737201 0.09523479 -0.21739289 0.124816924 0.18809408
-0.23181844 -0.09432082 0.14247435 -0.2179164 0.19885813 0.16188233 -0.21761869 -0.08791906
-0.25539613 -0.23414603 0.08436155 0.10577415 -0.10379712 -0.04968829 -0.19133681 0.14919825
-0.13609356 -0.0471938 -0.0019874456 -0.0258587 0.1663606 0.14244841 0.016922992 0.14834043
-0.16976656 -0.07392774 -0.11196019 0.19323526 -0.12601955 -0.12526672 0.19113092 0.12741865
-0.018542789 -0.0773698 -0.07461394 -0.1698443 -0.14809853 0.13965699 0.1376365 -0.17645822
0.17070971 -0.14506628 0.13668682 -0.12803724 0.17043234 0.18358134 -0.06873871 0.16214322
-0.14393759 0.22868818 0.08202793 0.032230478 0.0061551724 0.098568216 -0.09597518 -0.106650755
0.12158972 -0.17961606 0.017592689 -0.12798373 -0.06543275 -0.08625216 -0.16333574 0.06686309
0.028338673 -0.16910535 0.12216286 0.022714103 0.3589639 0.10755889 -0.05894198 0.14252505
0.04616336 -0.14532675 -0.08595669 0.35097173 -0.00016173105 0.14882638 0.2637477 0.048825998
0.13949904 -0.19369075 -0.35704294 0.35958174 0.05935178 -0.010071945 -0.07675975 -0.15544447
-0.08667887 -0.18239088 0.21261145 -0.07419775 -0.018991593 -0.40492156 -0.11718501 -0.09440996
0.17299566 0.15007323 0.0183281 0.001182375 -0.08594876 -0.10728878 -0.115377896 -0.044167172
-0.07362537 -0.096831344 0.13416074 -0.15699409 0.22098105 0.0628686 -0.25680923 -0.124019526
-0.107216716 0.19477342 -0.018100247 0.10507452 0.06833026 -0.07620046 -0.13488561 -0.20273948
0.07240728 -0.13384743 -0.07330679 0.12589647 -0.023536723 -0.15992838 0.15608619 -0.07388973
-0.13170463 0.0038840922 -0.102138415 -0.17239489 0.11872509 0.2328315 0.35408112 -0.11300631
-0.12929986 -0.26021284 0.17357284 0.16652189 0.10235723 0.13325611 -0.13579415 -0.077078074
0.16929926 -0.16567272 -0.00011346201 -0.17754418 0.17003027 0.094635636 0.12370289 0.15057899
-0.12312951 -0.16763279 -0.18899417 0.0005459886 0.17337917 0.14260048 0.070794925 0.18453333
00000000: 22b9 d3bd cc1d 803e 8e1e 833e 38ab 703e
00000010: 747a 213e 9c0b 943d a073 eebc b889 343d
00000020: c2b6 0d3e 365e c2be e0ba 9b3d 2919 f2bd
00000030: fbb0 983e 03c2 a4bd 160a 393d f7cb 68be
00000040: fdcc b73d c546 6cbb bdfb 0abe 49bc df3d
00000050: 814a 04be e8e1 af3d 4ede 823e 9927 dcbd
00000060: b60f 1fbe 1986 44bc 4d3a 3bbe b82e 01be
00000070: c051 a3be 939f 2a3b f2b5 263d 61c8 dcbc
00000080: ba72 3e3e 70a3 73be 36fd 243d bd60 f03d
00000090: 750a c33d 3e9c 5ebe 04a0 ff3d bc9b 403e
000000a0: d061 6dbe 462b c1bd cce4 113e 7a25 5fbe
000000b0: 77a1 4b3e 7bc4 253e 6fd7 5ebe e80e b4bd
000000c0: 48c3 82be fac3 6fbe c0c5 ac3d 1ea0 d83d
000000d0: 9693 d4bd f385 4bbd cced 43be 6dc7 183e
000000e0: 1c5c 0bbe 494e 41bd ce3f 02bb a0d5 d3bc
000000f0: 6f5a 2a3e ffdd 113e 16a2 8a3c 8ee6 173e
00000100: 49d7 2dbe 6d67 97bd 624b e5bd 77df 453e
00000110: 450b 01be eb45 00be d3b7 433e 097a 023e
00000120: 0ce7 97bc 0f74 9ebd 32cf 98bd aaeb 2dbe
00000130: 24a7 17be 3e02 0f3e 95f0 0c3e 77b1 34be
00000140: 87ce 2e3e 418c 14be a1f7 0b3e 321c 03be
00000150: d185 2e3e bffc 3b3e e1c6 8cbd df08 263e
00000160: 6064 13be 3c2d 6a3e 42fe a73d 1b04 043d
00000170: 54b1 c93b 22de c93d a38e c4bd b66b dabd
00000180: 0804 f93d 46ed 37be 8b1e 903c 2b0e 03be
00000190: 9b01 86bd f9a4 b0bd 7c41 27be 84ef 883d
000001a0: 8126 e83c f429 2dbe 8630 fa3d ed12 ba3c
000001b0: 1eca b73e d647 dc3d 256d 71bd 16f2 113e
000001c0: cb15 3d3d 89d0 14be 100a b0bd 91b2 b33e
000001d0: 5996 29b9 f165 183e f009 873e c5fd 473d
000001e0: d6d8 0e3e de56 46be 55ce b6be 191b b83e
000001f0: da1a 733d cd04 25bc 3734 9dbd d62c 1fbe
00000200: b184 b1bd adc4 3abe d1b6 593e fdf4 97bd
00000210: 4294 9bbc e151 cfbe b2fe efbd 025a c1bd
00000220: c625 313e ccac 193e d024 963c ecf9 9a3a
00000230: e705 b0bd 38ba dbbd 3f4b ecbd a3e8 34bd
00000240: e6c8 96bd 834f c6bd 6f61 093e 0fc3 20be
00000250: db48 623e 41c1 803d 807c 83be f3fd fdbd
00000260: 7094 dbbd af72 473e f846 94bc 4f31 d73d
00000270: bcf0 8b3d fd0e 9cbd 741f 0abe f09a 4fbe
00000280: 454a 943d 4d0f 09be df21 96bd 01eb 003e
00000290: 16d0 c0bc 44c4 23be 0fd5 1f3e 8053 97bd
000002a0: 94dd 06be 418c 7e3b f22d d1bd 4988 30be
000002b0: 2426 f33d 616b 6e3e 1f4a b53e da6f e7bd
000002c0: 2f67 04be 9e3a 85be 14bd 313e b784 2a3e
000002d0: aba0 d13d 4a74 083e 9f0d 0bbe 1cdb 9dbd
000002e0: c95c 2d3e 1ca6 29be 74f2 edb8 24ce 35be
000002f0: 6a1c 2e3e 54d0 c13d f157 fd3d 6131 1a3e
00000300: 532b fcbd eea7 2bbe b087 41be ad20 0f3a
00000310: 4f8a 313e dc05 123e eefc 903d 4ef6 3c3e

net.6.bias f4 [4]
0.035473526 0.01039721 -0.056127135 -0.10618479
00000000: b04c 113d 0f59 2a3c 91e5 65bd 6977 d9bd
